benchmarks/MOABB/results/MotorImagery/BNCI2014001/leave-one-session-out/sub-001/1test/save/CKPT+2024-04-22+23-14-29+00/model.ckpt (torch, 435656 bytes, 15 tensors)

emb_module.shallownet.0.conv.bias f4 [61]
0.057410806 0.11060959 0.15320721 -0.06396602 -0.1629317 -0.019600848 -0.045149133 -0.11321149
0.029663315 0.06348495 -0.073588744 0.1389203 0.049687784 -0.058767468 -0.056371197 -0.04259179
-0.038983233 0.108497456 0.06908997 -0.12846217 -0.016532732 -0.047458008 -0.12075272 0.042558245
-0.01416031 0.08220469 0.00014662219 -0.032105114 0.07177988 -0.06896414 0.09786118 -0.021305265
0.049025647 -0.07074201 -0.0039915806 -0.1249714 -0.050537374 0.006357319 -0.09264179 0.1073748
-0.008972459 -0.12255694 0.019832175 0.091616556 -0.094478264 -0.119807914 0.049283247 -0.13765317
-0.072366014 -0.088423915 0.044406377 0.010692309 -0.08442698 0.12439443 0.10902078 0.11353109
-0.1184738 0.080193006 0.0065806834 0.026822159 0.07193644
00000000: 9827 6b3d 4887 e23d 5ae2 1c3e 9e00 83bd
00000010: 91d7 26be f591 a0bc 4cee 38bd 6ddb e7bd
00000020: 7b00 f33c 6604 823d b2b5 96bd 2041 0e3e
00000030: 6b85 4b3d 28b6 70bd 7ce5 66bd bb74 2ebd
00000040: e2ac 1fbd ea33 de3d 0b7f 8d3d 968b 03be
00000050: a76f 87bc 5463 42bd 344d f7bd 8e51 2e3d
00000060: a500 68bc ef5a a83d 98be 1939 a780 03bd
00000070: 5401 933d 123d 8dbd 716b c83d 6188 aebc
00000080: 1ecf 483d 30e1 90bd cecb 82bb 01f1 ffbd
00000090: 4700 4fbd 0f51 d03b fbba bdbd 52e7 db3d
000000a0: 3801 13bc 22ff fabd 1677 a23c 76a1 bb3d
000000b0: d27d c1bd da5d f5bd 3bdd 493d f4f4 0cbe
000000c0: a234 94bd 9917 b5bd 76e3 353d cb2e 2f3c
000000d0: 0de8 acbd 82c2 fe3d 4946 df3d fd82 e83d
000000e0: 64a2 f2bd 3b3c a43d c6a2 d73b 25ba db3c
000000f0: 6a53 933d

emb_module.shallownet.1.conv.weight f4 [64, 61, 1, 17]
-0.08381179 0.02810319 -0.037284225 0.034846548 -0.073683016 -0.1226808 0.00054543075 0.0680846
0.082410574 -0.04298875 -0.059190016 0.081098 0.1209934 0.030342251 0.13914302 0.058723353
0.08828714 0.17929271 -0.037191756 0.04175039 0.009863906 0.049898315 -0.02259276 -0.09669134
-0.017344326 0.027792763 0.036285676 -0.005577971 -0.027325677 0.046838637 0.013941939 0.030821038
-0.034152664 -0.024820467 0.10486853 -0.052689414 -0.01582233 0.0970989 0.0784336 0.0036774667
-0.056758743 0.019993106 0.08327453 0.0040224344 -0.12044437 0.00016120476 0.020672014 -0.07348707
0.030222667 -0.036476277 -0.08235646 0.037420664 0.035111405 0.03478621 -0.0862616 0.013893798
0.09963304 0.028932987 0.026426086 -0.008084958 0.055857968 0.052569848 0.03009995 -0.026702188
-0.021217175 -0.12603256 -0.113116995 -0.1306438 0.042618673 0.01947179 -0.037775625 -0.013043793
0.065093674 -0.00034537585 0.0014103303 -0.058385164 -0.040417995 -0.0013893938 -0.0407181 -0.08680588
-0.021043139 -0.05209702 -0.13386184 -0.1439231 -0.12981597 0.0128481975 0.02134855 0.05355924
-0.02219971 -0.00875033 0.028821371 0.0135630155 0.05223334 0.04948439 0.01899314 -0.04633396
0.06014167 -0.02440458 0.030464536 -0.059972823 -0.08477771 -0.03646117 -0.10512257 -0.004176687
-0.019510709 -0.021181118 -0.0621839 0.030331599 -0.009636085 0.014296461 0.06278024 0.047705337
0.037900645 0.06018781 0.010474971 0.06958519 0.033845253 -0.025628462 -0.06901982 -0.10723242
-0.052779138 -0.096899755 -0.06821498 -0.10650624 -0.06278567 0.0287531 -0.058710217 -0.03565671
-0.07923427 -0.07627619 0.011018007 0.005778972 -0.03887713 0.17098087 0.05261101 -0.017666733
0.074503995 0.02851107 0.00483026 0.053069267 0.06958741 -0.018533431 -0.060524743 -0.04709743
-0.03538749 0.014173909 -0.03792077 -0.10018256 0.046944506 -0.022110078 -0.021480247 0.0050107925
0.06678446 0.059762523 -0.041667413 0.08827069 0.022064248 0.03681028 0.08748548 -0.057208154
-0.026516233 0.0053035417 0.04172093 -0.01352554 -0.01777842 -0.058680784 0.035150647 -0.09247473
-0.15429614 -0.10424672 0.08130167 0.03551962 0.14673313 -0.009678208 0.036381375 -0.015990166
-0.018264975 0.037898686 -0.030636918 0.02443472 0.014211146 0.04127651 -0.022720164 -0.011159989
0.0006638264 -0.027404591 -0.069036506 0.023069011 0.017541451 -0.034126837 0.058999278 -0.01092228
-0.12022115 -0.032547526 -0.031645276 -0.0017378745 -0.09607927 -0.059892524 -0.093535185 0.062149514
-0.03006667 -0.0034498477 0.050600298 0.09143755 0.060186643 0.012631788 -0.023443598 0.08127666
0.08868027 0.021476183 -0.08023669 -0.015758602 -0.042794988 -0.014257276 0.04969717 -0.08074043
-0.023433138 -0.032149203 -0.08820223 0.01393878 0.07540762 0.029057652 0.091294385 0.030826675
0.11052892 0.061379094 0.046873502 0.14019608 0.027556714 0.04212488 0.016358968 -0.090486206
0.020214431 -0.012671104 -0.05156107 -0.03106097 -0.1334817 -0.08872968 0.03135165 -0.05316181
-0.093318775 -0.02837309 -0.02180062 -0.034137864 -0.050192375 -0.032327224 -0.04816719 0.019590864
0.06739917 -0.02719997 0.077829085 0.0119343735 -0.04478577 0.11753219 0.067188315 -0.018612238
00000000: 84a5 abbd a938 e63c 58b7 18bd 41bb 0e3d
00000010: 1fe7 96bd 1240 fbbd 3dfb 0e3a f06f 8b3d
00000020: e0c6 a83d f914 30bd 3b71 72bd b516 a63d
00000030: 63cb f73d 5090 f83c 827b 0e3e e687 703d
00000040: e3cf b43d 8298 373e 6256 18bd 7502 2b3d
00000050: 389c 213c 2d62 4c3d 7414 b9bc 1c06 c6bd
00000060: b015 8ebc a6ad e33c 4aa0 143d 6ac7 b6bb
00000070: 19da dfbc dfd9 3f3d bb6c 643c 677c fc3c
00000080: aae3 0bbd 4b54 cbbc 50c5 d63d dbd0 57bd
00000090: d59d 81bc cadb c63d cca1 a03d a701 713b
000000a0: db7b 68bd 95c8 a33c d68b aa3d a0ce 833b
000000b0: 8aab f6bd 1309 2939 5b58 a93c 6480 96bd
000000c0: 8795 f73c 2668 15bd 81aa a8bd 6946 193d
000000d0: fad0 0f3d fc7b 0e3d eca9 b0bd d0a2 633c
000000e0: 680c cc3d df04 ed3c 857b d83c c676 04bc
000000f0: 53cb 643d 7b53 573d 2c94 f63c 8cbe dabc
00000100: a4cf adbc ae0e 01be e2a9 e7bd 7dc7 05be
00000110: eb90 2e3d 4e83 9f3c 9dba 1abd a2b5 55bc
00000120: d54f 853d 9013 b5b9 d5da b83a 4825 6fbd
00000130: 578d 25bd 521c b6ba 06c8 26bd 48c7 b1bd
00000140: a962 acbc af63 55bd 1413 09be 9460 13be
00000150: 7aee 04be 3f81 523c 28e3 ae3c ef60 5b3d
00000160: 2bdc b5bc 8b5d 0fbc cc1a ec3c 6937 5e3c
00000170: a0f2 553d 25b0 4a3d 8097 9b3c aec8 3dbd
00000180: 1d57 763d 1dec c7bc c390 f93c 10a6 75bd
00000190: f09f adbd 4f58 15bd 814a d7bd 97dc 88bb
000001a0: ecd4 9fbc 0684 adbc 8cb4 7ebd f979 f83c
000001b0: abe0 1dbc b43b 6a3c ed92 803d ac66 433d
000001c0: b53d 1b3d 7e87 763d 369f 2b3c ae82 8e3d
000001d0: 52a1 0a3d c8f2 d1bc 435a 8dbd ac9c dbbd
000001e0: f02e 58bd 6173 c6bd 4cb4 8bbd f21f dabd
000001f0: c695 80bd 9f8b eb3c 207a 70bd c50c 12bd
00000200: 9445 a2bd b136 9cbd df84 343c 885d bd3b
00000210: a03d 1fbd 9c15 2f3e a47e 573d d3b9 90bc
00000220: 8d95 983d 0c90 e93c 2847 9e3b 295f 593d
00000230: d883 8e3d 6cd3 97bc cbe8 77bd 3ce9 40bd
00000240: 79f2 10bd af39 683c cf52 1bbd 842c cdbd
00000250: e248 403d 3220 b5bc 58f7 afbc 9331 a43b
00000260: 4ac6 883d 8cc9 743d 73ab 2abd 43c7 b43d
00000270: 15c0 b43c 60c6 163d 962b b33d 1953 6abd
00000280: 9238 d9bc 55c9 ad3b 91e3 2a3d 3a9a 5dbc
00000290: 0da4 91bc 435b 70bd 20fa 0f3d 6463 bdbd
000002a0: cfff 1dbe 4e7f d5bd 7d81 a63d 057d 113d
000002b0: 3641 163e 5991 1ebc a304 153d cffd 82bc
000002c0: 6ea0 95bc a73b 1b3d 46fa fabc 522b c83c
000002d0: ded5 683c 8f11 293d a31f babc 63d8 36bc
000002e0: a304 2e3a 987f e0bc 0363 8dbd 39fb bc3c
000002f0: 17b3 8f3c 95c8 0bbd 3aa9 713d 5df3 32bc
00000300: 8236 f6bd 8e50 05bd 7a9e 01bd 64c9 e3ba
00000310: 35c5 c4bd dd51 75bd 608f bfbd 7d90 7e3d
00000320: 614e f6bc d716 62bb 4242 4f3d 9c43 bb3d
00000330: 4586 763d 8ff5 4e3c ca0c c0bc 6174 a63d
00000340: 009e b53d d2ee af3c 2253 a4bd 2f18 81bc
00000350: cc49 2fbd 5a97 69bc 428f 4b3d 3d5b a5bd
00000360: daf6 bfbc e2ae 03bd 5fa3 b4bd 7b5f 643c
00000370: 4f6f 9a3d 500a ee3c 8df8 ba3d 3988 fc3c
00000380: fd5c e23d a568 7b3d 6efe 3f3d 908f 0f3e
00000390: 9ebe e13c 238b 2c3d 3e03 863c d550 b9bd
000003a0: bc98 a53c 769a 4fbc b331 53bd 9373 febc
000003b0: 6daf 08be e8b7 b5bd 966a 003d 33c0 59bd
000003c0: ea1d bfbd af6e e8bc 3797 b2bc 25d4 0bbd
000003d0: 8596 4dbd 8d69 04bd f64a 45bd 057d a03c
000003e0: 9308 8a3d 79d2 debc db64 9f3d 6488 433c
000003f0: 4971 37bd b8b4 f03d 079a 893d b178 98bc

emb_module.shallownet.1.conv.bias f4 [64]
0.030001018 0.01993125 0.007426195 0.032882836 0.03798732 0.015702194 0.007562932 -0.01129654
0.029038737 0.051716454 0.023090754 0.014975013 -0.0020855642 0.032576714 -0.0074393693 0.016204068
-3.8724636e-05 0.0016534136 -0.019726802 0.033377066 -0.02136555 0.04113532 0.04507389 -0.0036642659
0.06258638 -0.0003465409 0.0273205 0.024885505 0.02635248 -0.0014137634 0.014375798 0.01426762
0.0390841 -0.024613492 -0.005300599 -0.022267245 0.02040414 0.0125826625 0.034344055 0.03081001
-0.013676736 0.034834333 0.0027581141 -0.0015959153 0.013441792 0.043488286 -0.009869419 0.0512573
0.027619367 -0.0028660642 0.036635738 -0.002311936 -0.011337031 0.0035346898 0.0067135566 0.03524965
-0.002597482 0.0338084 0.044374637 0.043820158 0.018733962 0.0038098998 0.040800292 0.0028996374
00000000: b2c4 f53c dc46 a33c 7057 f33b 27b0 063d
00000010: 9898 1b3d e3a1 803c 79d2 f73b 1f15 39bc
00000020: a5e2 ed3c a2d4 533d d228 bd3c c259 753c
00000030: f6ad 08bb 296f 053d f4c5 f3bb 65be 843c
00000040: 436c 22b8 5bb7 d83a 1a9a a1bc 64b6 083d
00000050: ce06 afbc 827d 283d 669f 383d 2e24 70bb
00000060: 4a2d 803d efaf b5b9 3ecf df3c b0dc cb3c
00000070: 28e1 d73c 074e b9ba 7888 6b3c bcc2 693c
00000080: a616 203d 3ca2 c9bc a6b0 adbb cc69 b6bc
00000090: 9526 a73c 8327 4e3c 5aac 0c3d 4665 fc3c
000000a0: 6314 60bc 72ae 0e3d 7ac1 343b 082e d1ba
000000b0: f63a 5c3c c620 323d 58b3 21bc 2df3 513d
000000c0: 0342 e23c 94d4 3bbb 5b0f 163d da83 17bb
000000d0: f4be 39bc 41a6 673b 65fd db3b f061 103d
000000e0: 843a 2abb ad7a 0a3d 2ec2 353d c47c 333d
000000f0: f777 993c 83af 793b 351e 273d d807 3e3b

emb_module.shallownet.2.norm.weight f4 [64]
1.0204931 1.0007155 1.0123876 1.0564201 1.0021893 1.039073 1.0343266 1.0568411
1.0492702 1.0744737 1.0281882 1.0228487 1.0449849 0.9866978 1.0092398 1.0088161
1.0334469 1.0178685 1.0172037 1.0224001 1.0937054 1.0084456 1.0278667 1.007686
1.0639731 1.0165629 0.9772996 1.0193418 0.9899644 1.0893431 1.0522904 1.0268041
1.0498259 1.0022606 1.028265 1.0139579 1.0755277 1.0058061 1.0265232 1.0111187
1.0283824 1.0426041 1.0021611 1.0158304 1.0780394 1.0339427 1.0107534 1.0649781
0.9990347 1.0092685 1.0083076 1.0216291 1.0073023 1.0489175 1.0094005 1.0159502
1.0426806 0.9979859 1.04085 0.97415364 1.0278957 1.0636473 1.0080014 0.9981449
00000000: 859f 823f 7217 803f eb95 813f c638 873f
00000010: bd47 803f 5800 853f d064 843f 9246 873f
00000020: 7c4e 863f 5b88 893f ac9b 833f b5ec 823f
00000030: 11c2 853f 3a98 7c3f c52e 813f e320 813f
00000040: fd47 843f 8449 823f bb33 823f 02de 823f
00000050: 8afe 8b3f bf14 813f 2391 833f dbfb 803f
00000060: 4530 883f bc1e 823f 4e30 7a3f cb79 823f
00000070: 4f6e 7d3f 986f 8b3f 74b1 863f 516e 833f
00000080: b260 863f 134a 803f 309e 833f 5fc9 813f
00000090: e4aa 893f 41be 803f 1d65 833f 566c 813f
000000a0: 09a2 833f 0d74 853f d146 803f bb06 823f
000000b0: 32fd 893f 3c58 843f 5e60 813f 3451 883f
000000c0: bdc0 7f3f b62f 813f 3910 813f bec4 823f
000000d0: 48ef 803f ee42 863f 0934 813f a80a 823f
000000e0: 8f76 853f 017c 7f3f 933a 853f 2262 793f
000000f0: 1692 833f 9825 883f 3106 813f 6d86 7f3f

emb_module.shallownet.2.norm.bias f4 [64]
-0.08150239 -0.21032526 -0.15954791 -0.15168166 -0.16816273 -0.13598354 -0.18080774 -0.14882459
-0.110601224 -0.16639072 -0.26378423 -0.14748794 -0.1557626 -0.15783669 -0.11423189 -0.19023353
-0.22416778 -0.13706167 -0.15687315 -0.13357241 -0.09803229 -0.14897087 -0.22817689 -0.1361839
-0.14269383 -0.13283111 -0.20732611 -0.16572429 -0.1473834 -0.15870115 -0.19807829 -0.16683815
-0.1167026 -0.15464312 -0.15890908 -0.16859314 -0.16024694 -0.11356752 -0.14397626 -0.24496876
-0.16163002 -0.20430082 -0.13579199 -0.15131797 -0.112492576 -0.11680054 -0.16172595 -0.16410251
-0.19209307 -0.09276358 -0.11112547 -0.1984724 -0.13305059 -0.14630581 -0.10810673 -0.10300497
-0.1770566 -0.18200177 -0.15149468 -0.15932588 -0.08707323 -0.13782327 -0.17384315 -0.12749587
00000000: baea a6bd 815f 57be 8760 23be 7052 1bbe
00000010: da32 2cbe 453f 0bbe aa25 39be 7965 18be
00000020: e582 e2bd 5462 2abe ba0e 87be 1407 17be
00000030: 3b80 1fbe f19f 21be 69f2 e9bd 94cc 42be
00000040: 3d8c 65be e559 0cbe 5ba3 20be 35c7 08be
00000050: 27c5 c8bd d28b 18be 34a7 69be cb73 0bbe
00000060: 551e 12be e104 08be 4c4d 54be a1b3 29be
00000070: adeb 16be 8e82 22be 09d5 4abe 9fd7 2abe
00000080: c601 efbd c45a 1ebe 10b9 22be aea3 2cbe
00000090: c617 24be 1796 e8bd 836e 13be 17d9 7abe
000000a0: 5782 25be 3c34 51be 0e0d 0bbe 19f3 1abe
000000b0: 8262 e6bd 1f35 efbd 7d9b 25be 7d0a 28be
000000c0: 0cb4 44be d5fa bdbd c095 e3bd 593c 4bbe
000000d0: 6a3e 08be 31d1 15be 1067 ddbd 45f4 d2bd
000000e0: 534e 35be ac5e 3abe 6c21 1bbe 5326 23be
000000f0: 7353 b2bd 8b21 0dbe f003 32be 478e 02be

emb_module.shallownet.2.norm.running_mean f4 [64]
-0.1666772 -0.035393182 0.6224455 0.2026036 -0.13009134 -0.22232708 0.032528676 -0.030837126
0.114234775 0.098638006 0.055504136 0.2664697 -0.011103794 0.0959362 -0.107561186 0.5262184
0.31418812 0.7010601 0.11308124 -0.08346565 0.35369775 -0.37111264 0.20370609 -0.7398723
0.03836648 0.1008712 -0.25545245 -0.058045506 0.16159609 0.11527353 0.80976486 0.20768926
-0.11261984 -0.13428713 -0.11994322 0.0839243 0.11609417 0.15837602 0.030753314 -0.14932461
0.013081454 -0.057276454 -0.10756638 -0.4309499 0.2400243 0.334568 -0.06758707 0.097800575
0.067741975 -0.088353574 0.3223391 0.091354325 -0.107827604 0.2897477 -0.1964728 0.28720966
-0.01607176 0.01071378 0.1628541 -0.26743257 0.5012849 -0.26346233 0.19338372 0.04670911
00000000: 6ead 2abe 71f8 10bd 9758 1f3f 5177 4f3e
00000010: aa36 05be b6a9 63be ca3c 053d 249e fcbc
00000020: ecf3 e93d b902 ca3d 4e58 633d b76e 883e
00000030: b0ec 35bc 337a c43d 0a49 dcbd 40b6 063f
00000040: 44dd a03e ad78 333f 2397 e73d 0af0 aabd
00000050: df17 b53e 7a02 bebe 5498 503e 4568 3dbf
00000060: 2c26 1d3d 8f95 ce3d aaca 82be 20c1 6dbd
00000070: 7279 253e 8714 ec3d c04c 4f3f 7eac 543e
00000080: 3ba5 e6bd 9182 09be caa4 f5bd 81e0 ab3d
00000090: c8c2 ed3d 532d 223e 60ee fb3c 8de8 18be
000000a0: 9853 563c b79a 6abd c34b dcbd 77a5 dcbe
000000b0: eec8 753e 7f4c ab3e 176b 8abd ab4b c83d
000000c0: 4ebc 8a3d b8f2 b4bd a109 a53e fa17 bb3d
000000d0: b8d4 dcbd cf59 943e 2a30 49be 250d 933e
000000e0: eca8 83bc da88 2f3c 3ac3 263e ecec 88be
000000f0: 3554 003f 89e4 86be 6206 463e 0d52 3f3d

emb_module.shallownet.2.norm.running_var f4 [64]
9.989566 8.530904 7.8456607 4.8914404 7.138321 6.366222 3.8575804 7.810719
6.207031 8.565731 7.5356884 9.13488 9.501524 7.5129867 17.575651 10.317956
5.783265 9.366658 10.170985 7.394794 9.059809 12.888211 4.277331 9.397731
9.364268 11.8468895 7.412726 5.6496735 7.159343 7.789024 6.9151483 10.567993
5.885927 9.432113 4.9504776 10.834873 10.806704 7.1890383 14.383715 14.505277
8.595503 5.3346133 8.910164 12.409879 6.33724 5.231637 6.524419 9.262598
6.0483766 14.267606 7.2419353 5.1618958 8.406935 6.487929 8.252241 11.099285
7.632252 7.7214317 4.755096 6.754598 8.623629 9.0544815 6.60715 25.44384
00000000: 43d5 1f41 957e 0841 a70f fb40 ae86 9c40
00000010: 206d e440 17b8 cb40 99e2 7640 69f1 f940
00000020: ff9f c640 3c0d 0941 5c24 f140 7828 1241
00000030: 3e06 1841 636a f040 ef9a 8c41 5916 2541
00000040: 8210 b940 d5dd 1541 5bbc 2241 27a2 ec40
00000050: faf4 1041 1d36 4e41 e5df 8840 1b5d 1641
00000060: 0bd4 1541 dc8c 3d41 0d35 ed40 20ca b440
00000070: 5619 e540 af3f f940 e548 dd40 8016 2941
00000080: 8459 bc40 efe9 1641 506a 9e40 a45b 2d41
00000090: 42e8 2c41 9a0c e640 b223 6641 9d15 6841
000000a0: 2e87 0941 27b5 aa40 0890 0e41 dd8e 4641
000000b0: acca ca40 9269 a740 0ac8 d040 9a33 1441
000000c0: 4d8c c140 1d48 6441 efbd e740 402e a540
000000d0: ce82 0641 1d9d cf40 2e09 0441 ac96 3141
000000e0: 693b f440 f815 f740 bf29 9840 ab25 d840
000000f0: 62fa 0941 28df 1041 c66d d340 fc8c cb41

emb_module.projection.conv.weight f4 [64, 64, 1, 1]
0.023867141 0.04100767 -0.09960618 -0.08686447 0.049496327 -0.0044213664 -0.1298769 0.14152642
-0.0027719836 0.07756745 0.055734735 -0.09226798 0.18516068 -0.094107255 0.050439693 -0.04789486
0.10690406 -0.148569 0.058448564 0.028450795 -0.12321238 0.083131805 0.16391854 0.0777011
0.17736873 -0.08873138 -0.075755246 -0.12063812 0.109303445 0.20961766 0.1039596 0.028805923
-0.124605544 -0.17319414 0.082651906 0.15948099 -0.0046516736 0.034067664 -0.09167472 0.084727086
0.01840336 -0.085719965 0.031783406 0.12745641 -0.057200603 -0.004063383 0.1519786 0.19427694
0.057519805 0.05184219 0.08492117 0.012445079 0.114977665 0.18382008 0.17414413 -0.00502321
-0.0020772424 -0.007584957 -0.062397692 -0.03816601 -0.106518105 -0.08081194 -0.094567075 -0.14542887
0.14097856 0.011097133 -0.0018617973 0.116942115 0.094936594 -0.00630778 -0.11423467 -0.0047591743
0.03723318 -0.031825516 -0.040651422 0.023935735 -0.14890277 0.011126522 0.13258362 -0.048531372
0.14533775 0.019339783 -0.022029664 -0.16509885 -0.023602445 0.021686066 -0.04869217 0.13193728
-0.06375514 0.07190239 -0.09356568 -0.057688296 -0.07166358 -0.01897718 -0.070412196 -0.042206164
0.11506119 -0.11129378 -0.0031159148 -0.112100445 -0.17054945 -0.02189787 -0.028795663 -0.15221983
0.07924375 0.13643204 -0.08509317 0.08789342 0.08279824 0.03769109 0.18544027 0.06776554
-0.05211858 -0.05161046 -0.15267275 0.10517816 -0.13733801 -0.06584608 -0.0065525067 -0.03822595
0.057627667 0.0702653 -0.14142746 0.0883821 0.1020943 -0.10685067 -0.10978574 -0.055135496
-0.04754657 0.11870464 0.04110425 0.0855237 -0.055213146 0.016396657 0.13335492 -0.20542638
-0.022123769 -0.035075434 -0.02799219 -0.098595954 0.01240685 -0.021555101 0.15602309 -0.018219741
-0.009847819 -0.10787135 0.17107175 -0.15496972 0.039751373 -0.019934682 0.049218427 0.08023264
-0.12927456 0.08812533 0.018346831 0.14950232 -0.023286752 -0.2133796 -0.21953839 -0.042175483
0.18290585 0.06029826 0.11167164 0.02308843 0.039521568 -0.13862267 -0.040033318 -0.14602344
-0.12496359 0.03526717 -0.031879 -0.10093366 -0.017522054 0.01901451 0.12427532 -0.17518847
0.022891086 0.13941391 -0.07320462 -0.031823028 -0.07945404 -0.08004446 -0.118556 0.10192524
0.009680957 -0.05091675 0.063960575 0.123357005 -0.06671181 0.13010788 0.13404487 0.135979
0.13348399 0.16276984 -0.094742954 0.0030218088 -0.10864971 -0.1408254 0.029814703 0.07471655
0.1704526 -0.10395297 -0.01648681 0.076486096 0.061917096 -0.10928733 0.071710564 0.13113946
0.059283145 0.07372627 0.15458941 0.0056658424 0.17260608 0.002373968 -0.15049121 -0.09085474
-0.13810286 -0.009916605 -0.1473337 0.123563975 -0.15501846 -0.13894562 0.065604575 -0.073286
0.11934016 0.1342392 -0.06504424 0.07037148 0.017759385 -0.082414456 0.15299872 0.113999106
0.014434016 0.09331159 -0.15954575 0.09346783 0.1594599 -0.14675574 -0.14606026 -0.04167678
-0.15782681 0.05405376 -0.0049654217 0.108088136 -0.086572416 0.03606571 -0.1603579 -0.08478272
0.007677882 -0.042260386 -0.06588864 -0.122305065 0.1328806 0.18437901 0.022560544 0.09214924
00000000: 0685 c33c a9f7 273d 53fe cbbd 00e6 b1bd
00000010: a9bc 4a3d 1ce1 90bb 73fe 04be 4dec 103e
00000020: 2baa 35bb afdb 9e3d 1b4a 643d fff6 bcbd
00000030: c39a 3d3e 4ebb c0bd da99 4e3d 672d 44bd
00000040: 84f0 da3d 7922 18be c367 6f3d a411 e93c
00000050: c656 fcbd 0241 aa3d 43da 273e c121 9f3d
00000060: 26a0 353e ccb8 b5bd 9125 9bbd 1e11 f7bd
00000070: 7cda df3d 03a6 563e c5e8 d43d 66fa eb3c
00000080: 3131 ffbd ce59 31be 6745 a93d fc4e 233e
00000090: 116d 98bb 898a 0b3d f5bf bbbd 6585 ad3d
000000a0: a5c2 963c f38d afbd 512f 023d ef83 023e
000000b0: 2e4b 6abd 2126 85bb 47a0 1b3e 89f0 463e
000000c0: e399 6b3d 7a58 543d 26eb ad3d 72e6 4b3c
000000d0: 6979 eb3d 553b 3c3e d752 323e bd99 a4bb
000000e0: 5822 08bb 3b8b f8bb b994 7fbd f653 1cbd
000000f0: 2a26 dabd bb80 a5bd 62ac c1bd 4eeb 14be
00000100: af5c 103e c0d0 353c 8d07 f4ba 597f ef3d
00000110: 1e6e c23d 7eb1 cebb def3 e9bd d9f2 9bbb
00000120: d281 183d 795b 02bd 1b82 26bd e014 c43c
00000130: f879 18be 044c 363c 00c4 073e d5c8 46bd
00000140: 6bd3 143e 776e 9e3c 8e77 b4bc ac0f 29be
00000150: ea59 c1bc faa6 b13c 7171 47bd 911a 073e
00000160: 0e92 82bd 8f41 933d 5d9f bfbd 904a 6cbd
00000170: 5bc4 92bd 0876 9bbc 4534 90bd 5fe0 2cbd
00000180: 34a5 eb3d feed e3bd 6034 4cbb eb94 e5bd
00000190: 84a4 2ebe 2963 b3bc e2e4 ebbc 84df 1bbe
000001a0: 8c4a a23d d7b4 0b3e 5445 aebd 7701 b43d
000001b0: 2092 a93d f961 1a3d 0ee4 3d3e a9c8 8a3d
000001c0: 4b7a 55bd 7d65 53bd 3f56 1cbe a667 d73d
000001d0: 56a2 0cbe 4fda 86bd 69b6 d6bb d092 1cbd
000001e0: fd0a 6c3d 41e7 8f3d 5cd2 10be ad01 b53d
000001f0: d116 d13d 86d4 dabd 59d7 e0bd c2d5 61bd
00000200: 31c0 42bd 6b1b f33d ee5c 283d 0d27 af3d
00000210: 2e27 62bd 4852 863c 318e 083e 4b5b 52be
00000220: e83c b5bc 42ab 0fbd e14f e5bc adec c9bd
00000230: 1a46 4b3c 5394 b0bc 84c4 1f3e 9141 95bc
00000240: bf58 21bc a8eb dcbd 6f2d 2f3e 62b0 1ebe
00000250: 56d2 223d 0f4e a3bc 4399 493d 0351 a43d
00000260: 8d60 04be 0e7b b43d 184c 963c 2317 193e
00000270: dcc3 bebc 2f80 5abe acce 60be 33c0 2cbd
00000280: ac4b 3b3e 4ffb 763d 1ab4 e43d f223 bd3c
00000290: 5ee1 213d 1af3 0dbe faf9 23bd 2b87 15be
000002a0: e9ec ffbd 4f74 103d 8e93 02bd 4fb6 cebd
000002b0: 698a 8fbc 51c4 9b3c 0f84 fe3d 9b64 33be
000002c0: 1686 bb3c 85c2 0e3e 4eec 95bd dd58 02bd
000002d0: cdb8 a2bd 5aee a3bd 7dcd f2bd 2ebe d03d
000002e0: e09c 1e3c 158e 50bd c3fd 823d 99a2 fc3d
000002f0: 34a0 88bd 003b 053e 0f43 093e 143e 0b3e
00000300: 07b0 083e 23ad 263e 9808 c2bd 8a09 463b
00000310: bd83 debd 8934 10be f73d f43c fe04 993d
00000320: 208b 2e3e 4be5 d4bd 590f 87bc bea4 9c3d
00000330: c89c 7d3d 09d2 dfbd fddc 923d 6c49 063e
00000340: e2d2 723d ccfd 963d b04c 1e3e 88a8 b93b
00000350: a6bf 303e 9394 1b3b 5e1a 1abe 0d12 babd
00000360: d66a 0dbe 4279 22bc a5de 16be 1c0f fd3d
00000370: 29bd 1ebe c347 0ebe b15b 863d f816 96bd
00000380: 9d68 f43d 0076 093e ea35 85bd ec1e 903d
00000390: 217c 913c e9c8 a8bd b2ab 1c3e 5d78 e93d
000003a0: a77c 6c3c 261a bf3d f65f 23be 106c bf3d
000003b0: 7549 233e 2347 16be d290 15be 45b5 2abd
000003c0: 5a9d 21be 7a67 5d3d fab4 a2bb 505d dd3d
000003d0: e14c b1bd a3b9 133d dd34 24be 90a2 adbd
000003e0: be96 fb3b 3a19 2dbd a0f0 86bd 147b fabd
000003f0: da11 083e dacd 3c3e e4d0 b83c beb8 bc3d

emb_module.projection.conv.bias f4 [64]
0.1187472 0.039014906 -0.03401666 -0.10740891 -0.12830102 0.086066335 0.0015359987 0.18629527
0.04059507 -0.10367526 0.009057511 -0.038183294 0.060860336 -0.0006156282 -0.049009092 -0.1082297
0.08304256 0.119606964 -0.079688154 0.0058686514 0.10814151 0.0685262 0.09229288 -0.037362967
0.10561739 0.0011057367 -0.12263206 0.010887441 0.056501053 0.047516543 0.1337889 -0.078210756
-0.10859712 0.011149589 -0.068373576 -0.0010591685 -0.07149599 0.10772601 0.12248491 0.104063034
-0.08165534 -0.06515717 -0.07883552 0.10252997 0.087320544 -0.14246261 -0.069729425 -0.05322155
0.088278994 -0.081209615 -0.0625436 -0.05020792 0.15880746 0.079897456 -0.058494113 -0.06498542
0.10410292 -0.072702445 0.123388916 0.118719906 0.044062324 0.13249202 -0.14502162 -0.059098992
00000000: bb31 f33d 18ce 1f3d 0e55 0bbd 34f9 dbbd
00000010: 5861 03be 8c43 b03d 9053 c93a 30c4 3e3e
00000020: 0447 263d b253 d4bd f465 143c 1666 1cbd
00000030: b048 793d 1c62 21ba c2bd 48bd 88a7 ddbd
00000040: 3812 aa3d 7ff4 f43d 8b33 a3bd d14d c03b
00000050: 4c79 dd3d 7757 8c3d 0d04 bd3d e909 19bd
00000060: ee4d d83d 5eee 903a 8426 fbbd 3d61 323c
00000070: a66d 673d b5a0 423d f5ff 083e f62c a0bd
00000080: 2b68 debd c4ac 363c 7207 8cbd ccd3 8aba
00000090: 7d6c 92bd 749f dc3d 5ed9 fa3d 001f d53d
000000a0: ea3a a7bd 1f71 85bd 8474 a1bd 3cfb d13d
000000b0: 1dd5 b23d b8e1 11be 4dce 8ebd d7fe 59bd
000000c0: 9ecb b43d 3a51 a6bd dc16 80bd d2a6 4dbd
000000d0: 6c9e 223e 47a1 a33d 8697 6fbd 1317 85bd
000000e0: e933 d53d 05e5 94bd 54b3 fc3d 6c23 f33d
000000f0: b27a 343d fdab 073e 8c80 14be c911 72bd

VanillaLSTM.rnn.weight_ih_l0 f4 [256, 64]
-0.03496766 0.04325291 -0.008358944 -0.14997812 -0.017920544 -0.09440022 -0.08748395 0.2422134
0.16426209 0.32793716 -0.014993489 -0.044128854 0.051839117 0.08845946 -0.37327257 -0.060858022
0.16536643 -0.17604361 0.07537875 0.018437635 0.05552149 0.05457855 0.049547162 0.10928375
0.16438985 -0.15972741 -0.17843696 0.054935884 0.11030686 0.03806458 0.26367974 0.08369884
0.016111767 0.028826363 -0.18187432 -0.23105255 -0.05478596 -0.003825986 -0.0014115116 -0.042343896
-0.12393374 -0.08706608 -0.10992492 -0.022661733 -0.13985433 -0.2484539 0.024148563 -0.16796961
-0.020590065 0.19998889 -0.013611885 0.13165355 -0.24525128 -0.04111729 -0.17973092 -0.122593805
0.13438617 -0.023009306 0.16216655 -0.084269084 0.15151624 -0.12594116 -0.35969606 -0.13352245
0.08345855 -0.11570935 -0.19872612 0.07092765 0.17555363 0.067676246 0.02158469 -0.2344612
0.12988745 0.076894075 0.017899659 -0.034144863 -0.021135172 0.13950102 0.061365873 0.008768827
0.05522973 0.06609191 -0.0007512385 0.0012319274 -0.0026972813 0.074133515 0.10241362 -0.08139801
-0.14768475 0.05252277 0.06733779 0.058113415 0.07632107 0.0530368 0.0024680821 -0.25466403
-0.17131998 0.04161408 0.046874303 0.10016233 0.13584642 0.109268785 -0.11178405 -0.07006664
-0.0329414 0.14327087 0.031374797 -0.21978965 -0.16039902 -0.014315749 -0.18548977 0.10599106
0.09177639 -0.04949511 -0.014417705 0.14308703 0.04411551 0.23428948 0.12037836 0.121484116
0.06593595 -0.1361186 -0.021854827 -0.1300171 0.12685545 0.033657856 0.045687735 0.17219344
0.06463528 0.009146797 0.058090355 0.2364465 0.099212036 -0.27036396 -0.12641089 -0.15747036
0.13276671 -0.026798263 -0.20552656 0.10742591 -0.31740907 -0.037114337 0.029993568 0.14504391
0.0018415011 -0.15558533 -0.02844227 0.072158955 -0.1559354 -0.14618754 -0.25537956 -0.09268933
-0.05727183 -0.12086752 0.06759319 0.16131595 0.0020468356 -0.047182307 -0.0049761436 -0.21183902
0.062034898 -0.075998425 0.10460309 0.030943554 0.036927618 -0.046291966 -0.029495068 0.04398211
0.20045306 0.011802426 0.12625244 -0.0013988174 0.16654731 -0.03189458 0.029668665 0.1281073
-0.18501134 -0.014989935 0.1082935 0.17213 -0.036971174 0.042307865 -0.09220885 0.008617562
-0.15198998 0.085005745 -0.04910649 0.060148664 0.03918732 -0.10223933 -0.029225811 0.056651503
0.12371767 -0.014170835 -0.028288933 -0.052730333 0.016688827 -0.0627459 -0.15081513 -0.21487929
0.0038585016 0.21554507 -0.15099718 0.18373758 -0.02524281 -0.061778285 0.10801078 0.017765231
0.032679267 0.04608635 0.3651945 0.21766691 -0.18326415 0.22266364 -0.16090564 -0.12467343
0.22264996 -0.14699681 -0.28365448 0.18671049 0.029854774 -0.0018978119 -0.087918125 0.054395776
-0.008332294 -0.16198343 -0.011105286 -0.007333994 0.26723516 0.036010217 0.16343662 0.108383775
0.15799356 -0.047081243 -0.027458252 -0.06583146 0.10085382 0.20530452 -0.1451892 0.02387254
-0.11892514 0.16434455 0.065255456 -0.12853335 -0.011874856 0.09659124 -0.08719237 -0.05013577
-0.207477 0.08667891 -0.093904555 -0.1394647 0.15169074 -0.08209903 -0.07523895 -0.074239306
00000000: 403a 0fbd f729 313d f4f3 08bc dd93 19be
00000010: 1bce 92bc e754 c1bd c92a b3bd ca06 783e
00000020: 5234 283e 61e7 a73e 40a7 75bc 75c0 34bd
00000030: 4155 543d 3c2a b53d 951d bfbe 4346 79bd
00000040: d155 293e c744 34be 2d60 9a3d 860a 973c
00000050: 806a 633d c28d 5f3d f7f1 4a3d 29d0 df3d
00000060: d055 283e 958f 23be 2eb8 36be 7304 613d
00000070: 90e8 e13d 9be9 1b3d 0801 873e 4c6a ab3d
00000080: d3fc 833c 4425 ec3c 433d 3abe 0a99 6cbe
00000090: 3e67 60bd 65bd 7abb 7802 b9ba cb70 2dbd
000000a0: f9d0 fdbd b34f b2bd 5120 e1bd 19a5 b9bc
000000b0: f935 0fbe b36a 7ebe 35d3 c53c 3a00 2cbe
000000c0: 7fac a8bc e3c9 4c3e 6204 5fbc 30d0 063e
000000d0: 2723 7bbe 9a6a 28bd 620b 38be 7612 fbbd
000000e0: 879c 093e 037e bcbc fd0e 263e 4595 acbd
000000f0: 1327 1b3e b8f6 00be 152a b8be 1cba 08be
00000100: 51ec aa3d 06f9 ecbd dc7e 4bbe 8442 913d
00000110: 55c4 333e d899 8a3d 60d2 b03c 9916 70be
00000120: 3701 053e a47a 9d3d 4ea2 923c 7cdb 0bbd
00000130: ab23 adbc 5bd9 0e3e c85a 7b3d 20ab 0f3c
00000140: 9238 623d 325b 873d c3ee 44ba a078 a13a
00000150: dfc4 30bb 50d3 973d 3bbe d13d 00b4 a6bd
00000160: ac3a 17be 1e22 573d 65e8 893d 5508 6e3d
00000170: 394e 9c3d 1e3d 593d 8cbf 213b 5363 82be
00000180: 816e 2fbe 8773 2a3d 45ff 3f3d e821 cd3d
00000190: 531b 0b3e 50c8 df3d 09ef e4bd 197f 8fbd
000001a0: 90ed 06bd 99b5 123e dc82 003d 8a10 61be
000001b0: a43f 24be 9a8c 6abc 08f1 3dbe d711 d93d
000001c0: 43f5 bb3d 62bb 4abd 3d38 6cbc 6885 123e
000001d0: 77b2 343d 95e9 6f3e ee88 f63d aacc f83d
000001e0: 6d09 873d ad62 0bbe e508 b3bc 3423 05be
000001f0: 65e6 013e d2dc 093d 1023 3b3d 7a53 303e
00000200: 805f 843d 72dc 153c 27f0 6d3d 081f 723e
00000210: ae2f cb3d 256d 8abe db71 01be e93f 21be
00000220: fff3 073e 0888 dbbc 8e75 52be 1e02 dc3d
00000230: 7183 a2be 3405 18bd 12b5 f53c 6486 143e
00000240: 865e f13a c351 1fbe c3ff e8bc 13c8 933d
00000250: 88ad 1fbe 30b2 15be 1cc1 82be e7d3 bdbd
00000260: de95 6abd 6489 f7bd 4c6e 8a3d 0230 253e
00000270: 3424 063b 3c42 41bd eb0e a3bb 54ec 58be
00000280: 4e18 7e3d 10a5 9bbd 253a d63d 567d fd3c
00000290: 6a41 173d a59c 3dbd a49f f1bc 9626 343d
000002a0: 9143 4d3e f65e 413c 5248 013e 8658 b7ba
000002b0: 618b 2a3e e4a3 02bd b30b f33c 8f2e 033e
000002c0: 9d73 3dbe 5898 75bc fcc8 dd3d d942 303e
000002d0: 166f 17bd 034b 2d3d fed7 bcbd ad30 0d3c
000002e0: 43a3 1bbe 7e17 ae3d e323 49bd 725e 763d
000002f0: e282 203d db62 d1bd f86a efbc 680b 683d
00000300: b15f fd3d ca2c 68bc 31be e7bc c3fb 57bd
00000310: 02b7 883c ec80 80bd 486f 1abe 5109 5cbe
00000320: eade 7c3b d9b7 5c3e 019f 1abe b425 3c3e
00000330: 02ca cebc 3a0b 7dbd c134 dd3d 6488 913c
00000340: b2da 053d 0ac5 3c3d c6fa ba3e 13e4 5e3e
00000350: 99a9 3bbe f001 643e 73c4 24be c954 ffbd
00000360: 5afe 633e 5586 16be 293b 91be 0931 3f3e
00000370: 0092 f43c 00c0 f8ba 6b0e b4bd 1bce 5e3d
00000380: 2d84 08bc fcde 25be f2f2 35bc 0052 f0bb
00000390: 0cd3 883e 737f 133d ee5b 273e 50f8 dd3d
000003a0: 10c9 213e 43d8 40bd 21f0 e0bc a5d2 86bd
000003b0: 738c ce3d 593b 523e 7aac 14be 5890 c33c
000003c0: 068f f3bd f049 283e a7a4 853d 3f9e 03be
000003d0: c28e 42bc a1d1 c53d ea91 b2bd 2a5b 4dbd
000003e0: da74 54be b684 b13d 0851 c0bd d6cf 0ebe
000003f0: d154 1b3e 8923 a8bd e116 9abd c70a 98bd

VanillaLSTM.rnn.weight_hh_l0 f4 [256, 64]
-0.04434447 -0.23411775 -0.45070282 0.080481425 -0.12927075 -0.1734703 -0.29326054 0.061506756
-0.06167573 0.32787532 0.25462127 0.11381598 0.22135283 0.177271 0.22430709 0.33436954
-0.13694589 0.12715417 -0.13428766 0.14059174 -0.055465054 0.22163972 -0.2785608 0.08525765
0.12859292 -0.07172024 0.09403768 -0.21093673 -0.12976155 0.16993451 -0.0676908 0.17238486
0.054834332 -0.066136874 0.03285149 -0.31291646 0.05256286 -0.33191407 0.03551725 -0.030862937
-0.054378588 0.3048918 -0.2485813 -0.28974834 0.19627398 -0.36492077 -0.23781534 -0.163527
0.0070096077 0.08269976 0.36212105 -0.18122241 -0.020522755 0.14060788 -0.09318656 -0.049453083
-0.22023742 0.2893322 -0.18254535 -0.20041887 0.1004179 0.010504906 0.07385693 -0.19367044
-0.07661307 -0.012081499 -0.061091773 0.07468703 0.10108329 0.08504122 0.047569387 0.19486804
0.04886076 -0.16347401 0.10227847 0.024935925 -0.009578004 -0.010083214 -0.08087214 0.022628695
-0.03867092 -0.04392158 -0.098860376 0.07776616 -0.17627485 0.092817046 -0.224905 -0.18698813
-0.044606693 0.18914098 -0.06602427 -0.09524027 -0.09700195 -0.04032107 0.20023346 0.008216545
0.2416976 -0.09020594 0.18625697 0.019421207 0.2013104 -0.16873379 -0.020231528 0.043935172
-0.047058526 0.057124544 0.09992812 -0.20984407 -0.2541748 0.1302308 -0.10319551 0.004874995
0.15757126 -0.17940156 -0.0122271385 0.0453356 0.050200213 0.19196975 0.100153275 0.10163321
-0.09637925 -0.0032388004 0.16207603 -0.012783373 0.11351774 0.02864388 0.06452174 0.07853273
-0.13744375 -0.16300714 -0.10917378 0.14870222 -0.0050835125 -0.12322752 -0.027001543 0.049871925
0.003046631 -0.015521989 -0.04585363 -0.24776545 -0.120950766 0.13454713 0.048140325 0.06197004
0.21963178 -0.24872918 0.118044056 -0.049418505 0.0799032 0.045485362 0.11191349 0.04274683
-0.1297283 -0.13768491 -0.3150246 -0.0064855106 -0.2020234 -0.11666213 -0.1766156 0.006649926
0.064451255 0.19240212 -0.076426424 -0.03651545 -0.0013013034 -0.029993532 0.11848443 -0.12112276
0.10756403 0.12761076 -0.00032950644 0.0644185 0.043743216 -0.10142116 0.056962572 -0.12927265
0.12478671 0.0059816916 -0.07466917 -0.025404558 0.06933129 -0.121094346 0.065910056 0.09815086
-0.03965009 -0.055302985 -0.049028486 -0.11200689 0.1877295 0.08160195 -0.06232263 0.034909036
-0.19924945 -0.19877625 -0.2150242 0.16504976 -0.22369754 -0.09628079 -0.1303897 -0.006776769
-0.1498391 0.22951594 0.2054302 0.052947212 -0.023797726 0.016763441 0.1447523 0.15105318
-0.13693072 -0.166994 -0.015457048 0.18725874 -0.0615162 -0.15853271 -0.02555067 0.08550303
-0.021426372 -0.15749487 -0.04833844 -0.2329684 -0.14438346 0.04559173 -0.16281898 -0.011674357
0.1361986 0.025875349 0.15954152 -0.23622622 0.139352 -0.36514297 -0.013313686 0.039469924
0.14208831 0.14560963 -0.10782132 -0.23808871 0.098305024 -0.03232148 -0.048394434 -0.009506965
-0.1766567 0.027032768 0.341024 0.030449089 0.057658136 0.11750044 0.08131532 0.14939997
-0.15695983 0.11861236 0.006687854 -0.092978165 -0.12810293 0.04772047 -0.060672004 -0.059822407
00000000: 8ca2 35bd 90bc 6fbe 85c2 e6be 72d3 a43d
00000010: 8d5f 04be 33a2 31be 3f26 96be 82ee 7b3d
00000020: b19f 7cbd 46df a73e b85d 823e 5a18 e93d
00000030: 51aa 623e 8786 353e c2b0 653e 7c32 ab3e
00000040: 8b3b 0cbe b434 023e b482 09be 48f7 0f3e
00000050: 532f 63bd 86f5 623e 859f 8ebe 909b ae3d
00000060: ddad 033e 10e2 92bd d496 c03d ccff 57be
00000070: 36e0 04be 5003 2e3e 79a1 8abd a885 303e
00000080: f799 603d c572 87bd 498f 063d 9636 a0be
00000090: 274c 573d a4f0 a9be 897a 113d 45d4 fcbc
000000a0: 15bc 5ebd c71a 9c3e 198c 7ebe e559 94be
000000b0: 0cfc 483e e5d6 babe dd85 73be 9f73 27be
000000c0: dab0 e53b 7e5e a93d ee67 b93e 5e92 39be
000000d0: 561f a8bc 83fb 0f3e 98d8 bebd 518f 4abd
000000e0: eb85 61be 5a23 943e 2bed 3abe 9b3a 4dbe
000000f0: e6a7 cd3d c51c 2c3c 4d42 973d 8b51 46be
00000100: 50e7 9cbd 7bf1 45bc 5e3b 7abd 83f5 983d
00000110: c204 cf3d 172a ae3d 1ed8 423d 7d8b 473e
00000120: 3822 483d bb65 27be 6077 d13d 6d46 cc3c
00000130: 0fed 1cbc 1134 25bc 4ba0 a5bd d05f b93c
00000140: 6665 1ebd 1de7 33bd 4f77 cabd dd43 9f3d
00000150: 6581 34be dd16 be3d 7f4d 66be d179 3fbe
00000160: 82b5 36bd 2cae 413e bc37 87bd 550d c3bd
00000170: f5a8 c6bd b527 25bd 000a 4d3e b09e 063c
00000180: 937f 773e e4bd b8bd 26ba 3e3e 3919 9f3c
00000190: 5024 4e3e 8dc8 2cbe 97bc a5bc 5ef5 333d
000001a0: 71c0 40bd 6dfb 693d 1da7 cc3d 5de1 56be
000001b0: 3323 82be 395b 053e 2b58 d3bd 6cbe 9f3b
000001c0: 5c5a 213e 0bb5 37be 5654 48bc d2b1 393d
000001d0: bd9e 4d3d b893 443e 291d cd3d 1325 d03d
000001e0: 7c62 c5bd 0e42 54bb 42f7 253e 5a71 51bc
000001f0: fd7b e83d 92a6 ea3c f923 843d c5d5 a03d
00000200: 0ebe 0cbe 58eb 26be 8196 dfbd 6545 183e
00000210: 9893 a6bb b65e fcbd 5732 ddbc 8146 4c3d
00000220: fda9 473b f14f 7ebc 04d1 3bbd 3ab6 7dbe
00000230: 09b5 f7bd b9c6 093e ca2e 453d 4cd4 7d3d
00000240: 27e7 603e ddb2 7ebe 15c1 f13d 0f6b 4abd
00000250: 4aa4 a33d dc4e 3a3d e632 e53d 4d17 2f3d
00000260: 7fd7 04be 46fd 0cbe e84a a1be 6884 d4bb
00000270: 39df 4ebe 8eec eebd b8da 34be 9fe7 d93b
00000280: 05ff 833d 1005 453e 7585 9cbd 3991 15bd
00000290: 7f90 aaba ffb4 f5bc f7a7 f23d 360f f8bd
000002a0: 884a dc3d 65ac 023e 9bc1 acb9 d9ed 833d
000002b0: 162c 333d e6b5 cfbd 9651 693d 0d60 04be
000002c0: 2d90 ff3d 1102 c43b 26ec 98bd 381d d0bc
000002d0: 90fd 8d3d 5000 f8bd dafb 863d 5103 c93d
000002e0: 2268 22bd 6285 62bd 18d2 48bd de63 e5bd
000002f0: 293c 403e ec1e a73d 0446 7fbd c7fc 0e3d
00000300: 0c08 4cbe 008c 4bbe 4e2f 5cbe ce02 293e
00000310: f810 65be dd2e c5bd e184 05be a90f debb
00000320: 6c6f 19be 3a06 6b3e 4b5c 523e 2ddf 583d
00000330: 73f3 c2bc 7c53 893c f239 143e afad 1a3e
00000340: 9137 0cbe 7a00 2bbe 8f3f 7dbc c1c0 3f3e
00000350: 69f8 7bbd 6656 22be a44f d1bc 361c af3d
00000360: 5c86 afbc 5646 21be 87fe 45bd 458f 6ebe
00000370: 42d9 13be 65be 3a3d 05ba 26be cd45 3fbc
00000380: a577 0b3e 8af8 d33c da5e 233e 49e5 71be
00000390: 4ab2 0e3e 05f4 babe a521 5abc 37ab 213d
000003a0: 997f 113e b11a 153e 6dd1 dcbd 87cd 73be
000003b0: 2554 c93d 8763 04bd 3e39 46bd 1ac3 1bbc
000003c0: 7ee5 34be d373 dd3c b39a ae3e 5e70 f93c
000003d0: f02a 6c3d 12a4 f03d a688 a63d 4efc 183e
000003e0: 14ba 20be 09eb f23d c925 db3b 566b bebd
000003f0: 6a2d 03be 8a76 433d 3583 78bd 5708 75bd

VanillaLSTM.rnn.bias_ih_l0 f4 [256]
0.20137903 -0.005014571 0.09257937 0.15167676 0.019245414 0.055628285 0.04795304 -0.05313504
0.046783775 0.14308126 0.22718692 0.11870969 -0.0019110756 -0.13701853 0.11280799 0.19617124
0.03516857 0.14886609 0.011746931 0.063671544 0.18136209 0.050903358 0.1083729 0.16666794
0.1020803 0.11731316 0.08723593 -0.16131197 -0.0373106 0.25396484 -0.028981905 0.059073217
0.14946522 -0.08685587 -0.045292728 -0.08429377 0.04876784 0.09672654 0.034877148 0.0019886303
-0.06955942 0.04507509 -0.04684164 0.20725329 0.24826677 0.034873046 0.23833962 -0.07781967
-0.026191946 0.050629787 0.14906171 0.043662764 0.13668357 -0.022353636 0.16493568 -0.0035018467
0.15869193 -0.061879028 0.048632342 0.05551378 -0.08544771 -0.0436193 0.21335708 0.047683172
0.093315884 0.1709623 0.22822464 0.15446112 0.0869507 0.022881879 0.11553699 0.09174317
0.052681796 0.18717098 -0.06838223 0.027000071 0.1832794 0.10051355 0.12017475 0.12551266
0.10360669 0.053023826 0.26376772 0.042632855 0.1722787 0.031808134 0.00854795 0.002728347
0.07405097 0.1518752 0.22755969 0.3077502 0.18620469 0.027876664 -0.011321263 0.060873367
0.20766918 0.089471504 -0.022954082 0.06686075 0.270599 -0.0076938374 0.27714652 0.19496746
0.102263235 0.061185442 0.0686712 0.06078947 0.1523709 0.23839155 -0.0074695493 0.1227514
0.028028281 0.06533164 0.04015259 0.23202097 -0.08113085 0.103964455 0.10536278 -0.011115867
0.19337575 0.099044316 -0.031158222 0.14214976 0.047860343 0.08902392 -0.045878362 0.097260654
-0.029151332 -0.15762359 -0.19797802 0.096859336 -0.03484155 -0.1081595 -0.17909718 0.16311046
0.009945074 0.14796202 0.021421652 0.042431287 0.045983702 -0.0394544 0.15868655 0.1487083
0.0013794338 -0.095390305 0.008492875 0.0010253902 0.03150658 0.048827663 0.07296459 0.008559182
0.06428656 -0.08269956 -0.11528264 0.0757152 -0.13692823 -0.09016091 0.11533757 -0.015426165
-0.07019833 -0.08786323 0.037578087 -0.101517074 -0.06456134 -0.10661136 -0.055988673 0.11149088
0.05800118 0.042107247 0.004596971 -0.027913215 0.02040073 -0.01182897 -0.036075275 -0.0009774974
0.101587564 -0.023159951 0.13717966 0.0046366663 0.044248164 0.055226166 -0.10470129 -0.009740764
-0.12140143 0.11798748 0.042298637 -0.12968744 0.024124982 0.1216241 -0.09311212 0.07734518
0.25792512 0.2883946 -0.024472944 0.06642555 0.035445336 0.20409638 -0.018508986 0.1602029
0.16375895 0.08854347 0.20753554 0.1344697 0.07091791 0.18318693 0.16501811 0.2516053
0.14510013 0.06719192 0.19225869 -0.039454836 0.14411703 0.19551156 0.20773223 0.045309972
0.23314178 -0.03480395 0.113923095 0.16574365 0.078664884 0.09103038 0.07595716 0.17580527
0.03797237 0.24269949 0.11842454 -0.019287894 0.20395589 -0.020607509 0.086662635 0.059728608
0.2351216 0.17736712 0.2054412 0.09668811 0.012946097 0.09201045 0.1517052 -0.036327615
0.10331496 0.30482683 0.15776637 0.16942509 0.23264155 0.16212773 0.17179455 0.12856646
0.17740254 0.034926172 0.09282042 0.069719285 0.15075856 -0.061984014 0.16916017 0.07763486
00000000: 4e36 4e3e 4551 a4bb 419a bd3d 2751 1b3e
00000010: 8fa8 9d3c 7cda 633d 686a 443d 21a4 59bd
00000020: 58a0 3f3d e583 123e b0a3 683e 111e f33d
00000030: 0e7d faba 964e 0cbe e007 e73d 1de1 483e
00000040: eb0c 103d 5a70 183e 3376 403c 3a66 823d
00000050: fcb6 393e 0a80 503d 9cf2 dd3d 00ab 2a3e
00000060: 7a0f d13d e241 f03d c0a8 b23d f72e 25be
00000070: 00d3 18bd ae07 823e 766b edbc c2f6 713d
00000080: 690d 193e 7ee1 b1bd de84 39bd 36a2 acbd
00000090: c9c0 473d 9018 c63d 57db 0e3d ae53 023b
000000a0: 2b75 8ebd a8a0 383d 05dd 3fbd 353a 543e
000000b0: a539 7e3e 0ad7 0e3d 4d0f 743e eb5f 9fbd
000000c0: 7e90 d6bc 2e61 4f3d a2a3 183e bad7 323d
000000d0: c7f6 0b3e f91e b7bc e6e4 283e 3d7f 65bb
000000e0: 2380 223e dd74 7dbd b532 473d 6b62 633d
000000f0: 35ff aebd 27aa 32bd 477a 5a3e 6e4f 433d
00000100: 661c bf3d be10 2f3e b8b3 693e 0e2b 1e3e
00000110: 3513 b23d c772 bb3c a89e ec3d d8e3 bb3d
00000120: dec8 573d c0a9 3f3e fc0b 8cbd 412f dd3c
00000130: 98ad 3b3e 0cda cd3d 2e1e f63d 6486 003e
00000140: bf2f d43d 832f 593d 900c 873e ca9f 2e3d
00000150: d469 303e 3f49 023d b30c 0c3c 11ce 323b
00000160: 09a8 973d 2c85 1b3e 6805 693e 6f91 9d3e
00000170: 71ac 3e3e 9a5d e43c d27c 39bc 5a56 793d
00000180: 3ba7 543e d63c b73d 330a bcbc 4aee 883d
00000190: f48b 8a3e 961c fcbb 26e6 8d3e 8da5 473e
000001a0: 636f d13d 969d 7a3d 7ca3 8c3d 61fe 783d
000001b0: 1e07 1c3e ea1c 743e 1fc3 f4bb 1665 fb3d
000001c0: 919b e53c 98cc 853d 0b77 243d e896 6d3e
000001d0: ee27 a6bd 51eb d43d 71c8 d73d 531f 36bc
000001e0: 4b04 463e bfd7 ca3d 873f ffbc b58f 113e
000001f0: 3509 443d 2c52 b63d f3ea 3bbd 9830 c73d
00000200: c6ce eebc 1468 21be c0ba 4abe 305e c63d
00000210: 03b6 0ebd ba82 ddbd 4065 37be 6e06 273e
00000220: aaf0 223c 5b83 173e 767c af3c 6ecc 2d3d
00000230: 6859 3c3d f09a 21bd ba7e 223e fd46 183e
00000240: 1ece b43a fe5b c3bd b325 0b3c 6366 863a
00000250: 0b0d 013d 84ff 473d 756e 953d d03b 0c3c
00000260: aca8 833d 635e a9bd 4e19 ecbd 9210 9b3d
00000270: ea36 0cbe 48a6 b8bd 1b36 ec3d 07be 7cbc
00000280: 24c4 8fbd a3f1 b3bd 7beb 193d 2fe8 cfbd
00000290: bc38 84bd 0f57 dabd 6154 65bd 5555 e43d
000002a0: a592 6d3d a678 2c3d 30a2 963b 41aa e4bc
000002b0: 6f1f a73c 4cce 41bc abc3 13bd 5f1f 80ba
000002c0: 240d d03d f0b9 bdbc d378 0c3e 2def 973b
000002d0: 903d 353d d534 623d a16d d6bd ba97 1fbc
000002e0: 50a1 f8bd 6ba3 f13d 5641 2d3d c9cc 04be
000002f0: c1a1 c53c 0e16 f93d 91b1 bebd 2667 9e3d
00000300: c30e 843e 75a8 933e 7c7b c8bc 1e0a 883d
00000310: 212f 113d a4fe 503e 28a0 97bc 3b0c 243e
00000320: 6db0 273e 4756 b53d 3284 543e 6db2 093e
00000330: 693d 913d 5b95 3b3e 82fa 283e 69d2 803e
00000340: 2195 143e eb9b 893d 76df 443e 659b 21bd
00000350: 6a93 133e 2f34 483e c2b7 543e f396 393d
00000360: b8bc 6e3e 968e 0ebd 8350 e93d b4b8 293e
00000370: 0e1b a13d 236e ba3d 6d8f 9b3d 4c06 343e
00000380: ea88 1b3d 3786 783e 9188 f23d a501 9ebc
00000390: d0d9 503e 14d1 a8bc 2e7c b13d fca5 743d
000003a0: b7c3 703e ba9f 353e 2e5f 523e 6a04 c63d
000003b0: de1b 543c fa6f bc3d 9c58 1b3e 44cc 14bd
000003c0: cb96 d33d 4312 9c3e 828d 213e c57d 2d3e
000003d0: 9639 6e3e d004 263e e9ea 2f3e eda6 033e
000003e0: 03a9 353e bf0e 0f3d a218 be3d fcc8 8e3d
000003f0: 7460 1a3e f3e2 7dbd 5338 2d3e 07ff 9e3d

VanillaLSTM.rnn.bias_hh_l0 f4 [256]
0.23298217 0.03269193 0.16376646 0.14685859 0.04344091 0.029126953 0.10064758 0.17198446
0.036142938 0.21740612 0.28594962 0.09274491 0.11576725 -0.053593032 0.072909385 0.16528624
0.06322513 0.102874935 -0.014349261 0.013569763 0.07463549 0.0065669687 -0.029339662 -0.009941479
0.055207625 -0.0007037416 0.15813279 0.03589446 0.094960615 0.21792658 0.19057392 0.07184104
0.12209265 0.12184584 0.04635621 -0.10570487 -0.007047192 0.110739864 0.07937843 -0.092691235
-0.09937781 0.11499091 -0.062576115 0.071698695 0.014133445 -0.11125638 0.02130226 0.014489631
0.12310443 0.15982057 0.08364674 0.044670407 0.047413044 0.026930101 0.23135436 0.074759156
-0.006382501 0.02388379 0.097471304 0.124304235 0.100578815 0.049783174 0.19757086 -0.029106745
0.12604748 0.16233537 0.22904882 0.22257356 0.22098143 0.11519921 0.09664164 0.072680585
0.0104970345 0.19565417 -0.053561114 0.11773612 0.12102384 0.017693434 0.1732556 0.10853602
-0.01415938 0.037700877 0.13881512 -0.05608179 0.03865846 0.23663278 0.08420659 0.13938046
0.0009776711 0.055539418 0.15025397 0.2337244 0.20317952 -0.10490977 -0.093213655 0.1616722
0.095069185 0.1329585 -0.000648436 0.21941702 0.16856708 -0.089706816 0.14504747 0.2401491
0.28917834 0.1678722 0.21471503 0.051432516 0.12317641 0.07119109 0.056664698 -0.08614791
0.1351948 -0.14113843 0.14729881 0.079722054 0.07539823 0.11556883 0.17951676 0.17792626
0.15580995 0.22709061 -0.019848667 0.046146877 0.17701115 0.10634411 0.00050541287 0.0053372686
0.056273643 -0.0038170354 -0.17673999 -0.09889433 -0.015530285 -0.059188727 -0.05675785 0.13720901
-0.056333575 0.20843092 0.17461838 -0.036710866 0.069367796 0.11813672 0.040199608 0.045446426
-0.026487825 -0.06385822 -0.06931883 0.01593278 0.097984344 0.09111349 0.02752703 0.0126372175
-0.07643784 -0.038851935 -0.062453516 -0.061930116 -0.024896778 0.08971247 -0.119798236 0.08534019
0.06760285 -0.035314392 0.026843522 -0.107845776 0.01046424 -0.15967692 0.029157331 -0.11349609
-0.088019446 -0.00030813136 -0.11365452 -0.048727315 0.08260423 -0.087980315 -0.0754918 -0.06654165
-0.13263236 0.06114803 0.08075518 -0.09051008 0.019547611 0.034375276 0.11740234 0.031207101
-0.13903502 0.05983907 -0.12841053 -0.24191515 -0.03515041 -0.034401175 0.092101015 0.06430278
0.26068115 0.25611693 -0.039790805 0.15249845 0.119494535 0.10937913 0.0062647415 0.02648237
0.19814856 0.035865705 0.22457397 0.19610532 0.14955972 0.16135956 0.17344446 0.21217416
0.1389704 0.10685456 0.04379529 0.10400236 -0.0018214836 0.17883624 0.19298188 0.21030301
0.15122417 0.20121577 0.16666351 0.3951365 0.13877684 0.25183102 0.10268046 0.08965716
0.23601852 0.2069777 0.19797453 0.020489236 0.23361376 0.10297407 0.096091755 0.1768879
0.29364514 0.157432 -0.00805797 0.24415654 0.15510362 0.09818986 0.045310423 0.10459866
0.09171377 0.16489173 0.08381077 0.15095739 0.09143859 0.26388192 0.26614398 0.112290576
0.21834129 0.10711665 0.14192787 0.13690835 0.16822743 0.12999253 0.032672662 -0.011975335
00000000: e192 6e3e f9e7 053d 65b2 273e 1962 163e
00000010: 18ef 313d a69b ee3c 5220 ce3d b21c 303e
00000020: 9e0a 143d b69f 5e3e fd67 923e 0bf1 bd3d
00000030: 6117 ed3d 5e84 5bbd 8451 953d cc40 293e
00000040: 2d7c 813d 18b0 d23d 2a19 6bbc b653 5e3c
00000050: 7eda 983d ba2f d73b bb59 f0bc 96e1 22bc
00000060: 6421 623d 4d7b 38ba 90ed 213e 1206 133d
00000070: b67a c23d 2528 5f3e cf25 433e 6521 933d
00000080: b60b fa3d 508a f93d 02e0 3d3d cb7b d8bd
00000090: 22ec e6bb 95cb e23d 2991 a23d e7d4 bdbd
000000a0: 9886 cbbd 5b80 eb3d e827 80bd c4d6 923d
000000b0: f78f 673c 63da e3bd 1482 ae3c eb65 6d3c
000000c0: 2d1e fc3d 01a8 233e fb4e ab3d 51f8 363d
000000d0: 2e34 423d 849c dc3c 28e8 6c3e 541b 993d
000000e0: 4d24 d1bb f0a7 c33c 099f c73d 3893 fe3d
000000f0: 44fc cd3d 71e9 4b3d 0450 4a3e 4571 eebc
00000100: 9712 013e 3e3b 263e c68b 6a3e 53ea 633e
00000110: f548 623e 90ed eb3d 0dec c53d 8fd9 943d
00000120: c1fb 2b3c 9159 483e e662 5bbd a31f f13d
00000130: 59db f73d d2f1 903c ea69 313e 2248 de3d
00000140: bffc 67bc 3c6c 1a3d 8d25 0e3e 05b6 65bd
00000150: 5558 1e3d dd4f 723e 8174 ac3d c0b9 0e3e
00000160: 3325 803a 4d7d 633d 2ddc 193e 7355 6f3e
00000170: 4b0e 503e efda d6bd cde6 bebd 668d 253e
00000180: a2b3 c23d 4626 083e cefb 29ba dbae 603e
00000190: d99c 2c3e 35b8 b7bd 5387 143e a5e9 753e
000001a0: 2f0f 943e b1e6 2b3e 42de 5b3e e7aa 523d
000001b0: ea43 fc3d a2cc 913d 3e19 683d 516e b0bd
000001c0: 8170 0a3e 9886 10be 80d5 163e 5145 a33d
000001d0: 636a 9a3d 5aaf ec3d 3ed3 373e 4d32 363e
000001e0: a58c 1f3e 718a 683e ac99 a2bc 8204 3d3d
000001f0: 6942 353e f1ca d93d af7d 043a 41e4 ae3b
00000200: 317f 663d 3a27 7abb 54fb 34be 1c89 cabd
00000210: bd72 7ebc e16f 72bd eb7a 68bd 8580 0c3e
00000220: 09be 66bd ea6e 553e 29cf 323e 225e 16bd
00000230: b410 8e3d aaf1 f13d 58a8 243d 0826 3a3d
00000240: fffc d8bc 19c8 82bd 08f7 8dbd 7685 823c
00000250: 04ac c83d b699 ba3d 5e80 e13c 550c 4f3c
00000260: 718b 9cbd 3523 1fbd 42cf 7fbd 6faa 7dbd
00000270: 54f4 cbbc 2cbb b73d c758 f5bd d6c6 ae3d
00000280: 5d73 8a3d d3a5 10bd f2e6 db3c 3fde dcbd
00000290: 3472 2b3c 5982 23be 5bdb ee3c a370 e8bd
000002a0: 8a43 b4bd b18c a1b9 b3c3 e8bd 4b96 47bd
000002b0: 682c a93d 062f b4bd 729b 9abd fd46 88bd
000002c0: c7d0 07be 5b76 7a3d f962 a53d 595d b9bd
000002d0: 5022 a03c 17cd 0c3d a370 f03d 09a6 ff3c
000002e0: 325f 0ebe d019 753d 0d7e 03be 9bb8 77be
000002f0: e0f9 0fbd 3fe8 0cbd 759f bc3d 2db1 833d
00000300: 0078 853e c221 833e affb 22bd 8e28 1c3e
00000310: 8db9 f43d 2a02 e03d 7648 cd3b 8ef1 d83c
00000320: 75e7 4a3e ebe7 123d b8f6 653e d5cf 483e
00000330: 2f26 193e 713b 253e 6d9b 313e 2f44 593e
00000340: 424e 0e3e 90d6 da3d b162 333d 30ff d43d
00000350: d9be eeba d920 373e 0b9d 453e ac59 573e
00000360: 82da 1a3e 820b 4e3e d7a9 2a3e 554f ca3e
00000370: 841b 0e3e ffef 803e 224a d23d 2c9e b73d
00000380: d7ae 713e f6f1 533e d6b9 4a3e 0bd9 a73c
00000390: 7238 6f3e 12e4 d23d c1cb c43d 1a22 353e
000003a0: a858 963e db35 213e 9305 04bc 2c04 7a3e
000003b0: 7cd3 1e3e c417 c93d 6c97 393d d237 d63d
000003c0: 6ed4 bb3d 61d9 283e fba4 ab3d 9394 1a3e
000003d0: 2844 bb3d 881b 873e 0644 883e 9af8 e53d
000003e0: dc94 5f3e f95f db3d 8a55 113e b431 0c3e
000003f0: d043 2c3e c31c 053e c5d3 053d 3234 44bc
