benchmarks/MOABB/results/MotorImagery/BNCI2014001/ResidualEEGModel/run2/7584/leave-one-session-out/sub-009/1test/save/CKPT+2024-04-20+01-26-18+01/model.ckpt (torch, 117023 bytes, 29 tensors)

Conv2DType0_Batchnorm.norm.weight f4 [8]
000000 02 59 7e 3f 23 24 7f 3f 27 7f 7d 3f 37 0f 80 3f
       0.99354565 0.99664515 0.99022144 1.0004643
000010 38 81 7c 3f 53 96 7e 3f 01 2e 80 3f 2b 31 80 3f
       0.9863467 0.99448127 1.0014039 1.0015005

Conv2DType0_Batchnorm.norm.bias f4 [8]
000000 f4 98 8b bc a6 34 3b 3c bf 13 27 3c db 54 84 bc
       -0.017040707 0.011426127 0.010197579 -0.016153743
000010 83 6f 1e 3c 48 3d 09 3c 50 8c f4 3a e7 9c b7 bb
       0.009670141 0.008376427 0.0018657539 -0.005603421

Conv2DType0_Batchnorm.norm.running_mean f4 [8]
000000 db b6 85 ae 23 6b cb 2e aa ec d9 2d c3 05 8c 2d
       -6.0806214e-11 9.2504025e-11 2.4775144e-11 1.5918716e-11
000010 35 e8 c8 2e 4a d3 3a ae 6b 44 f3 ad 98 26 b1 2e
       9.136195e-11 -4.2479166e-11 -2.7656285e-11 8.055884e-11

Conv2DType0_Batchnorm.norm.running_var f4 [8]
000000 7a 7e 88 3d 6d 1c 19 3d 12 76 81 3c 97 8a 05 3d
       0.066647485 0.037380625 0.01580337 0.032602873
000010 bd ab a2 3d d5 cf 8c 3d d8 9f e6 3c d7 c2 d3 3c
       0.07942913 0.06875578 0.028152391 0.025849743

Conv2DType1_cnn.conv.weight f4 [8, 8, 1, 51]
000000 ac 79 c7 b9 c3 bb 49 b6 77 14 4d 32 6b d3 8b 30
       -0.0003804689 -3.0060626e-06 1.1937224e-08 1.017367e-09
000010 ea e7 9a ab c8 b3 ea b2 1a 6e 05 00 fb 75 05 00
       -1.1006727e-12 -2.732294e-08 4.98674e-40 5.01501e-40
000020 b0 85 84 30 ca 64 26 bc e3 54 30 3d 60 e2 89 3c
       9.64226e-10 -0.010155866 0.043049704 0.016831577
000030 d9 da 30 3d 62 fb fa 3c 92 fa 24 bc 4e ca 15 3d
       0.04317746 0.030637447 -0.010069506 0.036569886
000040 a4 ee a1 3b 39 ae bc bc c4 e5 43 3b 12 64 c8 ba
       0.0049417783 -0.023032295 0.002989159 -0.0015288612
000050 18 d4 af 3a 8b ea ff 3c d7 df 3b 3d c5 db 05 3d
       0.0013414649 0.031239768 0.045867767 0.03268029
000060 43 5c 00 3d c0 43 8a 3c 12 ef 55 3d de a0 09 ba
       0.031337988 0.016878009 0.05222995 -0.00052501063
000070 15 6f 5f bd de f7 16 bd ec e4 35 ba 7e 9a 84 3a
       -0.054549295 -0.03685748 -0.0006938714 0.0010116843
000080 7b 2d cf 3c 8f ac a5 bc 00 2f 28 bb 8b 45 07 bd
       0.025290241 -0.020223884 -0.002566278 -0.033025306
000090 12 2d 88 3c d8 86 f4 bc f7 9e 8c bc 72 ef 17 bd
       0.016623054 -0.029849455 -0.017165644 -0.037093587
0000a0 8b 09 1e bd c5 28 ba 3c f5 ad 9d b2 b0 4f f9 b8
       -0.03858332 0.022724519 -1.8356312e-08 -0.00011888088
0000b0 7d 8f fe a0 8f cb c4 34 3d 8a 08 b5 b5 57 5a aa
       -4.3124226e-19 3.6655953e-07 -5.086511e-07 -1.9392719e-13
0000c0 f7 05 a2 b5 5d bf 99 af dd 51 68 a1 d8 38 21 b8
       -1.2071677e-06 -2.796651e-10 -7.8713003e-19 -3.843833e-05
0000d0 f7 b7 a4 37 c3 19 be 32 b8 aa 44 b9 d6 cb 93 2f
       1.9635989e-05 2.2130626e-08 -0.00018755614 2.6883978e-10
0000e0 ab 6e fd b9 77 be 12 38 af 56 cb 38 af aa 58 a9
       -0.00048338374 3.4986497e-05 9.6959404e-05 -4.810968e-14
0000f0 e5 9e 98 bb 2f fb 03 3d 9f 91 0e 3d 13 a5 31 3d
       -0.0046576136 0.03222197 0.034806844 0.043370318
000100 3e 8a 46 3d 27 f6 b5 bb d5 a3 cd bc fb fb e2 3c
       0.04847168 -0.0055530253 -0.025102535 0.027708044
000110 58 aa 30 3c 7b 27 22 bd 79 5c b3 bc 3a 88 12 3d
       0.010782801 -0.039588433 -0.02189468 0.035774447
000120 f5 0f 8b bb 7b eb 31 bd c9 80 40 3d 42 22 a4 bc
       -0.0042438456 -0.043437462 0.04699782 -0.020035867
000130 65 f1 1a 3c c2 f6 de bc 2f 5f 1f bd e0 73 13 bd
       0.009456967 -0.027217273 -0.038909134 -0.03599918
000140 c6 d6 29 3d 65 17 11 bd 35 68 80 3c 5b 64 6d 3c
       0.04146459 -0.0354227 0.01567469 0.014489259
000150 83 29 1b 3d 1a 1c e4 bc b0 6d 19 bc 05 bf 39 3c
       0.037881386 -0.027845431 -0.00936453 0.0113370465
000160 76 c5 01 3d 01 21 06 3d 83 1a 55 bc 63 5e 94 3b
       0.031682454 0.03274632 -0.013006809 0.0045278533
000170 90 24 ad bb f9 07 02 00 82 25 9a 32 df 01 17 b7
       -0.0052838996 1.86531e-40 1.7945016e-08 -9.000737e-06
000180 85 80 b6 9b ca 95 6f ad 72 70 05 00 27 f2 ef b9
       -3.0192428e-22 -1.3618837e-11 4.99515e-40 -0.0004576605
000190 71 c5 c4 b6 1e e6 9f 39 2a 60 fb a9 d4 10 0c 39
       -5.8642404e-06 0.00030498294 -1.1163321e-13 0.0001335771
0001a0 68 f5 ac b0 bd f5 bb b4 cd fa 9a 38 90 6c 05 00
       -1.2584396e-09 -3.5010262e-07 7.3900075e-05 4.98122e-40
0001b0 d5 d8 3c b8 34 df 18 2f 89 58 4c 39 3a e3 b9 bc
       -4.5024633e-05 1.3903617e-10 0.00019487938 -0.022691358
0001c0 3a 3a 09 bd f7 97 3a bd 90 be 1e bd 47 3d 2f 3d
       -0.033502795 -0.04555508 -0.038755953 0.042783048
0001d0 6b de 3b 3d c1 17 40 3c b0 ad e6 bc c2 41 35 bb
       0.04586641 0.011724413 -0.028158993 -0.0027657603
0001e0 0b c7 0b bc 26 1c 4c bd 6f 8f b2 bc db 2e 64 3d
       -0.008531342 -0.049831532 -0.02179691 0.055708747
0001f0 a4 2a 9f 3c 20 bf 17 3c d3 57 87 3b 68 fe df bc
       0.019429512 0.009261876 0.0041303425 -0.02734299
000200 11 f5 27 3c c2 fb 2e bd 17 41 d8 3c a7 45 0b b9
       0.0102512995 -0.042720564 0.026398225 -0.0001328202
000210 cb bb 22 3d 3f db 1c bd 35 76 36 3d b3 53 04 3d
       0.039729875 -0.038295027 0.044546325 0.032306384
000220 b4 ec 3f 3d 0c ff 87 bc 19 d3 88 bc b2 66 f0 3c
       0.046856597 -0.016601108 -0.016702222 0.029345844
000230 83 42 07 3c 8f 2c 2c bd cf d6 9e 3c 05 81 26 bd
       0.008255604 -0.042034682 0.019389538 -0.040650386
000240 bb b9 ec 30 16 a8 8b ac 16 13 c6 a5 e7 a9 35 39
       1.7224048e-09 -3.969279e-12 -3.4360458e-16 0.00017324799
000250 2d 6c 5f 15 8d 4c 51 39 de 05 c7 18 a0 9b dc 38
       4.5119827e-26 0.0001996031 5.144622e-24 0.00010519405
000260 da 6c 05 00 8b ae 7d b6 1a e4 fb 26 20 5f ae 35
       4.98226e-40 -3.7801535e-06 1.7478451e-15 1.2991695e-06
000270 3a 5a 99 b9 6f c7 78 37 83 39 26 b8 47 66 4c b4
       -0.00029249658 1.4828386e-05 -3.9631046e-05 -1.9036189e-07
000280 23 ff 30 39 17 74 cc b7 0b 8e 22 bd 7b 45 79 ba
       0.00016879714 -2.4372754e-05 -0.039686244 -0.00095089496
000290 82 0d e1 bc 34 e8 0d bd 8f ee 38 3c eb 29 22 3b
       -0.027472261 -0.034645274 0.011287346 0.0024744223
0002a0 bf 69 63 bc 09 db 38 bd 73 a2 87 3c 9f d2 a8 bc
       -0.013880192 -0.045130763 0.016556954 -0.020608244
0002b0 43 5e b4 3c 5b cc d6 3b 08 84 94 3c 38 1b 75 bb
       0.022017604 0.006555123 0.018129364 -0.0037400257
0002c0 63 2a 63 3b 79 2f 0b bc dd 33 41 bd f7 47 83 3c
       0.0034662716 -0.008495205 -0.0471686 0.016025526
0002d0 71 c5 12 bd 8a 70 69 3c 73 c8 8e 3c 19 09 8b 3c
       -0.035832826 0.014248023 0.017429566 0.016972112
0002e0 ab 8c 18 bc 0a 65 81 3c 4b a6 bc 3b 93 c7 df 3c
       -0.009310882 0.01579525 0.0057571284 0.027316844
0002f0 43 c0 37 bc 6d 73 ea bc 28 35 53 3c ad c4 d0 3c
       -0.011215272 -0.028619492 0.012891091 0.025484407
000300 f8 87 cf 3c 52 9e e1 3c 54 88 1b bd b5 c4 dc b2
       0.02533339 0.027541313 -0.03797181 -2.5700823e-08
000310 15 74 fc 2d 32 ec 7f b9 90 64 e5 29 0f 24 04 00
       2.8700634e-11 -0.00024406685 1.0187088e-13 3.80277e-40
000320 18 16 05 00 1a fe db 30 a5 f4 5a b7 ea cc 65 19
       4.67103e-40 1.6006567e-09 -1.3050773e-05 1.18804046e-23
000330 75 d0 b7 ad 9c f3 0c 39 dd 47 59 a9 4d 63 f3 b9
       -2.0897265e-11 0.00013442192 -4.824601e-14 -0.00046422557
000340 c7 45 c7 af 40 59 55 b9 d3 54 8c 0f 5b 33 5c 38
       -3.624747e-10 -0.00020346511 1.3837739e-29 5.2499916e-05
000350 30 77 01 b6 3f 00 0b 3d b9 ab 3b bb d3 b0 db 3c
       -1.9291874e-06 0.03393578 -0.002863629 0.026817715
000360 e9 42 17 3d e8 89 d2 bc 51 e6 0e bc 73 59 84 3c
       0.036929045 -0.025700524 -0.008721904 0.016155934
000370 ff ea a2 bc 5f f9 bb 3c 8b 5d 85 bc 80 15 54 3a
       -0.019887445 0.022946058 -0.016279956 0.0008090362
000380 e5 d1 89 bc 88 d0 e0 3c 43 97 0f 3c 9b 4b 0b bd
       -0.016823718 0.027443185 0.008764091 -0.03400765
000390 dd 5a 28 bd 72 4a a2 bc 07 3b 21 bd 2e 9e 34 bb
       -0.04110228 -0.019810889 -0.039362933 -0.0027560103
0003a0 8a 10 3a 3d 48 f9 3c 3d 88 54 1d 3d a8 29 b9 bc
       0.04542593 0.04613617 0.038410693 -0.022602871
0003b0 b0 35 ee 3c d3 04 1c bb cc 3e 8d 3b 73 69 53 3d
       0.029078335 -0.0023806586 0.0043104645 0.051614236
0003c0 d0 43 f6 bc 6e be 1d 3d 23 6c c9 3c a7 2e b7 3c
       -0.030061632 0.038511686 0.024587696 0.022361113
0003d0 c5 83 0e bc 3d 86 41 3d 88 ca fa b9 be 24 2f 20
       -0.0086984085 0.04724716 -0.00047834613 1.4835234e-19
0003e0 78 57 05 00 61 58 05 80 57 87 da 37 67 69 e1 b9
       4.90555e-40 -4.90882e-40 2.6050648e-05 -0.00042993875
0003f0 27 5a 05 00 74 c5 c7 31 fa 70 05 00 e2 65 54 14
       4.91518e-40 5.81411e-09 4.99706e-40 1.07233576e-26

Conv2DType1_Batchnorm.norm.weight f4 [8]
000000 c5 57 81 3f cb 68 7f 3f 0b 58 83 3f da 0f 82 3f
       1.010491 0.99769276 1.0261244 1.0161088
000010 ca 33 7d 3f 89 d5 80 3f 87 a5 81 3f 6a 17 7d 3f
       0.9890715 1.0065166 1.012864 0.9886385

Conv2DType1_Batchnorm.norm.bias f4 [8]
000000 c8 44 ee bb 27 fb 93 3b cf c1 45 3c cd 47 64 3b
       -0.007271383 0.0045160237 0.012070133 0.0034832836
000010 ff 3b 9e bb d2 10 85 3b 0a 40 c7 bb 60 5f f9 39
       -0.0048289294 0.004060843 -0.006080632 0.0004756404

Conv2DType1_Batchnorm.norm.running_mean f4 [8]
000000 8a 17 a5 b9 38 43 e1 ba f6 b9 2f 3b eb 39 95 3a
       -0.0003148879 -0.001718617 0.0026813722 0.0011385059
000010 7f 25 34 bb 18 3e 09 bc c2 9a ea 3a e7 15 05 bb
       -0.002748817 -0.008376621 0.0017898905 -0.0020307244

Conv2DType1_Batchnorm.norm.running_var f4 [8]
000000 a8 1e 5c 3d 8b aa d5 3d 20 0c 59 3d 99 6d b8 3d
       0.053740174 0.10432919 0.05299008 0.09005279
000010 5b 88 a0 3d a4 ce 21 3d 6f ac 2a 3d 67 6e d4 3d
       0.07838508 0.03950371 0.04166835 0.1037262

Conv2DType2_cnn.conv.weight f4 [16, 8, 63, 1]
000000 17 f6 51 bb 9a 7c a7 bc f5 ed 49 bd 17 68 be 3c
       -0.003203755 -0.020445157 -0.0492992 0.023242993
000010 3b 4a d8 bc e1 fc 08 bd 8c c1 0d 3d 3a e8 1b bb
       -0.026402583 -0.03344429 0.03460841 -0.002378954
000020 9b e8 41 bd fd 65 0c 3b 23 dc 9c 3c 28 6c 4e bc
       -0.04734097 0.0021423094 0.019147938 -0.012599029
000030 95 8b 7e bc 9e d7 98 bc 08 66 43 bc 47 ff d6 3b
       -0.015536209 -0.018657502 -0.011926182 0.006561193
000040 c7 fc 74 bc c8 0b 03 bd df 8c b7 bc 47 6a 0b bd
       -0.014952845 -0.031993657 -0.02240604 -0.0340369
000050 2f ec 2b 3d a4 38 3d 3d 46 a6 8d bc af e7 32 3d
       0.04197329 0.046196595 -0.0172912 0.043677982
000060 af 6c 13 bd 5d 7a c6 bb 84 16 0a bd b1 f5 19 bc
       -0.03599232 -0.0060570673 -0.03371288 -0.009396956
000070 54 bb 20 3a a1 5d c5 3c 8c 13 2c 3d ab bd f7 bc
       0.00061314297 0.024092497 0.04201083 -0.030241808
000080 4b f1 bb bb be 3b 17 bc 52 68 f1 bc 24 29 2d 3d
       -0.0057355515 -0.009230552 -0.02946869 0.042275563
000090 7b 37 a8 3b 63 9f f4 3b f7 8a d9 3b 57 3c 81 3c
       0.005133567 0.0074652894 0.0066388804 0.015775843
0000a0 ef 9d 6a 3b e8 08 dc bc 8f f7 ba 3c 67 49 33 bc
       0.0035799702 -0.026859716 0.022823123 -0.010942793
0000b0 0f ad 38 bd 33 0b f2 bc c7 21 d3 3c 75 4d 19 3d
       -0.045086917 -0.029546356 0.025772942 0.037427384
0000c0 5b 52 01 3d fb 71 86 bb 75 74 07 3d 5b 88 4c bd
       0.03157268 -0.004102943 0.033070046 -0.049934726
0000d0 d3 ac c7 3b 92 48 82 bc d8 f4 ce bc 66 6c a3 3c
       0.0060936003 -0.015903745 -0.025263235 0.01994915
0000e0 65 a4 37 bc dc e6 b1 bb 02 b4 db 3c 85 46 ce 3c
       -0.011208628 -0.005429132 0.026819233 0.02518011
0000f0 95 22 c3 bc 28 0e 4c 3c 57 09 a5 3c f8 ac f0 bc
       -0.023820201 0.012454547 0.020146055 -0.029379353
000100 cb 31 e4 3c 20 b7 00 3d 1b c1 33 3c 15 22 18 bb
       0.027855774 0.03142464 0.010971333 -0.0023213674
000110 d8 65 42 bd 6c 12 12 bd 21 b6 1c bd db 6d 52 3c
       -0.047460407 -0.0356621 -0.03825963 0.012843574
000120 29 1f 39 bd af ef ae 3c 57 95 9a 3b c3 d6 e0 3b
       -0.045195732 0.021354524 0.0047175097 0.006861539
000130 fd 3c 74 3c e7 fc b8 bc f2 c4 0d bd 17 db 13 bd
       0.014907119 -0.02258153 -0.03461165 -0.036097612
000140 c4 ea c9 3c f6 8d a0 3b 27 e7 e5 b9 e2 9e f5 3c
       0.024648078 0.0048997356 -0.00043850506 0.029982988
000150 a0 ad 35 bd 25 9d 3b bd 54 3c 00 3d 9e 76 cc bc
       -0.044355035 -0.04580416 0.031307533 -0.024958905
000160 5b b2 94 bc 77 d3 56 3d 51 06 bf bc 0c ed 90 3c
       -0.018151453 0.052447762 -0.023318442 0.017691158
000170 82 d6 00 3d 87 3d 80 bc da 12 d5 3a bd 61 3f bd
       0.03145457 -0.015654339 0.0016256229 -0.04672407
000180 1a bd 4c 3b 96 0e 8e 3c c8 36 b8 bc cf b3 68 3c
       0.0031240643 0.01734094 -0.02248706 0.014203026
000190 fd 9c 7b 3c 8b 3d 15 3d 71 dd c5 3c 1a 0f 43 3d
       0.015357253 0.036435645 0.024153443 0.047621824
0001a0 9b 2d 96 b9 d3 ca d9 3c c3 15 59 bd b7 7f 8c 3c
       -0.00028644208 0.026585972 -0.05299927 0.017150743
0001b0 3b a6 a8 bc 7f 14 5b bd 28 7e d1 3b 4e d9 00 3c
       -0.020587077 -0.053486343 0.006393213 0.0078643095
0001c0 77 da 87 3c bf 25 b4 3c aa f0 b5 3c 4f ca 04 3d
       0.016583664 0.021990655 0.022209484 0.0324195
0001d0 67 bb 12 bb ef 8d 6f bc ad 63 1c bd 54 73 9b bc
       -0.0022389533 -0.014621242 -0.038180996 -0.018975891
0001e0 eb fd 1b bd 88 c3 f3 3c de 1b 3d 3c 57 8f 5a b9
       -0.038083952 0.029756323 0.011542289 -0.00020843498
0001f0 f2 6b 72 3c f5 8e ef 3c 66 2a 06 3c 55 d3 e3 3c
       0.014796244 0.029242972 0.0081888195 0.027810732
000200 9e 5b 0f bc 1d 94 cb bc 2b 5d a1 bc 12 fe f1 3b
       -0.008749871 -0.0248509 -0.019697746 0.007385024
000210 f3 d2 0f 3c 20 c9 e9 3c 1f 25 86 3c 4c 62 37 3d
       0.008778322 0.028538287 0.016375123 0.044771478
000220 d8 15 74 bc 07 5d 2c 3c 18 2e 3d 3d b5 6f 20 3c
       -0.014897786 0.010520226 0.046186537 0.009792258
000230 26 0d 3e 3c f1 f1 29 3d 2f 9d f5 bc 4f 6f 03 bd
       0.0115998145 0.0414905 -0.029982178 -0.032088574
000240 98 b1 ef bb 6a 33 ea bb ef 1d 1d 3d df 7e 3b 3b
       -0.007314872 -0.0071472423 0.038358625 0.0028609557
000250 37 a5 5a 3c 0d 7c d1 3c 6b 57 38 3d c2 b0 a0 bc
       0.013345054 0.025571847 0.045005243 -0.019615535
000260 d5 e6 ea bc 60 69 ce bc 9f 88 03 bd 26 65 04 3d
       -0.028674522 -0.025196731 -0.032112714 0.032323025
000270 70 a0 8a bc fd 64 1a 3d 7c bd 89 bc 9d f5 7a ba
       -0.016922206 0.037693966 -0.016813986 -0.00095733424
000280 1e 55 3c bd db 2c 8d 3b 2f 08 a0 3c f5 df 2b bd
       -0.04597961 0.0043083257 0.019535152 -0.04196163
000290 f8 83 b0 bc 6a b4 14 3d 10 7f 19 3d 97 6f df 3c
       -0.021547303 0.03630487 0.037474692 0.02727489
0002a0 12 aa e8 bc 78 a3 e4 bc e0 0f 76 bb a2 7c 14 3d
       -0.028401408 -0.02790998 -0.0037546083 0.03625167
0002b0 90 9a 02 bc e7 f6 4d 3c 00 9c f9 3c 62 1b 12 bd
       -0.007971421 0.012571073 0.030469894 -0.035670646
0002c0 77 e1 b0 bc fb a9 36 bc 37 ac f2 bc 30 7f 38 3b
       -0.021591885 -0.011148925 -0.029623134 0.0028151982
0002d0 77 0e 94 bc 60 a2 03 bc c5 fb cd bb 37 80 06 bd
       -0.018073304 -0.008034319 -0.006286117 -0.03283712
0002e0 d3 d0 fd 3c 39 fe 2e 3b 5d 16 2f bd 93 0f 7e bc
       0.030983364 0.0026701821 -0.042745937 -0.015506643
0002f0 9b 9b 73 3c a7 5f b3 b9 45 fa c1 bc 70 cc 08 3d
       0.014868642 -0.00034212807 -0.023678908 0.03339809
000300 21 ee 08 bd 55 af f3 bc 43 b1 14 3d ed 43 d0 3c
       -0.033430222 -0.02974669 0.036301862 0.025423015
000310 ed 3f da bb 86 64 17 3c e5 ff c4 bc 10 59 01 3d
       -0.0066604526 0.009240275 -0.024047801 0.031579077
000320 17 81 11 3d 6f 12 89 bb 9f d5 4f 3d 1b 1c bc bc
       0.0355235 -0.0041831057 0.050740834 -0.02296262
000330 fd b0 96 bc f5 91 38 3d 02 04 6f ba 31 d7 02 bb
       -0.018394941 0.04506107 -0.00091177237 -0.001996469
000340 1a 5c 1f 3d 0f 25 46 bc 7f 8b 94 3b 8f f0 18 3d
       0.038906194 -0.012093796 0.004533231 0.03733879
000350 f9 4a 3b 3d bb 9a 0a 3d f7 60 19 bb 8f 9c 8d bc
       0.045725796 0.03383897 -0.0023403743 -0.017286567
000360 d8 88 75 3c 23 dc 86 bc 2f 6f 41 3d 4a 88 eb 3c
       0.014986239 -0.016462391 0.047225174 0.028751511
000370 a7 cf 24 3d 7d 1c a0 bc f7 7d 44 bc c3 b4 50 3d
       0.040237095 -0.019544834 -0.011992923 0.050953638
000380 d6 7e 22 3d 82 d5 ef bc b3 15 8d bc 97 2c 25 bd
       0.03967174 -0.029276613 -0.017222261 -0.040325727
000390 85 f1 24 bd 3b c8 fe 3c 28 95 38 bd 45 c2 d7 3c
       -0.040269393 0.031101337 -0.04506412 0.026337752
0003a0 87 ce c5 bc 4b 7c f4 b9 5f 3e 96 3c 10 d6 cc 3c
       -0.024146331 -0.00046631912 0.018340288 0.025004417
0003b0 d3 04 8d 3a aa 8e 81 3c 07 03 22 3d aa 74 e6 3c
       0.0010758884 0.015815098 0.03955367 0.028131802
0003c0 82 9b 29 bd ca dd fe 3b 5a 58 12 3d 8d ec f9 3c
       -0.04140807 0.007777904 0.03572879 0.030508304
0003d0 ff 1b 0a bd 8d 13 49 3d a3 7f d3 bc 4b 1b ac 3c
       -0.033718105 0.04909091 -0.025817698 0.021009108
0003e0 15 56 8a 3b 00 9d 3a 3c 8f eb 02 3d a9 0e 18 bd
       0.0042216876 0.011389971 0.031962927 -0.037123356
0003f0 3d 89 76 3b 75 81 ec bc 75 e9 05 bd bf 6c bd bc
       0.0037618421 -0.028870324 -0.032693345 -0.023123143

Conv2DType2_Batchnorm.norm.weight f4 [16]
000000 e4 52 84 3f ff 99 82 3f 0a 97 83 3f 7d 11 84 3f
       1.0337796 1.0203246 1.0280468 1.0317837
000010 d7 cb 81 3f 0a 7f 81 3f ee 0b 83 3f 83 1d 81 3f
       1.0140332 1.0116894 1.0238016 1.0087131
000020 d5 ec 82 3f 9f 61 82 3f 5b dd 85 3f 27 7b 82 3f
       1.0228525 1.0186042 1.0458177 1.0193833
000030 7c fb 84 3f 5b 02 81 3f db f7 84 3f e7 bb 84 3f
       1.0389247 1.0078844 1.038814 1.0369843

Conv2DType2_Batchnorm.norm.bias f4 [16]
000000 7d a3 d1 bc df 9c 95 bc 35 d0 fc bc 3a 14 d8 bc
       -0.025590653 -0.018263279 -0.030861 -0.026376832
000010 01 85 11 bd 17 06 20 bd 27 68 0b bd a3 79 07 bd
       -0.035527233 -0.039068308 -0.034034874 -0.033074986
000020 74 39 91 bc 1f 9b a9 bc d2 07 bd bc 42 68 c6 bc
       -0.017727591 -0.02070385 -0.023075018 -0.024219636
000030 38 2b 2e bd d2 3f 76 bc f0 98 99 bc 43 e9 fe bc
       -0.042521685 -0.015029864 -0.018749684 -0.031117087

Conv2DType2_Batchnorm.norm.running_mean f4 [16]
000000 4d cc e2 bb 85 b8 7e bc eb 7f 21 bc ff d7 5f 3c
       -0.006921327 -0.015546923 -0.009857158 0.013662337
000010 77 5f 1d 3c 76 68 85 bb d2 0f 86 bc ba 27 5b ba
       0.00960528 -0.0040712906 -0.016364966 -0.0008360107
000020 53 5c ab 3a ab 4a 18 3d 19 5d 16 bc d2 79 0e ba
       0.0013073779 0.037180584 -0.00917747 -0.0005435023
000030 0f 71 36 bc 53 3f e2 bb e7 70 30 3a 57 ca 4b bb
       -0.011135354 -0.0069045215 0.0006730691 -0.0031095946

Conv2DType2_Batchnorm.norm.running_var f4 [16]
000000 1e ab 33 3f 06 7a 3a 3f 16 c5 00 3f 5f 05 12 3f
       0.7018298 0.72842443 0.5030073 0.57039446
000010 c0 53 13 3f 8a 1e 0c 3f a9 63 01 3f 4b 28 50 3f
       0.5754967 0.547341 0.50542694 0.8131148
000020 b0 8e cc 3e a5 c8 fd 3e 88 68 33 3f f7 31 db 3e
       0.39952612 0.49567142 0.7008138 0.42811558
000030 89 fc 3e 3f 8f 87 04 3f 6a b8 e3 3e 8a 9c 14 3f
       0.7460409 0.51769346 0.44476634 0.5805136

Conv2DType3_depthwise.conv.weight f4 [16, 16, 1, 17]
000000 e7 4e f2 bc 03 77 82 bc 76 0a 0e bd 57 c3 a3 bc
       -0.02957864 -0.01592589 -0.034677945 -0.019990606
000010 7b 65 8f 3c 4d a0 79 3b c8 65 62 3d 05 72 e1 3c
       0.017504444 0.0038089931 0.055272847 0.027520189
000020 3e ae 0c 3d 75 6d 2b 3d af 7a cb 3b dd 38 3a bc
       0.034345858 0.041852433 0.0062096934 -0.011366096
000030 d5 0b 44 bd a3 b0 81 3c 1e 1c b4 bc b8 f4 02 3d
       -0.047862846 0.015831297 -0.021986064 0.031971663
000040 db 4a 32 3d 25 af 10 3d f7 54 17 3d 78 56 89 bc
       0.04352842 0.03532328 0.036946263 -0.016764864
000050 02 31 56 bd ff 16 33 3d 06 a7 13 bd ab 01 dc bc
       -0.05229283 0.043723103 -0.036047958 -0.026856264
000060 9a 15 db bc 97 35 3e 3d 40 38 6e 3d 00 24 3b bc
       -0.026743699 0.046437826 0.058159113 -0.011422157
000070 3e 1e 46 3c 28 b5 25 3d 6b 8c 1b 3d 37 27 43 bd
       0.012092171 0.040455967 0.03797571 -0.04764482
000080 c6 10 38 3c eb 98 18 3d 8b 0d 6a 3d cb c1 0d 3d
       0.011234468 0.03725521 0.05714182 0.034608644
000090 ec 7b 84 3c aa e4 e6 3c 0b 28 1c 3d 46 5d 44 3d
       0.016172372 0.028185207 0.038124125 0.047940515
0000a0 0d c2 11 bd 68 a8 70 bc ea 2d 0b bd e0 a9 be bb
       -0.035585452 -0.014688589 -0.033979334 -0.0058185905
0000b0 cf 0a 74 bc b3 ab 44 3d 15 47 8a bd 7b fc e4 3c
       -0.014895155 0.048015308 -0.06751839 0.027952423
0000c0 85 5e 0e bd 31 1c 0b 3d 78 0b 65 bd 47 f9 42 bd
       -0.03475811 0.033962432 -0.05591914 -0.04760101
0000d0 a0 ef 2b 3b dd f4 4e bd 4f 5f 42 bd b3 c4 54 bd
       0.0026235357 -0.05052649 -0.047454175 -0.0519454
0000e0 f0 f0 4f 3d 0d d3 03 3d 13 05 60 bd e3 9c 7c 3d
       0.050766885 0.032183696 -0.05469234 0.061673056
0000f0 0b a1 00 bd 50 5f ee 3c c9 d5 41 3c 73 c3 82 3d
       -0.031403583 0.029098183 0.0118307555 0.06384935
000100 2e b5 00 3d 25 f7 6c bd f7 7c 32 bd 2b c6 f3 3c
       0.031422786 -0.057852883 -0.043576207 0.02975758
000110 42 57 77 3b 3b c8 85 3c 81 38 95 bc 60 c3 b7 3c
       0.0037741219 0.016330829 -0.01821542 0.02243203
000120 a7 ff 8c bc 88 c9 d5 3c 6b 56 8e bd 18 7d 1c 3d
       -0.017211748 0.026097074 -0.06950077 0.038205236
000130 07 b6 8d 3c e5 cf 43 3d b3 a6 01 bd 88 f0 58 3d
       0.017298711 0.047805686 -0.031653117 0.052963763
000140 38 e8 21 bd 27 8b 2c bd 72 f7 d1 3c c0 a4 b5 3c
       -0.0395281 -0.042124894 0.025630686 0.022173285
000150 f1 db 17 3d 9c 74 40 3c ca 2d 34 bd 3c 2e 1e 3d
       0.037074987 0.011746552 -0.04398898 0.03861831
000160 bd 1c 11 bd b2 aa b6 bc 7a e4 65 bd bf ab 8b bc
       -0.035427798 -0.02229819 -0.056126095 -0.017049668
000170 57 d5 87 3c da 96 26 3c b2 2c 95 3c c7 ad 0b 3d
       0.01658122 0.010167802 0.018209789 0.034101274
000180 23 19 e4 bc 94 1e bb 3c 78 67 2d bd 32 11 6d 3c
       -0.027844017 0.02284173 -0.042335004 0.014469432
000190 37 90 3f bd 71 1c 43 3c e8 92 48 bc c2 b5 39 bc
       -0.046768393 0.011908636 -0.012242056 -0.011334838
0001a0 db 2c 15 3c fc 03 9b 3c a5 62 41 3d 91 cc 2a 3d
       0.009104933 0.018922798 0.047213215 0.041698996
0001b0 b7 fb 87 3c f2 72 f4 bc 40 d5 cf 3c f9 b5 09 bd
       0.01659952 -0.029839966 0.02537024 -0.03362081
0001c0 43 1f 0d 3d ea 4c f5 bc 2d d2 48 3d 2b 01 a3 3a
       0.03445364 -0.029943902 0.049028564 0.0012436261
0001d0 f0 26 23 3d 9a 18 c3 3b fd f1 e5 3c c2 ec 3e 3d
       0.039832056 0.0059538605 0.02806949 0.04661251
0001e0 10 ef 87 bd 5e fd 0b bd 58 02 91 bc c8 60 04 3c
       -0.066373944 -0.034177177 -0.017701313 0.008079715
0001f0 8f d5 4a bd 5b 43 21 bc be fd 49 3d 02 f4 15 bd
       -0.04952007 -0.009842719 0.049314253 -0.036609657
000200 ca 95 e8 3c 3f b1 8d bb ad 6a 27 bd d2 f3 0a 3b
       0.028391737 -0.004324108 -0.04087322 0.0021202457
000210 7e 6c 8d 3c dd 58 3e 3d 4d f9 37 bc 0d 9e b5 3b
       0.017263647 0.046471465 -0.0112288715 0.0055425228
000220 83 7f bd 3b 3d 97 d5 3c 8b 4e a6 3c 10 4d e9 3c
       0.005783023 0.026073093 0.020301124 0.02847913
000230 48 78 90 3b 9b b6 33 bd 2f 75 99 bc f0 c5 4e 3d
       0.00440887 -0.043875318 -0.018732635 0.050481737
000240 a3 f0 af 3b d2 3d 43 bd a0 97 4b bd 6c cd 33 bd
       0.0053692623 -0.04766638 -0.049705148 -0.043897077
000250 22 0b 54 bc 1f f8 83 bd f7 f9 58 bd ff f0 60 bd
       -0.012942107 -0.0644381 -0.05297276 -0.05491733
000260 23 b9 8f 3c d0 44 32 bd 1f b1 e2 bc 80 7e 53 3c
       0.017544335 -0.043522656 -0.027672349 0.012908578
000270 d8 20 2e 3b d4 9d 3b bd ca 92 20 bd 1f a8 58 3c
       0.002656987 -0.045804814 -0.03920249 0.013223677
000280 a1 2b 26 3d dd 4f 1d 3d db cc 61 3d f2 01 b6 3c
       0.04056895 0.03840624 0.055127006 0.022217724
000290 d6 b3 b0 bc 07 29 5b bd 25 e5 f3 3a 0a f7 63 3d
       -0.021570127 -0.053505924 0.0018607719 0.055655517
0002a0 73 03 23 bc b7 94 4b bd 7c e4 39 3d 1f cb 4e bd
       -0.009949553 -0.049702372 0.045383915 -0.05048668
0002b0 93 b7 02 3d 0f 25 0b bd 6a fa 01 bd e1 bf 04 3d
       0.03191335 -0.03397089 -0.031732954 0.032409552
0002c0 08 20 95 bd 1f f6 12 bd ad ae 66 3c 6f 2b 0f 3d
       -0.072815 -0.03587925 0.014079732 0.03495353
0002d0 9f b6 85 bd ff 45 19 3d b0 63 49 bd 00 e7 1e 3d
       -0.06528973 0.03742027 -0.049167335 0.038794518
0002e0 ae 75 c1 bb 6f f6 94 3b fd 21 2e 3d 18 8d 24 bd
       -0.005903921 0.0045459787 0.042512883 -0.04017362
0002f0 18 87 d3 3c 78 2c 55 3d af 8b d7 bc 0c 0b 2d 3c
       0.025821254 0.05204436 -0.026311724 0.010561716
000300 bb e1 65 bc 2b 4e 60 bd 3b b6 86 bc 4f 92 37 3c
       -0.014030869 -0.054762047 -0.016444316 0.011204316
000310 6a 43 e5 bc 13 91 0f bd b3 c9 07 3d 63 ef 4b bd
       -0.027986247 -0.035050463 0.03315134 -0.049788844
000320 05 38 62 3d ae 36 a1 3c 28 ec 48 bd 4d 06 b9 bc
       0.055229206 0.019679394 -0.04905334 -0.022586012
000330 af 58 12 3d cf 27 a6 3c 87 63 31 ba 33 5a 08 3b
       0.035729107 0.020282654 -0.0006766845 0.0020805716
000340 e2 71 4e bc f7 57 05 bd ce 41 1b b9 7c e8 9a 3c
       -0.012600394 -0.032554593 -0.00014806466 0.018909685
000350 7a 25 6a bc e3 f9 67 bd d3 35 67 3c 42 af 19 3d
       -0.014291162 -0.056634795 0.014111954 0.037520654
000360 11 e7 86 bd 92 7b f7 3c 50 7a 67 bd 53 55 dc 3a
       -0.06587041 0.03021029 -0.05651313 0.0016810097
000370 82 63 23 bd 2f 42 59 3d eb 87 35 3d a3 e4 1b 3d
       -0.03988982 0.053041633 0.044319075 0.03805984
000380 40 79 02 3d d0 ba ec bc d7 46 e7 3c 96 2c bf bc
       0.031853914 -0.028897673 0.028232021 -0.02333669
000390 c9 fa 14 3d f5 15 7a 3d fa 5c f6 bc f9 1c 14 3b
       0.03637198 0.061056096 -0.030073632 0.0022600277
0003a0 3d 20 66 3d 13 a9 f7 bc 41 fc 2e bd 9f 8e f4 3c
       0.05618309 -0.030231988 -0.042721037 0.029853163
0003b0 1e 48 17 bd 8b d5 65 bc e3 0b 2d 3d f3 a0 d5 3b
       -0.03693401 -0.014027963 0.042247664 0.006519431
0003c0 ff 84 bd bc af 9e dc 3b a4 0b 99 bc 35 a8 53 bc
       -0.023134707 0.0067327837 -0.018682308 -0.012918522
0003d0 48 39 57 3d f2 33 21 bd ca 16 10 bc 5e 88 16 3b
       0.052544862 -0.03935618 -0.008794496 0.0022969465
0003e0 1b 4c 9c 3d 59 a9 b6 bc 2c 5f 3b bd 74 da ba 3c
       0.076317035 -0.022297548 -0.04574506 0.022809245
0003f0 d0 e5 54 bd 55 86 d0 bc 3b bb 57 bc 93 0c cc bb
       -0.05197698 -0.02545468 -0.013167198 -0.006227085

Conv2DType3_pointwise.conv.weight f4 [16, 16, 1, 1]
000000 b2 2b 46 3e da ff 46 bd b4 59 17 be 82 da 6f be
       0.19352606 -0.048583843 -0.14780313 -0.23423198
000010 62 0a 72 3e 82 b3 44 3b 4f e5 2b be 7d 18 84 be
       0.23636773 0.0030014222 -0.16786693 -0.25799933
000020 71 9a a1 bd df 08 a7 3d 57 2f 27 3c 93 ad a7 bd
       -0.078907855 0.08155989 0.010204158 -0.081874035
000030 80 85 d5 3b 8a 83 86 3d a3 67 c2 3d 18 fa 53 be
       0.0065161586 0.06568058 0.094924234 -0.20700872
000040 76 7d 28 3d 19 4e 02 be 94 bc 30 bd e0 87 38 3e
       0.041135274 -0.12725104 -0.043148592 0.18020582
000050 47 d3 9b bd 80 6c e2 3d 29 d1 a6 bc 67 2b 21 be
       -0.07608657 0.11055851 -0.020363407 -0.15739213
000060 cd 2a 09 be 44 28 a5 bd ba ee 6e be 2b c6 68 3e
       -0.13395233 -0.08064321 -0.23333254 0.22731845
000070 3a d0 95 3d 06 70 49 be 9b 21 5f 3d 53 e1 76 3e
       0.07315107 -0.1967164 0.054475408 0.24109392
000080 52 e5 41 be 37 1f 34 be a3 6a 34 be a5 14 db 3d
       -0.18935135 -0.17590033 -0.17618804 0.10697297
000090 a2 c2 ac 3d cb 72 08 3e d7 9f 04 3e a8 93 17 3e
       0.08435561 0.1332504 0.12951599 0.1480242
0000a0 a3 b4 5d 3e 69 8f 13 be 7f 03 47 3e 1f e0 fe bd
       0.21650939 -0.14410175 0.19434927 -0.124450915
0000b0 9a a8 6f be 62 38 2f bd 30 eb d9 bd 8e b6 4b 3e
       -0.2340416 -0.04277838 -0.106405616 0.19893858
0000c0 a4 e3 11 3e 2b 37 1a 3e 59 49 49 bc 34 fd c3 bd
       0.14246994 0.15060107 -0.012285554 -0.09569779
0000d0 59 59 c6 3d bf 49 10 be cd f3 15 be 9d 5e f6 3c
       0.096850105 -0.14090632 -0.14643784 0.030074412
0000e0 65 12 59 3c af cb 27 be f0 cb 86 3d 65 de 3e 3e
       0.0132490145 -0.16386293 0.06581867 0.18639524
0000f0 53 9c e8 bd d7 1e 7c 3e 1d 1b 69 be b0 df 6e bd
       -0.113579415 0.2462114 -0.22764249 -0.058318794
000100 a2 ff 9f 3c df 08 c8 bd 3f e7 00 be a0 08 94 3d
       0.019531075 -0.09767317 -0.12588213 0.072282076
000110 fa bd e6 3d 77 92 72 bc c2 21 d2 3d 4d 89 85 3d
       0.11266704 -0.014805428 0.10260345 0.06520329
000120 13 9a 04 be 93 00 5a 3e 88 72 5c 3d 8b cf cd 3d
       -0.129494 0.21289282 0.053820163 0.10049351
000130 e8 ad f6 bd 0e 6b 89 3d 69 d5 2d bd 91 a5 12 be
       -0.12044889 0.06709872 -0.042439852 -0.14320971
000140 7d 67 fc 3c 2b fe 60 bd 6c 1a 89 be d2 38 f2 3d
       0.030811066 -0.054929893 -0.2677797 0.11827244
000150 46 7b b3 bc 7c f4 88 bc 62 9c fd 3c 07 96 38 be
       -0.021909367 -0.016718142 0.030958358 -0.18025981
000160 5b cb 1d be 67 24 3a 3e df 0b 43 be ec 21 ad bc
       -0.15409605 0.18177949 -0.19047497 -0.02113434
000170 e7 c7 7b be 0a e5 69 bc 93 87 dd bd 9d b9 f6 bd
       -0.24587975 -0.014275799 -0.10816874 -0.12047122
000180 ac 78 36 3e 24 88 87 3d 93 4a 4a 3e 2d 95 78 3e
       0.1781947 0.06617764 0.1975501 0.24275656
000190 ce 32 07 be 6d b7 78 3d 2a dd f8 3d 17 fc c2 3d
       -0.13202974 0.060721803 0.12151559 0.095207386
0001a0 89 20 83 bd c4 9e 20 3e df 35 3a be bb e1 06 be
       -0.0640269 0.15685564 -0.18184613 -0.13172047
0001b0 ca d9 fe 3c ca 38 d3 3d 7d 1a 5e 3e 96 70 cb 3d
       0.03110971 0.10313566 0.21689792 0.099335834
0001c0 12 d4 fd 3d 15 ba 9f 3b c3 d3 65 be 1f a1 a5 bd
       0.12393965 0.0048744776 -0.22444062 -0.08087372
0001d0 ff e3 ec bd c0 c1 e1 3d 20 23 de 3d 63 40 22 3d
       -0.11566924 0.11023283 0.10846543 0.039612185
0001e0 ba 35 55 3e ba 9a 0c be 2b 3c 61 3e a5 3d bf bd
       0.20821276 -0.13730898 0.21995609 -0.0933793
0001f0 1f 44 d1 3c d9 62 45 3e 25 f1 d9 bd 3f 60 19 be
       0.025545178 0.19275989 -0.10641698 -0.14978121
000200 2d d3 44 3d 9a 7d 33 be f2 e4 73 bb eb 21 6d 3a
       0.048052955 -0.17528382 -0.003721532 0.00090458867
000210 5e 29 44 3b 15 ee 3d 3c af 75 0a 3d cb c7 17 3e
       0.0029931883 0.011592408 0.033803638 0.14822309
000220 9f 26 92 3d b3 ef 56 3e ab a4 31 3d 57 50 01 3e
       0.07136273 0.20989875 0.04336993 0.12628303
000230 e3 3b 08 be 7c 66 36 3b d3 31 a1 3c 82 f4 5e be
       -0.13304095 0.0027832082 0.019677078 -0.2177296
000240 33 7a 35 be 60 fc f8 3d df a3 5a be d5 ad db bd
       -0.17722397 0.12157512 -0.21351574 -0.10726515
000250 d7 1f 16 3e fb b8 82 3e 8f b7 c2 3d ea ec 7f be
       0.14660583 0.25531754 0.09507667 -0.2499272
000260 e0 2d 6f 3e b0 33 92 3d 06 c2 4b 3c 02 d2 a3 bd
       0.23357344 0.07138765 0.0124363955 -0.0799904
000270 da 0d 2d 3e 5b ed e0 3c 7f 20 35 3e 32 72 40 be
       0.16899815 0.02745693 0.17688178 -0.18793562
000280 85 f0 df 3d af 4b 16 3e 33 77 bd 3d 9b 3a aa 3d
       0.10934547 0.14677308 0.09251251 0.08311959
000290 d2 15 58 3e 0a ad 71 3d 9e fe 28 be d8 93 eb bd
       0.21102074 0.059002914 -0.16503379 -0.11502808
0002a0 aa 0a 72 3e 36 78 a1 3d a0 6d 1a 3e c8 a4 cd bd
       0.2363688 0.078842565 0.15080881 -0.10041195
0002b0 e3 80 76 3d bf df 3b bd ef e9 15 3e 7d b6 67 be
       0.06018151 -0.045867678 0.1464002 -0.22628208
0002c0 6e 4d 2c be da 65 5d be cf 81 03 3e 10 fd 03 be
       -0.16826412 -0.21620885 0.12842487 -0.12889504
0002d0 eb 94 82 3b 32 44 6a be ef 9c 23 3d 4f d0 55 3e
       0.0039850376 -0.22877577 0.039944585 0.20880245
0002e0 69 b7 96 bd 75 50 4e 3e f2 40 64 3c cd db ea 3d
       -0.073592015 0.2014788 0.0139315 0.11467705
0002f0 12 42 dd bc a2 e3 70 3e 60 e6 b2 bd 4a 2f 8b 3d
       -0.027009044 0.23524335 -0.08735347 0.06796129
000300 77 ba 3c be 87 4d db 3d cf 83 28 3e 01 dd 11 3e
       -0.18430506 0.107081465 0.16456531 0.14244463
000310 65 ca 11 3e ff 87 3c bc b6 b1 31 be be 29 29 3e
       0.14237364 -0.011507033 -0.17352948 0.1651983
000320 e6 29 25 3e 67 9b 4e 3e 08 f0 5f 3d 6a 09 75 3e
       0.16129264 0.20176469 0.05467227 0.23929372
000330 4a bf 15 3e 30 9a 7b be 4b 7d 97 bd 0a af 9c 3d
       0.14623752 -0.24570537 -0.073969446 0.076505736
000340 a8 a5 65 3e 0f 16 20 bd 72 40 e5 3d 93 bd 21 3d
       0.22426474 -0.039083537 0.111939326 0.039487433
000350 fb 59 90 3d 50 cc ad 3d e2 08 64 3d 2f 7c 0b bd
       0.070484124 0.08486235 0.055672534 -0.034053978
000360 2a dc 9a bd 47 b4 04 be 48 6b 91 3e 03 2c 19 3e
       -0.07561524 -0.12959395 0.28402162 0.14958195
000370 43 b1 dd 3d 6d 93 e0 bd 7b da 50 be ed c2 44 3d
       0.108248256 -0.10965619 -0.20395844 0.04803746
000380 e2 ca f6 3d f2 e5 bd 3d 1c b3 3b be ea 3c 63 3c
       0.120504156 0.09272374 -0.18330044 0.0138695035
000390 dc 81 b1 bc 48 9c d8 3d b8 42 84 3d 22 8e 30 be
       -0.021668367 0.10576683 0.06458038 -0.1724172
0003a0 65 70 76 3e 8a ab 08 be 77 52 01 3d 31 6f 40 3d
       0.24066313 -0.13346687 0.031572785 0.04698104
0003b0 18 a4 f0 3c b5 19 52 3e 75 87 6e 3e 43 a8 1e be
       0.029375121 0.20517619 0.2329386 -0.15493874
0003c0 63 51 ce bb 43 82 16 bd df 54 35 3d af 49 f6 3d
       -0.006296323 -0.03674532 0.044270393 0.12025773
0003d0 b6 66 15 3d 93 9e 80 3d f3 44 4d 3e a9 4e b4 3c
       0.036474906 0.06280246 0.20045833 0.022010164
0003e0 f7 4c 59 3e 67 88 d9 3c 12 4d a6 bc 03 d3 e9 3c
       0.21220766 0.0265543 -0.020300422 0.028543001
0003f0 1b 8f 76 be ff 09 30 bd d5 f8 a8 3d e7 48 2d be
       -0.24078028 -0.042978283 0.08250586 -0.16922341

Conv2DType3_Batchnorm.norm.weight f4 [16]
000000 bc e1 84 3f 67 9f 85 3f 64 48 86 3f 67 0f 85 3f
       1.0381389 1.0439271 1.0490842 1.0395325
000010 a9 8e 81 3f 4a a2 7f 3f e2 31 84 3f 00 63 84 3f
       1.0121661 0.9985701 1.0327723 1.0342712
000020 bf df 84 3f 08 ef 85 3f 30 c0 86 3f 87 51 83 3f
       1.0380782 1.0463572 1.0527401 1.0259255
000030 99 7c 84 3f de 0c 84 3f 73 7a 85 3f 40 76 85 3f
       1.0350524 1.0316427 1.0427994 1.0426712

Conv2DType3_Batchnorm.norm.bias f4 [16]
000000 b2 a7 eb 3c 57 c3 da 3c 6f cd 8f 3c 69 8f 11 3d
       0.028766487 0.026704473 0.017554013 0.035537157
000010 6b b7 fb 3b cf 8e 73 3c 7c f3 a6 3c 40 e2 9a 3c
       0.0076817772 0.014865591 0.020379774 0.018906713
000020 af 05 e0 3c 6b 7b ef 3c 30 b5 d3 3c 4b 3a dc 3c
       0.02734646 0.029233655 0.025843233 0.026883265
000030 82 8b 29 3d 8a 2f f3 3c 2f 7e bf 3c d4 82 02 3d
       0.04139281 0.029685754 0.023375599 0.03186305

Conv2DType3_Batchnorm.norm.running_mean f4 [16]
000000 63 77 15 bd 71 14 9b bd a1 b9 27 3e af 6d 3a 3d
       -0.03649081 -0.07572258 0.16379406 0.04551476
000010 6d 38 eb 3d 7f a2 89 3d 57 23 b3 bd 67 f2 d9 3d
       0.11485372 0.06720447 -0.08746975 0.10641938
000020 28 3a 3a 3d 42 4d 87 bd c8 d7 d1 bd 73 3e 9f 3d
       0.04546562 -0.06606533 -0.10246235 0.07775583
000030 12 c4 d0 bd d8 94 9b 3d e6 2a 22 bd ba 0e 11 3d
       -0.101936474 0.07596749 -0.039591692 0.035414435

Conv2DType3_Batchnorm.norm.running_var f4 [16]
000000 21 a1 9a 3d f9 ca 85 3d cf ab 95 3d fd 4f 9f 3d
       0.07550264 0.065328546 0.073081605 0.077789284
000010 53 f2 81 3d 26 18 b2 3d 5d aa 61 3d d3 6d b9 3d
       0.06345048 0.08696012 0.05509411 0.090541504
000020 27 e2 7a 3d 1a d1 c1 3d bd d9 b5 3d 00 e3 9c 3d
       0.061250832 0.09463711 0.08879421 0.07660484
000030 b7 5e 95 3d 27 9c 90 3d f7 76 64 3d 4a c9 46 3d
       0.07293456 0.07061034 0.055777516 0.048531808

Conv2DType4_depthwise.conv.weight f4 [16, 16, 1, 15]
000000 58 3a 94 3c af ee 87 3c 5d 1a 03 3b 78 99 05 3d
       0.018094227 0.016593305 0.0020004727 0.032617062
000010 de d9 b7 3c 2f 34 83 3d 19 c0 43 3b 26 43 30 bd
       0.022442754 0.064064376 0.0029869138 -0.043032788
000020 e0 d1 99 bc 2a 12 7b 3d 2f 87 98 bc 88 bc e3 3b
       -0.018776834 0.06129662 -0.018619148 0.006949965
000030 a1 c3 18 bd b0 96 e5 3c d0 24 60 bd 82 f2 9d bd
       -0.03729594 0.028025955 -0.054722607 -0.0771227
000040 37 79 3b bd f6 47 36 bd 10 09 5f bc f7 e7 87 3c
       -0.045769896 -0.04450222 -0.0136130005 0.016590102
000050 d2 ad d0 3c 0d 70 5e bd 8b 3a 86 bd 06 29 2f 3c
       0.025473509 -0.05430608 -0.06554135 0.010690933
000060 ab 2a 78 bd f6 6b 2e 3d 5c 8b 9a bd a3 1f 92 bc
       -0.060587566 0.04258343 -0.07546112 -0.017837351
000070 7d 16 4c 3d 78 b6 57 3d dd 45 57 3d ba 7e 99 3d
       0.049826134 0.05266425 0.05255686 0.07494874
000080 b0 c4 88 3c c0 0e 89 3b 0c 00 87 bb 93 82 39 3c
       0.01669535 0.0041826665 -0.0041198786 0.011322635
000090 57 b9 c4 bc a7 1b 72 3d ba 97 a1 3c a5 f1 28 bd
       -0.024014158 0.059108403 0.01972567 -0.041246075
0000a0 41 94 08 3d a4 19 b2 3c 3d 82 5a bc 3a 39 42 bd
       0.03334451 0.021740742 -0.013336715 -0.047417857
0000b0 c5 42 e7 3b c8 df 64 bd aa 0a 33 3d 3b c5 61 bd
       0.00705752 -0.055877477 0.043711342 -0.055119734
0000c0 0b 96 4e 3d 5f d9 91 bc 1a 31 91 3c 5d 5c 1e bd
       0.05043606 -0.017803846 0.017723609 -0.038662303
0000d0 7a 51 f8 bb a2 35 3a bd 13 aa 0d bc 00 21 1d 3d
       -0.007578072 -0.045461304 -0.008646506 0.03836155
0000e0 e0 ff 11 bd fa c0 70 3c b8 95 4a bd fc 33 09 bd
       -0.035644412 0.014694447 -0.04945919 -0.03349684
0000f0 bb 9c 01 bd f7 ae a7 bb 22 46 a0 3c 15 cb 2b bd
       -0.03164361 -0.005117293 0.019564692 -0.04194172
000100 db 41 2f bc 42 02 b8 3c 17 12 e7 bc 26 0b 8b 3d
       -0.0106968535 0.022462014 -0.028206868 0.06789236
000110 88 7b 47 3d 71 52 34 bd e2 81 cc 3c d9 30 0e bd
       0.048701793 -0.044023935 0.024964277 -0.034714554
000120 a0 60 53 bd 20 3d 03 bd 53 84 ea 3c e4 af 16 3b
       -0.05160582 -0.032040715 0.02862755 0.0022993023
000130 4a 97 3e bd f2 85 e8 bc 47 36 cb 3c 3b ec 2d bd
       -0.046531 -0.028384183 0.024806155 -0.042461615
000140 2e be 45 3d d2 86 fa 3c 3b bf 0c 3d 3f a0 3e bd
       0.048277073 0.030581865 0.03436206 -0.04653954
000150 fd bc 1d bb a3 13 81 bc a4 89 0e 3d 50 7f 22 3d
       -0.0024068945 -0.015756434 0.034799233 0.039672196
000160 6b 80 d1 3c 9b 18 c1 3c 12 44 22 3d 3a dc de 3c
       0.02557393 0.023571303 0.0396157 0.027204622
000170 05 1a 05 bb 80 fa a4 bd ea ce 70 bb 4a 4e d5 bc
       -0.0020309698 -0.080555916 -0.0036744424 -0.026038308
000180 73 42 92 ba 0e fb 15 3d ca 3a 37 3d 2e b6 2a 3d
       -0.001115872 0.036616378 0.0447338 0.041677646
000190 11 ce 29 bd e8 aa 6f bd 9a 10 88 bd 39 f9 89 bc
       -0.041456286 -0.0585126 -0.066437915 -0.016842471
0001a0 bf c6 e5 bb 83 3a 0d 3c 29 45 2a 3d 70 9c c2 3c
       -0.007012218 0.008619907 0.041569863 0.023756236
0001b0 55 c4 ac bb ea a3 a3 3c 36 2f 01 3d 9e 6d 46 3b
       -0.005272428 0.019975621 0.031539164 0.003027774
0001c0 63 99 37 3d 77 0c 32 bd ce 60 37 3d f0 07 fd 3c
       0.044824015 -0.04346892 0.044770055 0.030887574
0001d0 f0 4f 4f bd aa d0 53 bd 60 62 8c 3c 13 95 cd bb
       -0.050613344 -0.05171267 0.017136753 -0.0062738745
0001e0 ee 14 a5 39 fe be 85 3d e4 ec b6 3c 6b 9e 2d bd
       0.00031486846 0.065305695 0.022329755 -0.042387407
0001f0 4f b1 3a bd e2 b8 7e 3d 5d 47 30 bd 7b 24 eb bc
       -0.04557925 0.062188037 -0.043036807 -0.028703919
000200 4d 15 91 3d 7b 7c 58 3d e7 ac e6 bb b5 d2 7c 3c
       0.07084141 0.05285309 -0.0070396545 0.015431096
000210 b6 ed 4a 3d 75 95 64 bd 1f 1b 68 bd c3 9b fb 3b
       0.049543105 -0.055806596 -0.05666649 0.0076784804
000220 a4 7c 0b 3d d5 8d 28 bd 90 53 67 3d 92 21 45 bc
       0.034054413 -0.041150887 0.056476176 -0.01203193
000230 0b 2b 8c bc fd 94 5e 3d 88 0b cc 3c b8 28 64 3d
       -0.017110368 0.054341305 0.024907842 0.055702895
000240 97 8d 04 3d 47 10 4c 3c 47 73 62 bd 92 5b 4a bc
       0.032361593 0.012455053 -0.05528572 -0.012350934
000250 3b 66 71 bd c7 5b 75 bc 6b 86 c9 bc 87 cf 9c 3d
       -0.058935385 -0.014975495 -0.024600228 0.0765677
000260 cd 30 97 3d e9 74 8d 3d 4f e1 94 3d 25 53 10 3d
       0.07382355 0.069070645 0.07269537 0.035235543
000270 47 b6 94 3c e4 ff 37 3c 02 f1 70 3d 06 2a 43 3d
       0.018153323 0.011230443 0.058823593 0.0476475
000280 95 70 b1 3c 32 89 7d 3d d7 84 ff 3a f3 44 b9 bb
       0.021660129 0.061898418 0.0019494545 -0.0056539713
000290 cf 9a 25 3d db dc bc 3c ad d6 87 3b 0b 91 c6 bc
       0.04043084 0.02305453 0.0041454644 -0.024239084
0002a0 fb ce e7 39 f2 3e 36 bd 2d 7a d6 3c 38 68 ff bc
       0.00044213966 -0.044493623 0.026181305 -0.031177625
0002b0 47 97 26 3b 9e b0 0f 3d 78 3d 57 3d f2 3e fc 3c
       0.0025419758 0.035080545 0.052548856 0.030791733
0002c0 8a c4 79 bd e2 11 5b 3d 26 31 82 3b 7c 30 29 bd
       -0.06097845 0.05348385 0.003973144 -0.041306004
0002d0 88 92 2f 3d 40 ce f6 bc aa ed c1 bc 30 2e 86 bb
       0.042864352 -0.030127645 -0.023672897 -0.0040948614
0002e0 23 45 8b 3d a6 5a 4b bc da 24 24 bd dd e5 0c bd
       0.06800296 -0.012411749 -0.040074207 -0.034398902
0002f0 7f 44 07 3d ba 88 56 bc 15 7e 1b 3d f5 62 7e bc
       0.033024307 -0.013094122 0.037962038 -0.015526523
000300 10 ec 07 bd 40 3a 4a bd cb d3 ef 3c f6 16 1d 3d
       -0.03318411 -0.049371958 0.029275795 0.038351975
000310 0b 72 17 bc da 6b 4b 3d 42 ec 8b bc c0 48 5a 3c
       -0.009243499 0.049663402 -0.01708043 0.013323009
000320 e3 0c 20 bd cd 6d 81 3d 59 9c 04 bd 63 1e 59 bd
       -0.03907479 0.06319771 -0.032375667 -0.053007495
000330 20 1c d6 3c 87 26 e9 3c 04 1f 08 bc 42 cf 74 3d
       0.026136458 0.028460754 -0.008308176 0.05976797
000340 69 4f 1a 3d 0e 60 09 bc 03 57 61 bd 12 c7 ce bc
       0.037673388 -0.008384718 -0.05501462 -0.025241408
000350 62 58 6d 3d b0 ad 85 bc 73 13 2e 3d 9d 73 dd bc
       0.057945617 -0.016318172 0.042499017 -0.027032668
000360 c4 dc 3b bd 03 aa a0 bc 81 a6 1f bd b3 09 3c 3d
       -0.045864835 -0.019612318 -0.03897715 0.045907687
000370 47 98 f6 bc cd d9 30 bd 5f d8 32 3d 28 d9 dc bc
       -0.030101908 -0.04317646 0.04366338 -0.026959017
000380 98 00 88 bc 65 3b 52 3a ef 52 86 3d 00 c5 69 3d
       -0.016601846 0.0008019715 0.06558787 0.05707264
000390 d0 7b b8 3c 9b 33 35 bd 0a 63 40 bb 20 68 4a 3c
       0.022519976 -0.044238668 -0.0029355907 0.012353927
0003a0 66 aa 9e bb f4 d5 c2 3c 71 f3 92 3d 80 e8 88 bc
       -0.0048420904 0.023783661 0.07175339 -0.016712427
0003b0 3d c0 7b 3d 6d bc c0 bc 10 37 6d 3d 30 ce 5c 3d
       0.06146263 -0.023527348 0.05791384 0.053907573
0003c0 9b 0b 37 bd 8f e6 da 3c 48 a8 f2 3c 6e e1 03 3d
       -0.044688802 0.026721267 0.029621258 0.03219741
0003d0 49 15 0f 3d 87 bb 20 3d 45 0f 32 bd 6c e8 86 3d
       0.03493241 0.03924134 -0.043471593 0.065873
0003e0 72 48 4e 3d 3f 0d 63 3d 39 74 1f bb 40 07 63 bd
       0.050362058 0.055432554 -0.0024330749 -0.055426836
0003f0 25 3b 4f bd 6b 49 91 ba 60 bb 8f 3c 87 63 40 3d
       -0.050593514 -0.0011084502 0.017545402 0.046969917

Conv2DType4_pointwise.conv.weight f4 [16, 16, 1, 1]
000000 bf fd 26 3c 97 61 43 3e e3 9d b5 bc cb 70 7c 3d
       0.010192334 0.19080196 -0.022170013 0.061631005
000010 d3 7a 43 bc ab 23 37 bd 97 9c fd 3d 5d ef 5a 3e
       -0.011931139 -0.04471175 0.12383383 0.21380372
000020 1e 74 b1 3c ef c2 05 3e 67 cc 5d 3e 8f 06 d8 3d
       0.021661814 0.13062643 0.21660005 0.10548126
000030 82 07 11 be 71 b2 37 3e ab b1 f9 3d 9d 38 63 3e
       -0.1416302 0.17939164 0.121920906 0.22189565
000040 ed 06 e4 3d e3 35 c9 bd 80 9c 70 be 0b 72 75 3d
       0.111341335 -0.09824731 -0.234972 0.059923213
000050 e3 68 aa 3d 1f 86 0f be ad d8 21 bd 0d 5b 8b bd
       0.08320787 -0.14016007 -0.03951328 -0.06804476
000060 19 37 9a bd 0b 3d b2 3d 7f 96 e4 bd 95 4d 7f bd
       -0.0753004 0.08703049 -0.11161517 -0.062329847
000070 a0 9c aa bd 6b 23 31 be ba 22 72 be 63 f4 0f 3e
       -0.08330655 -0.17298667 -0.2364606 0.1405807
000080 35 7a cc 3c b3 dc 03 be db d8 a1 3d 5a 6a f7 bd
       0.024960617 -0.12877159 0.0790269 -0.12080832
000090 dd 00 f6 bd fc a1 07 be 43 10 78 3e c3 9d 13 be
       -0.120118834 -0.13245386 0.24224953 -0.1441565
0000a0 e7 fa 6d 3e cd bc 7a 3d e7 5e 08 be 3b 69 f5 3d
       0.23240243 0.06121521 -0.13317452 0.11982962
0000b0 e7 91 2f 3d 8b 96 6d bd 3f 43 2a be 9d 8d 5e 3c
       0.042863753 -0.058004897 -0.16627215 0.013583568
0000c0 c2 2a 58 be d8 eb 31 3e a1 f3 9c bd 87 78 67 be
       -0.21110061 0.17375124 -0.07663656 -0.22604571
0000d0 5f c4 7e 3e d4 88 02 be f5 3a 23 3d 49 f9 30 3e
       0.24879597 -0.12747508 0.039851148 0.17282595
0000e0 48 b5 7b be 6d 38 5c be 8d 17 82 3d 57 97 0e 3e
       -0.24580872 -0.215059 0.06352148 0.13924919
0000f0 62 f8 8d 3d 9c d5 19 3d 1e 7b 81 3d a4 ba 0f 3e
       0.06932141 0.03755723 0.06322311 0.14036041
000100 38 3f ee bd 9f 4c 0a be 3c 7a 89 3d 73 0a 89 be
       -0.11633152 -0.13505791 0.067127675 -0.26765785
000110 37 4b a0 bd 98 89 08 3e 22 46 5f be dc d7 86 3e
       -0.07826846 0.13333738 -0.21804097 0.26336563
000120 67 0c c7 3d d8 97 94 bd c3 f8 f2 bd ea 2b 72 be
       0.097191624 -0.072555244 -0.11863854 -0.23649564
000130 93 11 fc bd 17 07 1b be 1f c4 aa 3d cf 73 57 be
       -0.123080395 -0.15139423 0.083381884 -0.21040271
000140 a5 c4 59 3e b8 21 d0 3d 03 fb 5f 3e 42 16 3e 3e
       0.2126642 0.10162681 0.21873097 0.18563178
000150 0a b1 0e 3e 2e 9f a1 bd 4a c3 2a 3e 69 02 b0 bd
       0.13934723 -0.07891689 0.1667606 -0.0859421
000160 77 af 4b be 7f fb 0c 3d 63 99 5e be b1 9f aa bd
       -0.19891153 0.034419533 -0.217382 -0.0833124
000170 e1 8a 36 3e 70 79 98 bd fb cf 50 3e 30 ed ac 3c
       0.17826416 -0.07445037 0.20391838 0.021109194
000180 0a ce 3d be fe 40 81 be 2a 2b d1 3d a8 e7 54 bb
       -0.18535629 -0.25244898 0.10213311 -0.003248671
000190 68 ff fe bd 53 f4 2c bd 8d b3 1a 3e b0 e1 56 be
       -0.124510586 -0.042225193 0.15107556 -0.2098453
0001a0 e2 20 e9 bd 87 1d cc bc 53 03 17 be 22 c3 da 3d
       -0.11383225 -0.024916423 -0.14747362 0.1068175
0001b0 bc 5b 42 be bb 59 85 be 3b 85 ba 3d ab 72 5a 3e
       -0.18980306 -0.2604502 0.09107443 0.21332805
0001c0 a8 f1 16 be 30 1e 63 3e b3 83 6e be 84 18 b8 3d
       -0.14740622 0.22179484 -0.23292427 0.08989051
0001d0 c5 cd 4e 3e e3 6b 1b 3c 9b d8 4a 3e 20 2c 50 3e
       0.20195682 0.009486171 0.19809191 0.20329332
0001e0 10 df 4b 3e 40 ca 62 be 2d 7a e9 3d a4 23 b0 bd
       0.1990931 -0.22147465 0.11400256 -0.08600548
0001f0 dd de fa 3d 07 3c 8d bd da e2 6f 3d 84 bd 88 3c
       0.12249539 -0.06896215 0.058565952 0.01669193
000200 eb 5c cb 3d 4a 87 5e be e7 90 8d 3e f5 6e a6 3d
       0.09929832 -0.21731296 0.27649614 0.08126632
000210 b8 64 03 3e 16 ab 8c bd e5 a0 f2 bd 89 86 19 3b
       0.1283139 -0.068685696 -0.118470944 0.0023426136
000220 3b 30 2a be 2d ec 2b 3e 3c ba c4 bc 5b 6b 4e 3d
       -0.16619961 0.16789313 -0.024014585 0.05039535
000230 45 a7 1f 3e 21 11 0e be 98 b7 cd bd f7 48 86 bd
       0.15591152 -0.13873722 -0.10044783 -0.06556886
000240 47 38 a1 bd 1f 76 3e 3c 2a d9 05 be b7 13 0d 3e
       -0.07872062 0.011624842 -0.13071123 0.13777052
000250 39 32 15 be 8d 35 2c 3d ef 4b 7b be 2b 3e 80 3d
       -0.1456994 0.042043258 -0.24540685 0.062618576
000260 37 ef 53 3e 49 52 40 bd 34 15 1b 3e b0 94 b6 3d
       0.20696722 -0.046953473 0.15144807 0.08915079
000270 fb 31 d4 bc 4f 30 6a be dc 82 a8 bd 12 0b 51 be
       -0.025902739 -0.22869991 -0.082280844 -0.20414379
000280 47 6c c2 bd a8 8f e2 bd 93 c5 52 be 05 41 50 be
       -0.094933085 -0.110625565 -0.20583181 -0.20337303
000290 ef 00 02 3e 4b e7 2c be a3 96 8d bd 4b 24 8f bd
       0.12695669 -0.16885106 -0.06913497 -0.06989344
0002a0 f3 6f de 3c 64 4d 27 be 9d d8 54 bc f0 36 7b 3e
       0.02715299 -0.16338116 -0.012991098 0.24532676
0002b0 0d 66 0c be 88 0c e0 bd 07 91 6b 3c 5c b3 3b 3e
       -0.13710804 -0.1093989 0.014377839 0.18330139
0002c0 40 1f 48 3e 3d 7e bc 3c 98 fa 72 3e 9a 7e 76 be
       0.19543171 0.023009414 0.23728406 -0.24071732
0002d0 24 f2 33 3e 65 68 56 3d b7 d0 2c 3e dd 2c f3 bd
       0.17572838 0.052345652 0.16876493 -0.11873791
0002e0 47 23 4c ba 3f 5d 45 3e e6 e6 1e 3e 38 40 a6 3d
       -0.0007787239 0.19273852 0.15517768 0.081177175
0002f0 af b3 31 3e cb 4b 43 be 51 cf 34 3e 03 4a 1a 3e
       0.173537 -0.19071881 0.1765721 0.15067296
000300 78 b5 f2 bd 34 0e 18 3e b8 05 e3 bd 03 66 bc 3d
       -0.11851019 0.14849168 -0.11085075 0.09199145
000310 f6 68 37 be 15 01 75 be d5 a4 64 be 0f 6c d8 3c
       -0.17911133 -0.23926194 -0.22328503 0.026418714
000320 f7 db 4b 3e 0b cd 1b 3e 3f 7e 40 be a3 41 0c be
       0.19908129 0.15214936 -0.18798159 -0.13696913
000330 8b 21 57 be 53 69 1a 3e b8 fd 0a be 23 72 9f 3d
       -0.2100889 0.1507924 -0.13573349 0.07785442
000340 1b fd 4a 3d c8 a9 58 3e 0b e5 e8 3d 40 ff 16 3d
       0.049557786 0.21158516 0.113718115 0.03686452
000350 6b bc f8 3d 95 b8 70 3e 6b 52 21 3d 8f 79 c3 3d
       0.12145313 0.23507912 0.03938524 0.0954467
000360 ba b0 51 3e 2b 2b 47 bd bf 17 0f 3e 22 93 ea 3c
       0.20477572 -0.048625153 0.13973902 0.028634612
000370 4d 17 5e 3e d5 e3 c0 3c 1e e9 93 bc c8 1a be bd
       0.21688576 0.023546139 -0.018055495 -0.09282452
000380 3b e8 10 3d 30 ee 86 3e 70 07 cf 3d 82 2c 67 bd
       0.035377722 0.26353598 0.101088405 -0.05643893
000390 73 08 91 bd 52 e3 47 be 37 75 ee bd cb 88 c5 3d
       -0.0708169 -0.1952031 -0.11643451 0.09645232
0003a0 c5 81 31 be 17 2a 55 be 01 f9 c9 3d 01 04 3a 3e
       -0.1733466 -0.20816837 0.09861947 0.1816559
0003b0 d5 75 77 bd aa 95 2d be e8 52 e5 3d ef a8 73 3e
       -0.060415108 -0.16951624 0.11197454 0.23794912
0003c0 4f 4f 89 3e 4a c6 a0 bc 72 bb 6d 3e a7 09 66 bd
       0.2681832 -0.019625802 0.23216036 -0.05616155
0003d0 4b 1f 54 bd 7e 36 2f be 7a 44 85 be 83 eb 52 bd
       -0.051787656 -0.17110631 -0.26028806 -0.051494133
0003e0 46 f4 87 3e 5d 51 5c 3d 8f 20 c5 bd f3 32 05 be
       0.26553553 0.05378853 -0.09625351 -0.13007717
0003f0 25 44 49 3e 5f 54 4a 3e 12 00 86 bd e0 ad 68 bd
       0.19654901 0.19758748 -0.06542982 -0.056806445

Conv2DType4_Batchnorm.norm.weight f4 [16]
000000 a7 b0 86 3f 35 a4 87 3f 76 5a 85 3f 3c 29 87 3f
       1.052266 1.0596987 1.0418231 1.0559459
000010 56 41 86 3f f5 18 87 3f 1b 59 88 3f 6a 43 86 3f
       1.0488689 1.0554491 1.0652193 1.0489323
000020 11 f0 86 3f 2f 1c 87 3f c7 e1 86 3f 53 d3 87 3f
       1.0542012 1.0555476 1.0537652 1.0611366
000030 ff e8 87 3f 8c fe 86 3f cd db 86 3f 75 8c 87 3f
       1.061798 1.0546432 1.0535828 1.0589739

Conv2DType4_Batchnorm.norm.bias f4 [16]
000000 ff 09 f4 3c b3 78 e3 3c 47 38 af 3c dc d8 16 3d
       0.029789923 0.027767515 0.02138914 0.036827907
000010 93 20 1b 3c 4f b1 8d 3c 2f cf c5 3c 72 14 c8 3c
       0.0094682155 0.017296461 0.024146644 0.024423812
000020 0e 5d 01 3d 22 32 08 3d 0b 56 e2 3c 0b 20 e4 3c
       0.031582884 0.033250935 0.02762892 0.02784731
000030 55 01 28 3d 25 83 f5 3c 7d f0 dc 3c 42 12 fe 3c
       0.041016895 0.029969761 0.026970142 0.031014565

Conv2DType4_Batchnorm.norm.running_mean f4 [16]
000000 fc a8 4c 3d 9e 4e 95 3a b1 48 a6 3c bb 5d 5d 3d
       0.049965844 0.0011391228 0.020298334 0.054044466
000010 5a 03 43 bd 45 cf d5 bb b3 ee c9 bc 3d 83 da 3c
       -0.04761062 -0.0065249526 -0.024649953 0.026673907
000020 10 e6 df bc a9 8e 01 3d 32 60 c0 3d f3 3e 69 3d
       -0.027331382 0.031630192 0.09393348 0.0569448
000030 69 99 38 bb f6 00 1f 3c 58 05 ee 3d 8e b7 23 3d
       -0.0028167611 0.009704819 0.11622113 0.039969973

Conv2DType4_Batchnorm.norm.running_var f4 [16]
000000 1f e8 0b 3f 93 00 c8 3e 67 a3 be 3e bd ae de 3e
       0.54651064 0.39062938 0.3723404 0.4349269
000010 4d ab e2 3e fa a5 f3 3e dd f0 ec 3e 17 f5 5f 3f
       0.44271317 0.47587568 0.46277514 0.8748335
000020 95 fb c9 3e 70 cd f1 3e 23 c0 cd 3e 96 55 8a 3f
       0.39449754 0.4722705 0.4018565 1.0807369
000030 08 18 45 3f 55 35 65 3f df cc 08 3f c7 3d 41 3f
       0.76989794 0.89534503 0.5343761 0.7548489
