benchmarks/MOABB/results/MotorImagery/BNCI2014001/LSTMEEG/run2/21210/leave-one-session-out/sub-004/1test/save/CKPT+2024-04-23+02-48-58+00/model.ckpt (torch, 435656 bytes, 15 tensors)

emb_module.shallownet.0.conv.bias f4 [61]
00000000: 35da 4c3c c27d 45bd 5ad5 d3bc 0624 b93d
00000010: 72df fbbd a7b9 153e c82a 14be c51d 07bd
00000020: e010 9bbd b783 cb3d 88fd f8bb 71d6 c2bd
00000030: 8ab3 14be 22d4 dc3c b866 513e f992 133e
00000040: c1ea 163c 2abb 413d 890c b3bd e138 0b3e
00000050: c80d b13d a3ec 223e f1a7 88bd e2d2 2fbe
00000060: 6540 c7bc 1b7e 1d3d b23e 38be 4277 353d
00000070: 561c 223d ddd5 a13d 5059 88bd 9090 50bc
00000080: 9bce 973d 08fa 86bd 2d1a 183e efe4 393d
00000090: 88c2 103d 8efb 2c3e 2b18 8abc 0264 0dbe
000000a0: 65d8 0f3d b7f2 4a3d fd45 66bd 9a95 dd3d
000000b0: 7e21 66bb 1b20 2c3e c3e9 1e3e fe3a b8bd
000000c0: d3b2 ddbd 2eb3 473e 1a48 50bc 8abd b0bd
000000d0: a00a 9f3d a0b3 68bb ef8d 85ba 4284 383d
000000e0: 6b4c 693c 72e6 4fbb 7fa1 2c3e ca20 91bd
000000f0: ad63 0b3e
0.0125031965 -0.048215635 -0.02585857 0.09040074 -0.12298478 0.14621602 -0.14469445 -0.032987375
-0.07571578 0.09937232 -0.0075985827 -0.09513558 -0.14521614 0.026956622 0.2044934 0.14411534
0.009211243 0.047297634 -0.08742625 0.13595916 0.08645207 0.15910582 -0.06672657 -0.17170289
-0.024322698 0.03845034 -0.17992666 0.044303186 0.039577805 0.07902119 -0.0665766 -0.012729779
0.07412454 -0.065906584 0.14853735 0.045384344 0.03534177 0.16892835 -0.016857227 -0.13807681
0.03511848 0.049547877 -0.05621909 0.1081955 -0.0035115178 0.16809122 0.1551886 -0.08995627
-0.10825124 0.19501945 -0.012712503 -0.08629902 0.077656984 -0.0035507455 -0.0010189394 0.045048006
0.014239411 -0.003172305 0.16858481 -0.07086332 0.13612242

emb_module.shallownet.1.conv.weight f4 [64, 61, 1, 17]
00000000: 6e29 16bd 8d9f 85bd ec46 b83c 15fa 81bd
00000010: 128b 84bc 8497 393d 9ef9 80bd db12 513c
00000020: f5c0 debd 7f87 163c f5b8 e73c fe1e e2bc
00000030: ebd8 9cbd e29c dabc 17ba b3bb d685 43bc
00000040: ff1c 86bd b28a 773c ce64 a23b f97b c83c
00000050: 92d7 613c 5918 b63d 5447 0e3e aba9 b6bd
00000060: 556a bd3c 41a5 1dbd e2bb 8a3d 8091 033e
00000070: c1f5 cbbc 6009 a2bc bd15 42bc 2b6d 63bc
00000080: be59 bebb b1e7 49bd eef7 ba3d 086a 103e
00000090: d2c2 3f3c 6e4a 4e3c 138b 9f3d abb3 803d
000000a0: 3a7a b23d 48b4 3a3b edd9 70bd 40d2 123c
000000b0: b041 763d 9d40 5b3d 2c36 8e3b 8408 85bd
000000c0: d02b 6f3d bc31 193d baf9 a4bc d08a c93c
000000d0: 9eaa 833c eede 6dbd 4803 18bd 64c5 0a3d
000000e0: 7e03 a6bc 721c f13c 8071 093a 9666 0abc
000000f0: 4e3d fdba 1b77 bb3c 72bd 7e3d 0b20 c63d
00000100: 9133 913d 9a14 e93d b5ab d73d 530e 123d
00000110: 32e7 1e3d 8a1d b13c 6b37 793d 023b cc3c
00000120: 4ab8 f9bb 68fb 51bd 38d7 273c 0884 7bbc
00000130: baea fcbb 770e 20bd 67d0 84bd 2a4b d8bc
00000140: acd9 933c bc7a 963c b67d a7bc 9a3d 97bc
00000150: ee40 0d3d 2dff 8d3d c873 6ebd 3527 003d
00000160: d895 913d 4b00 683d 622f 773d e8f8 e2bc
00000170: 7a59 f5bc 485f af3b 1de9 813d f040 cdbb
00000180: e007 69bd a665 36bd 1545 90bc d661 afbc
00000190: 4b36 a3bd c9d1 27bc c212 55bc eefa aebc
000001a0: c7ab a63d 160a 9c3d 30b9 253d 2859 0d3c
000001b0: 0903 31bd 550c 233c 92c5 743d c940 463d
000001c0: 0ea0 06bd 8db4 e1bc d6f7 1fbd cf37 8e3d
000001d0: 4d37 0fbd fabf 8e3c 3604 a83d 7501 9b3d
000001e0: b018 1c3d 68db 013d e8cc c43d 3537 c43d
000001f0: 0ec3 d63d f639 173c 5610 753d db79 293d
00000200: 6780 1c3d 0d32 5c3d b210 ef3c aae4 253d
00000210: 16bd c7b9 312f 013d f447 233c ff01 c1bc
00000220: c60f 37bb 36f1 7e3d aa46 b8bd 566e 6dbc
00000230: 49ea c1bd e3a9 aebd dedb bc3d 704b 32bc
00000240: 4da8 7639 d249 a2bd c556 9cbd 3a42 843d
00000250: e37e 343c ea7c 84bd d682 453c 3ea5 053d
00000260: 6652 ecbc 1206 873d 5d19 fa3c 8e1c 783d
00000270: 7faf 1a3d 65f4 bd3d b8c5 f73d fd21 05bd
00000280: 6a30 6f3c 5b9c f63c ada4 ab3d bb66 033e
00000290: 822d b4bc 8ec1 f03b 3072 d43d 5a1e 67bc
000002a0: 0ee8 4cbc 1809 543d 957b 3c3c 7e6a ccbc
000002b0: eefb e4bc a2e2 913b c254 57bb 5127 3fbd
000002c0: 7ec7 66bd 4f4c bfbd baef 0abd 5250 dfbb
000002d0: f20c a1bd 504e 9bbd b6b4 663c 1433 a63d
000002e0: 10df 08bd 6108 873d 6cb0 0f3e ed73 afbc
000002f0: 52a6 d23c 9535 f8bb 62f9 e2bc 1322 77bb
00000300: 47f7 3c3d f786 903d 0463 89bd 5d34 88bc
00000310: e3db d43c 6286 133e 7d53 8cbc f751 47bc
00000320: fa29 1a3d 8baa 93bd 520a 5dbd 98d9 eebb
00000330: 9423 ab3b fa2d 24bd dbdf c63c 3525 c23b
00000340: 85c4 e83b 72d8 b2bb a3ea 58bd 4827 05bd
00000350: d2bd 77bd 1a63 1fbd a11f c4bd 8614 b3bd
00000360: 131d f3bd ae46 5dbd f257 63bd 0659 96bd
00000370: 98ef 44bd 9028 2dbd 568a a4bc b923 293d
00000380: fa2d 90bc 2d7f 66bd 7104 2f3a 69f1 283c
00000390: 3249 233d 3854 0ebd f677 acbc 587c 843d
000003a0: 3079 47bd 2bac fbbc 0a19 00bc 4ccb a4bc
000003b0: cb8e 7cbd 60b9 adbc 7cf6 803d 7beb 23bd
000003c0: 1efd f2bc 7b15 b83b 86da 0fbc e2fd aa3b
000003d0: a04d 9b3d 7de6 84bc 6ecb ce3c c68d 073c
000003e0: 1ac0 313d fa87 c03c d838 863d c07f 003d
000003f0: 26af 263d a7de 243d 06d0 903c 736c 753c
-0.036660604 -0.065245725 0.022494756 -0.063465275 -0.016179595 0.045310512 -0.06297611 0.012760843
-0.108766474 0.009187578 0.028286437 -0.027602669 -0.07658561 -0.026686136 -0.00548483 -0.011933764
-0.06548499 0.015108751 0.0049558645 0.024473177 0.013784306 0.08891363 0.13894397 -0.0891908
0.023121992 -0.038487677 0.06774117 0.12848473 -0.024897458 -0.019779861 -0.011846003 -0.013881008
-0.005809038 -0.049293224 0.0912932 0.14102948 0.011704164 0.012590988 0.07790198 0.06284269
0.08714719 0.0028488804 -0.05880158 0.00896126 0.06012124 0.053528417 0.004339954 -0.06495765
0.058391392 0.037400946 -0.02013861 0.024602324 0.016072568 -0.05807393 -0.037112504 0.033879653
-0.020265337 0.02943251 0.0005243048 -0.00844731 -0.0019320638 0.022883942 0.062192388 0.096740805
0.07089914 0.113808826 0.105307974 0.035658192 0.038794704 0.02162053 0.060843866 0.02493048
-0.007620846 -0.05126515 0.010244183 -0.015351303 -0.0077184113 -0.039076295 -0.06485062 -0.026403029
0.01804813 0.018369071 -0.020445686 -0.018461991 0.03448575 0.069334365 -0.058215886 0.03128739
0.071086586 0.056640904 0.060347922 -0.027706578 -0.029949892 0.0053519346 0.06343291 -0.0062638447
-0.056892276 -0.044530533 -0.017611066 -0.021408956 -0.0796934 -0.010242888 -0.0130049605 -0.021359887
0.08138233 0.07619111 0.04045981 0.008627214 -0.043215785 0.009951671 0.05975873 0.048401628
-0.032867484 -0.027551914 -0.039054714 0.069442384 -0.03496485 0.017425526 0.08203928 0.07568637
0.03810948 0.031703383 0.09609395 0.095808424 0.104864225 0.009230128 0.059830032 0.041375976
0.03820839 0.05375867 0.029182766 0.040501274 -0.00038097118 0.031539146 0.009965885 -0.023560522
-0.0027932986 0.062241755 -0.08997853 -0.014491638 -0.094685145 -0.08528497 0.09221624 -0.0108822435
0.00023523085 -0.07924236 -0.076337375 0.06457944 0.01101658 -0.06469138 0.0120551195 0.03262829
-0.028847884 0.06592955 0.030529672 0.060574107 0.037765022 0.0927513 0.12098259 -0.032503117
0.014598945 0.030103853 0.08381019 0.12832157 -0.021994356 0.0073472923 0.10373342 -0.0141063575
-0.012506498 0.051766485 0.011504074 -0.024953123 -0.02795216 0.0044520656 -0.0032856916 -0.046668354
-0.056342594 -0.093407266 -0.033920027 -0.006814995 -0.07863797 -0.07583296 0.014081171 0.08115211
-0.033415854 0.06593395 0.14032143 -0.021417582 0.025714073 -0.007574747 -0.027706806 -0.0037709519
0.04613426 0.070569925 -0.06708339 -0.016626531 0.025983756 0.14406732 -0.017129654 -0.012165538
0.03763769 -0.07210263 -0.05396492 -0.007289123 0.005222747 -0.04008291 0.024276664 0.0059248456
0.007103505 -0.005457931 -0.052958142 -0.032508165 -0.06048376 -0.03891287 -0.09576345 -0.08744149
-0.1187078 -0.054022484 -0.055503793 -0.073411986 -0.048080057 -0.04227501 -0.020085495 0.041293833
-0.017600048 -0.056273628 0.0006676382 0.010311463 0.039864726 -0.034748286 -0.021053296 0.06469029
-0.048699558 -0.030721745 -0.00781847 -0.02011647 -0.061659615 -0.021206558 0.06297013 -0.040019494
-0.029661711 0.005617795 -0.008780127 0.0052182535 0.07583165 -0.016223187 0.025243487 0.0082735475
0.043396093 0.023502339 0.06553811 0.031371832 0.04069438 0.0402514 0.017677318 0.01497947

emb_module.shallownet.1.conv.bias f4 [64]
00000000: 8ac5 0d3d a23c ea3c c8c9 37bc 8e59 0b3c
00000010: fe07 f3bc eefb c53c 0285 8abc dd58 d43c
00000020: 03b6 18bb c74d b73c cddd 683d 4238 ed3c
00000030: 6d2d f53c 2264 673c 167c 0a3b d09c 8d3c
00000040: 960c f03c 6a54 3d3c e304 fc3b e883 acbc
00000050: 8cb9 15bd 03ef 03bc b6bd cd3c cc08 053c
00000060: 5df6 32bc 729a b03c aaff fe3b edb2 20bc
00000070: 4bcf 803c f496 2a3c 6570 d2bb c6c8 a23b
00000080: 6b3d 7e3c c2eb b3bb 06f6 2f3d a6e1 053d
00000090: d0be afbc 60bf 583c ad5d 72bc d8bb e8bb
000000a0: d236 d3bb 104e f03c 6acf 063a 3de3 bd3c
000000b0: 75c8 d4bb f228 88bc 000b c83c 7db5 06bc
000000c0: bb83 e2bc 906f b23c 8792 3dbc b644 2d3d
000000d0: ba21 953c 7483 4abb 5eba 3bbc 11d7 963b
000000e0: 06d7 44bc d3ac 0cbc 3dd3 d6bc dbfb aa3c
000000f0: 0c36 bfbc 672e acbc f6c7 dabc ce58 2a3d
0.034612216 0.028593365 -0.011217542 0.008505238 -0.029666897 0.024167981 -0.016909126 0.02592128
-0.0023301847 0.022375954 0.05685215 0.02895749 0.029928887 0.014122995 0.002113109 0.017286688
0.029302876 0.01155577 0.007691012 -0.021058992 -0.036553904 -0.00805259 0.025114875 0.008119773
-0.010922995 0.02155802 0.0077819424 -0.009808284 0.015723845 0.010411967 -0.00642209 0.0049677817
0.015517573 -0.005490751 0.042959236 0.0326859 -0.021453291 0.013229221 -0.014792842 -0.007102471
-0.006445744 0.029334098 0.00051426014 0.023179645 -0.006493623 -0.016621087 0.024419308 -0.008221981
-0.027650705 0.021781713 -0.011570579 0.042301856 0.018204559 -0.0030901106 -0.011458008 0.0046032746
-0.012014156 -0.008586126 -0.026223773 0.020872047 -0.023341201 -0.02101822 -0.026706677 0.041588597

emb_module.shallownet.2.norm.weight f4 [64]
00000000: 2538 873f 21d9 873f 48f3 8b3f b0d4 863f
00000010: a11c 8c3f da94 8c3f 30f9 843f d9d6 853f
00000020: 2224 813f f6eb 843f 7b1c 833f 7ff1 873f
00000030: 5fa6 883f f577 873f deb8 8b3f 2649 8a3f
00000040: 0c2c 863f 1bc9 873f 697b 893f 95e2 843f
00000050: 9160 893f b2a8 863f ca25 8a3f 2220 873f
00000060: 18e3 873f 6b51 823f f50c 8b3f 8dd8 883f
00000070: d87d 863f ac4a 853f fa8b 883f ffb5 873f
00000080: 2229 833f df03 873f de03 853f 0f01 873f
00000090: 3744 8e3f a2c2 853f 0184 873f 654b 913f
000000a0: 4dc7 943f 3a0b 893f b0ef 8a3f 71cd 8d3f
000000b0: baf5 883f f2c6 853f d682 853f 14ff 873f
000000c0: 5192 893f 8aba 873f ea3d 893f 8b4d 883f
000000d0: a771 893f bac3 853f b963 8a3f 430c 843f
000000e0: 9713 8a3f 521b 8a3f e8a5 883f 98ab 883f
000000f0: ba65 8c3f aa69 873f f068 883f 2575 8b3f
1.0564009 1.0613137 1.0933619 1.0533657 1.0946237 1.0982926 1.0388546 1.0456191
1.0089152 1.038451 1.0243067 1.0620574 1.0675772 1.0583483 1.0915792 1.0803573
1.0482192 1.0608248 1.0740787 1.0381647 1.0732595 1.0520232 1.0792782 1.0556681
1.0616179 1.0181097 1.0863329 1.0691086 1.0507154 1.0413413 1.0667717 1.0602416
1.0246928 1.0548056 1.0391805 1.0547198 1.1114568 1.0450022 1.0587159 1.1351134
1.1623322 1.0706551 1.0854397 1.1078321 1.069999 1.0451338 1.0430553 1.0624719
1.0747777 1.0603802 1.072202 1.0648664 1.0737809 1.0450356 1.0811683 1.0316242
1.0787228 1.0789587 1.067563 1.0677366 1.0968544 1.0579121 1.0657024 1.0895125

emb_module.shallownet.2.norm.bias f4 [64]
00000000: e3ee dabd ac97 3fbe f299 10be 5e17 27be
00000010: e557 1ebe 0aab 63be d82f b4bd 755c 38be
00000020: a5ed 5fbe 77b0 84be 23f9 6cbe 72db 28be
00000030: 694e aebd 70bf f3bd 2332 ecbd d88a efbd
00000040: 3c63 3dbe f0e3 15be 600b 14be 2d69 dbbd
00000050: ce61 32be ce45 50be 621a 13be db68 8ebe
00000060: 3362 1abe 4a40 2fbe e9dd 2abe 8209 d2bd
00000070: 587b 35be ee59 15be 8575 ffbd da5c f3bd
00000080: 2d99 19be 5aed 13be 6d2f c9bd e757 08be
00000090: 78c5 eebd 292e 3bbe fbe6 09be 854d 27be
000000a0: 4e34 6cbe 8b3d 48be 3539 3ebe 6aa9 5bbe
000000b0: 52c8 0cbe 9833 55be be61 06be cd4b ffbd
000000c0: dabe 0dbe eaa2 e5bd 13fd 12be e9b1 2cbe
000000d0: 9247 1cbe ad7a 25be 2ade 26be 003d 54be
000000e0: d35f 47be 0626 0ebe fdfc d3bd 0af8 0cbe
000000f0: 68a7 94bd 0ddd 45be 7bdb 00be 5a1a 18be
-0.10690095 -0.18710202 -0.14121225 -0.16317508 -0.15463217 -0.22233215 -0.08798188 -0.1800402
-0.21867998 -0.25915882 -0.23141913 -0.16489962 -0.08511049 -0.11901748 -0.11533 -0.11696404
-0.18494886 -0.14637733 -0.14457464 -0.1071342 -0.17420122 -0.20339128 -0.14365533 -0.27814373
-0.15076523 -0.17114368 -0.16686215 -0.1025572 -0.17722833 -0.14585087 -0.12473587 -0.118829444
-0.14999838 -0.14446011 -0.09823499 -0.13314782 -0.11658758 -0.18279327 -0.13467018 -0.16338165
-0.23066828 -0.19554727 -0.1857651 -0.21451345 -0.13748291 -0.20820463 -0.13123223 -0.1246563
-0.13842335 -0.11212714 -0.14354353 -0.16864742 -0.15261677 -0.16160078 -0.16295686 -0.20726395
-0.19470148 -0.13881692 -0.10350988 -0.13766494 -0.07258493 -0.19322605 -0.12583725 -0.14853802

emb_module.shallownet.2.norm.running_mean f4 [64]
00000000: c52f 913d b4c5 943e 05a8 f33c a0b6 493e
00000010: ebd1 ccbe d6f4 d6be 8a4e 9cbd a819 4fbe
00000020: 5348 f43d d637 08be 6200 63bc 89f3 b53d
00000030: 55f7 f1bd 39ee 24be 2a95 08bf bb42 7f3e
00000040: 2a5b 12bd 11b6 b93e 243c bfbc e349 7e3e
00000050: 5341 25be 89d7 13be e2e8 893e b47d 80be
00000060: 130f 2a3e e3d5 0e3c 48f4 67bf d6e1 89be
00000070: 0223 b2bc 3740 4a3e 0e33 0fbe 4929 17bf
00000080: 9ce8 48be 3e61 6abe d2e1 42bd c315 e53e
00000090: 197f 953c e276 2dbd 88d3 8c3e db40 bdbe
000000a0: 1a2d 503e 7244 b1bd 06b3 99be d341 863e
000000b0: 283c bbbd d38a e8bc 654d 9b3e 75f6 63be
000000c0: bec4 3bbd bdbf 3f3e 0e09 40be 4315 1a3f
000000d0: 564f e0bd b018 d03d 23cb 543f 48da fc3d
000000e0: d66e c83e 3d97 64bd e6b4 ce3e 4bce 52bf
000000f0: 4e05 29bd 46ae 6a3d 7d8e 2ebe de3a d1be
0.070891894 0.29057086 0.029743204 0.19698572 -0.40003905 -0.4198367 -0.07632168 -0.20224631
0.11927857 -0.1330255 -0.013855072 0.08884341 -0.11814753 -0.161065 -0.53352606 0.249278
-0.035731472 0.36271718 -0.023344107 0.24832873 -0.161382 -0.14437689 0.26935488 -0.25095904
0.16607313 0.008717987 -0.9060712 -0.26930112 -0.021745209 0.19751059 -0.1398432 -0.5904737
-0.19619983 -0.22888657 -0.04757864 0.44743165 0.018249081 -0.042349704 0.27505136 -0.36963543
0.20329705 -0.08655633 -0.30019397 0.26222095 -0.09142333 -0.028386509 0.30332485 -0.22261985
-0.045841925 0.18725486 -0.18753454 0.6018869 -0.10952632 0.10160959 0.8312246 0.12346321
0.3914706 -0.055808295 0.4037239 -0.8234603 -0.041264825 0.057295106 -0.17046542 -0.40865225

emb_module.shallownet.2.norm.running_var f4 [64]
00000000: 4eaa 8041 7ac3 2441 8693 0441 e704 1541
00000010: c24e 4841 27bf 2c41 a7ea 3c41 04e8 b940
00000020: f51e 5c41 a129 c440 38df 3341 fd45 9b40
00000030: c4b1 2e41 f055 1841 5920 4541 4ebd ed40
00000040: a619 2341 9d9a 6941 d046 8041 f168 1741
00000050: 8a89 b240 ba14 d840 0003 e941 b6f9 1d41
00000060: a242 c141 4c43 1d41 3f03 8041 5e09 1f41
00000070: 1e32 0841 1726 8641 f011 6c41 3fc1 8a41
00000080: 1e21 1741 4581 be40 dde7 3a41 46bf 2141
00000090: 220b 4141 83ea 0341 d867 7b41 6892 ee40
000000a0: b5e7 1f41 668f 1141 2809 6c41 3534 2241
000000b0: 62b8 0e41 a21c 3941 debf 7541 d2e5 2741
000000c0: 7291 b340 1568 0a41 6bcd 7e41 c3f0 0341
000000d0: f302 5e40 3d32 4f41 f68f 3541 cb8d 9041
000000e0: 6a82 4b41 4e49 ac40 91a0 0241 8889 3141
000000f0: d1d4 2041 b6c8 5141 1456 1341 e99b 0041
16.083157 10.297724 8.286016 9.313697 12.519228 10.796668 11.807288 5.809572
13.757558 6.1300817 11.241997 4.8522935 10.9184 9.520981 12.320397 7.4293585
10.193762 14.600247 16.034576 9.46312 5.5792894 6.75253 29.126465 9.873465
24.157536 9.82893 16.001585 9.939787 8.512236 16.768599 14.754379 17.344358
9.445585 5.95328 11.681607 10.109198 12.065218 8.244754 15.7128525 7.455372
9.994069 9.097509 14.752235 10.137746 8.920015 11.56949 15.359343 10.493608
5.6115046 8.650411 15.925151 8.24628 3.46893 12.949765 11.347647 18.069235
12.719339 5.3839483 8.164201 11.096077 10.051957 13.111502 9.208515 8.038064

emb_module.projection.conv.weight f4 [64, 64, 1, 1]
00000000: 1aaf 2a3d 36ef 82be 1377 fa3b 2e41 48bb
00000010: d583 073e 5be6 e9bd 3bb4 963d 26f3 f5bb
00000020: 36d7 e1bd b18d 3ebe 6a24 d0bd f8e2 b2bd
00000030: 65d2 d4bc 2d22 b23d 4376 4ebb 851f 573d
00000040: b2d2 113d 82b9 df3d ae27 14be b580 263b
00000050: a4b2 2abe f3ee 90bd 0ec9 0e3e 72f3 e4bd
00000060: 0814 c73d ab93 5dbd 467d fcbb 705a 803d
00000070: 9654 1b3e c5f5 db3d e87d 79bb a684 303d
00000080: 20bb b5bd f651 6dbd e6b1 023d 359c 8d3d
00000090: 20ad fcbc c21c bebd d67d edbc 4eab 95bd
000000a0: b82c f43c 7ae9 0b3d 9a2a bbba ae92 45be
000000b0: de2e e2bc 41ec 3cbd 9e2c 9d3b a396 f43d
000000c0: d207 a53b dcde 223e 4d1e 4838 4841 d73c
000000d0: e33f 43be 3acf c13c d13e 893d 2b1c 9dbd
000000e0: 7f43 bbbb cb53 ffbc 3a62 a6bd 20bc 283e
000000f0: b411 47bd 8809 debd 53e8 a73d 2a1b acbc
00000100: 1d7e f6bb fe84 d5bd 7fe6 9b3b 1db7 f9bd
00000110: a279 e93b 00fa fabc 3db7 28be 4e76 133d
00000120: 80bc 59be 0a60 19be bde7 f8bd cbea 133e
00000130: bcdf c43c d27d 46be 3213 97bd ba35 95bb
00000140: d2c5 2c3e 8ace 02be fbc1 003e d09d e3bd
00000150: ce69 03be 9372 aebc 795a 8fbd 0321 bebd
00000160: 1a33 9c3d a882 503d af85 4abd e0a9 b3bd
00000170: bd6a 683c 9aec 63bc 84dc b13d 955f 05be
00000180: 58c8 02be 38c3 d5bd 2a1b 05be 0eae a1bc
00000190: 8b52 903c cbba 133e 3a56 cabd 1429 b6bd
000001a0: 72d3 a7bd 360c f0bd ae5d 57bd 65d2 58bd
000001b0: b560 53be 15dc f3bc 1632 f63d f27f c0bd
000001c0: 60ba bd3c 604a cbbd 36c9 133e 1d46 fa3c
000001d0: 273b b53d 8f20 0fbc f55d c3bd 7258 8a3d
000001e0: 68e1 933c b05a 32be b64d 4b3d aa33 4cbe
000001f0: db8c 0bbe 9e54 5b3d 74cd 113d 4b8f f8bd
00000200: 3c6e 35be f871 e0bb 41c8 073e 8d61 34bd
00000210: 277b 10be 103e f83c 66c0 2fbe baa7 2cbe
00000220: 2371 d83d ba14 123e 451e 023e c2b0 26bd
00000230: 3e8a 23be c3f5 f9bd 746f 82bd 2a4d e5bc
00000240: dbac 92bd 72db f23d 67a8 333e 272c a63b
00000250: 5ba1 dbbd f365 fcbd 8dfc f83d 4546 d1bd
00000260: 327f dc3c 65b7 babc bdd1 e23b 02c2 203c
00000270: 8a99 9d3c 9dc6 023e 6b48 2c3e c933 34bd
00000280: 380d 9c3c 9603 85bd 6440 8cbd 553b 173e
00000290: 7981 0e3e 8308 883d 9a6c 2ebd d908 a4bd
000002a0: 8e1a bdbd 2b49 46bd 4ae7 cc3d 5ac6 fe3d
000002b0: 358e fabc 26c0 b93d 302e f93d e04d d93d
000002c0: d2aa 473c 806d d3bd 98f9 4cbd d5ea 063c
000002d0: ab62 b03d 9f91 c73d 4bab fb3c 065a 77bd
000002e0: b4ae 803d cbb6 f7bd 6a13 2d3e fdbe cebd
000002f0: e8b1 19be e154 053e 521b e2bd ab3d 1bbe
00000300: fee1 28be 2d26 b63d fbcf 73bd a618 dabd
00000310: 73bd f8bd eb40 533e 8e4d 633d 6a0d 62be
00000320: 96f6 de3d c56d f53d c9d8 a83a b2f0 98bd
00000330: eb8e ebbd 952c d2bc 802c 353e 4312 ddbb
00000340: baf6 26be ceca 003e 3e3f af3d b21f afbd
00000350: 38c5 563e b949 bebd ba7e 3fbd 3a6d f53d
00000360: 2efa a43d 7abc 64bd 6a9b 303e ee0a 32bd
00000370: ac66 81be 9e34 d2bd b885 f7bd 3a8a ff3d
00000380: 2e64 c93d 3ec3 a23d 26b3 7d3d c6f2 bbbc
00000390: 4df7 78bd ffb1 b03d 3a9b b03d 3301 0f3e
000003a0: 81d3 943c d03b 4d3d 524e 813a 40ab 8dbd
000003b0: 62a2 a43c bb4e 933c ab49 47bd 0eaf 4bbc
000003c0: 592c 46be 4587 d73d f390 44be 3966 103e
000003d0: bfe2 02bd 9ad6 56be ec76 3e3c 207a 0cbe
000003e0: a3cc 5bbe 5ef5 3abe fe0b 5dbd b8e7 cbbc
000003f0: 8532 b73c b652 1bbd 8064 993d 6d5f 2b3e
0.041670896 -0.25573128 0.0076435893 -0.0030556428 0.13233884 -0.1142089 0.07358595 -0.007505792
-0.11027376 -0.18608738 -0.101631954 -0.08734697 -0.02597923 0.08697925 -0.0031503595 0.052520294
0.035601325 0.10924055 -0.14468262 0.0025406305 -0.16669708 -0.07076826 0.13943884 -0.11179246
0.097206175 -0.054095905 -0.0077053634 0.062672496 0.15168986 0.10740236 -0.003806943 0.043095253
-0.08873582 -0.057939492 0.03190794 0.0691456 -0.030844271 -0.09282829 -0.028990667 -0.073080644
0.02980648 0.034158207 -0.0014279664 -0.19294235 -0.027610239 -0.046123747 0.0047965785 0.11942794
0.0050363326 0.15905327 4.7711936e-05 0.026276246 -0.1906734 0.023658384 0.067014344 -0.07671388
-0.0057148333 -0.031167885 -0.08124204 0.16478014 -0.048600867 -0.10841662 0.08198609 -0.021009047
-0.007522358 -0.10425757 0.004757702 -0.12193129 0.0071250955 -0.030636787 -0.1647615 0.036001496
-0.21263313 -0.14978042 -0.121535756 0.14445035 0.024032466 -0.19383934 -0.07376708 -0.004553524
0.16872337 -0.12774101 0.12573998 -0.11114085 -0.1283333 -0.021294868 -0.06999678 -0.0928364
0.07626934 0.050905854 -0.049443897 -0.087726355 0.014185605 -0.013911391 0.08684638 -0.13024743
-0.12771738 -0.10437626 -0.12998644 -0.019736316 0.017617485 0.14426725 -0.09879728 -0.08894554
-0.08194627 -0.11721079 -0.052579574 -0.052935023 -0.2064236 -0.02976803 0.12021272 -0.09399404
0.02316016 -0.09926295 0.14432225 0.03055101 0.08849173 -0.00873579 -0.09539405 0.06755151
0.018051818 -0.17417407 0.049634658 -0.19941583 -0.13627951 0.053547494 0.035596326 -0.12136706
-0.17717832 -0.0068495236 0.13259985 -0.044038344 -0.14109479 0.030303031 -0.17163238 -0.16860858
0.10568454 0.14265719 0.1270686 -0.040695913 -0.15970704 -0.122050785 -0.06368914 -0.027990896
-0.07161876 0.11858262 0.17544709 0.0050711813 -0.107241355 -0.12324133 0.12157545 -0.10218481
0.02691612 -0.022792527 0.0069219754 0.00981188 0.019238252 0.12771077 0.168245 -0.0439947
0.019049272 -0.064948246 -0.06848219 0.14768727 0.13916577 0.066422485 -0.04258404 -0.080095
-0.092335805 -0.048409622 0.100050524 0.12440176 -0.030585388 0.090698525 0.12167013 0.106105566
0.012186723 -0.1032362 -0.05004272 0.008234699 0.086125694 0.09744572 0.030721327 -0.060388587
0.06283322 -0.12095412 0.16901937 -0.10095022 -0.15009272 0.1302066 -0.11040367 -0.15160243
-0.16492459 0.08894 -0.059524518 -0.106492326 -0.121455096 0.20630233 0.055493884 -0.2207543
0.10886876 0.119838275 0.001288199 -0.07467784 -0.11501869 -0.025656024 0.17692757 -0.0067465617
-0.16305056 0.12577364 0.08556984 -0.08550967 0.2097367 -0.09291405 -0.046751715 0.11983724
0.080555305 -0.055843808 0.17246786 -0.043467455 -0.25273645 -0.10263942 -0.12086052 0.124775365
0.09833561 0.07947396 0.061938427 -0.022942912 -0.06078272 0.086277 0.08623357 0.13965301
0.01816726 0.05010587 0.000986526 -0.06917429 0.020096961 0.017981878 -0.04865424 -0.012431873
-0.19352855 0.105238475 -0.19195919 0.14101495 -0.031954523 -0.20980301 0.011625033 -0.13718462
-0.21464781 -0.18257663 -0.053966515 -0.024890766 0.022362957 -0.037920676 0.07489872 0.16735621

emb_module.projection.conv.bias f4 [64]
00000000: e1c6 133e 654c f1bd a531 d03c c223 913d
00000010: 1266 64bd 32fd 513d eea0 c43c 48d2 df3c
00000020: ebba 023e 4820 5bbc ba71 e2bd b8fd 173c
00000030: c604 b7bd c408 a13d 5bfe 4f3c 41ef 0bbc
00000040: da9d 643d 8f3f a63d b998 143e 66d8 cd3d
00000050: 2f4f 11bd 372e 9b3d a06d c83d c010 11bd
00000060: ed00 9e3d 7621 68bd cadd 893a 94fc 12be
00000070: a6db 1bbd 7835 8cbd 7beb 99bd 1fb6 b23d
00000080: 2ae0 c93c e175 a83c 5dce 243d c9dc 94bd
00000090: c94d 073e 461e 023d 2a54 a2bd c66a 49bc
000000a0: 1dab b3bc fd5f 843c ad60 193e b15d b93c
000000b0: 6a12 cebd 897e 293e 326f fd3d 4e44 ee3d
000000c0: ca6f 473d e598 a5bd a324 263e 0e66 ba3d
000000d0: 8c95 a13d 1eb0 c83d 3bb8 ad3d 0b05 7f3d
000000e0: 8021 94bd fa59 c5bb b3fe 91bc b677 f4bd
000000f0: 65a1 203e ad70 13bd baff 823d f005 ec3c
0.14431335 -0.11782149 0.025414297 0.070868984 -0.055761404 0.051266856 0.024002519 0.02732195
0.12766616 -0.013374396 -0.11056848 0.0092768 -0.08936457 0.07863 0.01269492 -0.008540929
0.0558146 0.081175916 0.14511384 0.1005104 -0.035475906 0.07577174 0.09786534 -0.035416365
0.0771502 -0.056672536 0.0010518369 -0.14354163 -0.03805127 -0.06846136 -0.075156175 0.08726143
0.024643023 0.020564022 0.040235866 -0.07268674 0.13213266 0.031767152 -0.07926209 -0.012293523
-0.02193218 0.016159052 0.14978285 0.022627683 -0.10062106 0.16552176 0.123747244 0.11634122
0.048690595 -0.08085803 0.16224913 0.09101497 0.07889852 0.09799217 0.08482405 0.06226067
-0.07232952 -0.006022689 -0.017821645 -0.119368955 0.15686567 -0.035996128 0.06396432 0.028811425

VanillaLSTM.rnn.weight_ih_l0 f4 [256, 64]
00000000: b78d 48be 225b 3cbe bea1 9e3e 2683 993c
00000010: fddc de3d ad42 f8bd d677 373e 0a05 4b3d
00000020: a223 ecbe c2df f2bd ad7b 823d 5056 4fbe
00000030: 2a6f 153d 1a87 4ebd 66d3 103e 62f7 2a3d
00000040: 050f 643e 4af7 0dbd ac90 2a3e d14a 293d
00000050: 2c28 45bd 97c3 abbc c279 9abe ad0e 6a3d
00000060: 92c0 57bc a27c dbbd cdeb 5abd 65e1 703d
00000070: 0216 bebd 10da b6bc bdd2 84bd b6b5 e2bb
00000080: df01 933d a8dc 6cbe c1ea aebe 2a21 b2be
00000090: 8a13 a1bd aa80 4cbe aceb 17be f898 373e
000000a0: d8b7 35be 9d51 483d 5218 9abe d656 91bd
000000b0: fad1 d63d bd98 2bbe ad5c fdbe b536 55be
000000c0: 668f cabb de2b 1d3e 211f a0be bb66 5dbd
000000d0: ae49 21be 622b 47be 1a87 07be 46bd 84bd
000000e0: 739a ac3c 6203 ddbc be54 b43d e461 86bc
000000f0: 9377 bc3d 8631 45bd ef3f 9e3d 0d19 5abe
00000100: 7acb cc3c 1a7e debd 1685 d0bc 8c98 10bd
00000110: 33c8 663e 7a13 fb3d 57fd b7bd b1ba 303e
00000120: 2230 0d3e 3a39 a33d ddcb 39be 46a1 16be
00000130: 9825 593e 546e c0bd 3232 ae3d 02b4 03be
00000140: 292b 803c 5e3f 883d 57f8 2bbc 7668 ad3e
00000150: 8ec6 d43d 4ead 9e3d ac62 37be 0dec ecbb
00000160: b512 163c 9b89 9a3c 231d 433c 8b32 13be
00000170: c0c7 353b 3051 b33c c87b 1eba 52be b53d
00000180: 367c debd fa20 9b3d a20a 4a3d 6eec f03d
00000190: 7214 0bbe 7068 1fbe 13bf 38be c8d9 79bd
000001a0: f855 70bc 59c4 b03d 4036 8ebe ffad 123e
000001b0: 8a4d 833d 5e9a 07bd de92 b5bd 050f 053d
000001c0: a9a4 a43d 24e3 013d 269d debd c3f3 2abe
000001d0: 636f 50bd 4cdd b13c 5e4d 49be c5a8 243e
000001e0: 8cb0 41bd bd87 4bbd 221f 2b3e 23f2 343e
000001f0: a83e 043e b324 51be 3b67 523c 21de 803d
00000200: 3b62 73bb bcb9 0dbd 3b02 67be 5541 fcbd
00000210: 8649 55be 15e2 99bd 35d3 5239 e699 f3bd
00000220: 3a4c b9bd 965d 4fbd 8a48 153d fd72 823d
00000230: 40b5 063d ddcc 66be 9fe8 37be 2e18 643e
00000240: c5bc 52bc daa6 18be 2338 a03d 2de9 46bd
00000250: 12a7 c53e 3adc 023e 1bce e13c beac 3a3e
00000260: 55d8 fa3d f88d 18be 3698 213e 5c1f 0cbc
00000270: 65db 803e 6c36 4bbe 6fdd babd a500 653d
00000280: 6de9 783d e657 e83b 3254 ac3d 9316 d03d
00000290: 2500 5abe 88d4 f2bd 1ed9 da3c 8c70 9e3e
000002a0: eadf 973e ce9c 92be 70b6 013e aa6f 363e
000002b0: 3ac5 17be c3a9 58be aa55 b13d baee 7abd
000002c0: 4d49 7d3e 8506 3bbd b8a3 04be 2ff8 933e
000002d0: 7e7b ba3d f1c3 38be 554b 50be d8e6 6d3e
000002e0: 66fa 61bd 7091 f13d 1898 923d 9229 073e
000002f0: f09a 413e 2d1b 613d 9d47 613c 49f2 88be
00000300: ddcc 09be f2b4 4dbe e2f6 debd eadb 1ebe
00000310: 7d68 16be 6629 ab3d 8a13 8e3d a0d4 e0bd
00000320: 6b71 43bc e6b3 16be 7dcc f2bd fefe e2bb
00000330: 9a92 293e 0238 023e 1b0f 77be dc2d 89bd
00000340: 9e09 19bc 1275 cfbd 045c 2a3e 68fc 69bc
00000350: f3a3 6abd eac8 a53d 337b 95ba 2a5a e3bd
00000360: 90cc 32bd aa68 d93c 2c4b c3bd 827f b33d
00000370: 8604 9f3d 7bb3 15be fff9 42be 0677 393e
00000380: 9270 72bd 5b1a 60be 9a5f 103d ea27 2ebe
00000390: 1e2e 23be c8b8 7e3e 1e11 a4bd a6a6 1c3e
000003a0: 9a2f 013e 0881 c0be ca25 163e 1abe 17be
000003b0: 2b97 f13d af31 0e3b 084d b73d 4212 bebd
000003c0: c903 13bd 90bd 623e a848 df3b f6c3 103e
000003d0: 9c38 afbd 1512 513e e136 b53d 0d8c 2a3e
000003e0: 6b5d df3c 57aa 86bd 108a 45bd 4a23 96bc
000003f0: 8a21 48bd f185 9cbd de6c 71bd 1e11 2bbe
-0.1958531 -0.1839414 0.30982774 0.018739294 0.10881994 -0.121220924 0.17916808 0.049565352
-0.46120936 -0.11859085 0.063712455 -0.2024777 0.036482967 -0.05042181 0.14143142 0.04173983
0.22271354 -0.03465966 0.1665675 0.041331116 -0.048134014 -0.020967288 -0.3017102 0.057142902
-0.013168471 -0.10717131 -0.053447533 0.058808703 -0.092815414 -0.022320777 -0.06485508 -0.0069186343
0.07178091 -0.23131049 -0.34163478 -0.34790927 -0.07865055 -0.19970956 -0.14835995 0.17929447
-0.17745912 0.048905957 -0.3009668 -0.07096641 0.104892686 -0.16757484 -0.49484769 -0.2082165
-0.006181645 0.15348765 -0.3127375 -0.05405305 -0.15750763 -0.19450143 -0.13235131 -0.064814135
0.02106974 -0.026979152 0.08805226 -0.0164041 0.092024945 -0.048142932 0.07727038 -0.21298619
0.024999369 -0.10863896 -0.025454085 -0.03530173 0.22537307 0.12259574 -0.089838676 0.17258717
0.13787892 0.079698995 -0.18144174 -0.14709958 0.21205747 -0.093960434 0.08505668 -0.12861636
0.01564558 0.06652711 -0.010496221 0.3386876 0.10389434 0.07747899 -0.17908734 -0.007230288
0.009159734 0.018864444 0.011908802 -0.1437475 0.0027737468 0.0218893 -0.00060456665 0.08874191
-0.10863535 0.07574649 0.049326546 0.117638454 -0.13582018 -0.15567183 -0.18041639 -0.060998708
-0.014668934 0.086312 -0.27775764 0.14324187 0.06411274 -0.0331062 -0.08865903 0.032485027
0.08039219 0.03171076 -0.108698174 -0.1669455 -0.050887477 0.021711968 -0.1965842 0.16080005
-0.04728751 -0.049689997 0.16711095 0.17670493 0.12914526 -0.20424156 0.012841995 0.06292368
-0.0037137407 -0.03460096 -0.22559445 -0.123171486 -0.20828828 -0.07513825 0.00020105841 -0.11894588
-0.09047742 -0.05062636 0.03644613 0.063695885 0.032887697 -0.22539087 -0.17959832 0.22274849
-0.012862389 -0.14907399 0.07823207 -0.048562218 0.38604027 0.12779322 0.027564099 0.18229958
0.12248293 -0.14897907 0.1578072 -0.0085523985 0.25167385 -0.19844979 -0.09124266 0.055908818
0.060769487 0.0070905564 0.084144965 0.10160556 -0.21289118 -0.11856943 0.026714858 0.3094524
0.2966302 -0.28635257 0.1266725 0.17816034 -0.1482133 -0.21158509 0.08658917 -0.061262824
0.24734993 -0.045660514 -0.12953079 0.28900287 0.091055855 -0.18043496 -0.20341237 0.23232591
-0.05517044 0.11795318 0.07157916 0.13199452 0.1890676 0.054957557 0.013749984 -0.2674735
-0.13457055 -0.20088556 -0.10886933 -0.15513578 -0.14688297 0.083575055 0.069373205 -0.10978055
-0.011928896 -0.14717063 -0.11855409 -0.00692737 0.1655983 0.12716678 -0.24126856 -0.066982
-0.009340672 -0.10129751 0.16636664 -0.01428137 -0.05728526 0.08094962 -0.0011404514 -0.11101182
-0.043652117 0.026539166 -0.09535822 0.087645546 0.07764535 -0.14619248 -0.19040678 0.1811181
-0.059189387 -0.21885054 0.035247423 -0.17007414 -0.15935561 0.24875176 -0.08011077 0.15297946
0.12615815 -0.37598443 0.14662853 -0.14818612 0.11796411 0.0021697094 0.089502394 -0.09280826
-0.03589228 0.22142625 0.006814081 0.14137253 -0.08555719 0.20417054 0.08848358 0.16654988
0.027266225 -0.065754585 -0.04822737 -0.018327374 -0.04886011 -0.07642735 -0.058941714 -0.16705748

VanillaLSTM.rnn.weight_hh_l0 f4 [256, 64]
00000000: 7661 603d 750c ad3d 128b 0bbe ba42 59bd
00000010: 8b3b 45bc 2841 1ebe 4332 64bd 7c82 a5bc
00000020: 00a1 243e 1a7b 96bd 4316 5b3d ae44 983e
00000030: 5971 bfbb 761e 9abc 532f d43d fd2f 583e
00000040: 8e6c cf3d ac23 1b3d 04e7 16be e58c 3abe
00000050: 4669 853d 0afa 623d 46ff a43d c6a4 2fbe
00000060: bb6a 50bd 0676 343e c5d4 5a3d f426 83bd
00000070: d8de 05be cdff ac3d 09eb 8d3e f9f8 af3d
00000080: c6ed 10be d230 3bbe 409e 4fbd e187 29bd
00000090: 53e9 9c3d 4df3 4ebd 0186 a5bd a2fc 64be
000000a0: 2bed efba cef2 a53d 362e f23d 31b1 a83d
000000b0: 8e46 51be 66f5 23be 8148 00be 07fb 49bd
000000c0: 5c52 003e 8e09 49bd 91c4 94bd 7e72 05be
000000d0: 9844 703c 2db5 30bd 9379 e5bd 88aa 2e3e
000000e0: 6385 473e 6d8b 303d be43 613d 6a30 40bc
000000f0: f8a2 7cbe 3258 7cbd ed75 033e 6dd4 063e
00000100: 62ad 383d b49f 2139 4e78 e6bd 001b 8c3d
00000110: f148 abbd 756e d0bd d62b e0bc 344e 08bd
00000120: c415 0cbe 8fef 08bd aa60 203e 153e 523d
00000130: db23 d83d e021 043d 483c 82bd cd72 7fbd
00000140: f85c 223d 6cb4 9c3d c6c7 a13d ae59 a5bd
00000150: aa1a cbbc eee2 edbd 3a3d 14bd e06f 283e
00000160: 2b52 5dbe 6917 433d f2cf 24bd 031a 323e
00000170: 55d3 773d 52f3 40bd 961a 4c3e 70f6 5abe
00000180: b588 543e 029e e2bd 9d07 2d3e 7e7a 24be
00000190: ba0d a2bd d680 833d 68af e9bc 4246 84be
000001a0: 40e2 1cbd 2abf a0bd 7e0b 03be 7330 513b
000001b0: 3504 59be 9b72 a9bd 98da b23d 8e02 f9bc
000001c0: c88d ec3d 8516 8e3d 0384 e3bd 5651 4fbb
000001d0: b0a3 d63a c64e c63c 24a1 813e 9a75 0c3b
000001e0: 9089 c73d 7ab6 253e 5efb edbc db66 75be
000001f0: 5e40 88bd 7a42 aebc 5625 dabc 1a3c d0be
00000200: eaea babd 40cd 9e3e 768b 143c be58 2f3e
00000210: c2cc bdbd 024a 133d be02 ff3d f2b9 2cbe
00000220: 8e97 b53e 088c 06bd 9559 463d a032 053d
00000230: cb8a e9bc f356 263e 1fbc b4bc a2dd 8cbd
00000240: 0fc6 463d 7227 fbbd af5d 8c3d 9d1f 7abc
00000250: 3ddf d33d 2ef3 cfbd 6ad6 2cbd c624 91bd
00000260: 62bf aebd 2d26 6e3d 7b1e b53d a673 b0bd
00000270: 7ab1 c5bd b6e7 01bd 88a3 eb3b 598e 413d
00000280: 3b87 c53b 419e 3b3d 7b7f 5c3e dd20 0cbe
00000290: 9b29 11bd 26c0 853d 25ca 013e 3235 d1bd
000002a0: c8b0 d7bc a5c6 d5bd 92fa b8bc cd58 0f3e
000002b0: 8201 afbd e657 a8bc e6d6 553d 7eb3 f0bc
000002c0: 1d9f 5c3d 0595 233e ba85 85bb 5c1b 0fbd
000002d0: 5b42 2ebe fac2 00be 8ce4 b73d 9d16 19be
000002e0: b50e f7bd 5c0b 9b3d 36d5 033e cceb c43d
000002f0: f09d b93b 35b0 e6bc 26de 5b3c 7a7e bbbd
00000300: 76e1 853d ff2e 34be 0d1f 803d c57a f83c
00000310: 9e7c 93be c514 853d f9be afbd 833d e33d
00000320: d21d 4ebd 9749 0bbe daf9 ec3d c31d 253e
00000330: eff0 1fbe 25ff c4bd 699f b8be b02a afbe
00000340: 33ca 033e ca2c f53d 2b97 643e 9eaa 94be
00000350: 4653 c3bd 2615 e6bd ea2f 9dbe 26e3 573e
00000360: c80d 57bd 82fb 4d3e 1d93 793d f9e6 1bbd
00000370: 2faa 0cbe 1713 28bc 8488 813e c0bb 0c3d
00000380: 9cec 263c 3bbc 4abd 5e40 c3bd 2510 35be
00000390: 35ef d2bd 5b7d 07be 097e 8b3d 105f d43d
000003a0: c230 acbd 5520 71bd fd06 f6bc 180f 5d3e
000003b0: 3b41 64be c557 28be d577 0ebe d229 4f3d
000003c0: 4ea3 463d dabd 3abd 1d88 39be d544 763e
000003d0: 5a2b 383e 7b08 793d 6b9c 29be 3c0f a23d
000003e0: de86 f6bd cfb7 36be aa6a 52bc 76cb ba3d
000003f0: 64bc 07be cbfb e23b 5694 5a3e 0e5d 9ebd
0.054780446 0.084496416 -0.1362727 -0.05304215 -0.012038122 -0.15454543 -0.055711996 -0.020203821
0.16077042 -0.073476985 0.053488027 0.29739898 -0.0058423695 -0.018813353 0.10360589 0.21112056
0.10128127 0.037875816 -0.14736563 -0.1821781 0.0651422 0.055414237 0.08056502 -0.171527
-0.050883036 0.17623147 0.05342557 -0.06403914 -0.1307329 0.084472276 0.2771838 0.0859241
-0.14153203 -0.18280342 -0.05068803 -0.04138935 0.076616906 -0.050525 -0.080822 -0.22361997
-0.0018304934 0.08102952 0.1182522 0.082369216 -0.2043707 -0.16011581 -0.12527658 -0.049311664
0.12531418 -0.049081378 -0.072640546 -0.13031957 0.0146647915 -0.043141533 -0.11204829 0.1705724
0.19484477 0.043101717 0.054996245 -0.011730293 -0.24671543 -0.061607547 0.12837954 0.13166972
0.045087226 0.0001541365 -0.11253415 0.06841087 -0.08363522 -0.10177318 -0.027364653 -0.033277705
-0.13680178 -0.033431586 0.15661874 0.051328737 0.10553714 0.03225887 -0.06359154 -0.062365342
0.039639443 0.076516 0.07899432 -0.08073746 -0.024792988 -0.11615549 -0.036191203 0.16448927
-0.21613376 0.047629748 -0.040237375 0.17392735 0.060504276 -0.04710705 0.19932017 -0.21383071
0.20755275 -0.11065294 0.16897435 -0.16062352 -0.079127744 0.06421058 -0.028526023 -0.25834852
-0.038301706 -0.07848962 -0.12797353 0.0031919747 -0.21193011 -0.082738124 0.087331 -0.030396726
0.1155048 0.06937889 -0.111091636 -0.0031634173 0.0016375687 0.024207484 0.25318253 0.00214324
0.09743035 0.1618289 -0.029050525 -0.23965017 -0.06652902 -0.021271933 -0.026629131 -0.40670854
-0.091268376 0.31015968 0.009066453 0.17123696 -0.0926757 0.03595925 0.12451695 -0.16867808
0.3546719 -0.032848388 0.048425276 0.032518983 -0.028508564 0.16244106 -0.02206236 -0.068782106
0.048528727 -0.12263383 0.06853806 -0.015266326 0.10345314 -0.10153805 -0.04219667 -0.07087092
-0.08532597 0.058141876 0.08843704 -0.08615808 -0.096529916 -0.031715117 0.0071911253 0.047254894
0.0060280836 0.04580522 0.21533005 -0.13684411 -0.03544007 0.0653079 0.12674768 -0.10215224
-0.026329413 -0.10438279 -0.022580419 0.13998719 -0.085452095 -0.020549726 0.052206896 -0.029382464
0.05386268 0.15974815 -0.0040747793 -0.0349382 -0.170175 -0.12574378 0.08979139 -0.14950033
-0.12063352 0.07570526 0.12874302 0.09615287 0.0056645796 -0.028160194 0.0134196635 -0.09154983
0.06537144 -0.17596053 0.062559225 0.030331979 -0.28806013 0.06498102 -0.08581347 0.11095717
-0.050321408 -0.13602291 0.11571093 0.16124634 -0.15619253 -0.096189775 -0.3605912 -0.34212255
0.12870102 0.119714335 0.22323291 -0.2903642 -0.095373675 -0.112345025 -0.30700618 0.21082744
-0.052503377 0.20115474 0.060931314 -0.03806207 -0.13736795 -0.010258458 0.25299466 0.03435874
0.010188248 -0.049495917 -0.095337614 -0.1768194 -0.10299531 -0.13231413 0.06811149 0.10369694
-0.08407737 -0.058868725 -0.03003263 0.21587789 -0.22290508 -0.16439731 -0.139129 0.050576992
0.048495583 -0.045591213 -0.1811833 0.24049695 0.17985287 0.060799103 -0.16563575 0.07913062
-0.120374426 -0.17843555 -0.0128428135 0.09120838 -0.13255459 0.0069269887 0.21345648 -0.077325925

VanillaLSTM.rnn.bias_ih_l0 f4 [256]
00000000: 1efe dd3d 3a98 75bd ea36 b43d 54f5 1c3d
00000010: 4dac 213e 7cce 933d 97a4 1e3e 6e1b 18bd
00000020: 93c3 e23d 0951 973d e33f d1bb a078 8abd
00000030: cef3 63bd 8fef a73d e86a fb3d 8bea 513e
00000040: 6680 8b3d 0e9d 523e 3c1c 413e 64fc 2e3e
00000050: 7f04 93bd f014 533e 3783 263d 221b 5d3d
00000060: d0ee e63d 9500 0b3e 22ab 663e 639d 623d
00000070: 583c 663c a4f7 973d 8813 d53c cd2a 693d
00000080: a427 143c 10e6 143d 6ad8 6f3e 0e32 8b3d
00000090: 0d95 843e 96cc 063e 0fb8 1fbe e2bd efbd
000000a0: ada0 9d3d 3bd4 f53d 753c 2fbd b376 3d3e
000000b0: 1651 f13c 7a7a e53c 5085 573d a9af 933d
000000c0: a67e 213e 8643 0a3e e1da 1d3e 1d8f 963d
000000d0: 6ba4 503e ed75 413d c212 da3d 0a66 813c
000000e0: 8332 843d 00bc 343d 7c77 a83d 56bc 043e
000000f0: 7648 853d 3ad3 0a3d 38b6 ebbc c635 d13d
00000100: 7052 d8bc 52ab adbc 18aa 1fbd bbee 48bc
00000110: fed7 e73b 3518 9b3d 0477 cbbc a0af 85bd
00000120: 03f8 1d3e 5ae3 0e3e b865 af3e 9cef 83bd
00000130: 6547 033e 47e5 193e 7677 3c3e c2a8 093c
00000140: 5e69 a3bd 839b 93ba b07e 26bd 8a19 093d
00000150: b693 cd3d b112 8c3d a2fd 5c3d fbad bcbc
00000160: ed32 87bd 88ac abbd afbc 053d 3222 ec3d
00000170: ae48 893e c9aa 85bc 7be3 f03c 925f 163e
00000180: 8bd9 2c3d 535a f03d d995 24bc 52da 673e
00000190: 74ae 943d f24a 453d 9588 583d 6c9a c83c
000001a0: 871b 2b3e 634b 1cbd 9264 5c3e f1e7 c13d
000001b0: d606 41bc aefe 163e 1b7a b93d 7bee fa3c
000001c0: 42e7 063e ce62 8038 835f 233d a040 073e
000001d0: 2b6e b3bc a68c b23d be8a 2a3d ca30 833d
000001e0: 0a94 2b3e 7aa0 b3bd a529 563e 528e d6bd
000001f0: 656f 453e c6a4 d93d 203c c53c 3539 e03c
00000200: 7c0c 06bd 1655 543b de48 cebd 0b9b 863b
00000210: a06b d63d 63ee 8f3d 28c9 583d 9a6b ec39
00000220: aade 9b3d 462c 0fbd 5e8a 0c3e e4aa 02be
00000230: aaf0 aabd aa82 e5bd bacf e9bd 5936 a0bc
00000240: 6db6 153d 7bf4 253c 75e4 84bd 152e f8bd
00000250: 0861 703b 1530 7cbd 7126 12bc 25d6 7a3d
00000260: 6383 e6bc 633a 0d3d 6b4a 4e3d 08db 00be
00000270: e43e 2c3d d925 153d 6e55 843d 1edd 00be
00000280: e447 0e3d 9fd7 99bd f2cf 353d 0a2d 1fbe
00000290: cd2a 353d b22c 85bd 90c4 813a 0e80 0c3e
000002a0: 8a51 0e3e d0d5 c03d 02e1 2bbd 3aae 24bc
000002b0: 968e 8a3d 0608 5f3b 263a b5bd 88b6 b5bd
000002c0: bc1e 043e e4e0 a33d 0898 b0ba 42ea 823d
000002d0: c27b b13d c306 2c3d 406e dc3d 223d 063e
000002e0: df01 a1bd 5df9 973d deb7 afbc 12f4 e6bd
000002f0: 70cf 79bd 8a1f 7abc bae6 b7bc baae 11be
00000300: f5f2 de3a 4ee7 d23c ef40 823d b220 503e
00000310: 8bd2 ff3d 2eee 0e3e 9266 183e 9e3e d23d
00000320: 15a8 8d3d 1bdb 563e b6a6 b03e 85bb 503e
00000330: ad57 f93d f3ba 803e a556 4dbd fc3a 2c3e
00000340: c8d9 503e 66e4 953e 9e3c 6f3e 7d68 793e
00000350: ad15 9e3d da12 b63d fd68 7a3e c794 073e
00000360: 44ee bf3d 6dcd f63d 62ce 8c3e f2e8 d13d
00000370: 3b6b 213e 3388 9f3c c086 3b3e 32c1 503e
00000380: e6fd a53e 5bec 483c 8a7b 4d3e 161c ec3d
00000390: c025 7c3d 3828 503e 1a3f af3d ac56 163e
000003a0: a612 8e3e 3b0e 3c3e 5572 0e3e 2795 453e
000003b0: a640 543e 9deb b43d da6d 423e e399 613e
000003c0: c2d9 583e 4e92 c73d 2208 513d 8295 633e
000003d0: 9a68 383d 2b30 833d 6688 613d 4ae8 933e
000003e0: 0851 6f3e 1657 e03d 4222 a63d 71f1 463e
000003f0: 6f11 9f3e acb3 98bb 4a2c b73d 9538 2f3e
0.10839485 -0.059959628 0.087995365 0.0383199 0.15788384 0.07217118 0.15492474 -0.037135534
0.11072459 0.07388503 -0.0063857897 -0.06761289 -0.055652432 0.08199989 0.1227625 0.20499627
0.068115994 0.20567724 0.18858427 0.17088467 -0.07178592 0.20613456 0.04065248 0.053980954
0.112760186 0.13574441 0.2252622 0.055325877 0.014052473 0.074202806 0.02601029 0.056925584
0.009042654 0.036352217 0.23422399 0.067966565 0.25894967 0.13163981 -0.15597557 -0.11706139
0.07696662 0.120033704 -0.042782266 0.18502311 0.02945761 0.028012503 0.05261737 0.07211239
0.15770969 0.1350232 0.15415527 0.073515154 0.2037522 0.047231603 0.10648109 0.015795726
0.06454947 0.044124603 0.08225915 0.1296247 0.065079615 0.033892848 -0.028773412 0.102153346
-0.026406497 -0.021199856 -0.038980573 -0.012263949 0.007075309 0.075729765 -0.024837025 -0.065276384
0.1542664 0.13953915 0.34257293 -0.06442186 0.12820204 0.15028869 0.18404946 0.008402051
-0.079790816 -0.0011261556 -0.040648162 0.03347162 0.10037939 0.068395026 0.05395282 -0.02303218
-0.0660151 -0.08382517 0.032650646 0.1152996 0.26813263 -0.016316788 0.029405346 0.14684895
0.042199653 0.11735978 -0.010045492 0.22641876 0.07259837 0.048167177 0.05286463 0.024487697
0.1670972 -0.038157832 0.2152274 0.094680674 -0.011781415 0.1474559 0.09056493 0.030631294
0.13174155 6.1219194e-05 0.03988601 0.13208246 -0.021903118 0.08718233 0.04163622 0.0640579
0.16755691 -0.08770843 0.20914324 -0.10476364 0.19280775 0.10627131 0.024076521 0.027371028
-0.03272675 0.0032399348 -0.10072492 0.004107838 0.104697466 0.070278905 0.052926213 0.00045093597
0.07610829 -0.03495433 0.13724658 -0.12760502 -0.08346684 -0.11206563 -0.11416574 -0.019557165
0.036550928 0.0101290895 -0.06488887 -0.121181644 0.003667893 -0.061569292 -0.008920298 0.06123938
-0.028138822 0.03447951 0.05036394 -0.12583554 0.042052165 0.036413047 0.06461607 -0.1258435
0.03473653 -0.075118296 0.044387765 -0.15544525 0.04423027 -0.065026656 0.0009900499 0.13720724
0.13898292 0.094157815 -0.04196263 -0.0100513045 0.06765477 0.0034031882 -0.088489816 -0.08872706
0.12902349 0.08001879 -0.0013473043 0.063923374 0.08666183 0.041998636 0.10763216 0.13109258
-0.07861685 0.07420609 -0.02144998 -0.112770215 -0.060988843 -0.015266309 -0.022448886 -0.14226809
0.0017009663 0.02574506 0.06360041 0.20324972 0.1249133 0.13958046 0.14882877 0.102658495
0.06916825 0.2098202 0.3450219 0.20384033 0.12174926 0.2514263 -0.05013146 0.16819376
0.20395577 0.29275817 0.23362967 0.24356265 0.07718978 0.088903144 0.24454112 0.13240348
0.093716174 0.120509006 0.27501208 0.10249509 0.15763561 0.019474125 0.18313122 0.20386198
0.32420272 0.012263383 0.20066658 0.115287945 0.06155944 0.20327842 0.085569575 0.146815
0.27748603 0.18364803 0.13910802 0.19295178 0.20727786 0.08834002 0.18987218 0.2203136
0.21176818 0.09744702 0.051033147 0.22225001 0.04502163 0.06405672 0.05506172 0.2888816
0.23370755 0.1095411 0.08112003 0.1942804 0.31067988 -0.0046600904 0.08943994 0.17111428

VanillaLSTM.rnn.bias_hh_l0 f4 [256]
00000000: 15c5 7a3d 6a15 18bc c639 1abd aa55 223d
00000010: 2ee6 103e 3c1e 8b3d cbfc 573e 024c a43c
00000020: bfc7 88bd 9746 0d3e 820b 113d 50ee 5b3d
00000030: 0a2b 7dbd 08e1 cf3d 085f e3bc d6b8 103d
00000040: e3a9 df3d 5071 033e 00f2 fd3d c6a2 7d3b
00000050: 1f77 013e 1340 a43d 22d8 193e 02b9 eb3c
00000060: c142 933d 97e3 393c eb46 063e 903a e23d
00000070: 1802 d9bc ede9 173e 721b 1b3e 0420 ba3d
00000080: 5a32 203e 5624 e3bc 4ef8 773d b1eb 413e
00000090: 92c1 953e e213 6f3d ba04 63bd 5a6e 513d
000000a0: 4aa7 913d 804a d6bd e399 6b3d 45a3 9a3d
000000b0: ea24 2ebd 8088 723e 4bab 6fbd 21ea 203c
000000c0: 328a a03d 9a3b 043e f8b0 583d 22ea 043e
000000d0: 97dc 98bc 833e 0e3e e824 4e3b 57bb 063e
000000e0: aaee 4ebd a3d0 a7bd 5e01 d13d 212b 9e3d
000000f0: f1f4 b93d c6d2 d23d 05f5 273e b01c 4f3e
00000100: daf4 203e 9033 baba 865d 68bb 4a02 403d
00000110: 0a67 a93c 193d 1fbd 6b6c b23b 735d 373e
00000120: 1df7 623e 2b40 573c 88c5 1d3e a58a 143e
00000130: 6530 ab3d 37e4 1a3e 67ec 883d 422b 343e
00000140: 43a5 883d d6a1 c23d 112a 35bc b67b b23c
00000150: 330c 52bd 300d f1bd 628f a63d b28e 963d
00000160: c6b8 8a3d 681a a2bd 06bc 7fbd 9261 733d
00000170: c948 b93d 9dda d6bd 55d7 a43d 62f4 a33d
00000180: 6223 9c3d e31e ff3d 3b29 f03d 7e06 d23d
00000190: 08ba 763b 8255 e13d a6d5 373e f7a5 153c
000001a0: 2048 2d3d e4f9 80bc 5b63 363e 4a3f 753d
000001b0: c424 1f3e a667 3c3e 6325 4f3e e229 123c
000001c0: 05e6 53bc 9bc2 063e 89a0 0fbd e2f5 bf3c
000001d0: 6ce2 89bd 8fcd 263e 5821 85bd 1593 e63d
000001e0: 2851 d23d 5bd6 37bd a61f 673e 5db1 1a3d
000001f0: ce1d cbbc 9d40 853c fea7 e33d ba91 013d
00000200: 2add be3b f610 eabd 2f14 3c3d 157b 05be
00000210: cbc0 debd 42c1 b63d 5a8e 013e 43b1 9b3d
00000220: 6e92 94bb 1699 06be aad2 0e3e 3672 3a3d
00000230: a0ad 0a3c e057 f2bd 83d0 ba3d 76ac 04be
00000240: c287 133e 152c e33d 58f0 893d 3434 b4bd
00000250: 15e3 853d 530b e6bd c378 e33d 338e e5bd
00000260: 6a14 b4bd 0bb8 81bd df7b 0c3e 58da 553c
00000270: a210 0bbe aa26 dabd 484d 63bd 7030 693d
00000280: 6109 15bd 0611 bf3c 6cf2 c93d b83e 04bd
00000290: 5e8e 2cbd 9026 fd3b f0b2 cd3c 9df8 45bd
000002a0: 9d96 dc3d 01e2 853d b192 233c a67c f83d
000002b0: 3ed4 96bc c6e7 933d 8238 ba3b 4dcd 74bd
000002c0: 041e 943d a23e d63d 3e64 f5bd bb2d 60bd
000002d0: e8d3 b53d 9732 8a3d aaf6 47bd 5b51 e73d
000002e0: 6650 613c fdbf e2bd aacb 86bd ed79 bfbc
000002f0: 0272 b23d 606d 3dbd fed0 d0bc 1041 d7bd
00000300: 7816 a53c d2aa 213e 0112 913d 46aa 7f3e
00000310: d670 9c3e 8e2a 2c3e ca96 4f3c 9695 1ebd
00000320: f560 b73d 829a 713e a566 d73e 2cfd a43d
00000330: f223 283d fb8f 593e c39d ad3d 838f d33d
00000340: 5dce 413d 4b2e 923e ad43 523e 9dbc f43c
00000350: 1439 863e c6ff 973d 0716 983e 7821 3c3e
00000360: 4d14 193e 3564 d03d 9018 803e 57a6 403e
00000370: f03c 003e ee83 02bd 4046 113d c6eb 813e
00000380: 6086 6a3e e704 483e 1062 773e 5bee 063b
00000390: 5a8f 643e 869b 4d3e ea11 c33d 2b1f c3bc
000003a0: ad01 e33d eef2 453e 8204 183e 25a5 743e
000003b0: 3e2e 433d 7b11 4d3e 0022 6d3e dd8e 6f3e
000003c0: a6a4 613a f3db 833d f2fd 0a3e ba34 843e
000003d0: ea01 cd3c 8daf e53d 301f 063e 5553 643e
000003e0: 5abb 8e3d c736 363e 903b 833d 2674 393d
000003f0: 6e93 a63e 5d97 2b3e 5d13 003e 7d93 753d
0.06122311 -0.009282449 -0.037652753 0.039632477 0.14150307 0.06792876 0.21092527 0.020055775
-0.066787235 0.13796459 0.035411365 0.05369407 -0.061808623 0.10150343 -0.027755275 0.035332523
0.10921075 0.12836194 0.123996735 0.0038701757 0.12643097 0.08020034 0.15023854 0.028774742
0.07190467 0.011345766 0.1311299 0.11046326 -0.026490256 0.1483533 0.15147188 0.09088138
0.15644208 -0.027727287 0.060539536 0.18937565 0.29249245 0.05836857 -0.05542443 0.05113063
0.07111986 -0.104634285 0.057519805 0.075506724 -0.042515673 0.23684883 -0.058512967 0.009821446
0.07838859 0.12913361 0.052903146 0.1297994 -0.018659873 0.13891034 0.0031455103 0.13157402
-0.050520577 -0.08194091 0.10205339 0.0772307 0.09079922 0.10294108 0.16402061 0.20225787
0.15718403 -0.0014206041 -0.0035456135 0.046877183 0.020679016 -0.038876627 0.0054450533 0.17906742
0.22164579 0.013137857 0.15407383 0.14506014 0.0835884 0.1512612 0.06685715 0.17594627
0.06672146 0.09503524 -0.011057393 0.021787506 -0.051281165 -0.117700934 0.08132817 0.07351436
0.06773524 -0.07915193 -0.062435172 0.059419222 0.09047086 -0.10490916 0.08048884 0.08005597
0.07623936 0.12457063 0.11726614 0.102551445 0.0037647504 0.110026374 0.17952594 0.009133807
0.042305112 -0.015744157 0.17811339 0.05987481 0.15541369 0.18398914 0.20229106 0.008921118
-0.012933259 0.13160174 -0.035065208 0.023432676 -0.0673264 0.16289352 -0.065005004 0.112585224
0.102693856 -0.04488216 0.22570667 0.037766803 -0.024794485 0.016266162 0.11116026 0.031633116
0.0058247047 -0.11429016 0.045917686 -0.13035233 -0.10876616 0.0892358 0.12651959 0.07602169
-0.0045340573 -0.13144335 0.1394755 0.045519076 0.008464247 -0.11833167 0.09121802 -0.12956414
0.14407256 0.11092392 0.06735295 -0.087990195 0.06537453 -0.11232629 0.11107018 -0.11208763
-0.08792956 -0.063339315 0.13719128 0.0130525455 -0.13580564 -0.10651906 -0.055493623 0.05693096
-0.036385898 0.023323547 0.098606914 -0.032286376 -0.04212796 0.0077255443 0.025109738 -0.0483328
0.10770915 0.065372474 0.009983704 0.1213315 -0.018411752 0.07221942 0.005683006 -0.059766103
0.072322875 0.10461165 -0.1198201 -0.054731112 0.088783085 0.067479305 -0.04881922 0.11294814
0.013752079 -0.11071775 -0.065818146 -0.023373568 0.087131515 -0.046246886 -0.02549028 -0.105104566
0.020152315 0.15787819 0.07083512 0.24967298 0.30554837 0.16813108 0.012670228 -0.038716875
0.0895404 0.23594096 0.420705 0.08056101 0.041049905 0.2124633 0.08477356 0.10330107
0.047315944 0.28550944 0.20533629 0.029875094 0.26215422 0.07421832 0.29704306 0.18372142
0.1494915 0.10175363 0.2501874 0.18813454 0.12523246 -0.0318641 0.035467386 0.25375193
0.22902822 0.1953312 0.24158502 0.0020588848 0.2232031 0.20078859 0.09524901 -0.023818573
0.11084304 0.19330952 0.1484547 0.23891123 0.04765152 0.200262 0.23157501 0.23394342
0.00086076034 0.06438436 0.13573435 0.25821477 0.025025327 0.11215124 0.13097835 0.22297414
0.06969328 0.17794333 0.06407845 0.045276783 0.32534355 0.1675696 0.12507387 0.05995511
