benchmarks/MOABB/results/MotorImagery/BNCI2014001/LSTMEEG/run1/21209/leave-one-session-out/sub-002/1test/save/CKPT+2024-04-23+01-01-20+01/model.ckpt (torch, 435656 bytes, 15 tensors)

emb_module.shallownet.0.conv.bias f4 [61]
000000 62 62 9c bc 00 50 3b 3e 08 8f a3 3d e3 91 f8 bc
       -0.019089881 0.18292236 0.079862654 -0.030343002
000010 08 4d cc bd 8a 20 1d 3e 83 fc e4 3d dd 75 ad 3d
       -0.0997563 0.15344444 0.11180975 0.08469746
000020 7c 90 c7 3d e7 f1 43 bd 8e b8 19 3e 11 b4 2f 3d
       0.09744355 -0.047838118 0.15011808 0.042896334
000030 56 4f 24 3d e6 11 39 be e0 b7 65 3d f2 a8 9f 3d
       0.040114723 -0.18073234 0.05608356 0.07795896
000040 72 f8 41 be 87 0a 09 be 5a 1f 17 3e d6 d0 54 bd
       -0.1894243 -0.13382922 0.14758053 -0.051956974
000050 1d 76 ca 3d 26 65 72 3d e5 bf 39 3e 66 0b 89 3d
       0.098858096 0.059178494 0.18139608 0.06691627
000060 a2 fe 1e be a7 73 af 3d 50 99 8b bc 03 84 7a 3c
       -0.15526822 0.08566981 -0.017040879 0.015290263
000070 66 5b 1b be 34 ad b2 bc d6 1b 2a bd a3 d0 f0 bd
       -0.15171584 -0.021811105 -0.041530453 -0.11758544
000080 cb 43 c8 3d b2 5d 35 bb bd ed fd bd 22 b4 66 bd
       0.097785555 -0.0027674255 -0.123988606 -0.05632413
000090 3c 2f 15 3e 5b 9d 5c be 73 79 d9 bd 68 34 7f 3b
       0.145688 -0.21544401 -0.10618868 0.0038941149
0000a0 91 09 40 bc 40 a1 19 3e 92 75 a8 bc e0 3b 48 bd
       -0.011721031 0.15002918 -0.020563874 -0.048885226
0000b0 b9 5a 8f 3d 73 98 20 3e dc c1 19 be da 2f d7 3d
       0.06999726 0.15683155 -0.15015358 0.10507174
0000c0 4b 46 fc 3c 1f 02 80 be 3d 1d 63 bd d3 00 4e 3d
       0.030795237 -0.25001618 -0.055447806 0.050293755
0000d0 9e 16 09 be 6a 2a 64 bd 60 46 0b 3e c5 33 68 3c
       -0.13387534 -0.05570451 0.13601065 0.014172499
0000e0 0d 1b be bd db aa b4 bd 97 52 40 be 84 d8 04 3e
       -0.09282503 -0.088216506 -0.18781506 0.12973219
0000f0 18 7f 2a bd
       -0.041625112

emb_module.shallownet.1.conv.weight f4 [64, 61, 1, 17]
000000 ac 13 c1 3d 24 4a af 3c 81 79 cc bc f8 b3 44 bd
       0.0942758 0.021397658 -0.024960281 -0.048023194
000010 eb b0 e6 3d 3e 56 30 3d b3 f7 75 3d 49 52 0d bd
       0.11264213 0.043050997 0.060050678 -0.0345023
000020 c2 d4 7c bb ee b5 46 3d 5e 61 70 3d d2 f9 86 bc
       -0.0038578962 0.048513345 0.058686607 -0.016476545
000030 a6 0d 7c bd 02 a9 1b 3d fd 12 66 bd 6d bd 6b bd
       -0.061536454 0.038002975 -0.056170452 -0.057553697
000040 b2 05 bf bd c8 ba fa bd 7a cc a9 bb a4 6c 8a 3d
       -0.09327258 -0.12242657 -0.005181846 0.06759003
000050 bb d8 38 3d dd 93 57 bd 93 fd 84 3d 48 5d 09 bd
       0.045128565 -0.052631248 0.06493678 -0.033536226
000060 c8 75 b8 3d c1 98 b7 3d ea 2f 92 bd c2 65 b2 3b
       0.0900684 0.08964682 -0.07138045 0.0054442594
000070 0e 94 20 bd b5 d0 cd 3c f6 6a 91 bd de 0b 78 3c
       -0.039203696 0.025123933 -0.07100479 0.015139548
000080 9b b8 5b 3c ea f6 2b 3d ce 77 b1 bd ad be eb 3c
       0.013410713 0.041983522 -0.08665429 0.028777445
000090 14 56 a9 3c 1b bf 68 3d 9a 8f 62 bc c5 e0 9a bd
       0.020670928 0.056822877 -0.013828183 -0.07562403
0000a0 8a e5 31 bb 95 ea f9 3b d6 bc f9 3c 86 3a 2a bd
       -0.0027144873 0.0076268413 0.030485552 -0.04155972
0000b0 3b ce d4 bc 37 43 02 bd ac 71 2b bc ce b0 8a bd
       -0.025977245 -0.031802382 -0.010464113 -0.06772004
0000c0 fe 1d 3c 3c d2 e4 c7 bd 79 44 01 3d cd 4f 66 bd
       0.01148176 -0.09760441 0.03155944 -0.056228448
0000d0 d1 5e 08 bc 8a 9c 11 3b ce 79 4a bc 1d 57 5b bc
       -0.008323387 0.0022218549 -0.012358142 -0.013387469
0000e0 dd e3 66 bb 4e 89 99 bc ef 5f ba bc 60 95 d6 bc
       -0.0035231032 -0.01874223 -0.022750823 -0.026194274
0000f0 cc 86 1b bd 2a 3c b1 bd 55 bf 34 bd 68 58 d2 bb
       -0.03797035 -0.086540535 -0.04412778 -0.0064192303
000100 18 7c 93 bd 9e 1e d3 3d 66 e9 63 3d 41 2d 06 3e
       -0.072014034 0.10308574 0.055642508 0.131032
000110 70 27 f6 3c 00 79 88 bd 8a 0f c0 bd dd 5c 98 bd
       0.030048102 -0.06663704 -0.09377964 -0.07439587
000120 9e 4c 32 bd 38 5c dd bd d2 f6 8d bc b2 9b 95 bd
       -0.0435301 -0.10808605 -0.017329607 -0.07305087
000130 88 cb 29 bd e6 2a 2e bd 50 32 bb bd c6 41 5c 3c
       -0.04145387 -0.04252138 -0.09140456 0.013443416
000140 2a b4 11 bb 1e 22 28 bd da a5 a2 bc ba c3 b7 3b
       -0.002223263 -0.04104816 -0.019854475 0.005608049
000150 67 1a 06 bd 0b d0 14 be 82 44 1b 3d b2 62 11 3d
       -0.032740023 -0.14532487 0.03790713 0.035494514
000160 2a 81 08 3d ee 20 83 bd 2f 86 27 bd f3 92 c7 bc
       0.033326305 -0.06402765 -0.04089945 -0.024362063
000170 bd 7e 58 3d 7c f7 23 bb 42 31 dc bd 76 e3 2b bd
       0.052855242 -0.0025019338 -0.10751583 -0.04196497
000180 10 db 0d 3d 09 f0 28 3a 80 c1 70 bd 42 df ec 3d
       0.034632742 0.00064444594 -0.058778286 0.115660205
000190 d9 78 11 3d 6b f1 a6 3d 19 fc cb 3c 4e d5 38 3d
       0.03551564 0.081515156 0.024900483 0.0451253
0001a0 9e 43 5e bc 25 9a 0b bd 22 dd 52 bc 14 af 07 be
       -0.013565926 -0.03408255 -0.012870105 -0.13250381
0001b0 14 1e bd 3c a3 08 7d bd d3 14 a8 bd a2 8c 1c bd
       0.023085631 -0.061775815 -0.08207097 -0.038220055
0001c0 c2 0b 8d bc 2e fb 81 bd d6 00 d9 bc 36 25 33 3d
       -0.01721752 -0.06346737 -0.026489656 0.04373666
0001d0 b4 bb 93 3c 5a aa 17 3d 97 6f 07 3e 33 b9 d3 3d
       0.01803384 0.037027694 0.13226162 0.10338058
0001e0 95 23 15 3e 66 9e a7 3d 25 b4 4a 3d 2a 9b 23 3e
       0.14564355 0.08184509 0.049488205 0.15977159
0001f0 93 1f 5b bd ee 87 29 3e 90 d2 56 3c e3 43 02 bd
       -0.05349691 0.1655576 0.013111725 -0.031803023
000200 ba 26 88 b9 f5 41 d9 bc 55 6a 4f bc b0 af 48 bc
       -0.00025968795 -0.026520709 -0.012659629 -0.012248918
000210 99 c0 2d 3d 13 c1 bb b9 9b 0c 63 bc c3 3b 90 3d
       0.042420004 -0.0003581127 -0.013857986 0.07042649
000220 95 8d 94 3d 94 77 b7 bd 18 5b 78 bd 9e f6 1c bc
       0.07253567 -0.089583546 -0.06063375 -0.0095802825
000230 d0 a3 7a 3d 65 e3 f9 3d 25 bb a0 bd f5 1a f8 bc
       0.06119138 0.12201575 -0.07848195 -0.030286292
000240 e0 66 d8 bb f7 2c 37 3e 03 66 6b 3d fc 6f 2b bd
       -0.0066040605 0.17888246 0.057470333 -0.041854843
000250 e2 89 ef 3c 5f ae 9b 3d e0 1d a3 bd 06 7e 0e bd
       0.029240552 0.07601618 -0.079646826 -0.034788154
000260 cd a9 ec bd 4e 29 09 bc 3a e2 9f 3d 05 88 45 3d
       -0.115558244 -0.008371664 0.07806821 0.04822542
000270 b6 ea ba bc 6a f9 bf bb 8e 31 29 bd ed 47 d1 3c
       -0.022816997 -0.00585859 -0.041307025 0.025546992
000280 5e c5 b9 bc 92 dc 98 bd f3 1c c1 bc b0 09 0c 3d
       -0.02267712 -0.074639454 -0.023573374 0.034188926
000290 2e 2e 73 bd 06 e0 37 bd ce a4 e0 3c 3d c0 a4 3d
       -0.059370212 -0.04489138 0.027422335 0.08044479
0002a0 75 46 53 3d a1 32 21 3e ed 19 78 bc 7b ea d1 bc
       0.051580865 0.1574197 -0.0151429 -0.025624504
0002b0 41 c5 2f 3d a3 ca 5e 3d 51 33 41 bc c6 e2 e3 bc
       0.042912725 0.05439247 -0.01179202 -0.027818095
0002c0 78 57 ec 3c 4b df 7d 3d 26 32 3a 3d 6f 53 1a 3d
       0.028850302 0.061980527 0.04545798 0.037677225
0002d0 09 f1 17 bd 38 b5 06 3d 3e 9f 7c 3d 41 de 10 bd
       -0.037095103 0.032887667 0.061675303 -0.035368208
0002e0 31 ac 9f 3d 3d b4 90 3c 7a 05 90 3a 70 d1 36 bd
       0.07796515 0.01766407 0.001098796 -0.04463333
0002f0 02 57 b0 bd 2e 30 12 bd 5d 54 61 bb 61 a1 41 bc
       -0.086103454 -0.03569048 -0.003438256 -0.011818261
000300 0e 5d 16 3e 73 a3 7d bd 5a 11 81 3c f2 64 b3 3d
       0.14683935 -0.061923455 0.015755344 0.08759488
000310 96 48 c8 3d 25 e2 0a 3e 63 12 ec bc 13 16 c4 3c
       0.0977947 0.1356283 -0.028817361 0.023936307
000320 dd 07 b0 3d 5d e6 f4 bc cc b1 2b 3d 71 37 ac 3c
       0.0859525 -0.029895002 0.041917607 0.02102253
000330 45 64 02 3e 4a 74 e9 38 86 fe 04 3d 68 08 a3 3d
       0.12733562 0.00011131966 0.032469295 0.07960588
000340 4a 89 15 3d 52 95 ad 3d 12 67 c1 bd ce 39 4d bd
       0.036507882 0.08475746 -0.09443487 -0.050103955
000350 e6 2a 81 bc 89 80 c1 3d 86 b5 15 3d 08 35 c7 bd
       -0.015767526 0.09448344 0.036550067 -0.09726912
000360 1e 80 06 bd fa 1b 67 3c bd 79 16 bd 26 86 2a 3a
       -0.032837026 0.014105791 -0.036737192 0.0006504975
000370 ce 96 2f bb 7e cd 62 3b e5 9e 1d 3d b6 58 82 3c
       -0.0026792767 0.0034607346 0.03848161 0.015911441
000380 e8 6a 61 3d 9a 9f 15 bc ca 2b a1 bd ab 2a 66 3d
       0.055033594 -0.00913229 -0.0786968 0.056193035
000390 6e 85 be bc f0 27 50 3c 15 e5 1e ba a0 9d 61 bc
       -0.023256984 0.012704834 -0.00060613576 -0.013770491
0003a0 be 49 6c 3d e2 ae eb 3c fa f0 03 bd 08 78 f9 3d
       0.057687514 0.028769914 -0.032212235 0.12181097
0003b0 4a b7 da 3c 00 17 9e 3d 9e 13 ce bc 9b 5d ca bc
       0.026698727 0.07719231 -0.025155839 -0.024702838
0003c0 9e b9 cc bd 97 83 cc bd 83 0f 5e bd f0 97 75 3c
       -0.09996341 -0.09986036 -0.054214012 0.014989838
0003d0 c6 82 87 bd d0 2c ef bd d6 16 08 be e5 0f e0 bd
       -0.0661674 -0.11678469 -0.13289961 -0.10940532
0003e0 56 b4 d8 bc ab 10 8a bd ba 4e 95 bd a4 76 1b bd
       -0.026453178 -0.067414604 -0.072904065 -0.03795494
0003f0 42 19 4f 3d 82 57 04 3d f0 8e 58 3d f0 00 b9 bd
       0.050561197 0.032310016 0.05287069 -0.09033382

emb_module.shallownet.1.conv.bias f4 [64]
000000 26 32 fa bb 85 9a 6c bb 2d c5 c5 bb 72 64 91 bb
       -0.0076353727 -0.0036102843 -0.006035468 -0.004437023
000010 78 dd dd 3c 77 b0 06 3c 93 6b e1 3b 30 fc 59 3c
       0.027083144 0.008220783 0.006879279 0.013304755
000020 c8 4f 4a 3d 8d e9 18 3c 69 c7 20 3c 96 14 34 3a
       0.04939249 0.009333027 0.009813168 0.00068695226
000030 16 5c 00 3d 0f 1c 25 3c fa 5f e3 bc f2 0b 53 3b
       0.03133782 0.0100774905 -0.027755726 0.0032203165
000040 d0 5c e7 3c f3 09 04 bc a4 40 ac 3c 65 21 07 bb
       0.028242499 -0.008059013 0.021026917 -0.002061927
000050 e1 51 87 3a f4 af 4c bc cb 78 88 3a c8 ea 0d 3c
       0.0010324084 -0.012493122 0.0010411976 0.008661933
000060 e0 39 0b 3d 0a c5 10 3d 6a 79 c2 3c bb ef fe 3c
       0.03399074 0.03534416 0.023739535 0.031120172
000070 02 b6 a6 bc d3 1a 8c 3c ab 72 0b 3c f6 ec f3 3c
       -0.02035046 0.017102635 0.008511226 0.029776078
000080 d9 ba a7 3c 15 49 94 bb 08 f7 f9 bc 5a 27 cc 3c
       0.020474838 -0.0045253136 -0.030513301 0.024921108
000090 02 86 29 bb 40 62 e7 3c f2 d9 b0 bc b1 d5 09 3d
       -0.0025867228 0.028245091 -0.0215883 0.033651058
0000a0 9c 28 94 3c d2 27 53 bc cb cd b9 bb 82 53 b8 bc
       0.01808577 -0.012887912 -0.0056702844 -0.022500757
0000b0 4a 84 26 3c 60 6c 89 3c 9a ff 34 3d b7 09 4c 3c
       0.010163376 0.01677531 0.044189073 0.012453488
0000c0 c6 e3 af 3b 58 e3 3b ba db d7 79 bc 1a 67 8e bb
       0.005367729 -0.0007167361 -0.015249218 -0.0043457868
0000d0 f2 5a ce 3c a2 3c 1f 3c 8a 82 8f bc 65 a2 ec bc
       0.02518985 0.009719046 -0.0175183 -0.02888603
0000e0 20 bc ed 3c 88 02 23 3b 76 25 cd 3c 91 e6 16 3d
       0.029020369 0.0024873335 0.025042277 0.03684098
0000f0 8d ea 46 bc 2c ae 14 3d 45 f2 fa bc 3f 65 2c bc
       -0.012140882 0.036298916 -0.030633101 -0.010522186

emb_module.shallownet.2.norm.weight f4 [64]
000000 7f 7f 8a 3f f6 29 85 3f 56 8a 85 3f 6d 14 87 3f
       1.0820159 1.040343 1.0432842 1.0553108
000010 a4 a3 84 3f 36 08 8f 3f 3b ce 85 3f 93 80 83 3f
       1.0362439 1.1174381 1.0453562 1.0273613
000020 d6 77 87 3f 0d b8 87 3f d9 00 8a 3f e8 11 88 3f
       1.0583446 1.0603043 1.0781509 1.0630465
000030 78 2d 88 3f 98 a1 85 3f d5 72 8e 3f 78 09 87 3f
       1.0638876 1.043994 1.1128794 1.0549765
000040 a2 5f 87 3f 13 a5 89 3f 66 78 82 3f cd 31 85 3f
       1.057606 1.0753502 1.0192993 1.0405823
000050 75 58 85 3f 61 1f 83 3f 12 fe 89 3f 32 0d 85 3f
       1.041762 1.0243951 1.0780661 1.0394652
000060 f8 b2 88 3f 4d 6c 84 3f c3 2e 8a 3f b4 1c 8b 3f
       1.0679617 1.0345551 1.079552 1.0868134
000070 7a 66 85 3f 26 5a 80 3f ca 61 86 3f ab bb 89 3f
       1.0421898 1.0027511 1.0498593 1.0760397
000080 c7 c5 87 3f 83 39 8e 3f f5 48 8c 3f fa 8d 89 3f
       1.0607232 1.1111301 1.0959765 1.0746453
000090 97 05 87 3f d8 e0 8c 3f d6 d0 84 3f 86 5d 85 3f
       1.0548581 1.1006117 1.0376232 1.0419166
0000a0 1a 74 85 3f 13 b8 82 3f 49 70 86 3f 89 d0 88 3f
       1.0426056 1.0212425 1.0503017 1.068864
0000b0 89 4c 83 3f 1e aa 89 3f 72 73 86 3f 96 8a 85 3f
       1.0257732 1.0755041 1.0503981 1.0432918
0000c0 44 69 91 3f 08 94 87 3f 3f 0d 85 3f 66 bd 8b 3f
       1.136025 1.059205 1.0394667 1.0917175
0000d0 a0 ea 8c 3f 65 ff 85 3f 27 fe 86 3f de 0c 8e 3f
       1.1009102 1.0468565 1.0546311 1.1097677
0000e0 d2 58 7e 3f ec 1b 85 3f 9e 09 93 3f 97 c2 8c 3f
       0.9935428 1.0399146 1.148731 1.0996884
0000f0 5b 96 87 3f 45 72 87 3f 5f dd 82 3f 3e b8 86 3f
       1.059276 1.0581747 1.0223807 1.0524976

emb_module.shallownet.2.norm.bias f4 [64]
000000 5b db f1 bd 1c 5a 0d be 3e da aa bd 08 a1 d7 bd
       -0.11809417 -0.13803905 -0.08342408 -0.10528761
000010 fd 5f 11 be b5 bc 97 bd 3d ec ed bd 0b 3b 3d be
       -0.14196773 -0.0740904 -0.116173245 -0.18479554
000020 56 f7 9f bd ba 47 22 be 0d 34 0e be 20 49 d6 bd
       -0.078108475 -0.15847674 -0.13887043 -0.10463166
000030 f3 24 06 be bd 6e f7 bd 86 f2 f8 bd 7f ab 04 be
       -0.13100033 -0.120816685 -0.12155633 -0.12956046
000040 9d 10 dd bd ca 80 c5 bd 70 7c 2b be e9 74 08 be
       -0.10794184 -0.09643705 -0.16746688 -0.13325848
000050 c0 17 ed bd da 58 42 be dd 7f e4 bd bd f8 fe bd
       -0.115767956 -0.18979207 -0.111572005 -0.12449787
000060 9b 3f d2 bd fd ca cf bd 49 59 8b bd f7 b9 04 be
       -0.10266038 -0.10146139 -0.06804139 -0.12961565
000070 95 8c 74 be d0 b1 15 be eb 13 bd bd 13 2e 97 bd
       -0.23881753 -0.14618611 -0.09232315 -0.07381835
000080 66 18 10 be 40 72 28 be b3 d7 9b bd 7e 0b a7 bd
       -0.14071807 -0.16449833 -0.07609501 -0.08156489
000090 66 e5 bf bd fd 8c e3 bd 13 16 0f be c3 bb ad bd
       -0.09369926 -0.11110876 -0.13973264 -0.08483078
0000a0 c6 d4 2f be 82 ee 10 be a2 c5 22 be 16 c1 30 be
       -0.1717101 -0.14153484 -0.15895703 -0.17261156
0000b0 c7 dd 0e be da e3 94 bd f6 40 26 be a8 e8 0c be
       -0.13951789 -0.07270022 -0.16235718 -0.13760626
0000c0 e3 ce eb bd f5 b6 b0 bd c3 d3 1d be ce 60 b1 bd
       -0.1151407 -0.08628646 -0.15412812 -0.08661042
0000d0 86 a4 f2 bd 78 4e 59 be a4 30 10 be 6e e0 4f be
       -0.118477866 -0.2122134 -0.14081055 -0.20300457
0000e0 36 2c 39 be 72 e9 df bd 03 dd 03 be 4d 41 dc bd
       -0.18083271 -0.10933198 -0.12877278 -0.10754643
0000f0 24 a5 be bd 1e 5b 98 bd c9 49 07 be 8a 42 40 be
       -0.09308842 -0.07439254 -0.1321174 -0.18775383

emb_module.shallownet.2.norm.running_mean f4 [64]
000000 21 41 c0 3d 54 e0 41 3d 1e 76 43 be f6 b0 8b 3e
       0.09387422 0.047333077 -0.19088027 0.27283448
000010 dd a1 f6 3d 02 e7 b5 bd 48 a9 87 3d f3 ae f7 3e
       0.12042592 -0.08881952 0.06624085 0.48375663
000020 e2 a3 a4 3e ca 49 96 3e 6d 1c 3e 3f 6e da 6a be
       0.32156283 0.29353172 0.74262124 -0.22934887
000030 3a 6f 7a 3d f5 3c a3 be 2a 16 47 be 45 0e ee be
       0.06114123 -0.31882444 -0.19442049 -0.46495262
000040 99 18 19 be e2 b3 c8 3d 7d ca e1 be 2e 45 22 be
       -0.1495079 0.09799935 -0.440998 -0.15846702
000050 97 4e 4b be 36 72 fe bc 57 43 2e bf 80 9c 4c be
       -0.19854198 -0.03106032 -0.680715 -0.19981575
000060 ca 6c 0c 3e 9d 91 59 bd a4 8a 2f bd a3 a7 6a be
       0.13713375 -0.053117383 -0.042856827 -0.22915511
000070 aa 7b be 3e 2a f1 f6 be 56 b0 2b bf 5a 16 28 3e
       0.37203723 -0.4823087 -0.6706594 0.16414776
000080 16 0b 07 be c8 0d 6d be eb c5 18 be 3f 85 1e be
       -0.13187823 -0.23149788 -0.1491925 -0.15480517
000090 4e 1d 53 3e 41 c7 01 3e bd e9 6c be 9b d7 b7 bd
       0.20616648 0.12673666 -0.23136039 -0.0897667
0000a0 d9 ce 3c 3e 74 b1 23 bf 53 ac e3 3e b3 8b 7f 3e
       0.18438281 -0.63942647 0.4446741 0.24955635
0000b0 14 4d 14 3f 03 db 58 3f 43 1a aa 3d c6 6f 40 bf
       0.5793011 0.84709185 0.0830579 -0.7517055
0000c0 4e ed a2 bd 9a 30 10 bf 84 6b 89 be 97 f8 2f 3e
       -0.079554185 -0.5632416 -0.2683984 0.17184673
0000d0 e3 c6 f0 be 4e e6 8d 3d 5e a8 f6 bd 2a 41 6c 3e
       -0.4702674 0.06928693 -0.12043832 0.23071733
0000e0 a5 7c 15 3e 98 c4 73 be 3a 8a 63 3d 20 27 db 3e
       0.1459833 -0.23805463 0.055551745 0.42803288
0000f0 b6 69 14 3c f6 1b ae be 33 e0 0e bf 5a 78 e4 be
       0.009058407 -0.34005708 -0.5581085 -0.4462307

emb_module.shallownet.2.norm.running_var f4 [64]
000000 ce 58 37 41 94 9e 20 41 b3 35 38 41 82 9b 49 41
       11.459181 10.038715 11.51311 12.600466
000010 6b f3 12 42 82 46 ad 40 52 ca 5e 41 85 ef d5 41
       36.737713 5.414857 13.924395 26.741953
000020 e8 57 6a 41 08 a5 e0 41 4d 36 c9 41 e8 bf 4d 40
       14.6464615 28.080582 25.151514 3.214838
000030 dc 8f 32 41 63 c7 40 41 9d 50 84 41 15 4a de 40
       11.160122 12.048678 16.539362 6.946543
000040 bf fc 90 41 17 f6 0c 41 4b 6e 0e 41 3a 08 82 41
       18.123411 8.810081 8.901927 16.254017
000050 fb fd 80 41 a6 55 e8 41 20 c3 0b 42 9a 35 82 41
       16.124014 29.04182 34.94055 16.276173
000060 4c 3f 24 41 04 96 46 41 65 60 d7 40 4e 15 8b 41
       10.265453 12.411625 6.730517 17.385403
000070 6a 31 f7 41 88 75 61 41 c7 90 2e 41 1a 81 09 41
       30.899128 14.091194 10.910346 8.594019
000080 56 de 04 41 25 8d 15 41 60 4e 95 40 96 be 2a 41
       8.304281 9.346959 4.6658173 10.67153
000090 85 dd 29 41 3a 67 88 40 da 74 8f 41 fa 20 dc 40
       10.616582 4.262601 17.932056 6.8790255
0000a0 3d 20 41 41 6e ac a1 41 fa 44 40 41 1a 23 fd 41
       12.070371 20.209194 12.01684 31.64214
0000b0 5e c5 ad 41 59 c4 44 41 b5 75 71 41 fc 65 a0 41
       21.72137 12.297936 15.091237 20.049797
0000c0 35 39 0b 41 c6 83 c4 41 c5 3b 8d 41 51 09 12 41
       8.701467 24.564342 17.654184 9.1272745
0000d0 ea d4 ef 40 ee 37 32 42 c7 5c 99 41 05 6c 83 41
       7.4947405 44.55462 19.170301 16.427744
0000e0 60 75 dd 41 56 19 93 41 6d a9 97 40 fe cc 8c 41
       27.682312 18.387371 4.739432 17.600094
0000f0 a0 6b 46 41 d0 3c e0 40 9d 95 31 41 70 b5 82 41
       12.401276 7.0074234 11.099027 16.338593

emb_module.projection.conv.weight f4 [64, 64, 1, 1]
000000 f6 01 55 3d ba 65 0c 3d 93 29 2e bd 76 ae 00 3e
       0.052003823 0.0342767 -0.042520117 0.12566552
000010 ca 3c 81 bd b2 2f 2c 3e f5 4c 04 bd f6 0c be 3c
       -0.06310423 0.1681507 -0.032299954 0.02319954
000020 5e c2 27 3e 52 6c 7b bd f7 4d 8f bd c3 09 fb bd
       0.16382739 -0.0613826 -0.069972925 -0.12257721
000030 8a 47 ab 3c a5 21 60 bd 63 ec 9e 3d 0e 00 36 3e
       0.020908136 -0.054719586 0.07759931 0.17773458
000040 1a 04 08 be d6 32 cb 3c dc 21 c7 bd 39 4a c7 3c
       -0.13282815 0.024804514 -0.09723255 0.024327384
000050 fe 74 8e 3d 03 04 da 3c 60 de a7 bc 03 37 dc bc
       0.06955908 0.026613241 -0.020491779 -0.0268817
000060 22 13 82 bd a5 e5 ef 3d af 86 0d bc 9a b4 c0 bb
       -0.063513055 0.11713723 -0.008638068 -0.0058809044
000070 ad 60 e7 bd 1e 64 5c 3a da 3b e8 bd 60 ee 53 3d
       -0.11297736 0.00084072526 -0.11339541 0.051741004
000080 36 e6 ad bd 4a 7d 5c b9 92 44 38 3e bd b7 dc 3c
       -0.08491175 -0.00021027509 0.17994907 0.026943082
000090 15 21 f7 bd 5e b0 71 be 3a c4 03 be 3e dc 01 3e
       -0.12066857 -0.23602435 -0.12867823 0.12681672
0000a0 07 49 91 3d 62 6a 93 3d b6 2b 0f be 40 90 de bd
       0.07094007 0.07198025 -0.13981518 -0.10867357
0000b0 b8 fe cc 3c 2c 5b 1f 3e 2e 5a 88 bd b4 a2 8e 3d
       0.025023803 0.15562123 -0.066578254 0.06964627
0000c0 05 1b 3e be 96 ba 21 be d2 88 08 be b3 af 4a 3d
       -0.18564995 -0.15793833 -0.13333443 0.049483966
0000d0 90 81 cd bc 9d 93 a2 3d 46 dc a8 bc ca 52 29 3e
       -0.025086194 0.07938311 -0.020612847 0.16535488
0000e0 f8 07 ed bd de 33 30 3c f7 0d ab 3c 78 87 e0 bd
       -0.115737855 0.010754554 0.020880682 -0.109633386
0000f0 96 04 23 be 95 27 44 3e fa 1b 01 3d fa 80 34 be
       -0.15919718 0.19155724 0.03152082 -0.17627326
000100 b5 e7 e0 3d f2 65 ef bc c6 30 20 3e 80 c4 10 3e
       0.109816946 -0.029223416 0.15643606 0.14137459
000110 f0 30 6c 3d a9 a3 28 be 17 65 bc 3d 46 0c c6 3d
       0.057663858 -0.16468681 0.09198969 0.0967031
000120 08 54 a6 3c 3b 10 09 bc 65 76 f7 3d b8 a6 a6 3d
       0.020303741 -0.008365686 0.12083129 0.08137268
000130 94 f6 c2 3d 70 e6 c8 3d b3 a0 80 bd 2a cf 02 bc
       0.09519687 0.098095775 -0.06280651 -0.007983962
000140 db b7 89 3d 76 d7 0b 3e ea 9b 30 be de f6 1d 3e
       0.06724521 0.1365641 -0.17246976 0.15426204
000150 40 dc 95 3d 3d 94 00 be 09 d7 3b 3d da fc 16 3e
       0.073174 -0.12556548 0.04585937 0.14744893
000160 3d f7 12 3e 91 02 12 3e 08 8b 13 be d8 52 8c bd
       0.14352126 0.14258792 -0.14408505 -0.06851739
000170 43 9c 84 3d c9 e6 28 3c 5e 87 0d 3c a6 04 57 3e
       0.06475117 0.01030893 0.008638231 0.20997867
000180 85 ef ac 3d 03 35 42 be c6 6c 04 be 17 91 0b be
       0.08444122 -0.18965535 -0.12932119 -0.13629566
000190 0b 6f f6 bd f5 ab 06 3d cd 6b c5 3d ca bd bd 3c
       -0.120328985 0.032878835 0.09639702 0.023161788
0001a0 a0 84 3f 3e c5 24 83 3d 12 d0 cd bd 84 74 c6 3c
       0.18702936 0.064034976 -0.10049452 0.02422548
0001b0 2a 16 09 3d 02 43 c9 3d 52 2f 27 3c fe 20 8f bd
       0.033468403 0.09827234 0.010204153 -0.06988715
0001c0 ca 35 17 be 88 a3 d1 bd 0e c7 7b 3d b6 7a 14 3c
       -0.14766613 -0.10236269 0.06146913 0.00906246
0001d0 76 0b 57 be d3 02 4a bd 39 68 04 bd 82 b4 9c bd
       -0.21000466 -0.0493191 -0.032325957 -0.07651617
0001e0 c6 00 ec 3d 72 33 b1 bd 96 3c 4e be f6 8c 33 3d
       0.11523585 -0.086523905 -0.20140299 0.043835603
0001f0 0a 85 9d bd 7b a7 04 3e ab 65 09 be 94 50 39 be
       -0.07691391 0.12954514 -0.1341769 -0.18097144
000200 31 2c 2b 3d de fa 2c 3d 1a 7a 23 be b8 a6 e8 bd
       0.04179019 0.042231433 -0.15964547 -0.11359924
000210 be 9d b8 3d eb 91 9e bd 5f 09 ca 3d 23 19 bb 3d
       0.09014462 -0.077426754 0.09865069 0.09135654
000220 00 99 08 bd ac 33 01 3e e6 83 92 bd 96 9c 30 bd
       -0.033349037 0.12617368 -0.07154064 -0.043118082
000230 28 16 bd bc 86 8a 23 be be 47 f6 bd 06 97 32 be
       -0.023081854 -0.15970811 -0.120254025 -0.17440423
000240 fa 28 c5 3c 9d d7 57 be 40 8d 20 3e 7a df a8 bb
       0.02406739 -0.21078344 0.15678883 -0.0051535936
000250 98 2a 37 bc a3 19 42 bc 0a bb ff 3d 28 b1 a8 3c
       -0.011179589 -0.011846933 0.12486847 0.020592287
000260 1d 3d 1b 3e 8b 4d 35 be a3 bc 38 3d 30 45 54 bd
       0.15160032 -0.17705362 0.045101773 -0.051823795
000270 c0 14 31 3d e7 15 04 bd 2d db 45 3e 05 24 39 be
       0.04323268 -0.03224745 0.1932189 -0.18080147
000280 0e 35 8c bc aa e4 8b 3d 5d 14 50 be ab 1a 12 3e
       -0.017115142 0.068307236 -0.20320268 0.14267986
000290 d6 21 48 3e b3 74 34 bd 1e 9f 5c bd c5 3a 8c 3c
       0.19544157 -0.044056606 -0.053862683 0.017117867
0002a0 f7 84 86 bd 65 cf 22 3e b1 bc c9 bd 7e 94 13 bd
       -0.0656833 0.15899427 -0.09850443 -0.036030285
0002b0 c3 a2 0b 3d 46 a7 14 be 95 26 d0 bc 46 7d 94 3d
       0.03409077 -0.14516935 -0.025409022 0.072504565
0002c0 62 e1 d5 3d ba f2 d8 3d 08 d5 17 3b 22 96 1b bc
       0.10443379 0.105931714 0.0023167748 -0.009496244
0002d0 f2 ff 99 bd a3 1b 0a 3c a0 e2 74 bd fe f0 0f 3e
       -0.07519521 0.008429441 -0.05978644 0.14056775
0002e0 e7 06 90 bc 46 aa a4 3d c6 73 19 be d6 1b 27 3d
       -0.017581416 0.080402896 -0.1498557 0.04079803
0002f0 f6 52 1c 3e 5d 5a 46 be fe c7 27 3e b6 8e ca 3d
       0.15266022 -0.19370408 0.16384885 0.09890501
000300 e1 43 0a bd 6b a9 11 3e 07 cc 16 3d 52 3c 84 bd
       -0.03375614 0.14224784 0.03681567 -0.06456818
000310 e5 6f fb 3d 83 44 db 3c 4b 91 12 be 22 fd ce bc
       0.122772016 0.026766067 -0.14313237 -0.025267188
000320 c2 40 4e 3d 08 a5 40 3d 22 88 7e be 4b 26 f6 3d
       0.050354727 0.047032386 -0.24856618 0.120190226
000330 20 46 06 be fa 9b 49 be 6e 56 3c bd 4a a7 0d 3e
       -0.13112688 -0.19688407 -0.045980863 0.13833347
000340 0a 52 0d be 5a d4 34 bd 5d cd 30 3e 16 b6 36 bd
       -0.13800827 -0.044147827 0.1726584 -0.044607244
000350 9e 43 8d 3d 65 33 21 be dd bb 0f 3e db d7 13 3e
       0.068976626 -0.15742262 0.14036508 0.14437811
000360 52 d8 31 be 57 91 2f 3d a2 29 69 bd 80 a7 44 3e
       -0.17367676 0.042863216 -0.05692447 0.19204521
000370 96 2c b0 bd 02 51 04 3d 01 0f c5 3d 9a 47 94 3c
       -0.08602254 0.032303818 0.096220024 0.018100549
000380 20 5f 13 3e a2 6e f2 bc 18 bc d6 3c 1d 57 69 3d
       0.14391756 -0.02959377 0.026212737 0.056967843
000390 c2 9e f9 bd 22 8a 91 bc 76 6b 17 be 9a d8 8c 3d
       -0.12188484 -0.017766062 -0.14787087 0.06877251
0003a0 01 5b 3e 3d 20 5e a1 bc 5d 6d 12 be 0a fe 70 3d
       0.046473507 -0.019698203 -0.14299531 0.05883602
0003b0 90 6a 33 3c 75 75 12 bd 48 ef 22 bd 68 eb 1c 3e
       0.010950699 -0.035756547 -0.039778978 0.15324175
0003c0 20 bb 9b bd 90 2e c5 3d b1 6e c0 3b 9a 04 02 be
       -0.07604051 0.09628022 0.0058725704 -0.12697068
0003d0 3e 2e 09 3e f3 86 54 3d 86 65 20 bd f2 bc 0f 3b
       0.13396546 0.05188651 -0.03915932 0.0021932689
0003e0 0b fa 1b bd 4e bc dc bd 2a 28 08 3d a3 69 13 be
       -0.038080256 -0.10778104 0.03324143 -0.14395766
0003f0 a0 4b eb 3c 53 8c e6 3d f4 a6 4c 3d e3 9c 62 bd
       0.028722584 0.112572335 0.049963906 -0.0553254

emb_module.projection.conv.bias f4 [64]
000000 83 c3 17 3e bd 84 5a bc 00 a8 3f bd 30 0b ee 3b
       0.14820676 -0.013337311 -0.046791077 0.0072645172
000010 c7 c9 9f 3d 7a 02 99 bd 45 49 ae 3d 8e 9d 2a bd
       0.07802158 -0.074711755 0.08510069 -0.041654162
000020 9e d9 8f 3d ee bf 95 bd 61 59 22 3d 32 d9 be 3d
       0.07023929 -0.07311998 0.03963602 0.093187705
000030 f5 92 db bd dc 8c 0d be 00 6c 31 3d f9 ba 25 bd
       -0.10721389 -0.13823265 0.043315887 -0.040461514
000040 2a c7 07 bd d2 fa c1 3d 4a 58 85 3d 23 67 e9 bc
       -0.033148922 0.09471668 0.065109804 -0.028491562
000050 8e f4 91 3d 3d 4c d4 3d 21 94 2a bc cc 97 c6 3d
       0.07126723 0.10366104 -0.010411293 0.09696922
000060 e6 5e 17 be f2 ba 8b 3d 3a 4c 14 bd 2e a0 cd bd
       -0.14782295 0.06822766 -0.036205508 -0.100403175
000070 1d e0 97 3d b5 aa 4b 3d 8e fb ea bd 60 d8 e1 3d
       0.07415793 0.049723346 -0.114737615 0.110275984
000080 0e 3d dd 3c 56 0d 1d 3d 9a af 8c bd 24 f5 0e 3e
       0.027006652 0.038342796 -0.06869431 0.13960701
000090 ab dd 25 be 52 37 8e 3d c4 98 21 bd b5 57 d6 bd
       -0.16197841 0.06944145 -0.03945233 -0.104659475
0000a0 20 ec c1 3d ca 40 26 3d 16 de e6 bc fb de ea 3d
       0.094688654 0.04058913 -0.02818207 0.114683114
0000b0 85 4b 91 bd a6 b4 fa 3d 35 e8 48 bc 5d 08 27 3d
       -0.07094482 0.12241487 -0.012262394 0.04077946
0000c0 2a af 69 3d 4b 65 07 3e fd 5a 09 bd ae 0d 42 bc
       0.057051815 0.13222234 -0.03353404 -0.011844082
0000d0 8a 4b 1f be ca 98 9a bc 51 11 35 3d 2a 7e 2b bd
       -0.1555616 -0.018871684 0.044205967 -0.041868366
0000e0 ea 99 71 bd 82 95 b6 3b 7e 92 9c 3d 7b 4c 58 3d
       -0.058984675 0.005572022 0.07645129 0.052807312
0000f0 13 eb c5 3d 61 05 01 bd 2d 56 d6 3d 85 5a 92 3d
       0.096639775 -0.03149927 0.104656555 0.071461715

VanillaLSTM.rnn.weight_ih_l0 f4 [256, 64]
000000 07 13 34 be ca eb 20 bc ff b7 bb bd 5a fd 6d 3d
       -0.17585383 -0.0098218415 -0.09165954 0.058102943
000010 d6 53 01 3e c6 cd 95 bc c1 0b 9a 3d d2 53 b8 bd
       0.12629637 -0.018286597 0.07521773 -0.090003625
000020 ad 66 16 3e a6 11 52 3d 3a d9 a7 bd 8f 51 a5 bd
       0.14687605 0.051286362 -0.081957296 -0.08072197
000030 eb 2a b2 bc 8a 17 a5 be 02 9a 4b be 83 46 2c be
       -0.02174898 -0.3224452 -0.19882968 -0.16823773
000040 53 e3 53 3e c2 3c 03 3d 76 c0 cd 3d e0 a1 67 bd
       0.20692186 0.032040365 0.10046475 -0.05655086
000050 96 6c 01 be 3a ff db bd 63 85 2a 3e e4 51 0d 3e
       -0.12639078 -0.1074204 0.16652445 0.1380077
000060 e3 f3 60 3e 80 a1 99 3d bb b4 9a bd 86 f0 16 ba
       0.21968035 0.07501507 -0.07554003 -0.00057578867
000070 a2 1d 99 3e 10 45 2b 3d 10 82 01 3c 7e 30 3b 3d
       0.2990542 0.04181391 0.0079045445 0.045700543
000080 a3 d9 c7 bd f6 76 52 3d 25 20 c2 bd 02 df 08 bd
       -0.09758308 0.05138298 -0.09478787 -0.0334158
000090 fb 69 03 3e 48 74 e3 3d 03 b5 55 3e 06 74 0c be
       0.12833397 0.11106163 0.20869832 -0.13716134
0000a0 0a 64 17 3e a6 bc 1e bd 36 2a 2b 3e 5f e3 44 bc
       0.14784256 -0.038754128 0.16715321 -0.0120171
0000b0 4a c1 04 3e bd 9b 3d 3d ab 39 83 3e aa 66 89 3e
       0.12964359 0.0462911 0.25629935 0.2683614
0000c0 4c 4f 2e be 0a f7 be bd 57 ad a0 3d cd 96 7c 38
       -0.17022437 -0.09324463 0.07845562 6.0221926e-05
0000d0 06 0c 1e 3d fa 84 24 be a6 ff 86 bd 1d a8 ce bd
       0.038585685 -0.16066352 -0.0659173 -0.10090659
0000e0 57 b5 39 bd a8 2e 69 be 3b 91 33 be f8 ed 84 bb
       -0.045338955 -0.22771704 -0.1753587 -0.0040566884
0000f0 d2 65 8a bd 02 e5 bf bd d2 79 e4 3d 45 a9 e0 bc
       -0.06757702 -0.09369852 0.11156048 -0.027424464
000100 4e 0e ab 3c 83 b9 c1 3d fa de bb bd 99 d7 2b 3d
       0.020880844 0.09459212 -0.09173389 0.041953657
000110 92 a8 2f 3d 5d b6 d7 bd 52 b9 24 be cb d4 03 3e
       0.04288537 -0.1053283 -0.16086319 0.12874143
000120 78 db 8c bd 41 73 0d 3e 82 35 be 3d 03 7b 86 3d
       -0.06877798 0.13813497 0.092875496 0.065664314
000130 b4 ce c5 3d 18 2d 96 3d 06 72 13 be 56 9b 2e 3e
       0.09658566 0.0733282 -0.14398965 0.17051443
000140 b8 0c d6 bc cd fa 1e 3e da 43 52 be a0 40 42 be
       -0.026129112 0.1552536 -0.20533696 -0.18969965
000150 72 1c 12 3e 95 3c fb bd d0 87 ce bd ad 07 2d bd
       0.14268664 -0.122674145 -0.10084498 -0.04224365
000160 fa ae 0f be 8a 17 60 bd d2 d0 41 3d de c8 8b 3c
       -0.14031592 -0.05470995 0.047318287 0.017063554
000170 31 33 a1 3d 49 da cb 3d 68 ca b1 bd 58 71 6d 3b
       0.07871092 0.09953744 -0.08681184 0.0036230888
000180 f0 24 03 bc 29 4c 91 bd cb b8 c8 3d 09 20 89 bd
       -0.008004412 -0.070946045 0.098008715 -0.06695563
000190 b0 2e e8 3c 70 d2 fa 3b 25 08 10 3d 63 4e 4d 3e
       0.028342575 0.0076544806 0.035164017 0.20049433
0001a0 56 a0 95 3d 09 bb a6 bd 25 96 ba 3d 06 5d 58 3e
       0.07305972 -0.08141143 0.09110669 0.21129236
0001b0 be 84 77 3d df e0 17 bd 6c 57 a9 bc 46 7e fe 3d
       0.060429327 -0.03707969 -0.020671569 0.124264285
0001c0 0f 67 ae 3b 9e 0e e3 bd 63 cd c9 bc 48 a9 0e 3d
       0.005322344 -0.110867724 -0.024634069 0.034829408
0001d0 0e 11 38 3e 8a be 9e bd a7 04 2e be 05 ca c3 bb
       0.17975256 -0.07751186 -0.16993962 -0.0059750103
0001e0 5b 52 0b be 0d dc 85 bc de 66 85 3b 62 a0 c5 bd
       -0.13605635 -0.01634028 0.0040711006 -0.09649731
0001f0 f1 b7 2a 3d 2a 7c ce 3d e5 b0 09 bd d1 e8 3e bc
       0.041679326 0.10082276 -0.033615965 -0.011652187
000200 e1 78 06 be c5 79 6c 3d c0 89 61 bd 05 c9 0e bd
       -0.13132049 0.057733316 -0.05506301 -0.034859676
000210 64 b3 9d 3d ba cd 4c 3e 52 51 0a 3e 68 7d 0a 3c
       0.07700232 0.20000353 0.13507584 0.008452751
000220 5a 44 ca 3d b7 34 04 be 28 8c 02 bd 0d 9b 9e bd
       0.09876318 -0.12910734 -0.031871945 -0.07744417
000230 bd a2 16 be 9b ed 7c be 30 df 29 bd 1e cc ce bd
       -0.14710517 -0.24700014 -0.041472614 -0.10097526
000240 d2 ac 3d 3e d1 db 2b 3c 9f d9 af 3d 87 10 1b 3e
       0.18522957 0.01048942 0.0858643 0.15143023
000250 6e 10 3c 3e b5 7f c3 3a bc f9 97 bb ce 4f bd 3d
       0.18365642 0.0014915379 -0.004637925 0.09243737
000260 f8 33 3b 3d 6b ff 54 bd fb 31 18 be 5e e8 ed 3d
       0.045703858 -0.052001398 -0.14862816 0.11616586
000270 ce 1c 2d 3e 92 6d ab 3d dd a8 04 be 3d 44 20 3e
       0.1690552 0.08370508 -0.12955041 0.15651031
000280 25 79 9b bc 4e 5e 0e bd f6 5a bb bd b3 88 ad bd
       -0.018978665 -0.034757905 -0.09148209 -0.08473339
000290 d5 67 4c 3c 9c 31 b7 3d bd f3 59 3e 5e c7 8a 3c
       0.012475927 0.08945009 0.21284385 0.016940769
0002a0 d2 21 d3 3d 13 0a 1b 3e 0d e1 58 3e e7 eb b7 3d
       0.10309185 0.15140562 0.211796 0.08980542
0002b0 fe 3c 1a 3e 70 3e f0 bd 1d d9 3e 3e f8 82 55 3d
       0.15062329 -0.11730659 0.1863751 0.052126855
0002c0 ce 44 d3 bd 48 3a 48 3d 46 cb de bb c3 0b 8d 3d
       -0.10315858 0.048883706 -0.0067991344 0.06887009
0002d0 10 48 88 3d 90 fa 3b be b4 1a 03 bd e3 cd eb bb
       0.0665437 -0.18357301 -0.032007888 -0.0071961745
0002e0 6a a7 5d 3e f6 25 0d be a5 50 ca bd 5b c8 81 3e
       0.21645895 -0.13784012 -0.09878663 0.25348172
0002f0 55 8a 5b be 83 b9 a0 bd 89 f6 bd 3d 68 d6 cb bd
       -0.21439488 -0.078478836 0.092755385 -0.09953004
000300 82 bf b3 bd 5e 20 9b 3e ae 74 8d be da 8c 02 be
       -0.087767616 0.30298132 -0.27628082 -0.12749043
000310 14 8f 32 3e a4 0a 44 3d d0 e5 fb 3d d2 13 9b ba
       0.17437392 0.04786171 0.12299693 -0.0011831468
000320 c0 3d 96 be d8 26 9b 3b 71 b7 ae 3c 7a a9 76 3e
       -0.29343987 0.004734855 0.021327706 0.24088088
000330 4e 14 3d 3c cd 38 5d 3b eb 27 84 be d5 76 3e b9
       0.011540486 0.003375578 -0.25811705 -0.0001816408
000340 88 ff ff bd 8b b1 38 3d cc 2e c5 bd 81 7b 99 3d
       -0.124999106 0.045091193 -0.096280664 0.074942596
000350 1e 74 d9 3d 59 a6 23 be 7a 25 ab 3d 36 5f e2 3d
       0.10617851 -0.15981425 0.083567575 0.11053316
000360 36 37 ce 3d 73 82 99 b8 e5 82 9a be 67 60 b0 bd
       0.100691244 -7.3199066e-05 -0.3017799 -0.08612137
000370 f4 57 9a bd 7b 3b 48 3e 36 a9 95 3d f2 f5 1b 3e
       -0.07536307 0.1955394 0.07307665 0.1523054
000380 12 85 99 3c 04 eb a2 3d 18 d2 fe bd 20 13 30 3d
       0.01874021 0.07954982 -0.12442416 0.04298699
000390 d3 65 32 3e 0e 33 93 3e 42 96 e6 3d 0a bf 85 3e
       0.17421655 0.2874989 0.11259128 0.26122314
0003a0 d0 88 5b 3d 65 57 92 3d 37 b8 8c 3e ae 26 85 3c
       0.05359727 0.071455754 0.27484295 0.016253795
0003b0 78 b6 34 bd 5f 5b 0f 3e e6 15 90 3d a1 fa 95 ba
       -0.04411933 0.13999699 0.07035427 -0.0011442491
0003c0 d7 a8 0a bd 93 27 22 be 48 6f f9 bc e1 27 28 bd
       -0.033852424 -0.15835409 -0.03044857 -0.041053656
0003d0 38 aa 7a 3e aa 14 ca 3d cd 64 55 be 89 e8 a2 be
       0.24478996 0.098672226 -0.20839234 -0.31818035
0003e0 d4 df 85 be f5 83 20 3e 10 c2 b7 bd 56 1f 7c bd
       -0.2614733 0.15675338 -0.08972561 -0.06155332
0003f0 b0 6a eb bc 9a 66 53 be 4e 13 0f 3e ca 8e 30 be
       -0.028737396 -0.20644608 0.13972208 -0.1724197

VanillaLSTM.rnn.weight_hh_l0 f4 [256, 64]
000000 f2 cc 27 be 45 43 4e bd 37 89 44 3e 1d 9c ba bd
       -0.16386774 -0.050357122 0.19192968 -0.091118075
000010 16 fd 9b be f2 42 8d 3e 56 5b 3c 3c e7 0a 14 bd
       -0.30466527 0.27590138 0.011496386 -0.03614321
000020 ed 19 b6 3d 25 1a e0 bd 4d 0f 10 3e db d3 b5 3c
       0.08891664 -0.10942487 0.14068337 0.022195747
000030 a5 ce 5a 3d 58 07 a9 bd 6e 20 aa 3c 55 89 95 bc
       0.053419728 -0.08253354 0.020767417 -0.018253962
000040 20 ce d0 3c fa 08 74 3d 1e 14 23 3b 56 52 d3 bd
       0.025488913 0.059578873 0.0024883817 -0.10318439
000050 f2 9b 62 3d 82 d9 f5 bb 15 dc b8 3b 95 4b 3a 3c
       0.055324502 -0.0075027356 0.00564147 0.011370559
000060 3e cf 77 bd b6 23 b5 39 2a bb 9a bc 65 41 51 bd
       -0.060500376 0.00034549617 -0.018888075 -0.051087756
000070 bf 8f c1 bd 2e ff 15 3e 9a 9a ff bc d5 46 33 3e
       -0.094512455 0.14648125 -0.03120165 0.17507489
000080 1a 9f 98 3d d6 63 d3 bb 87 16 0e 3d 4d 87 4f 3e
       0.07452221 -0.0064511104 0.034689452 0.20266457
000090 05 41 27 3e b9 b8 18 bd 0d f8 73 bd a2 ed f4 bd
       0.16333397 -0.03728554 -0.05956273 -0.11959387
0000a0 3e 09 9a 3d 0c be 01 3a 4a 22 3f 3d 5e ea 5e bd
       0.07521294 0.00049492787 0.04666356 -0.05442273
0000b0 d6 f7 55 bd fe 82 00 be 28 f1 20 3c 84 ba 0c 3e
       -0.052238308 -0.1254997 0.009823121 0.13743025
0000c0 34 ff 96 3e e2 d2 8d bc 8a ec bb 3e 96 64 9f bd
       0.2949158 -0.01731247 0.36703902 -0.07782857
0000d0 a0 b4 d7 3d cb 9e 1b 3e 0c e4 be 3d f5 6e 68 3d
       0.10532498 0.15197293 0.0932084 0.056746442
0000e0 23 ac d1 3b f3 8b e0 3d ca 90 3f bd f3 9d 56 3d
       0.006398694 0.10964193 -0.04676894 0.052396726
0000f0 16 d3 7d bb 4e f5 09 bd 83 9f 6c 3d 62 c8 9f 3d
       -0.0038730553 -0.033681206 0.05776931 0.07801892
000100 ab 84 37 bd f1 35 30 bd 60 36 fd bc 9d ed 94 be
       -0.044804256 -0.043020193 -0.030909717 -0.29087535
000110 05 0d 28 3e 5f 3a 43 3d 44 9c 19 be 3d 46 5d 3d
       0.16411217 0.04766309 -0.15001017 0.054022063
000120 3e 71 91 3d 02 a1 8d be 16 c9 a1 3d 8b 5a 19 be
       0.07101677 -0.27661902 0.07899682 -0.14975946
000130 9a d6 8a bb 0a fb 80 3a 05 02 d2 3d 0f 0d 86 3b
       -0.0042370083 0.000984044 0.102542914 0.004090912
000140 b4 51 c4 bc bb a9 61 be b0 14 5b 3d f5 9d 06 be
       -0.02396474 -0.22037403 0.053486526 -0.13146193
000150 f3 15 03 be fb d7 07 3d 0e e9 5d 3b e5 f1 78 3b
       -0.12801342 0.03316496 0.0033860835 0.0037985977
000160 85 d3 bf 3c 36 bb 9f 3c 8a 22 be bc 46 77 b8 bd
       0.02341629 0.019498449 -0.023209829 -0.090071246
000170 1a 60 b4 bb 9e 96 20 3b 1b 6c f7 3b 13 a3 f7 3d
       -0.0055046203 0.0024503837 0.007550729 0.12091651
000180 6a 30 0c 3e 3e e8 50 3d 8e 59 9d 3d 13 69 53 3d
       0.13690343 0.051002733 0.07683097 0.05161388
000190 cd 6d 0c 3e 26 d0 e1 3d e7 c2 10 3c 9a 6c a8 3d
       0.1371376 0.11026029 0.008835531 0.08223839
0001a0 85 b1 6d bd 9d 86 8d bc 19 37 b5 bb 08 4f a7 bd
       -0.058030624 -0.017276103 -0.00553025 -0.08169371
0001b0 93 9f 15 3d 1f 73 ba 3b 46 99 a8 3d ce e9 70 bd
       0.036529135 0.005689993 0.082323596 -0.058816724
0001c0 94 42 0d 3e b1 80 1d 3e 63 ca 23 3e 68 cf df 3d
       0.13794929 0.15381123 0.15995173 0.109282315
0001d0 ce 46 be 3d 35 a5 53 bd a3 fd 72 bd 35 2c fd bc
       0.09290849 -0.051671226 -0.059323918 -0.030904869
0001e0 6a 7d a0 3d bc 05 b1 bb be 23 b3 3d cf 42 4b 3d
       0.07836421 -0.005402295 0.08747052 0.04962426
0001f0 55 bd c6 bc f6 16 fb bc ef 2b 28 3d e0 d0 36 3d
       -0.024260202 -0.030650597 0.041057523 0.044632792
000200 92 78 a1 bd 0a 0c 59 bc ba 0c d8 3c 12 c8 8c 3a
       -0.07884325 -0.013247499 0.026373256 0.0010740778
000210 b4 5d c8 bc 1a 24 17 3d ee 5d 15 be f4 1f 44 bc
       -0.024458744 0.036899664 -0.14586613 -0.011970509
000220 4b 47 57 bc 6d ee 88 bd 94 d3 8f 3c 16 10 9d 3d
       -0.013139556 -0.06686101 0.017556943 0.07669084
000230 d7 34 0d 3e c6 7d b7 3c ca d2 5a 3e 55 a6 0e bc
       0.13789688 0.02239884 0.21369472 -0.008706649
000240 6a 9c 18 bd d4 94 20 be 70 ce 17 be 72 cd 1c be
       -0.037258543 -0.15681773 -0.14824843 -0.15312746
000250 ed 9a fd bd 5f 8c 89 3d c2 1a b6 bd df 8c 90 bd
       -0.123830654 0.06716227 -0.088918224 -0.07058119
000260 aa 01 7e 3e 26 e9 4c 3e 57 1e a2 bd 9e 54 b7 bd
       0.24805322 0.20010814 -0.07915943 -0.08951686
000270 94 b3 1b 3e cc 6e 8b 3d e3 4e 1f bc 93 08 f8 bd
       0.15205222 0.06808242 -0.009723398 -0.121110104
000280 d9 2a 9b 3e 89 1a 1d 3e 92 c3 79 3e ee 67 57 bd
       0.30306128 0.15342154 0.2439101 -0.05258935
000290 b8 fe 75 bc 1a 82 25 3e 92 f3 87 3c 85 be fd bc
       -0.015014343 0.16162911 0.016595636 -0.030974636
0002a0 07 1b 00 3e 63 92 b5 3d be c8 91 bc 8a c8 66 3e
       0.1251031 0.08865812 -0.017795917 0.22537437
0002b0 4f 56 a4 bc 46 da 04 3e 1a dc 4c bd c7 12 05 3e
       -0.020060686 0.1297389 -0.050014593 0.12995444
0002c0 ba 9f 14 bd da 2b 51 bb 36 94 98 3c db 4c 73 bd
       -0.03628514 -0.0031917007 0.01862536 -0.059399467
0002d0 8b 2f 17 3e fa ce eb bd 52 22 a6 3c 9c 1f 41 3d
       0.1476423 -0.11514087 0.020280037 0.047149286
0002e0 20 80 09 bc 1e 92 3c 3d e6 ca 2e 3d 2d 20 53 bc
       -0.008392364 0.046037786 0.042673968 -0.012886089
0002f0 f6 3e 1c 3d 2b 42 2b 3e 86 4f ba 3d 9f 39 a2 bd
       0.03814598 0.1672446 0.09097199 -0.079211466
000300 65 cc a7 3d ad b3 e4 bc 93 73 19 3c ea 5b 21 3d
       0.08193282 -0.027917707 0.009365934 0.039394297
000310 e8 ca ab bd be 1c 73 3d a2 0a ad be e6 32 b2 bc
       -0.08388311 0.059353583 -0.33797175 -0.021752786
000320 a8 7b 72 3d 5f 3b 98 3d 0c c0 42 bd fb 8d 61 be
       0.05919996 0.07433199 -0.04754643 -0.22026818
000330 58 92 20 be 7b 23 1a be 0d bd 6b bc 75 b3 2a be
       -0.15680826 -0.15052597 -0.014388335 -0.1667002
000340 6e 6f 83 bd e3 72 34 be aa 7a d6 3d d6 dc 2d 3d
       -0.06417738 -0.17621951 0.10472615 0.042446934
000350 0f e2 1c be 0e 0b c6 be a2 6f 9b be 98 c1 d2 bc
       -0.1532061 -0.3868031 -0.30358607 -0.025727078
000360 48 a0 d3 3d ca 65 1e be 5a bf e1 bd 43 14 90 bc
       0.103333056 -0.15468517 -0.110228255 -0.017587787
000370 72 7d dd 3c 6e ab 5a 3d f3 27 23 bd a8 42 2d bd
       0.027037356 0.053386144 -0.03983302 -0.042299896
000380 8a b9 43 3e 93 27 cf 3d db 80 cc 3d bb 0a c0 bc
       0.19113746 0.1011497 0.09985515 -0.023442617
000390 86 ec f1 3d 83 07 e1 3d 43 13 38 3d 10 a9 a3 bd
       0.118126914 0.10987761 0.044940244 -0.079912305
0003a0 7e b8 21 3d b8 78 d0 3d c6 5d 19 3e 2a 20 f9 3c
       0.039482586 0.10179275 0.14977178 0.030410845
0003b0 6e b8 b3 bd 62 91 cb bc 2f b5 aa 3d ea 5b 86 3d
       -0.087754115 -0.024849597 0.08335339 0.065605
0003c0 b8 ee 4b 3d 1a 05 33 3c ee 34 01 3e 96 19 10 3e
       0.049788207 0.010926509 0.12617847 0.1407226
0003d0 2f 63 26 3e a6 33 cc ba ab 4e c0 3d 0e 64 cc 3b
       0.16248773 -0.0015579357 0.09390005 0.0062375134
0003e0 91 b5 0c bd 86 05 02 bd e0 8f 6f 3e e5 15 31 3c
       -0.034352843 -0.03174355 0.23394728 0.010808443
0003f0 f8 79 e3 bb 3f 07 24 bc 5b 9c c3 3d e0 90 97 3d
       -0.00694203 -0.010011493 0.09551307 0.074006796

VanillaLSTM.rnn.bias_ih_l0 f4 [256]
000000 8a ae b2 3d f6 29 ba 3d a9 83 3a 3e 5e 5f fc 3c
       0.08724697 0.09090035 0.18214287 0.030807193
000010 8a bd 25 3d 5d 6e 0f 3e 2e 88 5c 3d f2 d2 dc 3c
       0.04046396 0.14006944 0.05384081 0.026956055
000020 0e c2 20 bd 96 82 d7 3d a0 75 38 3e 00 9d 1c 3e
       -0.039247565 0.10522954 0.1801362 0.15294266
000030 ac 51 4a 3e 45 f7 44 3e 1e af 4b 3d 1f b3 02 3e
       0.19757718 0.19234951 0.04972755 0.12763642
000040 65 20 54 3e 92 6d 35 3d be 7f 2c 3e 24 07 12 3e
       0.20715483 0.044293948 0.16845605 0.14260536
000050 8c f5 19 3e bd 2a d6 3c 90 cc 58 3e ae 40 23 3e
       0.15035075 0.026143426 0.21171784 0.15942642
000060 6d a5 dc 3c 0e a0 d2 3d 9e b4 1a 3e 5d 81 d9 3c
       0.02693435 0.10284434 0.15107962 0.026550943
000070 64 ec 48 3d cb 19 b6 3d 3a af f4 3d ba d5 14 3e
       0.049053565 0.08891638 0.11947484 0.14534655
000080 b4 1e a9 3d 71 b9 07 3e 7b 14 e7 3d ce 78 ed 3d
       0.08257809 0.13254334 0.11283203 0.11595307
000090 5b 3f 6d 3e 1b b3 29 be 6d 5e 56 3e 42 d5 54 bd
       0.231687 -0.1657223 0.20934458 -0.05196119
0000a0 f1 d4 2b bd 76 47 2a 3e 48 9b 64 3d ad e4 87 bc
       -0.041951124 0.16628823 0.05581215 -0.016588533
0000b0 18 be da 3d e6 63 c7 3d 26 fc 7a 3d 1a 5b c7 3d
       0.10680789 0.09735851 0.061275624 0.09734173
0000c0 66 a1 94 3e 9a 2f 39 3e ca 70 f9 3d 7d 80 f7 3d
       0.29029387 0.18084565 0.12179716 0.12085054
0000d0 e0 dc 15 bd 60 cd 45 3e e7 1f 47 3e 0b 48 1d 3e
       -0.036587596 0.19316626 0.19445764 0.15359513
0000e0 3d a3 c5 bc 06 3f b9 3c ca 10 a6 3e 56 33 a4 3d
       -0.02412569 0.02261306 0.32434684 0.08017604
0000f0 65 0d ae 3d d9 ec af bc 8e a7 3c bd d3 5b 1d 3d
       0.084986486 -0.021475242 -0.04605823 0.03841765
000100 5a 26 11 bc 36 d2 33 3e 7a eb 25 3e be 9f 09 3e
       -0.008859241 0.17560658 0.16203108 0.13439843
000110 2e 48 06 bd 49 a0 c0 3d e8 b6 51 3e f0 9f df 3d
       -0.03278368 0.09405572 0.2047993 0.109191775
000120 e6 74 04 3e fb c4 6b bd 8e 1a 04 3e b2 03 b9 3c
       0.12935218 -0.057560902 0.12900755 0.02258477
000130 96 a9 87 3b 5e 75 69 3c 6a d7 c2 3d 05 a3 96 bd
       0.0041400893 0.014249174 0.09513743 -0.07355312
000140 19 67 29 3d 36 4f c6 3d 10 4f b9 3d bd 62 43 3d
       0.041358087 0.09683077 0.09048283 0.047701586
000150 bc fa 1a 3e 70 a4 21 3e ae 64 0a 3e d9 12 04 3d
       0.1513471 0.15785384 0.13514969 0.032244537
000160 26 4b 21 3e c6 fc 02 bd 5e d9 89 bd a6 62 55 3e
       0.15751323 -0.031979345 -0.067309126 0.20838413
000170 21 8d 20 3e df 03 3d 3e f1 8e 35 3d ca 76 e1 bb
       0.15678836 0.18458508 0.044325773 -0.006880616
000180 73 f6 37 bc 65 27 76 bb 97 76 06 3e 2e 75 5c 3d
       -0.011228192 -0.0037560102 0.13131176 0.05382269
000190 2e a6 12 3b ba e3 9a 3b 75 71 28 3d 43 f1 81 3e
       0.0022376883 0.004726854 0.041123826 0.2537938
0001a0 36 d5 f8 3d ad bc 81 bd 7a b1 57 bc 32 76 ad 3c
       0.12150042 -0.06334815 -0.013164872 0.021174524
0001b0 09 14 1e bd df 97 98 3c a9 92 3a 3e 36 52 23 3e
       -0.038593326 0.018627105 0.18220009 0.1594933
0001c0 de 89 ba 3d 7a 85 5e bd 33 82 88 3d a9 66 ae bc
       0.09108327 -0.054326512 0.066654585 -0.021289187
0001d0 aa d3 26 3e 71 f3 9f bd 8b 0e e3 3d 7d a6 ea bc
       0.16291681 -0.07810105 0.11086758 -0.02864384
0001e0 a0 92 f4 ba 0e 93 d2 bc 42 8b 9c bc 9e c3 bf bc
       -0.001865942 -0.025704887 -0.019109372 -0.023408707
0001f0 0a 01 a7 3d 7d 3e 46 3d fa bd 3c 3e d5 9f a3 3c
       0.08154495 0.048399437 0.18431845 0.019973675
000200 be 15 89 bd f3 e2 d9 3d d8 83 ff 3d fd 08 66 bd
       -0.066936 0.1063899 0.12476319 -0.056160916
000210 16 5f 57 bc 57 61 02 3e 36 17 ab 3d c4 fc 0d be
       -0.013145229 0.12732445 0.083540365 -0.13865954
000220 46 a9 3c bd 55 4d 1c bd 58 f9 8b 3c 9e 8d 51 3d
       -0.04605987 -0.038159687 0.01708667 0.051160447
000230 2e b1 4c 3d b0 0b 1d be 3b a4 f3 3d 62 ea 56 bd
       0.04997366 -0.1533649 0.11896559 -0.05246962
000240 cb 33 ab bd 1f 5a b8 bd 5d 74 dd bd 50 60 15 be
       -0.08359488 -0.09001564 -0.1081321 -0.14587522
000250 4d d7 d1 bd 66 05 89 3d 48 75 86 bd 2e 6c 93 bb
       -0.102461435 0.06690483 -0.065653384 -0.00449898
000260 0a eb 5b 3c 43 90 ce 3d 38 2e ee bd 33 53 63 bd
       0.013422737 0.100861095 -0.11629909 -0.055499267
000270 a6 84 0a 3d e6 2b 92 bd 5b 83 b0 bd 2e c0 58 bd
       0.03381791 -0.07137279 -0.08618804 -0.05291765
000280 f3 d0 6c 3d b6 67 a6 bd 52 a1 d0 bd d0 ff b1 bd
       0.057816457 -0.0812525 -0.101870194 -0.086913705
000290 c4 26 2c 3d 67 0f c6 3d 73 42 e9 bd 95 7a cb 3d
       0.042029157 0.096709065 -0.11389627 0.0993549
0002a0 2a fb 01 3e f5 2f ac 3d 92 13 39 3d 58 87 7b bc
       0.12693468 0.084075846 0.04518468 -0.015352093
0002b0 f6 22 05 3e d8 72 23 3d de dd 67 bd 6f c8 b0 3c
       0.13001618 0.039904445 -0.056608073 0.02157995
0002c0 5d 74 57 3d 1d 44 7d bc c6 42 c4 bd 60 81 83 bd
       0.052601207 -0.015458134 -0.095830485 -0.06421161
0002d0 a8 69 e6 3c 9f 42 03 3d ca d7 b4 bd 98 49 75 bc
       0.028126553 0.032045957 -0.08830221 -0.014971159
0002e0 ea d5 a3 bd fb 57 b9 bc 9b 13 01 3e 18 3f f0 3d
       -0.07999785 -0.02262496 0.12605135 0.11730784
0002f0 fa 0a 23 bd 9a 65 95 bd 4e a6 be 3d be d8 83 3d
       -0.03980539 -0.072947696 0.09309064 0.06437825
000300 36 d9 aa 3d d5 13 4d 3e 86 a3 a7 3d ab e6 22 3c
       0.08342211 0.20027097 0.081854865 0.009942691
000310 c2 cb 17 3e 8e 37 04 3e 8a 04 10 3e 32 6d fa 3d
       0.14823821 0.12911817 0.14064232 0.122278586
000320 02 0f c1 3a 7a f4 83 3e 60 a1 10 3e 86 7c 84 3e
       0.0014729204 0.25772458 0.1412406 0.25876254
000330 13 44 d5 3b 6e 26 ed 3d 70 9d 0e bd 05 53 5f 3e
       0.006508359 0.115795955 -0.034818113 0.21809013
000340 2e 94 fd 3d 69 67 24 3e 46 bb 49 3e 07 5e ab 3e
       0.12381779 0.16055073 0.19700345 0.33470175
000350 4b f1 dc 3d 7b a1 50 3e a3 31 6b 3e 7b 05 43 3e
       0.107882105 0.203741 0.22968154 0.1904506
000360 c4 d3 c2 3d 75 e3 f5 3d 9f 9b 02 3e 2e 1b 50 3e
       0.09513047 0.120062746 0.12754677 0.20322868
000370 c5 ae 1d 3e dd 26 48 3e 83 37 6f 3b 1f 3b a0 3e
       0.153987 0.19546075 0.0036501593 0.31295106
000380 f2 bd 30 3e 8a c3 4d bd 3e 63 04 3e 0d 3c 13 3e
       0.17259958 -0.05023531 0.12928483 0.14378376
000390 e8 48 41 3e 43 7d f6 3d a5 cf 3e 3e 3d 50 80 3d
       0.18875468 0.120356105 0.18633898 0.06265304
0003a0 f5 ce 65 3e 5c 84 34 3e f5 e3 f5 3d 2e ae 3a 3e
       0.22442229 0.17628616 0.1200637 0.18230507
0003b0 3f fc 2c 3e 36 37 cf 3c 8d 98 81 3d c7 a4 09 3d
       0.16893099 0.025294881 0.06327925 0.03360441
0003c0 6e 4a e2 3d fa c0 78 3e b9 26 3a 3e 1f e2 88 3e
       0.110493526 0.24292365 0.18178834 0.26735017
0003d0 c7 13 08 3d 7e 6e fe 3d 8a b0 76 3d b8 a1 e4 3c
       0.033221986 0.124234185 0.060226955 0.027909145
0003e0 d0 8b 40 3d 6d a4 01 3e 9e dd 30 3e 0e 74 6f 3e
       0.047008336 0.1266038 0.1727204 0.23384115
0003f0 f1 97 22 3e 3b c5 e1 3d e6 d2 03 3e 63 85 41 3e
       0.15878274 0.11023947 0.1287342 0.18898539
