benchmarks/MOABB/results/MotorImagery/BNCI2014001/LSTMEEGHyperparams/hopt/best/XIGpEg/run3/1988/leave-one-session-out/sub-007/1test/save/CKPT+2024-04-25+09-14-34+01/model.ckpt (torch, 105608 bytes, 15 tensors)

emb_module.shallownet.0.conv.bias f4 [32]
000000 90 00 88 3d 77 54 44 3d 4a 4f 1f 3d 72 58 cd 3d
       0.06640732 0.047932114 0.038893975 0.10026635
000010 28 42 41 bd ba c2 5f 3e 83 d9 3c bd 7b cb f9 3d
       -0.047182232 0.21851626 -0.046105873 0.12197014
000020 b6 ee b1 3d be 90 89 3c 00 0a 49 3d a6 c6 ae 3b
       0.086881086 0.016792651 0.049081802 0.0053337393
000030 82 c2 51 3d 5a 9d 25 bc a8 e9 7a bd fa e5 f7 3c
       0.051210888 -0.010108316 -0.06125799 0.030261029
000040 c2 57 b1 bd 7e 88 31 3c 34 c9 85 bc 73 07 7a bd
       -0.086593166 0.010835765 -0.016331293 -0.06104226
000050 33 38 10 be 0a 71 85 3c 9d 72 67 3d e4 17 18 3d
       -0.14083938 0.016289253 0.056505788 0.03713216
000060 cf d7 49 3c b7 9c 1e 3e ae 27 99 bd 78 46 34 bd
       0.012319519 0.1548947 -0.074782714 -0.044012517
000070 ed 40 82 bd fd 10 5b be f1 07 2f 3e f8 df 1e 3e
       -0.0636004 -0.213932 0.17092873 0.15515125

emb_module.shallownet.1.conv.weight f4 [8, 32, 1, 17]
000000 36 2f fc 3d dd 1a 03 3c 3d c0 01 3d 0d 40 8c bc
       0.12313692 0.00800201 0.031677473 -0.017120386
000010 ae 5f 8e 3b 15 d8 94 3d 13 2c 04 be 98 c8 ee 3b
       0.004344902 0.07267777 -0.12907438 0.007287096
000020 28 f8 a4 3c 30 71 d5 3c 57 3e 48 3d d8 fe 60 bd
       0.020137861 0.026054949 0.048887577 -0.054930538
000030 d7 9f 1c bd b9 a9 84 ba 1e 19 8a 3c e7 c8 bd 3c
       -0.038238373 -0.0010121382 0.01685768 0.023167087
000040 ae 4a 98 3c d6 3d e0 bc 74 e9 ac 3d ed 24 9d 3c
       0.018590298 -0.027373236 0.08442965 0.019182647
000050 ac 13 04 bd 39 c1 32 3d 94 09 8d b9 23 a4 f5 3b
       -0.032245323 0.043641303 -0.00026900752 0.0074963733
000060 0a fb bc bd fc 18 9b bd 1b 12 a0 bd 2f cb a0 bd
       -0.092275694 -0.07573125 -0.07815953 -0.07851254
000070 4a a7 de bc 90 30 fe 3c f5 84 48 bd f2 1f d2 3d
       -0.027179379 0.031029016 -0.048954923 0.10259999
000080 a8 9a c1 3d 80 d6 4a 3d 55 b6 32 3d 0e b6 ba bc
       0.094533265 0.04952097 0.043630917 -0.022791889
000090 a1 96 c0 bd 32 54 b6 3c 21 62 83 bd 76 82 28 3b
       -0.0940373 0.022256944 -0.06415201 0.0025712526
0000a0 93 25 d5 3d 84 f1 bf 3c bb 3d bf 3d f0 f1 61 3c
       0.10407557 0.023430593 0.09337946 0.013790593
0000b0 e6 d5 e3 3d 9d a7 69 bd 9e ed 81 bc 4c 3d 44 bd
       0.11124782 -0.057044614 -0.015860375 -0.04791002
0000c0 75 6b 5c 3c 56 07 bf bc b8 ee da bd 06 95 71 3c
       0.013453354 -0.023318928 -0.10690063 0.014745003
0000d0 e5 10 1e be 3b 54 01 be 41 3e ba 3a f2 e1 61 3c
       -0.15436132 -0.12629788 0.0014209227 0.01378678
0000e0 1a 2b 4d 3d 35 ff de 3d 23 90 4d 3d 9a 7c 95 3c
       0.050089933 0.10888521 0.050186288 0.018247891
0000f0 06 6c 72 3c c0 86 d3 3c bd 55 66 3d da ee 8e bd
       0.014796263 0.02582109 0.05623411 -0.06979151
000100 2a ff aa ba 58 22 cc bc 0d 61 58 bd 23 8a 02 bd
       -0.0013046016 -0.02491872 -0.05282693 -0.03187002
000110 de 5a 03 3d 94 d0 35 bb 35 e8 ed 3c 89 02 27 3d
       0.03206908 -0.002774273 0.029041389 0.040773902
000120 c7 8d 3f 3d b8 42 ac 3d c2 ae 11 be ad 4d bd 3b
       0.04676607 0.08411163 -0.14226821 0.005777082
000130 2e 80 fe bb 0c 13 80 3d a6 27 10 3d 76 86 93 bc
       -0.007766745 0.06253633 0.03519406 -0.018008452
000140 cc ee 20 bd 33 e9 c1 3d ae 71 14 be 9d 6e 3e bd
       -0.039290234 0.09468307 -0.1449649 -0.046492208
000150 77 c8 a7 3d 5b b4 0f 3d da 46 b2 bd d6 f4 98 3c
       0.081925325 0.03508411 -0.0870492 0.018671434
000160 2e 19 51 bb a3 d7 76 3d 4a cc c9 3c 2f 38 25 be
       -0.0031905877 0.06026424 0.024633545 -0.16134714
000170 2a 62 d5 3d 14 fb 2e 3d 4e 0c 57 3d a0 09 ff bd
       0.10419114 0.042719916 0.05250197 -0.12453008
000180 5d 52 30 3d 0e 32 61 3d 16 61 d1 bc 18 0a 81 bc
       0.043047298 0.054979376 -0.02555899 -0.015751883
000190 fa aa 3e 3c a5 5b 7a bd 3c 09 a0 bd d2 e5 3c bd
       0.011637444 -0.061122555 -0.07814261 -0.04611761
0001a0 32 2d 38 bd 3e 49 63 bd 1b 22 3b 3d f5 3b 99 3d
       -0.044964977 -0.05548977 0.045686822 0.07482139
0001b0 53 cb aa bd 20 b7 c7 3c 31 2a 29 3d 40 fd 06 3d
       -0.08339562 0.024379313 0.041300002 0.03295636
0001c0 d5 66 07 3d 72 ee 48 3d 93 1e 8d 3d 3d 8f 60 3b
       0.033057053 0.049055524 0.06890597 0.0034265064
0001d0 21 f8 b1 bd d6 3c 20 bd 3e 8c 08 3c 46 fb ad bc
       -0.08689905 -0.039120518 0.008334218 -0.02123798
0001e0 87 d0 21 bc 5e 9a a5 3c 4e 2a 06 3e 08 ac 51 bc
       -0.009876377 0.02021521 0.13102075 -0.012797363
0001f0 f5 2f 74 3d dd a8 af bb 99 c5 a6 3b 50 d8 b0 bd
       0.059616048 -0.0053607062 0.0050894734 -0.08635008
000200 72 30 64 bc 62 b7 97 bc 73 3e 9d 3c 93 62 28 bd
       -0.013927566 -0.01852006 0.019194817 -0.041109633
000210 b8 dd a3 bd 6b e2 64 bc 02 b2 55 bd e2 bd bc 3d
       -0.08001274 -0.013969998 -0.052171715 0.09215905
000220 81 0d 0c 3d 2f d0 c9 bc 99 10 2f bd 8b 5f 2b bd
       0.034192566 -0.024635402 -0.042740438 -0.041839164
000230 00 b7 c1 3d 55 2f e6 3d 93 9e cd bd 04 1c 30 3c
       0.094587326 0.112394966 -0.10040011 0.010748867
000240 13 27 19 be 79 8f 8c bd d2 66 a7 bd 46 97 3d bc
       -0.14956312 -0.06863303 -0.08173908 -0.011571711
000250 b6 37 b4 bc db 62 8e 3d 1d c2 91 3d c8 a3 e8 3d
       -0.021999221 0.06952449 0.07117102 0.11359364
000260 5e 9f 20 3e b8 52 9f 3d 5e 6e e3 3b a2 b5 d7 3d
       0.15685794 0.07779449 0.006940647 0.105326906
000270 cb 78 92 3d 15 45 02 3c 6e ca 78 3d be 27 5d be
       0.07151946 0.007951041 0.060739927 -0.21597192
000280 c5 34 41 3d c0 76 da 3b a5 db bc 3d af 7c a4 bc
       0.047169466 0.006666988 0.09221581 -0.020078985
000290 ae de 71 3c 23 fa 3f 3d 86 d3 18 3c ca 11 fb bd
       0.014762564 0.04686941 0.009327775 -0.12259252
0002a0 0f d0 aa bd 5f 76 0c bd 6e 29 86 3d 15 78 65 bd
       -0.08340465 -0.034292575 0.06550871 -0.056022722
0002b0 4a e8 42 3d 58 db 3f ba 80 cc 1f 3d 0e f0 60 3d
       0.04758481 -0.00073187565 0.039013386 0.054916434
0002c0 7a 27 d3 bd 86 58 a0 3d 26 9e 29 3c 4e 09 96 bc
       -0.10310264 0.078293845 0.010352647 -0.018314984
0002d0 79 a5 a3 bd de 75 4e 3c ad d6 f5 bc 25 63 8b bd
       -0.07990546 0.012601344 -0.030009592 -0.0680602
0002e0 a2 ba 29 3e 8a c3 0d 3d 99 15 90 bd a4 09 2e 3d
       0.16575101 0.03461031 -0.070353694 0.042489663
0002f0 6d fb 6c bc 9d c8 92 3b c9 d2 2c bc f5 e7 ef bb
       -0.014464241 0.0044794814 -0.010548302 -0.0073213526
000300 c9 dd 47 3a 0e 30 b2 3c 23 8c 9e bc a3 5c d8 b8
       0.0007624296 0.02175143 -0.019353932 -0.000103169376
000310 c7 46 cb bd 20 d0 b8 bd d0 7b ce bc f8 56 78 3c
       -0.09925609 -0.09024072 -0.025205523 0.015157454
000320 e6 45 0a bd 9b 2e 79 3d 0b 95 cf 3d b3 13 f0 3d
       -0.033758067 0.060835462 0.101358496 0.11722507
000330 6b 5b a1 bc 26 40 63 bd 5a dc 7d 3d 15 ac ab 3b
       -0.019696912 -0.0554811 0.06197772 0.0052390196
000340 cf f0 29 bc 5b 30 94 3c 4f a8 15 be df 79 1f 3d
       -0.010372355 0.018089464 -0.14614986 0.038934585
000350 58 98 9a 3c 9b 13 6c 3d ff 73 97 bd 7b 3f 15 bd
       0.018871471 0.057635885 -0.073951714 -0.036437493
000360 1d 05 67 3d 49 d2 23 3d d8 f6 de bc df e1 ba bc
       0.05640136 0.039995465 -0.027217314 -0.022812782
000370 00 bc 65 bc 7a 0f 22 be fa c1 f7 bc 73 6e a7 bd
       -0.0140218735 -0.15826216 -0.030243862 -0.081753634
000380 4a 8f 22 3d ad c6 37 3d 2b 86 c3 3c 28 d2 b7 3d
       0.039687432 0.044867206 0.023867687 0.08975631
000390 5f f7 0a bd b5 68 e2 3c f2 e1 76 3d ed 34 fd 3d
       -0.033927318 0.027637819 0.060274072 0.123636104
0003a0 23 9e ec bd c6 27 2f 3b eb e9 78 3d 09 ce 3f be
       -0.115536 0.0026726588 0.060769957 -0.1873094
0003b0 b6 ca d9 3c b5 78 17 3e eb fc 0e 3c ec e7 48 3d
       0.026585918 0.1479214 0.0087272925 0.049049303
0003c0 eb 0c 09 bc c9 06 09 3e 24 1f 01 3d 9e f8 c7 3c
       -0.008364896 0.13381495 0.03152384 0.024410542
0003d0 8b 37 b0 3d 13 e5 6e bd 28 9f 5a bd c0 65 b6 bd
       0.08604344 -0.05832393 -0.05337444 -0.08906126
0003e0 fe f2 26 3b 10 4e ed bd 43 98 1f 3c a1 2e 47 ba
       0.0025474424 -0.11587155 0.009740892 -0.0007598196
0003f0 8d 49 45 bd 0c 79 81 3b 00 20 45 3e 33 f4 0a 3d
       -0.048165847 0.0039511975 0.19250488 0.033924293

emb_module.shallownet.1.conv.bias f4 [8]
000000 6e 7e eb bd fe c2 4c be b5 85 23 bd 01 48 21 bd
       -0.11498724 -0.19996259 -0.039922435 -0.03937531
000010 f0 8c 4e bd 57 d9 05 be d8 ec d9 bd a6 ad 65 be
       -0.050427377 -0.1307119 -0.106408775 -0.22429523

emb_module.shallownet.2.norm.weight f4 [8]
000000 9a 2f 94 3f ca fc 8a 3f d6 dd 94 3f 1a 14 94 3f
       1.1577027 1.0858395 1.1630199 1.1568635
000010 d5 31 91 3f 36 7f 9b 3f fe eb 99 3f cb d2 83 3f
       1.1343333 1.2148197 1.2025144 1.0298704

emb_module.shallownet.2.norm.bias f4 [8]
000000 62 12 9f be 9a 1f b1 be 55 8d 21 be c3 36 7a be
       -0.31068712 -0.34594423 -0.1577657 -0.24434952
000010 1a 19 75 be c9 f0 a1 be 32 41 92 be 34 61 b8 be
       -0.23935357 -0.31629017 -0.28565365 -0.3601166

emb_module.shallownet.2.norm.running_mean f4 [8]
000000 7b ab f6 bd 6a 40 42 be 5d 15 ed bd fe 3f ae bd
       -0.12044426 -0.18969885 -0.1157634 -0.08508299
000010 3c c5 05 be 74 ac 37 be 5b 10 a4 bd 23 e4 99 be
       -0.1306352 -0.1793688 -0.08010932 -0.30056867

emb_module.shallownet.2.norm.running_var f4 [8]
000000 d8 69 28 3f 86 51 86 3f 5b 7a 22 3f 9b 7b ca 3e
       0.65786505 1.0493629 0.6346795 0.39547428
000010 8e 85 13 3f ee 56 df 3e 5b ca 5a 3f 34 78 16 3f
       0.57625663 0.4362101 0.8546502 0.58777165

emb_module.projection.conv.weight f4 [8, 8, 1, 1]
000000 95 d0 ce bd 2a f0 df 3e 00 ec 70 be 0c 38 95 3d
       -0.100983776 0.43737918 -0.23527527 0.07286081
000010 e6 42 a9 3e 87 35 c3 be 22 de d7 bc f3 7b 59 3e
       0.33058852 -0.38126776 -0.026351038 0.21238689
000020 a4 e5 8c be 09 94 29 3e 4b 56 78 bd ad 6e b7 3d
       -0.27518952 0.16560377 -0.06062917 0.089566566
000030 a7 9f 12 be 8e 30 92 be fa 85 a1 3e 1a 36 d0 3e
       -0.14318715 -0.2855267 0.31547529 0.40666276
000040 15 81 9d be ce 39 96 3e a5 b9 91 be 4e 07 76 bd
       -0.30762544 0.29340976 -0.28461948 -0.06006556
000050 d5 74 f7 bd aa 1e cb be ed 2e 04 be 9e d2 f5 3e
       -0.12082831 -0.39671832 -0.12908526 0.4801225
000060 b3 ef db be 52 0e 81 3e ca bd 25 3e c9 94 31 3e
       -0.42956313 0.25206238 0.1618568 0.17341913
000070 ee b5 2c be e5 1f 52 3e 5f ea b7 be eb 3c f2 3e
       -0.16866276 0.2051998 -0.35920998 0.47312102
000080 2d 30 ab 3e 5b 84 52 3c 4d ac 8e be 9e e9 e5 3e
       0.33435193 0.012848939 -0.2786583 0.44904798
000090 b0 8a 1c bd 4e 3b 3b be d6 cb 4c 3e 30 39 a9 bd
       -0.0382182 -0.18284342 0.19999632 -0.08262861
0000a0 f8 d3 42 be 11 19 94 3e 36 e2 fd be 78 73 47 3e
       -0.19026172 0.28925374 -0.49586648 0.19477642
0000b0 60 1d 5a 3e 28 a3 99 3e 76 86 ba 3e 99 28 27 3e
       0.21300268 0.3000729 0.3643071 0.1632408
0000c0 45 55 a1 3e 22 99 06 3e 28 1c ce bc 52 08 49 ba
       0.31510368 0.13144353 -0.02515991 -0.00076687813
0000d0 f6 d2 d7 be b3 f4 eb be 2a 71 9c 3e 6a e0 4c be
       -0.42153138 -0.46085128 0.30555087 -0.20007482
0000e0 80 b0 33 3e 8a cf 6d be 74 84 9f be 35 e7 18 3f
       0.17547798 -0.23223701 -0.3115574 0.59727794
0000f0 13 44 01 3f 00 d6 01 3d 66 a1 61 be 56 0b a0 3d
       0.504945 0.031698227 -0.22034225 0.07814662

emb_module.projection.conv.bias f4 [8]
000000 62 08 27 3d 7d 14 8d 3e 53 dc 3a 3d 78 0d 53 3e
       0.04077948 0.27554694 0.045620274 0.20610607
000010 4e 27 02 3e e0 ee e2 3d a2 f9 8d bd 1d 16 af be
       0.12710306 0.11080718 -0.06932379 -0.3419656

VanillaLSTM.rnn.weight_ih_l0 f4 [256, 8]
000000 19 47 08 3e 90 18 ca 3d 48 17 8f 3b 68 b1 20 be
       0.13308372 0.09867966 0.004366789 -0.15692675
000010 50 91 78 3e 0a fd 39 bc 45 9e 49 3e 21 cd 04 bc
       0.24274182 -0.011351833 0.19689281 -0.008105547
000020 10 49 b4 3d d5 5f 26 3d 18 64 95 be 4e 22 87 bd
       0.08802998 0.040618736 -0.29177928 -0.0659834
000030 54 0f b5 3d 0a 5e 08 3e 70 24 1b be 4b 13 ad be
       0.08840814 0.13317123 -0.15150619 -0.33803782
000040 4d 8b d7 3e aa 43 55 3e d5 65 03 3e ca 1e 58 3c
       0.42098466 0.20826593 0.12831815 0.013190934
000050 65 f1 3b 3e 2c 61 2c 3c 52 fb 45 3d 0a 8c f0 3d
       0.18353803 0.010521214 0.04833538 0.1174546
000060 7a b4 31 3e 4a a8 a4 bd e2 8c 34 be 83 9e 70 3d
       0.17354003 -0.08039911 -0.17631868 0.05874492
000070 f2 9c 16 bb ba 21 e8 3d 78 d9 b7 bd 1d 61 9a 3e
       -0.002298173 0.11334558 -0.08977026 0.30152217
000080 93 3b 29 be 16 8c 01 3e 4c 4b 35 be 53 11 e3 3d
       -0.16526632 0.12651095 -0.17704505 0.11087289
000090 33 f2 81 3e 2d 6e 49 3e d4 9d 33 3e 22 54 94 be
       0.25380096 0.19670935 0.17540675 -0.28970438
0000a0 4b 4e b2 3d f6 64 e7 3d af 06 a2 bd 55 cd 0c 3e
       0.087063394 0.11298554 -0.07911431 0.13750203
0000b0 95 25 8e 3c 93 d0 1f 3e 3a 07 8a be d2 5d dc be
       0.017351905 0.15606909 -0.26958638 -0.4304033
0000c0 23 c4 3e be 8e 4c 7b bd a5 fc f6 bd db d4 95 bb
       -0.18629508 -0.061352305 -0.12059907 -0.0045724935
0000d0 58 a8 d3 3d 6a d8 e0 3d 9a 37 66 be 4e c7 7f 3e
       0.103348434 0.10978778 -0.22482148 0.24978372
0000e0 42 03 cb bd 83 cc 83 bd de 63 4c be 76 87 5c be
       -0.09912731 -0.06435492 -0.19959971 -0.21536049
0000f0 5d 99 77 3e a4 3c b4 bd b2 6b cb 3e a8 f8 52 3e
       0.24179597 -0.08800629 0.39730603 0.20602667
000100 b6 e2 8d 3b e6 47 f5 3d 3d 29 2a 3e e3 cb 1f be
       0.0043300046 0.11976604 0.16617294 -0.1560512
000110 e6 0b 19 3e d4 7c 41 3d da 6f 27 3e 5a 0e eb ba
       0.14945945 0.047238186 0.16351262 -0.0017933354
000120 d0 db 47 bd f2 e0 31 3d 1e f2 09 bd ba a7 17 3e
       -0.048793614 0.043427415 -0.033678167 0.14810076
000130 ec 66 82 3c 4d 64 e6 3e 3d c7 d6 be 5d 71 c8 3e
       0.015918218 0.44998398 -0.41948882 0.3914899
000140 46 5e 35 3d 05 7b a9 bd fb da f8 3d f4 71 12 3e
       0.04427936 -0.08275417 0.12151142 0.14301282
000150 ba b4 fd bc ac 97 09 bd a3 26 e1 3c 58 42 19 be
       -0.030969966 -0.03359191 0.027484244 -0.14966714
000160 ac 2c 1d 3e bc 41 95 3e 56 52 6a be c1 33 87 3e
       0.15349072 0.29151714 -0.22882971 0.26406673
000170 e7 d6 47 3e ce c9 6d 3e 30 86 c9 be 5b 28 da be
       0.19515572 0.23221514 -0.3936019 -0.42608914
000180 26 6a a8 3d ce 61 48 3e b0 42 0d 3d c3 68 78 3e
       0.08223371 0.1956856 0.034487426 0.24258713
000190 eb bb 74 3e 1b 35 9b 3e 88 e0 25 be 92 a3 15 3e
       0.2389981 0.30313954 -0.16198933 0.14613178
0001a0 25 75 52 3d 31 20 c1 3c 3d 6b 28 bd c2 90 82 3d
       0.05138125 0.02357492 -0.041117895 0.063752666
0001b0 b3 2b 8d 3d b9 a3 15 3e df 9b 9c 3d 9d 26 b1 3c
       0.068931006 0.14613236 0.076469176 0.021624858
0001c0 9e 94 90 3d f2 67 2e bb 97 fb 0c bc de b8 8b 3d
       0.070595965 -0.002661225 -0.008604906 0.0682237
0001d0 0e 18 be 3d 7c c1 8d 3d 1c 47 93 be 6a 36 fe bd
       0.09281932 0.0692167 -0.2876519 -0.124127224
0001e0 18 d9 99 bd 83 52 ad 3c 0b d0 95 be 15 93 a1 3d
       -0.075121105 0.021157509 -0.29260287 0.07889382
0001f0 ba 22 b2 bc 85 b2 00 3e 22 1a 80 be a1 87 03 be
       -0.021745075 0.125681 -0.25019938 -0.12844707
000200 1d e2 f9 bd 0b 0a 6a 3c b3 d8 9e bd c1 6a 92 3b
       -0.12201331 0.014284621 -0.07756176 0.0044682925
000210 ee ce e2 bd e8 a3 4d be 9d d9 4a bc 1f 68 a7 be
       -0.11074625 -0.20082057 -0.012380985 -0.32696626
000220 6e ff 2a 3d ca a0 67 3d 9b 90 79 be 16 39 56 3d
       0.041747503 0.056549825 -0.24371569 0.052300535
000230 6e 24 16 3e 6e 1d 78 3d 9d 00 ce 3c f8 57 0f be
       0.14662334 0.06057494 0.025146777 -0.13998401
000240 e8 ef b6 3d 72 5c 6f 3e 9b a2 80 3b eb 53 13 be
       0.08932477 0.23375109 0.003925634 -0.14387481
000250 47 45 4b 3e 66 f0 63 3e 48 98 9a bd e6 eb 27 3e
       0.19850646 0.22259673 -0.075485766 0.16398582
000260 e6 f8 08 3f 49 2b c4 3e 75 a8 7b 3e be a2 6f 3e
       0.5350479 0.38314274 0.2457598 0.23401925
000270 ae 03 dc 3c 83 50 fe bc 15 c9 8f 3d 27 73 99 be
       0.026857223 -0.03104425 0.07020775 -0.29970667
000280 f2 16 a3 3e 8e 8b 9e 3e 88 5e 75 3e 5e 9d a1 3d
       0.31853443 0.30965847 0.23961842 0.078913435
000290 d8 6e e6 3d c8 06 fc 3d df 42 c0 3c 1a 6a b7 be
       0.112516105 0.12305981 0.023469387 -0.35823137
0002a0 22 b5 c0 3d 86 69 06 3e 1a 8a 8d 3e c6 9f 9a 3d
       0.09409548 0.13126191 0.27644426 0.075500056
0002b0 ff 31 27 3e 04 5b 39 3d 52 8b 30 3e d6 8f fd bd
       0.16327666 0.045252815 0.17240646 -0.1238095
0002c0 10 05 94 3d cc 08 01 3c ee f6 78 be fa ee 2d 3e
       0.07227528 0.0078756325 -0.24312946 0.16985694
0002d0 9e 81 b6 3d 12 29 cb 3e 20 bc 4f be ac 4f a4 3e
       0.08911441 0.39679772 -0.20286608 0.32092035
0002e0 a2 f0 68 bb 13 04 15 39 24 0c 3e bd 52 88 51 be
       -0.003554382 0.00014211265 -0.046398297 -0.20462158
0002f0 b8 9d 17 3d ba 0d 92 bd 9e cf a6 3e e5 9e da be
       0.037015647 -0.071315244 0.32580274 -0.42699352
000300 46 47 dd bd ea 83 a8 bd 0c cf 1c be 0d 73 7d be
       -0.1080461 -0.082282856 -0.15313357 -0.2475092
000310 b3 52 d8 3d c3 5d 58 be f2 6f c6 bd ca 8e ad 3d
       0.105626486 -0.21129517 -0.096893206 0.084745005
000320 0a 67 06 3d 38 fd a7 3c e1 ac 03 3e 86 f4 7e 3d
       0.03281311 0.020506486 0.12858917 0.062244914
000330 ae 7c 5f bd 91 52 a8 3d 09 2d 2e 3d 82 a0 83 3d
       -0.054562263 0.08218873 0.042523418 0.06427099
000340 00 f4 53 be 78 2a 68 3c ec 28 ab 3d e8 b4 10 bd
       -0.20698547 0.014170282 0.083574146 -0.035328776
000350 52 3b dc 3c 6a 7d 3a 3c 6d 00 0b 3c 83 18 55 be
       0.026883755 0.01138244 0.008483988 -0.20810132
000360 6e de 15 3e f0 0b 15 3e 27 ea 8b 3e 8c 69 85 bd
       0.14635631 0.14555335 0.27327082 -0.06514272
000370 6c d4 3b 3e e2 9e d0 bd 21 2a 82 3e 46 55 ef be
       0.18342751 -0.101865545 0.25422767 -0.46744746
000380 a8 8a e7 3d 71 7b 1c bc 7b d8 4a 3e de e7 79 3d
       0.113057435 -0.009550915 0.19809143 0.06101214
000390 ee ea c2 bd a6 d1 d0 bd 4e f1 13 be bb 01 66 bd
       -0.095174655 -0.10196237 -0.14447519 -0.056153994
0003a0 74 b4 0c 3e be 9e 89 3e 08 2e 59 be 1d 91 5c 3e
       0.13740712 0.26878923 -0.21208966 0.21539731
0003b0 b2 86 72 3e 93 e0 5e 3e 08 86 09 3e cb 17 17 bf
       0.23684195 0.21765356 0.13430035 -0.5902068
0003c0 20 25 21 3e 4b 48 11 bd 7e b4 36 3e 52 33 8c 3d
       0.15736818 -0.035469335 0.1784229 0.06845726
0003d0 f6 c1 a9 bd d2 78 88 bc c8 8a 29 be 23 e0 7d bd
       -0.08288948 -0.016659174 -0.16556847 -0.06198133
0003e0 be 57 41 3e 35 bb ec 3d ee 84 63 3e 57 1a a1 3e
       0.18881127 0.115591444 0.22218677 0.31465408
0003f0 cb df 92 bd 08 9a b0 3d 15 02 49 bd de 5f 02 bf
       -0.07171591 0.08623129 -0.04907425 -0.5092753

VanillaLSTM.rnn.weight_hh_l0 f4 [256, 64]
000000 ca 9e 1b 3d b0 14 92 3d ce a0 e0 3d e2 c6 e2 bd
       0.03799323 0.07132852 0.10968171 -0.1107309
000010 9b 1f 4d 3e 07 6c c2 3b bc 0d 9e bd ac fe 13 be
       0.20031588 0.005933288 -0.077174634 -0.14452618
000020 66 cc 11 3e 63 cf 49 3e 99 95 8e bc 5b 07 0f be
       0.14238128 0.19708018 -0.017405318 -0.1396765
000030 05 50 5d 3e cc 16 96 3e 66 19 91 be dc 8e 90 be
       0.21612556 0.29314268 -0.2833969 -0.28233993
000040 ac 12 2d be 15 e2 e2 3d 42 72 1e bd 83 31 2c 3e
       -0.16901654 0.11078278 -0.038683183 0.16815762
000050 00 43 43 bd 08 1a 84 bd f5 3b 4f 3d 4f 24 2d be
       -0.047671318 -0.064502776 0.05059429 -0.16908382
000060 9b 4b 1a 3e 83 62 b8 be 46 a1 b6 3e 7d 94 28 bc
       0.15067904 -0.36012658 0.35669917 -0.010289309
000070 dd 17 4d bd 32 c1 a3 be 52 bc 59 be 33 f0 50 3d
       -0.050071586 -0.31983334 -0.21263245 0.05101032
000080 48 f7 02 3e 26 b1 6e be 3e a6 67 3e 76 4d a4 3e
       0.12789643 -0.23309764 0.2262201 0.32090348
000090 76 16 71 bc e6 17 80 3d 87 94 11 3e 34 af 04 be
       -0.014714828 0.06254558 0.14216815 -0.1295746
0000a0 5f b1 a5 3e 0a 30 61 3d ad e4 9d bd 9e 9c 1a 3d
       0.32361886 0.054977454 -0.07709632 0.037747018
0000b0 c3 e4 19 3e 88 00 e4 bd 9a 74 b8 3d 8b a3 09 bd
       0.15028672 -0.11132914 0.09006615 -0.033603232
0000c0 12 05 96 bd d3 64 6f bd 06 ca 77 bd a3 b7 79 bd
       -0.07325186 -0.058445763 -0.0604954 -0.060966145
0000d0 7a 65 07 3e 19 5a 0a be a8 25 86 be 0b 73 5b 3d
       0.13222304 -0.13510932 -0.26200604 0.05357651
0000e0 ea a9 bc bd 80 ab 8f bd 0a 1c 2f 3d c5 05 2d be
       -0.09212096 -0.07015133 0.04275135 -0.16896732
0000f0 58 c2 87 3d 6e 25 e7 bd 4e 62 3c 3c 6a e6 57 bd
       0.06628865 -0.11286436 0.011498047 -0.052709974
000100 b1 ab 08 be f5 01 76 3c 42 6d 0f 3e c2 ae c9 bd
       -0.13346745 0.015015115 0.14006522 -0.098477855
000110 db 7f d0 3d 14 d2 87 3c 45 24 74 be 1b 9c 6c be
       0.101806365 0.016579665 -0.2384196 -0.23106425
000120 c5 b5 d1 3c 7a 93 e3 3d 2e 08 e4 bd 3a fc 07 be
       0.02559937 0.11112113 -0.11134373 -0.1327981
000130 90 61 ae bc 72 f1 73 3d db 0f 0a be 12 b3 38 be
       -0.021286756 0.059556432 -0.13482611 -0.1803706
000140 dc ff 9c bd 03 a8 8a 3e a0 6e 8a be c3 6d e8 3e
       -0.07665989 0.27081308 -0.27037525 0.45396242
000150 fd 44 8d 3d b8 74 99 be 9b 60 fe 3d 01 a9 38 be
       0.06897924 -0.29971862 0.1242077 -0.1803322
000160 9f 18 2f 3e 7b 15 d1 bd 72 de 5a 3e ce b6 53 3e
       0.17099236 -0.10209175 0.21373919 0.20675203
000170 c7 5d 29 3e 27 bc 01 be a0 e2 72 bd 8d 0c 75 be
       0.1653968 -0.1266943 -0.059298158 -0.23930569
000180 ae 98 3a 3e c5 d5 42 be 3e 00 d4 3d c4 55 07 3e
       0.18222305 -0.19026859 0.10351609 0.1321631
000190 18 16 ea bc 6d 31 4f 3e db 3e 04 3e 6f 75 4c be
       -0.028574988 0.20233698 0.12914602 -0.19966672
0001a0 f2 5e 8f 3e ef ae 91 3e e6 d2 df 3c 2c bb 0f 3e
       0.28002125 0.28453776 0.027322244 0.14036244
0001b0 2c 0b 0b be 05 88 e4 bd e2 43 6b be cc 10 1c 3e
       -0.1357848 -0.11158756 -0.22975114 0.15240782
0001c0 a1 ad 10 be 2e 4e 26 be a6 99 dd 3a f6 2b 0b 3e
       -0.14128734 -0.1624076 0.0016906753 0.13590989
0001d0 1d 5f 46 3e 3a 04 a5 bd 3e f6 84 be da 2e cd 3b
       0.1937222 -0.08057447 -0.25969118 0.0062616887
0001e0 9e b3 8d 3d 54 7f 01 be 1b b6 c9 3c 5e 48 3b be
       0.06919025 -0.12646228 0.024622967 -0.18289325
0001f0 38 4b 94 bd 7b 1a d2 bd d8 48 16 3e 0f 4b b2 bd
       -0.07240909 -0.10258957 0.14676225 -0.087057225
000200 23 09 8a bd f2 3a 3d 3d fe 83 8c 3d 4a ae cc bc
       -0.06740024 0.046198793 0.06861113 -0.024985451
000210 67 44 3e be a3 d5 37 3d d2 34 1b 3e 47 31 80 be
       -0.18580781 0.044881474 0.15156868 -0.25037596
000220 5d 59 78 3d 55 d5 f7 3d ef e9 2f 3d 25 13 56 be
       0.0606321 0.12101237 0.042947706 -0.2090574
000230 ee f8 a5 bd 12 6a 1a 3e 53 43 08 3c 1b 4e e5 bd
       -0.0810412 0.15079525 0.008316833 -0.11196538
000240 a7 01 1b be d6 7c d4 bc e2 b3 b0 bd 75 b2 22 3e
       -0.15137349 -0.025938433 -0.0862806 0.15888388
000250 e5 bf df bd 18 b8 a6 bd e9 37 cc 3c aa a6 d4 bd
       -0.10925273 -0.08140582 0.024929004 -0.10383351
000260 4d 15 d4 3d fe ee 0e be dd a7 0a 3e eb 7c cd 3c
       0.10355625 -0.13958356 0.13540597 0.02508398
000270 8a 57 90 3d 11 6e 04 bd 12 d6 76 bd 7a b5 a8 3d
       0.07047947 -0.03233153 -0.060262747 0.08237739
000280 be 31 b1 bd a0 14 ea 3d da 5c 86 3c 74 47 07 3e
       -0.08652066 0.11429715 0.016401697 0.13210851
000290 fc 20 a7 3d 72 1a af 3d 6e 3d 0f 3d 28 8b 2a 3c
       0.08160588 0.08549966 0.034970693 0.010409154
0002a0 cb b5 28 3d b5 be c1 3d 58 f6 b3 3b 8d 7b e2 3d
       0.041188996 0.094602026 0.005492013 0.11058722
0002b0 95 71 52 bd bb ce 4c bd a2 41 23 3c 12 bb 36 3e
       -0.05137785 -0.05000184 0.009964379 0.17844799
0002c0 15 f9 76 3c dc 74 99 3c ca 2e 03 3e 80 d2 e2 bd
       0.015074034 0.01873248 0.12810817 -0.11075306
0002d0 72 8f a2 3d 88 40 19 be 0f 81 12 3e 3c 28 b4 3c
       0.07937516 -0.14966023 0.14307044 0.021991841
0002e0 01 64 84 3c 7d d7 5f 3d 94 98 1d 3e 2a 5b 34 bb
       0.016160967 0.054648865 0.15390235 -0.0027520158
0002f0 6b 54 89 3d 09 d7 b0 bb 48 83 12 3e c2 13 10 be
       0.067055546 -0.005396728 0.14307892 -0.14070037
000300 c2 eb 1f be bb 59 d1 bd 53 f4 02 3e 76 0d 8c 3d
       -0.15617278 -0.10222193 0.12788515 0.06838505
000310 25 a4 ea bd d2 41 1b be 76 35 d0 3c aa 31 83 bd
       -0.11457089 -0.15161827 0.025416117 -0.06405957
000320 70 ab 27 bd 90 47 1e 3e 07 d2 a1 3c 6d ae 20 bd
       -0.04093498 0.15456986 0.01975347 -0.039228845
000330 88 c7 5c 3a 7a 53 14 bc fe 2a 13 3d 66 4f 1b bd
       0.00084220665 -0.0090531055 0.035929672 -0.037917517
000340 c3 77 e3 bc da 79 59 bc 74 64 b3 3d 83 de f2 3d
       -0.027767068 -0.013273681 0.08759394 0.11858847
000350 a3 53 95 3d 39 0c c3 3d 1a e8 12 bd 13 0c d5 bd
       0.07291343 0.09523816 -0.03586588 -0.104026936
000360 e2 c0 e4 3d a5 ff 4b bd da 3c bb bd 72 0e be bd
       0.11169602 -0.04980435 -0.09142466 -0.09280099
000370 85 3a 05 3e 45 e7 a5 3d 82 43 bf 3c 0b 73 9e 3c
       0.13010605 0.08100752 0.02334762 0.019341966
000380 06 04 e7 bc 0c 37 9a bb 32 72 65 3d d0 c8 65 3c
       -0.02820016 -0.004706269 0.05601711 0.014024928
000390 95 5c 38 3c d3 a2 7a bd 03 bd 32 3d ad 95 1a 3e
       0.011252542 -0.061190438 0.043637287 0.1509616
0003a0 4c b6 43 bd f5 7f 69 bd 9f 07 c4 3d 9e 6a 04 3e
       -0.047781274 -0.057006795 0.09571766 0.12931296
0003b0 6b a3 cf bd a6 c5 a2 3d dc a8 0d be 32 59 a8 3c
       -0.101385914 0.07947855 -0.13833946 0.020550344
0003c0 e1 06 92 3b 6a 92 72 bd e2 83 46 bd 26 0a e5 b9
       0.0044563864 -0.059221663 -0.048465617 -0.00043685845
0003d0 c2 13 32 3d d6 d2 a8 3d 10 20 b6 3d e6 a3 6e 3d
       0.043475874 0.08243339 0.08892834 0.058261774
0003e0 6a ab 8b bc ea 1d 94 3d 88 27 25 3e da 03 14 bd
       -0.01704951 0.07232268 0.16128361 -0.036136486
0003f0 62 ad e0 bd da 06 0a 3e 79 d0 ac 3d f0 cf 5d be
       -0.1097057 0.13479176 0.084382005 -0.21661353

VanillaLSTM.rnn.bias_ih_l0 f4 [256]
000000 58 76 73 bc 1b 40 e1 3b a7 ad 37 3e 6a af 1e 39
       -0.014859758 0.006874097 0.17937337 0.00015133401
000010 98 08 55 3e 44 80 46 3e 28 37 a6 bd fd 82 e5 3d
       0.2080406 0.19384867 -0.08115989 0.11206625
000020 d7 03 cb bd 82 93 f6 3d 99 c2 2d 3d fe 20 25 3e
       -0.09912842 0.12039854 0.04242191 0.16125867
000030 eb e2 0f 3d b5 fb 9c bd b3 b1 91 3d dd 4e 41 3d
       0.035128515 -0.07665197 0.071139716 0.04719435
000040 d7 cf 32 3d b6 dc 1e 3d 0a 0e 94 3d 36 39 ab 3e
       0.043655243 0.038784705 0.0722924 0.33442086
000050 4b a1 79 bd 02 a3 84 3c 8b 2d c2 3d 7e e0 1d 3d
       -0.060944837 0.01619101 0.09481343 0.03854417
000060 c4 e6 07 bd 15 9a 54 3e fd bb f0 3d 66 d1 fb bc
       -0.03317906 0.20761903 0.11754606 -0.030739497
000070 3d ab d8 bd 48 04 d9 3d e8 98 6c bc 1d 63 8f 3d
       -0.10579536 0.1059652 -0.014440753 0.07001326
000080 bb f8 ad 3d 80 93 f9 bc 3c bc 27 3d a6 e3 f2 3d
       0.08494707 -0.030465841 0.040951 0.11859827
000090 3a 72 80 3e e4 9b 24 bd 82 d3 89 3e fb 30 2f 3e
       0.25087148 -0.04018773 0.2691918 0.17108528
0000a0 3a 0c 22 3e 6a ea 32 bd c6 79 ba 3d 22 c0 14 3d
       0.15824977 -0.043680586 0.09105258 0.036316045
0000b0 4e db 4d bd 74 7a 10 3c ce a8 d3 bc 83 43 0b 3e
       -0.050257973 0.008818258 -0.025837328 0.13599972
0000c0 06 6a ff 3e f6 13 95 bc dd 45 6a 3e 96 ee ca 3c
       0.49885577 -0.018197995 0.22878213 0.02477197
0000d0 62 f1 2b 3e 8e b0 96 3d 45 f8 73 3d 8e 1e 4e 3e
       0.16791299 0.07357894 0.05956294 0.20128843
0000e0 b6 01 15 3d b6 52 b2 bd d2 e5 f4 3d ba 03 32 3e
       0.036378585 -0.08707182 0.11957897 0.17384234
0000f0 23 8a d0 3c 38 10 e7 3d d2 d4 ed 3a f6 81 1e 3d
       0.025456494 0.1128239 0.001814509 0.03869816
000100 7e 6f 2e bd 13 fd 13 3d 62 8f f7 3d ba ca ab bc
       -0.042586796 0.036130022 0.12087895 -0.020970691
000110 30 76 2b bd 18 99 c2 3c 76 34 a8 3d 08 24 d7 3c
       -0.04186076 0.023754641 0.08213131 0.026262298
000120 06 6c a4 3d 86 18 b7 3d a2 3a c9 bd 72 31 4b 3d
       0.08028416 0.08940224 -0.098256364 0.0496077
000130 b3 9e f0 3a a2 10 22 3e e1 ba a3 3d ec 12 92 3d
       0.0018357843 0.15826657 0.07994629 0.07132515
000140 b2 7f 4a bd 37 e2 1c 3d 9b a3 db 3d a8 07 ed 3d
       -0.049438186 0.038301673 0.10724565 0.11573726
000150 9e 67 9e bd ff f0 35 bd f6 1b 41 3d 1a 13 00 3e
       -0.07734607 -0.044419285 0.047145806 0.12507287
000160 76 ef 31 3e fe a3 90 bd c2 03 8c bd 29 aa 44 3d
       0.17376503 -0.07062529 -0.06836654 0.04801384
000170 bb 0f ce 3c 56 30 a8 bc d5 38 de ba 66 b2 eb b5
       0.025153985 -0.02053086 -0.0016954193 -1.7560785e-06
000180 50 8b 54 bd 36 37 25 3e 7a 9f 54 bd 42 d5 a0 3d
       -0.05189067 0.16134343 -0.0519099 0.07853176
000190 75 13 2a 3d cf 36 1d 3e be 42 97 3e 3c b0 42 3e
       0.041522462 0.15352939 0.29543108 0.1901254
0001a0 c2 9b ae 3d 98 c1 06 3e fe af 5f 3d 3a 15 81 3d
       0.08525802 0.13159788 0.0546112 0.06302877
0001b0 b6 c7 a8 3d fb b8 9d 3c 6a a8 81 3c 3b 95 da bc
       0.08241217 0.019253245 0.015827376 -0.026682487
0001c0 40 d2 46 3e 92 d1 17 3e 26 0f 5e 3e 9a a4 ae 3d
       0.19416142 0.14826038 0.21685466 0.08527489
0001d0 53 ec d4 3d 7d 4b 23 3e 45 84 e9 3d fb 71 df 3d
       0.10396638 0.15946765 0.114021815 0.10910412
0001e0 5b 88 92 bd 08 ec 52 3e 92 88 a7 3d c6 6d 5a 3e
       -0.07154914 0.20597851 0.081803456 0.21330938
0001f0 86 4b ba 3d fc 64 9e bc 12 1a e9 bc 0d 1c 44 bc
       0.09096436 -0.019335262 -0.028454814 -0.011969578
000200 96 1b b0 3d 98 c5 74 bd a2 db 06 3e 9c 29 8b 3d
       0.085990116 -0.059758753 0.13169721 0.06795046
000210 d5 e2 f3 3d 2a b8 af bd fb 65 8c 3d ba fb a4 bd
       0.11908499 -0.085800484 0.06855389 -0.080558255
000220 ca 38 66 3d 0b e9 9d bc 24 a1 81 bd 22 d0 ae bc
       0.056206502 -0.019276163 -0.06329563 -0.02133948
000230 6e 5a 49 bd 81 80 90 3d 42 35 97 bd ec ec 82 bd
       -0.049158506 0.0705576 -0.07383205 -0.063928455
000240 f2 02 01 be 06 93 92 3d 89 24 a5 bd 7e 1f 3b bd
       -0.1259878 0.07156949 -0.08063609 -0.04568433
000250 88 1c 43 3c cf d9 1b bb 02 99 04 be 88 54 94 bd
       0.011908658 -0.0023780947 -0.12948993 -0.072426856
000260 8b 51 d1 3d 53 96 18 bc a5 2e bd 3c 55 88 72 bd
       0.10220631 -0.009313184 0.02309353 -0.059212048
000270 eb 36 cf bd ce c7 24 bd bb a7 89 bb eb e3 a9 bd
       -0.10117897 -0.04022961 -0.0042009032 -0.08295425
000280 88 6a 71 3d d7 04 c2 bd b2 00 86 bd 5b e0 5e 3d
       0.058939487 -0.094735794 -0.06543101 0.05441318
000290 88 c5 3a bd d9 a9 36 3e fa 26 ee 3c c3 73 d0 bb
       -0.045598537 0.17838229 0.02907132 -0.006361456
0002a0 4d 65 44 bd e2 c6 78 3d 63 2e d0 bd 1d 43 61 bd
       -0.04794817 0.060736544 -0.101650976 -0.054995645
0002b0 86 b0 07 be 47 f7 3e 3d 4d f7 0f be 1e 2a 4b bd
       -0.13250932 0.04662254 -0.14059182 -0.049600713
0002c0 e2 27 03 be 23 09 2c be b3 85 fe 3c 5a 5b 0b 3e
       -0.12808183 -0.1680036 0.031069612 0.13609067
0002d0 63 43 d9 3c 01 3d 8c 3c 22 d2 13 bd 25 91 a6 3d
       0.02652139 0.017118933 -0.03608907 0.08133153
0002e0 af e4 81 3d b0 15 6c bd 15 5f 58 3d 63 f5 e5 bd
       0.06342446 -0.05763787 0.052825052 -0.112284444
0002f0 f1 f7 8c bc 9b c4 f3 bd 93 ba c3 bd 99 12 a0 3d
       -0.017208071 -0.11902734 -0.095570706 0.07816047
000300 6d 21 96 3d 9f ca 16 3d aa db a7 3d aa 52 d9 3d
       0.07330594 0.03681433 0.081961945 0.1061147
000310 26 45 23 3e 90 ac a7 3d f8 73 dc 3c 9b ba ac 3b
       0.15944347 0.081872106 0.026910767 0.0052712685
000320 0d 09 04 be 12 db 75 3e 9d 6d 80 3d 36 00 df 3e
       -0.12894078 0.2400935 0.06270907 0.43554848
000330 12 2a eb 3d 05 1b 33 bd 28 d9 62 3d df 57 1a 3e
       0.11482634 -0.04372694 0.055382878 0.15072583
000340 aa a3 6a 3c dd 1e 78 3c a7 f3 39 3e 66 13 bd 3e
       0.014321247 0.015144077 0.18159352 0.36928862
000350 bd ae 0c 3d 02 d6 90 3c a0 9a cd 3d 33 8c 07 3d
       0.03434633 0.017680172 0.10039258 0.03309269
000360 7e 7d ab bc 15 92 1a 3c 26 be fb 3c e8 83 73 bd
       -0.020933863 0.009434243 0.030730318 -0.059451967
000370 cb 8a 7b bd 93 5d a3 3d 10 b0 4d 3e 62 7f 2f 3e
       -0.06141166 0.07976832 0.20086694 0.17138436
000380 d2 23 bf bb 50 d0 7b 3e 18 22 ce 3d cb f6 0e 3e
       -0.0058331275 0.24591184 0.100650966 0.13961332
000390 06 43 7e 3d a8 b9 5c 3d 96 04 78 3e 73 a5 a7 3e
       0.062075637 0.053887993 0.242205 0.32743415
0003a0 ac fc 15 3d 5e 8b 92 bd d6 b4 36 3e fd 0e 68 3e
       0.03661792 -0.071554884 0.17842421 0.22661968
0003b0 62 87 da 3b 7f d1 a9 3d 10 dd cb bc 2f df af 3d
       0.006668971 0.08291911 -0.024885684 0.08587491
0003c0 ef 59 86 3e 0f cc 03 3e a4 be b3 3e 36 71 8d 3d
       0.2624049 0.12870811 0.35106385 0.06906359
0003d0 96 4d c0 3d 9b 75 d8 3d 06 a7 aa 3a 58 e5 38 3e
       0.09389798 0.105693065 0.0013019748 0.18056238
0003e0 9b 6a 50 bd f5 b2 85 3a 75 20 65 3e 6b c6 dc 3d
       -0.050882917 0.0010200428 0.22375663 0.10780033
0003f0 8e 06 42 bd 38 98 6d 3c a8 94 57 bb da 5c 72 3d
       -0.047369532 0.014501624 -0.0032895003 0.05917058

VanillaLSTM.rnn.bias_hh_l0 f4 [256]
000000 cd 29 60 bc 1a 5c 1f 3e ca 88 cd 3d 13 bc 87 3d
       -0.013681841 0.15562478 0.10035856 0.06627669
000010 b0 c9 73 3e b0 d3 19 3e 25 58 08 3e ad 5b fa 3d
       0.23807406 0.15022159 0.13314874 0.12224517
000020 d5 47 54 bd 6a 52 4f 3b 02 33 80 bd ae e6 ab 3e
       -0.051826317 0.0031634816 -0.06259729 0.33574432
000030 99 d5 46 3e 02 ba 92 bd 6b 56 55 3b 5e 6e 46 bd
       0.19417419 -0.071643844 0.003255273 -0.048445098
000040 dd 01 ba 3d 2b 85 d8 bc 99 ae a1 3d 22 24 5a 3e
       0.09082387 -0.026430687 0.0789463 0.21302846
000050 15 87 81 3c 1a d8 09 3e cb 0c 15 3e 36 fb 43 3d
       0.015811482 0.13461342 0.14555661 0.047846995
000060 7e 58 d5 3d 20 78 2d 3e 17 25 c2 ba 1e 7f 08 3e
       0.10417269 0.16940355 -0.0014812079 0.13329741
000070 6c 78 bb bd a1 93 2e 3e 2b d1 fc 3d 1a 5f 0a 3e
       -0.09153828 0.17048503 0.12344583 0.13512841
000080 35 15 8b bd d6 69 00 3e 32 52 f5 3d 38 d5 0f 3e
       -0.06791154 0.12540373 0.11978568 0.1404618
000090 df 91 16 3e c6 cf fd 3d c5 a3 84 3e 7a d3 87 3e
       0.14704083 0.12393145 0.25906196 0.2652853
0000a0 ea 0c 20 3e c8 e9 94 bd 2a c6 7f 3c 82 05 06 3e
       0.15629926 -0.07271153 0.015611211 0.13088039
0000b0 7e 4b 2b be ee 5c e5 3d cb 1b cd 3d 63 2c 1d 3d
       -0.16728017 0.111993656 0.10015067 0.03837241
0000c0 24 bd bc 3e e3 26 05 3e c9 ad 11 3d 54 e8 03 be
       0.36863053 0.13003115 0.035566125 -0.12881595
0000d0 46 f6 4d 3e 4d ce 72 3c 72 43 8b bd 5a 49 5f 3e
       0.20113477 0.014819694 -0.067999735 0.21805325
0000e0 8d f9 13 3e f0 71 8a 3d f8 81 d9 3d ce ce 53 3e
       0.14450665 0.06760013 0.10620493 0.20684358
0000f0 da eb 12 be d2 ac aa bd 7d fc e9 3d 0b 98 66 bd
       -0.14347783 -0.08333744 0.114251114 -0.056297343
000100 45 e1 74 3d 73 ab 54 bd 86 56 bb 3d 85 af 1a bd
       0.059785146 -0.05192132 0.091473624 -0.037765045
000110 35 7f e9 3d 1f f3 25 3e 2e c5 6b 3e 5f dc 3e bd
       0.11401216 0.16206025 0.23024437 -0.04659688
000120 49 7d 15 bd 1f 28 1c 3e a5 a4 8f 3c e7 b6 86 3e
       -0.036496434 0.1524968 0.017534563 0.26311418
000130 5c a2 80 bc 7b ee 3f 3e 54 ce 0b 3e 83 f4 5a 3e
       -0.015702419 0.18743317 0.13652927 0.21382336
000140 5d b6 39 bd 96 41 b2 3d f7 9e 85 3d 6a f8 2e 3e
       -0.04533993 0.08703916 0.06524461 0.1708695
000150 eb f6 79 bd be e2 39 3e 4a 8f f8 3c 73 b8 e1 bc
       -0.061026495 0.18152902 0.030341763 -0.027553773
000160 76 34 21 3e 16 dd 8b bd 10 24 52 bd 62 03 1c 3d
       0.15742669 -0.06829278 -0.051303923 0.038089164
000170 2d b6 68 3d 86 bc a0 3d 39 7d 30 3d da 99 9a 3d
       0.05681436 0.07848458 0.04308817 0.07548876
000180 25 4e e0 3d d6 26 25 3e 5d d2 8e bd 91 4d 38 3e
       0.10952405 0.16128096 -0.06973717 0.17998339
000190 3e 8c 78 3c fe 0d c7 3d 1e 35 32 3e ac 0a 93 3e
       0.015170155 0.09719466 0.17403075 0.2871908
0001a0 20 db 44 bd 67 c6 02 3d 5f 2e c1 3d 80 00 58 3d
       -0.048060536 0.031927492 0.09432673 0.05273485
0001b0 0b 59 a4 bd e0 11 1d 3e bc b3 4a 3e d3 29 fc bc
       -0.08024796 0.1533885 0.19795126 -0.030781662
0001c0 9d 29 a7 3d 21 34 32 3d 6d 34 1a 3e 8c 2b 2b 3e
       0.08162234 0.043506745 0.15059061 0.1671583
0001d0 b8 4b 13 3e a3 73 df 3d 32 ed 72 3d 46 45 80 3d
       0.14384353 0.10910728 0.05930824 0.06263213
0001e0 26 0d 1f 3d 0a c3 59 3e 24 f0 0e 3e 0a b8 7f 3e
       0.0388309 0.21265808 0.13958794 0.24972549
0001f0 7e 93 e3 bc 4f 68 04 3e 83 6a d6 bb bc f5 82 bc
       -0.02778029 0.12930416 -0.006543459 -0.015986316
000200 08 f2 3f bd cf e4 9d 3d 46 3c d8 3c 56 81 a6 bd
       -0.04686168 0.077096574 0.026395928 -0.081301376
000210 5b 78 00 3e fd 08 e3 bd ed f1 f3 bd 7b 39 f3 3c
       0.12545912 -0.11085699 -0.11911378 0.029690495
000220 dd 87 d7 bc 9a de 8d 3d 26 89 5c bd 98 f6 5d bd
       -0.026309902 0.069272235 -0.053841732 -0.05419025
000230 54 b1 8b bd 6a b6 81 bd 3a 69 95 3c 0d 7e 11 bd
       -0.06820932 -0.06333621 0.018238652 -0.035520602
000240 9e 51 f7 bd 0e 61 2b bd 81 ce 95 bd 4d 40 e3 3c
       -0.12076114 -0.041840605 -0.07314778 0.027740622
000250 fe 63 55 3d d6 20 26 bd ed 12 7c 3d 1a f5 a1 3d
       0.052097313 -0.04055866 0.061541487 0.079080775
000260 c4 2a b5 bd 63 74 8c bd 67 1a 99 3d 30 d3 d8 3d
       -0.088460475 -0.068581365 0.07475739 0.10587156
000270 74 11 8a 3d 0e 47 9f 3d 7e f3 ba 3d 80 1e 94 3c
       0.0674161 0.077772245 0.09128474 0.01808095
000280 15 12 fa bd ec 2c ba bb f6 03 80 3d 5e f5 ed 3d
       -0.1221048 -0.0056816246 0.062507555 0.11619066
000290 53 8c d1 bd c2 8a d5 3d 38 53 a7 3d 10 0d 12 3d
       -0.10231843 0.104268566 0.081701696 0.03565699
0002a0 b8 7c 8b 3d 83 8d e5 3d 83 56 d9 3d 02 79 2e 3d
       0.068108976 0.11208632 0.10612204 0.04259587
0002b0 68 35 3e 3d a4 a7 84 bd e8 9c 1c bc 07 1d c9 3d
       0.04643765 -0.064772874 -0.009558894 0.0981999
0002c0 6e e4 3a bd 93 74 8a 3d 73 c8 8e bd d1 4c 2c bd
       -0.045628004 0.06760516 -0.069718264 -0.042065445
0002d0 b0 1c 55 bc 4e 37 a9 3d 56 b1 17 be a5 9e db 3d
       -0.013007328 0.08262502 -0.14813742 0.107236184
0002e0 7d cd 74 bd a7 2b 05 3b 24 81 a9 3c e6 81 91 bc
       -0.05976628 0.0020320208 0.020691462 -0.017762136
0002f0 15 df f7 3d ba e1 e4 bd 98 f4 15 3d d5 d1 33 bd
       0.121030964 -0.111758664 0.036610216 -0.043901283
000300 6a 12 bb bc 2b 2d e0 3d 68 d9 42 3d aa 78 4d 3c
       -0.022835929 0.10946115 0.047570616 0.012540976
000310 b1 24 83 3e fa 32 29 3e 32 36 e6 3d 22 3d bd 3c
       0.2561393 0.16523352 0.11240806 0.02310044
000320 ae 14 b9 bd 62 a3 73 3e 46 14 5b 3d b5 ec e9 3e
       -0.090371475 0.23792794 0.05348613 0.45688406
000330 d8 a9 9e 3d fe eb 8f 3d fd 0c 2f 3e 46 5e 8a 3d
       0.07747239 0.07027434 0.17094798 0.067562625
000340 16 cc 23 3e bd dc d5 3d c6 7e b4 3d 0e 93 6e 3e
       0.15995821 0.10442493 0.088132426 0.23298284
000350 59 8e 30 3d 8a 9f b2 3d 2b 45 d0 3d 91 bc 26 3e
       0.043104503 0.08721836 0.10169443 0.1628287
000360 d1 e7 bc bd 66 ea eb 3d 75 04 6c 3c a6 5c 0d 3d
       -0.09223903 0.11519317 0.0144053595 0.034512185
000370 ab 60 c1 bd 35 c5 46 3e d4 92 c0 3c a2 08 76 bd
       -0.09442266 0.19411166 0.023507513 -0.060066827
000380 55 06 9b bd 72 33 3f 3e d5 cb b3 3d 46 9c 2f 3d
       -0.07569567 0.18671969 0.08779112 0.042873643
000390 1f dd 44 3e ce e6 be 3d 8d b3 73 3d 6e 24 86 3e
       0.19224976 0.09321366 0.059497405 0.2619967
0003a0 a2 28 1b 3d ce 06 01 bd b6 9a 34 3e c0 9a 5a 3e
       0.037880547 -0.03150063 0.17637143 0.21348095
0003b0 60 83 ce bd ab d3 51 3d a2 43 cc bb d1 e5 1b bd
       -0.100836515 0.051227253 -0.0062336484 -0.038060967
0003c0 66 b7 69 3e 8a d2 f1 3d 76 c2 a1 3e 68 fd c1 3d
       0.22823867 0.11807735 0.31593674 0.094721615
0003d0 42 d7 63 3d 56 1f a3 3c 1a cb d9 3d 07 f5 0b 3e
       0.055625208 0.019912403 0.10634442 0.1366769
0003e0 da f5 91 bd bd 01 f9 bc a0 09 6d 3e 46 22 3b 3d
       -0.071269706 -0.030396337 0.23148203 0.045686983
0003f0 7d e2 57 3d 1a 7b 89 3d ca f3 16 3e aa 76 d6 3d
       0.05270623 0.06712933 0.14741436 0.10471852

dense_module.fc_out.w.weight f4 [4, 64]
000000 58 93 ba 3c cb 5e b7 bd 7b 73 11 3e ab 93 0e be
       0.022775337 -0.08953627 0.14204209 -0.13923518
000010 ed 73 d3 3d 16 5e 0d be 4c 11 89 3c 5e f2 a7 bd
       0.103248455 -0.13805422 0.01673188 -0.08200525
000020 3d 2d 2d be 72 1e e2 3d 81 1f 81 3d f2 a7 03 be
       -0.16911788 0.11040963 0.06304837 -0.12857035
000030 cd 16 34 3d af f9 2a be d0 5f bd 3d c6 0e 49 bb
       0.043967057 -0.16696809 0.092467904 -0.0030678972
000040 b9 16 91 3e 0e 77 5d be 88 36 88 bd e5 ef 66 bd
       0.2833765 -0.21627447 -0.06651026 -0.056381125
000050 43 20 0d 3e 82 47 a3 bd 0a e3 15 3d 16 7b f9 3d
       0.13781838 -0.079726234 0.036593474 0.1218168
000060 21 9c 30 be d3 6c 4d be 20 d1 28 bd 6e a5 8b bd
       -0.17247058 -0.20061044 -0.041215062 -0.068186626
000070 56 d9 dc 3d c9 bf c6 3e 8c 36 1b 3e 17 9e 0f 3e
       0.10783641 0.38818195 0.15157527 0.1402515
000080 e6 1f 49 bc 80 7a 48 bc a4 43 2f be ca c5 0f 3e
       -0.012275672 -0.0122362375 -0.17115647 0.14040294
000090 90 23 c7 3e 9b b3 8e bc fe 20 3e 3d 38 71 94 3d
       0.3889432 -0.017419627 0.046418183 0.07248157
0000a0 ad 7c 31 3d c2 10 20 be 28 df 83 bc 97 41 c9 3c
       0.04333179 -0.15631393 -0.01609762 0.024567408
0000b0 88 ad 81 bc 2f c9 11 3e f7 10 03 be a1 0d 48 3e
       -0.015829816 0.14236902 -0.1279944 0.19536449
0000c0 d8 81 db be d6 26 d8 bd 1a fd 5f be 6e 22 a2 bd
       -0.428725 -0.10554282 -0.21873894 -0.07916723
0000d0 50 0f 3b 3a de ad e8 3c ff 9b 2e bc a2 c6 6b 3b
       0.00071357656 0.028403219 -0.01065731 0.0035976549
0000e0 7e f5 1c be 6d a6 68 3e cf 43 a9 3d fd 70 f4 3d
       -0.15328023 0.22719736 0.082648866 0.11935613
0000f0 f6 f7 5a 3e 4f a9 13 3e 4d 17 d5 3c b7 4c aa bb
       0.21383652 0.14420055 0.026012087 -0.0051971334
000100 5b 37 82 3d b4 15 28 be a5 42 b8 3d de d5 05 bd
       0.063582145 -0.16414529 0.089970864 -0.032674663
000110 e3 5b 13 3e 08 3f cf bd 8a c5 bc bd 38 3c 17 3e
       0.14390521 -0.10119444 -0.09217365 0.14769065
000120 6f 92 b4 3c 4e a8 7a bd fe 1d 2f 3d af 9a 04 be
       0.022042481 -0.061195664 0.042753212 -0.12949632
000130 0e 9d 4f 3e 26 bf 85 3e 0b d5 35 3e 1a 6a 4f 3d
       0.20274755 0.26122397 0.1775705 0.050638296
000140 42 be b0 bd c6 f3 47 bd 36 f6 2e 3e c0 14 17 be
       -0.08630039 -0.048816465 0.1708611 -0.14754009
000150 4a f2 db bc 0f 75 ac 3d c0 e1 6b be 8a d8 d8 bd
       -0.02684893 0.08420765 -0.23035336 -0.105881765
000160 5a 30 ad 3d 2a d2 44 be e7 18 1d 3e 15 4b 24 be
       0.08456488 -0.19220796 0.1534153 -0.16044267
000170 54 21 8c bc e2 9a 40 be 2b 4f 1d 3e 3b f9 04 3d
       -0.017105736 -0.18809083 0.15362231 0.032464247
000180 90 82 0c be eb 63 3d be 93 33 e7 bd 40 3f ac 3e
       -0.1372168 -0.18495147 -0.11289134 0.33642006
000190 0b d5 b0 be e4 ee ac 3d ba fb 5a 3e a2 98 9b 3e
       -0.3453754 0.08444002 0.21385089 0.30389887
0001a0 aa 24 b6 3d a2 8f 25 3d ba 09 26 be ce 45 a6 bc
       0.08893712 0.040420182 -0.16214648 -0.020296957
0001b0 f7 fe c8 3d 96 25 e0 3b 0d bf 21 3e f0 25 45 bc
       0.09814256 0.006840418 0.15795536 -0.012032971
0001c0 a1 57 8c 3e e2 c3 07 3d 8a b4 0c be 12 de 39 3e
       0.27410606 0.033145793 -0.13740745 0.1815112
0001d0 e6 21 a0 3d 2d fc 69 bd 86 46 8b 3e 62 d5 8e 3e
       0.078189656 -0.05712526 0.27202243 0.27897173
0001e0 e6 9a d0 bd 48 50 4e bd ba d0 9a 3c 6a 7a df be
       -0.101857945 -0.05036953 0.018898357 -0.43648082
0001f0 96 e6 21 3e 05 b7 59 be fc ae 34 be be e0 db bd
       0.15810618 -0.21261223 -0.17644876 -0.107362255
000200 1a 5c 17 3e 06 e1 68 3e fb e5 d9 3c 25 f6 32 3d
       0.14781228 0.2274209 0.026598921 0.043691773
000210 5e c6 b3 bd 95 de e6 3d 41 1a 9f 3c 58 34 32 3d
       -0.0877807 0.11272923 0.019421699 0.04350695
000220 51 04 a2 3d 6c 1f b0 bd 7e 0b bb 3d d6 59 a7 3d
       0.079109795 -0.08599743 0.09133051 0.08171432
000230 4a 76 ed bc 49 03 8b be 50 72 4f be 52 dc 03 be
       -0.028987069 -0.27150944 -0.2025845 -0.12877014
000240 b5 75 49 3e 3a 32 91 3e 1d 56 16 3e fa d4 bd 3d
       0.19673808 0.28358632 0.14681287 0.09269138
000250 e3 90 ca bd 77 00 4b be 26 be 70 bc 2f ac b2 3e
       -0.09890916 -0.19824396 -0.014693772 0.3489699
000260 eb 59 06 be 52 93 01 be f8 21 e2 3c 45 29 95 bd
       -0.13120238 -0.12653854 0.027604088 -0.07283262
000270 2a d0 81 bd c0 33 26 bd 30 f9 f1 3d e6 ed 9d bd
       -0.06338532 -0.040576696 0.11815107 -0.07711391
000280 16 51 29 bd 0a 6f 85 3d c3 24 43 be c6 bd bf be
       -0.041337095 0.0651532 -0.19056992 -0.37449473
000290 23 aa 49 be ce 30 ff 3d ba 5c 7b bd ca b2 c0 bd
       -0.19693808 0.12460481 -0.061367728 -0.09409101
0002a0 53 d6 67 be cb 8f 76 bd c3 ee 5c 3e 2a c1 4b be
       -0.22640352 -0.060195725 0.21575455 -0.19897905
0002b0 1a 93 cb bd a3 d5 d0 3c cd b7 06 be af 0a 06 be
       -0.09940167 0.025492495 -0.13156052 -0.13090013
0002c0 0a fc 94 bd 36 e5 a8 bd 90 34 81 3e fa 87 80 bd
       -0.07274635 -0.082468435 0.25235415 -0.062759355
0002d0 b2 38 72 be 62 fb 53 bd c5 9a 5b be 94 ce 18 be
       -0.2365444 -0.05175341 -0.21445759 -0.14922553
0002e0 43 b2 7f 3e 27 aa 3c 3d ad 82 a0 bd 04 bd 88 3e
       0.24970345 0.046060707 -0.078374244 0.26706707
0002f0 56 c4 67 3d 7b 87 e7 3c c5 54 7d bd 26 ce 08 bb
       0.056583725 0.028262844 -0.06184842 -0.0020874827
000300 2d 7f c3 3b 63 6e c4 bd ad a8 33 be 06 87 1f be
       0.0059660883 -0.09591367 -0.17544813 -0.15578851
000310 f5 ab ff bd 63 d5 1c 3e 4d 87 b3 3c 3b 7d 71 3d
       -0.1248397 0.15315776 0.021915102 0.05895732
000320 4e e6 63 3d 22 af 61 bd be 68 76 bc e3 90 c7 bd
       0.055639558 -0.05509866 -0.015039621 -0.09744432
000330 03 bf b9 3d 8f d3 40 bd 8e 5f 32 3e 2d 2f 48 be
       0.09069636 -0.047076758 0.17419264 -0.19549246
000340 ed ae 0f 3c 1c 22 42 be 9a ef 29 be 0e 2c 83 bd
       0.008769733 -0.18958324 -0.16595307 -0.06404887
000350 5d 2d 80 bc 88 e4 19 3d 25 a9 7a 3e 99 96 b3 bd
       -0.01564663 0.03757146 0.24478586 -0.087689586
000360 c6 75 60 3e 32 35 88 3e da 8a 4b be f9 6f 83 3e
       0.21919927 0.26603085 -0.19877186 0.25671366
000370 25 47 aa bd ba e5 bf bd 24 f9 37 be 32 f8 7e be
       -0.08314351 -0.09369989 -0.17966133 -0.24899366
000380 12 ed 0b 3e 23 05 50 bb 02 9b b7 3e 65 52 03 be
       0.13664654 -0.0031741343 0.3586045 -0.128244
000390 d2 0e 46 3e ed 41 3d be e9 10 07 be 8a 8d 3c be
       0.19341591 -0.1848218 -0.13190044 -0.18413368
0003a0 cd 40 39 3e ce 34 d9 bc 41 84 a3 bc f0 88 ce 3d
       0.18091126 -0.026514437 -0.019960525 0.100847125
0003b0 ff 31 84 bc bb a1 ee 3c 4a f7 c1 bb 28 af 35 be
       -0.016137121 0.029129853 -0.0059193717 -0.17742598
0003c0 8e 80 05 3e 69 b5 b4 bc 87 fa 08 3d 4e 23 c9 bd
       0.13037321 -0.02205916 0.033442046 -0.09821187
0003d0 65 a0 f1 3d c3 57 44 bd ac 6d 1b bd 4e 1f c9 bd
       0.11798171 -0.04793526 -0.037946388 -0.09820424
0003e0 f1 48 01 be ae ec f5 bd 57 1d a0 bc 90 db 85 3d
       -0.12625481 -0.12008034 -0.01954524 0.06536019
0003f0 86 cc 6a be ca 2b 8e 3d f6 81 f9 3d 25 26 05 3d
       -0.22929582 0.06941946 0.12182991 0.03250708

dense_module.fc_out.w.bias f4 [4]
000000 ba af dd 3d ca 0f d7 3d 87 00 34 3d c7 23 33 bd
       0.10824533 0.105010584 0.043945815 -0.04373529
