benchmarks/MOABB/results/MotorImagery/BNCI2014001/NonResidualEEGModel/run2/16938/leave-one-session-out/sub-003/0train/save/CKPT+2024-04-20+18-51-39+00/model.ckpt (torch, 101663 bytes, 29 tensors)

Conv2DType0_Batchnorm.norm.weight f4 [8]
000000 e0 bc 7f 3f 9f fc 80 3f cd 50 80 3f e0 84 7e 3f
       0.99897575 1.0077094 1.0024658 0.994215
000010 83 52 7f 3f 2f 3b 7c 3f a6 15 81 3f 08 83 7f 3f
       0.9973528 0.98527807 1.0084732 0.9980931

Conv2DType0_Batchnorm.norm.bias f4 [8]
000000 ff e4 f5 bc 4d 6b d6 bc 63 5d 2e bd a4 57 08 3c
       -0.03001642 -0.026174212 -0.04256953 0.008321676
000010 03 18 2b bd 4a a0 6c 3d 12 c1 a1 bb 6f 3d 47 3d
       -0.041770946 0.05777005 -0.004936346 0.048642572

Conv2DType0_Batchnorm.norm.running_mean f4 [8]
000000 f1 60 16 2f 05 2c 31 2e b3 04 c4 ae ff e4 91 2f
       1.3676861e-10 4.0284238e-11 -8.913883e-11 2.6538058e-10
000010 ca 84 45 af 0a 58 d5 ae 7a 50 d8 2d ab 45 ee 2c
       -1.7964222e-10 -9.7017575e-11 2.4592096e-11 6.7721015e-12

Conv2DType0_Batchnorm.norm.running_var f4 [8]
000000 0f 21 ce 3d 8f 04 9d 3c 62 9a 35 3d 28 d5 fc 3e
       0.10064899 0.019167213 0.044336684 0.49381375
000010 a0 58 24 3e b3 9d 48 3d 0d d1 75 3c 0f e7 87 3c
       0.16049433 0.04897852 0.015003455 0.01658967

Conv2DType1_cnn.conv.weight f4 [8, 8, 1, 51]
000000 8f 91 a8 ac f5 9d e6 2c 50 eb 2c b9 d2 da 95 38
       -4.7910074e-12 6.55453e-12 -0.00016490859 7.145632e-05
000010 35 4f 10 b4 18 f0 28 b8 da 66 05 80 ef a0 17 38
       -1.343986e-07 -4.0277926e-05 -4.96074e-40 3.6151087e-05
000020 3b 34 86 b3 42 1a 8a bc 59 a6 1d bd 7f ea ad bb
       -6.249362e-08 -0.016858224 -0.03848872 -0.005307495
000030 ba f8 9f bb 51 8a 92 3c f1 a1 48 bd 9d 8f fa bb
       -0.0048819454 0.01788822 -0.048982564 -0.0076465146
000040 c2 8b d8 3c 06 ed 0d bd 6a 93 98 3b 19 8e 8f 3c
       0.02643383 -0.03464987 0.004656245 0.017523812
000050 98 c0 22 3d 12 61 f5 bb 33 65 bc 3c 07 20 e3 3c
       0.039734453 -0.0074883783 0.022997474 0.027725233
000060 05 07 f2 bc ea 0e 5c 3c d8 d0 df bb bc 6e b7 3c
       -0.029544363 0.01343129 -0.006830316 0.02239167
000070 ae 36 41 3c a3 5f f1 bc 2e 9b 02 bd 5a 10 b8 3b
       0.011792822 -0.029464548 -0.031886272 0.0056171836
000080 bb 62 d3 3c ba 38 20 3c 42 b1 9e bc ef ae 41 bc
       0.025803914 0.00977915 -0.019371632 -0.011821493
000090 00 02 a7 3c 4c c1 97 bc 4c 88 02 3d a0 d8 0e 3d
       0.020386696 -0.018524788 0.031868264 0.03487456
0000a0 aa d1 29 bd 43 81 5a 3c 8c d1 b8 38 f2 7e bc b9
       -0.041459717 0.013336482 8.812835e-05 -0.00035952736
0000b0 82 59 05 00 4f 73 b1 a0 57 a9 94 b6 48 f9 6e 37
       4.91287e-40 -3.006127e-19 -4.4304575e-06 1.4243946e-05
0000c0 fa e3 05 00 12 65 62 34 29 62 05 80 73 6d c6 39
       5.4096e-40 2.108466e-07 -4.94391e-40 0.0003784705
0000d0 e7 63 05 00 18 b6 d9 39 4f ee ff 0d c9 33 c8 b6
       4.95016e-40 0.00041525136 1.5772959e-30 -5.966493e-06
0000e0 38 e9 f6 b1 9b 48 36 b2 0f 6c b5 8a e3 c8 61 a7
       -7.186056e-09 -1.0610303e-08 -1.7470313e-32 -3.1333923e-15
0000f0 a7 15 6d 3c 9c e3 38 3d e2 c3 51 bc 37 8c 11 3d
       0.014470494 0.04513894 -0.01280305 0.03553411
000100 88 c2 70 3d 9a 73 96 3c 7d 5e 55 3d d9 f6 95 bc
       0.05877927 0.01836567 0.052092064 -0.018306183
000110 e0 53 2d bc 7f b0 fc 3c e0 98 16 3d 23 65 dc bc
       -0.010579079 0.030845879 0.036766887 -0.026903694
000120 a3 b5 a3 bc 77 e4 8b 3c 1b 21 22 bd cb b4 42 bd
       -0.019984072 0.017076714 -0.039582353 -0.0475357
000130 5d e4 74 3d 6b 96 18 bc ed 5e 52 bd a6 d2 45 3c
       0.059788097 -0.009313206 -0.05136006 0.012074148
000140 7d 78 18 bd ed 29 5f bd ed 6d 3f 3c 8b b2 d4 bc
       -0.03722428 -0.054483343 0.011683923 -0.025964042
000150 4b 6e 27 bd 26 79 03 bd 5f 3c 9c bc d9 b1 15 3d
       -0.040876668 -0.032097958 -0.019071756 0.036546562
000160 cd c6 6a bd f4 b6 40 3c 95 de 50 3c bd 4f c2 bb
       -0.057318497 0.011762369 0.01274838 -0.0059299157
000170 90 64 73 bd 4f 14 2d 33 33 e3 f9 0c c2 97 e0 b5
       -0.059422076 4.0298172e-08 3.8501265e-31 -1.6733468e-06
000180 e4 2a a5 ad 57 de 05 b5 dd 11 e8 37 68 42 3a b3
       -1.8777375e-11 -4.986991e-07 2.7664873e-05 -4.3366896e-08
000190 78 56 7c 38 13 75 e6 b6 2f 47 c0 34 22 f5 cd 1a
       6.0162012e-05 -6.8681634e-06 3.581458e-07 8.5182046e-23
0001a0 c2 59 05 00 13 cf 64 39 63 80 ba 38 85 fd d6 b6
       4.91377e-40 0.00021820916 8.893085e-05 -6.4072105e-06
0001b0 4d 5c cd 30 0f 70 05 80 1d b6 31 27 ba 78 31 3b
       1.4941947e-09 -4.99377e-40 2.4662408e-15 0.0027080015
0001c0 b0 01 b5 bc 35 b7 5f bc 10 24 8f ba 6e 7a a1 bc
       -0.022095531 -0.01365452 -0.0010920782 -0.0197117
0001d0 77 b4 11 3c 9d a7 26 3c 3b cb 04 3d 99 08 a4 bb
       0.008893124 0.010171798 0.03242038 -0.0050059077
0001e0 38 e9 1a 3c cf ea e3 3a 74 c4 32 38 50 96 f6 3c
       0.009455018 0.0017388704 4.262147e-05 0.030100971
0001f0 c2 08 00 3c bf 01 6b 3c c3 10 ef 3c 36 11 90 bc
       0.007814588 0.014343678 0.029182797 -0.017586332
000200 97 3e 6b bc d5 48 cd bb 0f 8b e8 3c ad 10 a8 bb
       -0.014358184 -0.006264786 0.02838662 -0.005128941
000210 43 36 2d 3d f5 47 bf bc cc 1f b8 bc ab df 69 ba
       0.042288076 -0.023349741 -0.0224761 -0.0008921574
000220 87 72 d1 3c d2 c9 7c ba a7 7c 13 3d a3 c2 05 3c
       0.025567306 -0.00096431107 0.03600755 0.008164081
000230 27 7e 17 bd 9a a7 7c 3b b7 85 37 3d 23 85 f1 bc
       -0.036985543 0.0038552047 0.044805255 -0.02948243
000240 73 c6 b9 b8 af 9d 18 39 0b 6e 05 80 32 9f b2 85
       -8.8584515e-05 0.00014554591 -4.98653e-40 -1.6797519e-35
000250 49 fc 1a 87 93 a4 22 af 40 41 fa b6 9f 39 63 b9
       -1.1659812e-34 -1.4792283e-10 -7.4581767e-06 -0.00021669873
000260 7b 8e 86 17 86 5b 05 00 c3 48 34 34 a3 47 8f aa
       8.695514e-25 4.9201e-40 1.6790277e-07 -2.545161e-13
000270 87 58 bb b7 73 e4 12 b6 5b f1 15 b8 42 6c 05 00
       -2.233336e-05 -2.188867e-06 -3.5749148e-05 4.98013e-40
000280 d0 c9 8a 33 cd b1 d2 b4 cd 57 e3 3c d3 fb 12 bd
       6.462835e-08 -3.9244915e-07 0.027751828 -0.03588469
000290 5b 3a 2d 3c ff e7 07 bd 11 2e 15 bd 8a f6 f6 bb
       0.010572995 -0.033180233 -0.036420885 -0.007536714
0002a0 bf cc f6 bc e6 41 2c bd 97 84 03 bd 93 f7 87 3b
       -0.030126927 -0.042055033 -0.03210887 0.004149386
0002b0 49 ba 0e 3d 7b f6 1d bd 67 43 f8 3c ef cb 1d bc
       0.034845624 -0.03856514 0.030305577 -0.009631141
0002c0 e5 aa 5b bd 7b 08 7a 3b f9 9b c5 bc 85 70 00 3d
       -0.053629775 0.0038152027 -0.024122225 0.031357307
0002d0 ca 38 77 bc 60 3b d6 3c f7 8c 28 bd 67 63 e5 3c
       -0.015089223 0.02615136 -0.04115006 0.0280015
0002e0 df 97 cd bc 63 53 99 3c 1f d0 2e bc 23 54 28 3d
       -0.025096832 0.01871652 -0.010669737 0.041095864
0002f0 12 51 3d 3d f8 3e 56 3c 2c 0b 1c bc ba 57 ce bb
       0.046219893 0.013076536 -0.009524148 -0.006297079
000300 4f 15 c0 3c 3d d6 f1 bc ca 8b 70 bd 65 67 05 00
       0.02344766 -0.029521102 -0.058727063 4.96268e-40
000310 36 d0 05 91 05 7b 6c 27 33 54 f6 37 6f 77 19 b9
       -1.055601e-28 3.2818268e-15 2.9364694e-05 -0.0001463571
000320 f3 2c 6d a9 ad 50 13 a0 b2 8f 42 b9 26 64 02 07
       -5.266356e-14 -1.2478078e-19 -0.00018554812 9.809544e-35
000330 c0 40 cc b6 01 64 ab 39 7f fd a2 38 27 99 57 27
       -6.0872117e-06 0.0003269017 7.771979e-05 2.9920268e-15
000340 a0 81 d2 39 32 09 b8 31 1f 59 11 39 f9 a5 bc aa
       0.000401509 5.35615e-09 0.00013861478 -3.3510675e-13
000350 28 d0 81 38 e1 f0 c4 bc 02 56 d2 3c c5 fa 80 3c
       6.1899715e-05 -0.024040641 0.025675777 0.015744576
000360 03 ee 14 bc 6d fa fe bc f3 ec b2 bc f7 4c ef bb
       -0.00908995 -0.031125272 -0.021841502 -0.007302876
000370 f1 e7 13 bd 33 41 f6 bc b8 61 d5 3c ed 28 1a 3d
       -0.03610987 -0.030060386 0.026047572 0.037636686
000380 3d 9f 27 bd e7 87 9f 3c 57 6e d0 3c d5 d7 5e 3d
       -0.040923346 0.019473983 0.02544324 0.054405052
000390 f0 ca 65 bc a8 10 2e 3d 3d 82 2a bd 68 20 02 bd
       -0.014025435 0.042496353 -0.04162811 -0.031769186
0003a0 c7 4c fd bb 5f e5 d9 bb a7 cb e2 bc 6d 57 da 3c
       -0.0077301 -0.0066496576 -0.027685 0.026653016
0003b0 1d 57 1e bd aa 9a d8 ba 72 09 56 bc 49 4a ba bb
       -0.038657296 -0.0016525586 -0.013063775 -0.005685125
0003c0 4b 37 13 bd db d3 c3 bc eb ec a8 3c a2 09 f9 bc
       -0.035941403 -0.023904731 0.020620784 -0.030400101
0003d0 bb ed fe 3b c8 0f d3 3c b2 77 c0 34 45 c4 fe 21
       0.0077798045 0.025764361 3.5849877e-07 1.7263662e-18
0003e0 98 9e 9f b5 07 fc 86 38 e7 eb c8 a7 b0 4b eb b8
       -1.189258e-06 6.436562e-05 -5.5766917e-15 -0.00011219771
0003f0 25 de 2d 32 b8 df 23 b8 7a ec fd af 64 75 8a 30
       1.0120435e-08 -3.9070583e-05 -4.618846e-10 1.0074186e-09

Conv2DType1_Batchnorm.norm.weight f4 [8]
000000 af 49 7b 3f 82 a4 7b 3f ab b1 80 3f 2d d1 7f 3f
       0.9815931 0.98297894 1.005422 0.9992855
000010 e5 b4 80 3f 55 0e 81 3f ea 1c 81 3f af 16 80 3f
       1.0055205 1.0082499 1.0086949 1.0006922

Conv2DType1_Batchnorm.norm.bias f4 [8]
000000 0d f5 a1 3d cd df f4 3c 63 8a 1e 3d ad 7e 19 bd
       0.07908068 0.029891873 0.038706195 -0.037474323
000010 ee bf 2c 3d a0 36 63 bb 53 59 c0 3d 10 03 85 bd
       0.042175226 -0.003467001 0.09392037 -0.06494725

Conv2DType1_Batchnorm.norm.running_mean f4 [8]
000000 03 f4 97 bb 3d 26 75 bc ef 86 ae 3c d1 3d b5 bb
       -0.0046372428 -0.01496273 0.021304576 -0.0055310507
000010 da 42 88 3a da 5f db 3b 13 b3 2e 3c 20 f7 c1 bb
       0.00103959 0.006694776 0.010662812 -0.005919352

Conv2DType1_Batchnorm.norm.running_var f4 [8]
000000 96 39 ae 3c d6 c2 1a 3d fd d0 e2 3c 12 85 c6 3c
       0.021267693 0.037783466 0.027687544 0.024233375
000010 94 bd 3e 3d ef 22 e6 3c 2c 7e 21 3d 2d 9b 11 3d
       0.046567515 0.02809283 0.039426968 0.035548378

Conv2DType2_cnn.conv.weight f4 [16, 8, 63, 1]
000000 b0 49 49 3c 9c 69 34 bb 50 82 81 3a a5 af fb bc
       0.012285635 -0.0027528768 0.0009880755 -0.030723402
000010 a2 4d 56 bc f0 bd 7d 3c 06 a1 cc 3c 28 ae e0 b8
       -0.013080033 0.015487179 0.024979126 -0.000107135915
000020 92 4a af 3b 8f 32 05 bd 85 fc b5 3c 4c 54 34 bb
       0.0053494656 -0.03251892 0.022215137 -0.0027516065
000030 2a 7e 08 3c 4f 9a f6 bc f3 94 c8 bc 20 b0 0c bc
       0.008330861 -0.030102877 -0.024485087 -0.008586913
000040 d0 68 e0 38 99 70 06 3d 32 fa e9 3c 44 dd bb 3c
       0.00010700675 0.032822225 0.028561685 0.022932656
000050 47 fe 52 bc a5 7b a4 3c 3d fc 16 3c b8 36 8e 3b
       -0.012878007 0.02007849 0.009215412 0.004340019
000060 ef d8 ad 3c 6f f9 84 3b 85 fc a0 3c 60 86 d2 bc
       0.021221606 0.004058055 0.01965166 -0.02569884
000070 24 89 28 bb 5a c4 fa bc c5 85 13 3d 1f 36 bb 3b
       -0.0025716508 -0.030611206 0.036016244 0.005713239
000080 24 90 b6 3b 3b 4d 44 3c 2f 74 1a 3d c3 06 bd 3c
       0.005571382 0.011981304 0.037708458 0.023074513
000090 67 51 2d bc ba a1 df bb 67 9c d4 3c c7 a2 f6 3a
       -0.01057849 -0.006824699 0.025953485 0.0018816822
0000a0 f2 2d b0 3b 1b d0 26 3b 89 36 44 3c 6f a9 a1 3c
       0.005376571 0.002545363 0.011975893 0.019734113
0000b0 be 72 8a bb af 81 36 bc 99 ea 3c 3d 00 b5 0e bc
       -0.004225104 -0.011139317 0.046122167 -0.008710146
0000c0 da 7e 04 3d 64 dc c4 3a fd b6 fb bb 1f b2 ba 3c
       0.032347538 0.0015019295 -0.007681726 0.022790013
0000d0 6f fe 4e bb 9e 3a 16 bd af 88 15 bc d7 95 50 bc
       -0.003158476 -0.036676995 -0.009126826 -0.012731037
0000e0 8f 4a c8 bb 87 9f dc 3c 15 e9 20 bd cc f9 8b 3b
       -0.0061124037 0.026931537 -0.039284784 0.0042717215
0000f0 d0 ca 16 bd 4e a4 3c bd 8b e0 6e 3a f7 c9 eb bb
       -0.03681451 -0.04605513 0.0009112439 -0.007195707
000100 bd 65 9e bd 02 fa fe bc 2c f4 01 bd ff c1 04 bc
       -0.07734249 -0.031125072 -0.031727 -0.008102893
000110 c8 c0 9b bc ab fd 0e bd db 21 36 bc 0b 7e a5 bc
       -0.019012824 -0.034909885 -0.01111647 -0.020201704
000120 11 52 12 bd 22 02 3c bd 10 c4 6a bc 1b 97 68 3c
       -0.035722796 -0.04590047 -0.0143289715 0.014196183
000130 a9 c1 14 bd dd 93 6a bd 36 7a c0 bb 97 e7 b5 3c
       -0.0363175 -0.05726992 -0.0058739437 0.022205157
000140 33 a7 61 3c 30 9d 76 bd a5 4d db bc 41 92 39 bb
       0.013772774 -0.0602085 -0.026770422 -0.0028315934
000150 c0 a3 81 bc 9c 5c 38 bd 83 8d 5f 3b 97 2a 8d 3c
       -0.015825152 -0.045010194 0.0034111447 0.017232222
000160 2d 31 70 bc bf cd 0d bb 4a 51 b6 3b a8 1e ae ba
       -0.014660162 -0.0021637527 0.0055638896 -0.0013284283
000170 36 b3 49 3b 62 3a 8c bc d7 73 10 bd 33 5b ef 3b
       0.0030776984 -0.017117683 -0.035266723 0.007304573
000180 80 ca 25 3b 8a ac b3 bc 77 82 e5 ba b2 4b b4 bc
       0.0025297701 -0.021932859 -0.0017510195 -0.02200875
000190 72 2f bb bb f2 74 20 3c ab c8 03 bd a1 8d 89 bc
       -0.005712443 0.009793507 -0.032173794 -0.016791167
0001a0 67 f2 92 3c fb 6b d5 3c 9b 41 77 3b 27 60 96 bc
       0.017937852 0.026052466 0.0037728313 -0.018356396
0001b0 c5 3a 7c bc fa 5f fb bc 67 08 da 3c c0 ab 9b bc
       -0.015394871 -0.030685414 0.026615335 -0.019002795
0001c0 7b 12 1c 3d a7 3b d5 3b a0 ad 02 bc c8 d3 72 39
       0.03810356 0.0065073553 -0.007975966 0.00023157813
0001d0 cb fe 1f bc c9 db 3e bc 2c 1b 12 bd 90 67 fc 3c
       -0.009765337 -0.011649081 -0.035670444 0.030811101
0001e0 3f 0c 3e bd d8 d3 63 3b 88 45 f3 bb ad c0 e2 bb
       -0.046398398 0.003476372 -0.0074240603 -0.0069199414
0001f0 d1 bf ca bc 71 c0 85 bc 85 36 6a 3c 77 1c c1 3a
       -0.024749668 -0.016327115 0.014295225 0.0014733215
000200 ef 7a b6 bc e0 ad 49 bd 97 5c c6 3c 6f a7 b4 3c
       -0.022275416 -0.049238086 0.024214072 0.022052495
000210 0f 41 51 3c ef d4 51 bb 35 b2 10 bc af 42 88 bc
       0.012771859 -0.0032017787 -0.00883155 -0.01663336
000220 ab fc c0 bc 04 49 30 bc 88 5d cc 3c a5 b4 a7 3c
       -0.023557981 -0.010759596 0.024946943 0.02047188
000230 b0 56 35 bd 60 01 15 bd 2b 3c 6a 3b 23 4e 1e bc
       -0.044272125 -0.036378264 0.003574143 -0.009662184
000240 eb 89 8b bc e3 2a f5 3c 0f 36 74 bc d5 99 de bb
       -0.017033538 0.029927677 -0.014905467 -0.0067932406
000250 a8 cc a8 3c 32 c1 0f bc 02 ab d6 bc 8f 0e 84 3b
       0.0206054 -0.008774089 -0.02620459 0.004030056
000260 a1 12 2d ba 59 80 8e 3b cf 0f 01 3c 62 e9 0e bd
       -0.0006602202 0.0043487963 0.007877304 -0.03489054
000270 5d de b4 3c 19 39 27 3b 3f 8b a6 3b 89 0b ac 3b
       0.022078687 0.002551621 0.0050825174 0.0052503985
000280 3f 60 34 3a 4e 6f 07 bd 52 6b 28 3c e6 02 ba 3a
       0.0006880797 -0.033065133 0.010279493 0.0014191538
000290 23 d8 95 bc 97 a2 fb bc 87 08 3d 3d 32 43 bc 3c
       -0.018291539 -0.030717177 0.04615071 0.02298126
0002a0 8b 3f 17 3d 64 25 19 3c 9f d9 92 bc 00 ae fa 3c
       0.036925834 0.0093472935 -0.017926035 0.030600548
0002b0 f3 1f 59 3d 20 0e f9 3c fd ad 7d 3a a7 68 66 3d
       0.053008985 0.030402243 0.00096771104 0.056252148
0002c0 04 8d 14 3d de 1d bb 3c f8 ac e4 bc 86 5f ab 3c
       0.036267295 0.02284139 -0.02791451 0.020919573
0002d0 e8 52 26 bc 4a 55 2b 3d 13 4d ac 3c 3a 7b 70 3d
       -0.010151602 0.041829385 0.021032846 0.058711268
0002e0 8d 61 23 3d c8 10 55 bb a9 b9 1e 3d 6d 8d 26 bc
       0.039887954 -0.0032511223 0.038751278 -0.0101655545
0002f0 ed da 90 3d 60 e9 45 3b a9 36 8f 3c a2 67 c0 3c
       0.07073007 0.0030198917 0.017482119 0.023486916
000300 db fb 38 bd 29 9f 2c 3d 7d d8 c9 3c 6b ce 98 3b
       -0.045162063 0.042143974 0.024639362 0.004663279
000310 c8 fb c7 bc df 11 01 bd 73 27 d5 3c 5d 7c 7c bc
       -0.02441205 -0.031511184 0.026019787 -0.01541051
000320 a9 a4 93 ba 52 3e af bc a5 ac cf bb 33 e4 54 bd
       -0.0011264283 -0.021392021 -0.0063377195 -0.05197544
000330 15 83 4f bc 68 79 56 bd f5 19 5f 3c 0e 86 02 3d
       -0.01266553 -0.052361876 0.0136170285 0.031866126
000340 e3 e3 5f bb 50 db e2 3c 51 a0 aa bc 68 7f 83 3b
       -0.003416293 0.027692467 -0.020828398 0.0040129907
000350 90 f2 d5 bc 99 7a 17 bd 46 f0 a7 bc 7a 99 a1 bb
       -0.02611664 -0.036982153 -0.020500313 -0.004931626
000360 5b a4 bc bc ab b5 98 bc 55 72 17 3c 2b fd 95 bc
       -0.02302759 -0.018641314 0.0092435675 -0.018309196
000370 eb 21 8d bc fb 90 8a 3a c5 30 6b 3c e8 ec 07 bd
       -0.017228087 0.0010571772 0.014354889 -0.033184916
000380 77 d4 00 3d dd c6 e1 3b ea ee f5 bc 50 02 21 bd
       0.031452622 0.0068901614 -0.03002115 -0.039308846
000390 b3 78 05 bd 93 c4 d6 bc 1b 32 f4 bc 56 cc 00 3c
       -0.03258581 -0.02621678 -0.029809048 0.0078612175
0003a0 f5 59 13 bc cf 9a 0c bd 07 89 7c 3c 92 7c e2 bc
       -0.008993615 -0.034327324 0.015413529 -0.02764729
0003b0 0f 68 14 bb e0 9f 79 3c e7 ed 45 bb ab 5d 22 bd
       -0.0022645032 0.015235871 -0.0030201615 -0.03964011
0003c0 86 d2 14 bd 3c 90 2c bd e4 fa b0 3c b8 09 57 bc
       -0.036333583 -0.04212974 0.021604009 -0.013124876
0003d0 3d db 91 bc 79 7f 8c bc aa 5f d5 3c fc 64 24 bd
       -0.017804736 -0.017150627 0.026046593 -0.04013537
0003e0 e8 7b 33 bd e3 ca 42 bc 53 b0 50 3d d7 4c 09 bd
       -0.043819338 -0.011889192 0.050949406 -0.033520546
0003f0 27 23 98 bc 6d d6 d9 3c 17 66 94 bc 3b 08 82 bc
       -0.01857145 0.026591504 -0.018115086 -0.015873065

Conv2DType2_Batchnorm.norm.weight f4 [16]
000000 28 ad 85 3f 19 48 87 3f 86 02 88 3f 51 0d 8b 3f
       1.0443468 1.0568877 1.062577 1.0863439
000010 66 3f 87 3f c1 45 89 3f 9a a9 89 3f 2d 64 8b 3f
       1.0566223 1.0724412 1.0754883 1.0889946
000020 9c 86 87 3f 43 af 87 3f 72 70 85 3f da 5d 88 3f
       1.0587955 1.0600361 1.042494 1.0653641
000030 27 1d 87 3f 8b de 87 3f 3d e1 87 3f 7b 28 8a 3f
       1.0555772 1.061479 1.0615612 1.0793604

Conv2DType2_Batchnorm.norm.bias f4 [16]
000000 0b 70 f6 bd cb bf 07 be 2d cd 01 be 75 32 11 be
       -0.12033089 -0.13256757 -0.12675925 -0.14179404
000010 48 37 12 be d2 fa 11 be af 52 10 be a5 b6 15 be
       -0.142789 -0.14255837 -0.14094041 -0.14620455
000020 87 09 ff bd 8f 56 06 be 50 85 f5 bd 03 bd 0e be
       -0.12452989 -0.13118957 -0.11988318 -0.1393929
000030 2b e8 0b be 60 bc 0a be ce b5 11 be 85 7a 07 be
       -0.13662784 -0.13548422 -0.14229509 -0.13230331

Conv2DType2_Batchnorm.norm.running_mean f4 [16]
000000 8d e3 97 3d 5c 8e 1b bd 67 c8 5c 3a b7 59 6e bd
       0.07416449 -0.03797756 0.0008422196 -0.058191027
000010 5e 4b 0b bd 30 f0 ee 3b b5 a3 5e bd 38 f5 d6 3b
       -0.034007423 0.007291816 -0.054355342 0.006559994
000020 03 46 30 bd 73 45 64 3c 5b 0e 9f bc 7f 86 94 3d
       -0.04303552 0.013932574 -0.019416025 0.072522156
000030 ce 6e a0 3c 07 2a 0e 3d cb 1f 0c bd 94 ae 30 3d
       0.019584086 0.03470805 -0.034210008 0.04313524

Conv2DType2_Batchnorm.norm.running_var f4 [16]
000000 38 fb d3 3e bf 39 79 3e af a3 e2 3e 40 f5 23 3f
       0.41402602 0.24338435 0.44265506 0.64046097
000010 fb 06 bc 3e 8a 89 f8 3e 6a 8d 01 3f 8d ea 46 3f
       0.36724076 0.48542434 0.50606406 0.77701646
000020 f3 15 c7 3e 53 6e f0 3e df 7b ff 3e fb cd a6 3e
       0.38883933 0.4695917 0.49899194 0.32579026
000030 d2 77 f0 3e 2a 2e 04 3f 3d 2a 1a 3f 1f 62 01 3f
       0.46966416 0.5163294 0.602207 0.50540346

Conv2DType3_depthwise.conv.weight f4 [16, 16, 1, 17]
000000 c7 12 13 3c 52 1b 49 3d 15 35 63 bc b9 a1 48 bc
       0.008976645 0.04909832 -0.013867636 -0.012245589
000010 da 72 8e bc d3 d1 20 3d a8 07 9a bc c7 e2 5e bc
       -0.01738875 0.039262604 -0.018802479 -0.013603873
000020 2d 5b 46 bd bf 10 eb bc 5a 77 71 bc 38 9b 82 3c
       -0.048426796 -0.028694509 -0.014737928 0.015943155
000030 2d ad e9 bc 05 4c d3 3c 76 40 92 3d 87 a0 cc 3b
       -0.02852496 0.025793085 0.07141201 0.0062447223
000040 89 5f 2c 3d 33 be 29 bd f4 ea c5 3c 6d bd 3d bb
       0.042083297 -0.041441154 0.024159886 -0.0028952018
000050 73 76 19 bd 61 53 c7 bc 38 38 2d bd 13 07 32 bd
       -0.037466478 -0.02433175 -0.042289943 -0.043463778
000060 98 73 bd bb 2b 41 51 3c 20 e8 92 3c 29 44 29 bc
       -0.005781602 0.012771885 0.017932951 -0.010331192
000070 23 f7 08 3c 71 3b 3e 3d 37 d0 26 bd bf 92 90 bc
       0.008359703 0.046443406 -0.040725913 -0.017648099
000080 27 81 9c 3c 6d 55 93 bc bb b1 b1 bc 0a 2a 65 3d
       0.019104553 -0.01798507 -0.021691194 0.055948295
000090 cb 5d 3a 3d f3 73 4b 3a 06 ee 3d bd c8 7a 30 3c
       0.045499604 0.0007761113 -0.046369575 0.010771461
0000a0 1f d2 11 bc 50 4e 8b 3b 1f 19 a1 3c fa 5f 80 bb
       -0.008900194 0.004251279 0.019665299 -0.0039176913
0000b0 2a c1 8c bd d3 78 e4 3c 6e 21 9a 3c 88 70 f6 3c
       -0.068727806 0.027889645 0.018814769 0.030082956
0000c0 af 67 11 3d eb 88 10 3d 76 be 16 bd e5 e4 87 bc
       0.03549927 0.035286825 -0.03680273 -0.016588638
0000d0 2e 52 cc 3c a3 fd e7 3c 0d 2c 3c 3c 18 73 de bc
       0.02494153 0.028319186 0.011485112 -0.02715449
0000e0 32 82 5e bd 5e 01 80 3c 0f a5 25 bc 2d bf 37 3d
       -0.054323383 0.015625652 -0.010110154 0.044860054
0000f0 37 53 d1 b9 7f 51 1e bd 5b 3c 10 3d fd 4b 66 3d
       -0.00039925586 -0.03865194 0.03521381 0.05622481
000100 12 ee cd bc f7 94 8e 3b 68 5c 2b bd 87 02 68 bd
       -0.025137935 0.004351254 -0.041836172 -0.056643035
000110 9d ba 00 3d b5 a2 54 bc cf 92 29 bd 1b b4 2e 3d
       0.03142797 -0.0129782455 -0.041399773 0.04265223
000120 fd 77 21 3d 8f 93 24 bd 25 24 69 bc f3 cd 1c 3d
       0.03942107 -0.040179785 -0.014229809 0.038282346
000130 4b 0b 20 3d 12 30 cd 3b bc 28 12 bc d6 fa ac bc
       0.03907327 0.006261834 -0.008920845 -0.021115702
000140 d0 57 f2 3b 0b f1 2e 3d e7 c5 2e bd a3 c2 0e 3d
       0.007395722 0.042710345 -0.042669203 0.03485359
000150 e5 a3 ae bc 38 f6 02 3d 0b 34 b4 bc 97 85 5a bd
       -0.021318385 0.031973094 -0.021997472 -0.053350057
000160 4a 22 f1 bc 00 9d 5f 3d 63 11 da bc b0 e6 ff 3c
       -0.029435296 0.054593086 -0.026619619 0.03123793
000170 8c 5b 9e 3b ad 5b 66 bd f4 64 b3 3c 6a 91 19 bd
       0.0048326906 -0.056239773 0.021898724 -0.037492193
000180 a4 ff 14 3b 85 23 2a bd ef 7b 89 3d 0d e0 18 bd
       0.0022735381 -0.04153778 0.067130916 -0.037323046
000190 15 22 68 3c 4c 98 2e bd 5f bc 0f bd d7 85 f4 3c
       0.014168282 -0.04262571 -0.035091754 0.029848976
0001a0 37 85 ec bc c2 4b af 3c 36 39 16 3d bd 6b f5 bc
       -0.028872116 0.021398429 0.036675654 -0.0299586
0001b0 f9 5b b1 bc 37 02 2f bd af 4e 32 3c b2 3b 4b bc
       -0.021650301 -0.04272672 0.010883017 -0.012404369
0001c0 5a 08 45 bd 99 4a 9f bc 55 d0 4d bd 82 98 d9 3b
       -0.048103668 -0.01944475 -0.05024751 0.006640495
0001d0 05 97 15 3d 17 90 d8 3c 13 80 e6 3c be 17 44 bc
       0.036520977 0.026435895 0.028137242 -0.011968551
0001e0 a2 23 4c 3d c1 38 1b 3d 70 ac b9 3c 30 63 a8 bc
       0.04983867 0.03789592 0.022665232 -0.020555109
0001f0 71 c9 90 3c 1d 68 5c 3d 8f 8d cd 3c da 03 a9 3b
       0.01767418 0.053810228 0.025091914 0.00515793
000200 5f 0d 21 3d ef 6f c2 bc 83 95 de bb ab 08 20 3c
       0.039319392 -0.023735015 -0.0067927255 0.009767692
000210 8c 12 ab 3c ad 46 4d 3c e1 37 35 3d d2 d4 bd 3b
       0.020882867 0.012529057 0.044242743 0.0057931924
000220 63 0c e0 bc bf 67 c8 3b a8 a2 60 bc b7 18 81 bc
       -0.027349656 0.006115883 -0.013710655 -0.015758855
000230 7f 24 52 3d 07 a3 3a bd 5f 6a c6 bb dc 84 0c 3d
       0.051304337 -0.04556563 -0.006055161 0.034306392
000240 a8 dd 00 3d c5 9b d7 bc 1d f0 72 3d 00 42 05 3d
       0.031461388 -0.026319394 0.05931102 0.032533646
000250 48 7b 25 3d 50 84 70 3d 43 de 47 3d 1b 94 d9 3b
       0.040400773 0.058719933 0.04879595 0.00663997
000260 27 3e 5f 3c db 7f ed 3c 7e 5f 8b 3c ea 88 0b 3d
       0.013625658 0.02899163 0.017013308 0.03406612
000270 c0 c0 e3 3c 85 f7 43 3d f7 f6 1d bd b7 60 19 3c
       0.027801871 0.047843475 -0.038565602 0.0093614375
000280 31 70 25 bd cf d6 03 3c 78 a1 da 3b 6f 18 8a bc
       -0.040390197 0.00804682 0.0066720806 -0.016857354
000290 11 31 19 3d 8b 3e ab bc 88 29 ce bb fa ef 5a 3c
       0.03740031 -0.020903846 -0.006291572 0.013362879
0002a0 f2 07 48 3d 0b 39 6f 3c 31 7f 27 bb c2 a5 5f 3c
       0.048835702 0.014601002 -0.002555799 0.01365036
0002b0 bf 2f 7d 3d 5e 81 90 bc 0f ae fb ba b2 db 7c 3d
       0.061813112 -0.017639812 -0.0019201654 0.061732955
0002c0 57 d4 10 3d 14 02 bb bb 1a 11 41 bd 23 b9 a4 3c
       0.035358753 -0.005707035 -0.04713545 0.020107811
0002d0 74 9e 07 ba 1a fc 58 3d c3 22 99 bc fb 50 d7 3b
       -0.00051734527 0.052974798 -0.018693333 0.006570933
0002e0 c3 da 0d bd b0 d0 cd bc 7d bf 7a bb 4f 8e ac bc
       -0.034632456 -0.025123924 -0.0038261109 -0.021063952
0002f0 8a 99 22 3d c7 2f 2d bd 82 3e 74 bc 13 69 8a 3c
       0.039697208 -0.042281892 -0.014907481 0.016895806
000300 56 73 89 bd d8 57 8e 3c f0 72 ef 3c 00 78 22 bd
       -0.06711452 0.017375872 0.029229611 -0.039665222
000310 61 94 40 bd da 9f d2 3b 3b 83 9a bd 75 c7 4e bd
       -0.047016505 0.006427747 -0.075445615 -0.050483186
000320 df eb e8 bb ca 13 df 3c f3 de 13 3c cd 8b 34 3d
       -0.007108196 0.027231116 0.009025323 0.044078637
000330 10 92 54 3d dd 1d 7c bd 68 73 8a bd 14 af 1a bc
       0.05189711 -0.061551917 -0.06760293 -0.009441156
000340 a4 85 96 bc 33 5d 3f bd e6 08 3c bd 80 3d b9 3c
       -0.018374272 -0.04671974 -0.045906924 0.022612333
000350 7a fc 2c 3d cf 78 7e bc 1b 2f d3 3c 1a b2 59 bd
       0.042232968 -0.015531733 0.025779298 -0.053148367
000360 61 1f 3a bd 28 56 37 3d cd 6c 5f bd dd 9b c9 3c
       -0.04544008 0.0447599 -0.05454712 0.024610454
000370 70 ed 6d 3d e8 1c b8 bc 1b 68 28 3c f1 c2 3b bb
       0.058087766 -0.022474721 0.010278727 -0.002865013
000380 0b 64 28 3d 65 56 1b bc 0d b7 05 bc 1b 3b 32 bd
       0.041111033 -0.009481047 -0.0081613185 -0.0435134
000390 7b 20 8c 3d 7f 6b 6d bd 5f 57 21 3c ba b4 19 3d
       0.06842133 -0.057963844 0.009847491 0.03752587
0003a0 83 ed 93 3c a8 ef 5d 3c 4b 32 9f 3c e6 8d 99 3c
       0.01805759 0.013545908 0.019433161 0.01874442
0003b0 db d6 84 bc 42 81 69 bd 91 d3 87 bb 57 c2 d2 ba
       -0.016215732 -0.057008035 -0.0041450937 -0.0016079646
0003c0 c8 9a b7 3c 13 d8 a9 3c fb b0 62 bd 4b 75 6d bd
       0.022412673 0.020732915 -0.055344563 -0.057973187
0003d0 a1 e1 05 3d 7d 2c d4 3c f3 fb f1 bb 6b 60 64 3d
       0.03268588 0.02590012 -0.007384771 0.055756014
0003e0 0a 53 68 3d c7 67 82 bd d7 01 7e bd 3d 1d 66 3d
       0.056719817 -0.0636745 -0.062013473 0.056180228
0003f0 70 f4 03 bc 19 50 03 3c 21 a6 4b 3d 45 d3 07 3d
       -0.008053884 0.008014702 0.04971898 0.033160467

Conv2DType3_pointwise.conv.weight f4 [16, 16, 1, 1]
000000 8b 38 f0 3c 37 27 22 3d d1 08 09 3c 5d 51 02 3e
       0.029323837 0.03958818 0.008363918 0.1272635
000010 9c e1 c4 3d 82 d8 62 3e e0 7d 4d 3e db 88 2e 3e
       0.09613344 0.22152904 0.20067549 0.17044394
000020 16 cf 8f bc e0 e1 28 3d b5 32 6b 3d 22 23 ae bd
       -0.017554801 0.041231036 0.057421405 -0.08502795
000030 3d 95 01 3d 4e 24 20 be cf cf 0b 3e bd bc 6d 3e
       0.031636465 -0.15638849 0.13653491 0.23216529
000040 10 b2 19 3e 62 1b f2 bc 75 22 43 bd 71 05 48 3e
       0.15009332 -0.029554073 -0.047640283 0.19533326
000050 df 0e bd 3d 4f 57 46 3e fb d0 2d 3e 43 28 0a 3e
       0.09231352 0.19369243 0.16974251 0.13491921
000060 85 f0 51 be 23 9a 74 be 1b fc 8f 3d 5a bc 29 3e
       -0.20501907 -0.23886923 0.07030507 0.16575757
000070 52 4c 6e be df 75 7b 3e 9a 57 ff bb 5b a6 51 be
       -0.23271301 0.24556683 -0.0077924253 -0.20473616
000080 a5 71 53 3e 11 11 c7 bc 93 de 06 be 00 b5 5f be
       0.2064882 -0.02430013 -0.13170843 -0.2184639
000090 28 c2 d1 bd 70 78 0b be 2d e8 42 3d d7 87 94 b9
       -0.102421105 -0.13620162 0.0475847 -0.00028329968
0000a0 b7 d8 0e be e4 5e 25 3e 5b 3b 32 3e f3 c9 26 bd
       -0.13949858 0.16149479 0.17405455 -0.040719938
0000b0 a7 04 f3 bc f3 c7 1c 3e 9f d7 10 be 45 6e 61 3d
       -0.029665304 0.1531065 -0.14144753 0.0550368
0000c0 5b 61 87 bd cd 15 43 be 97 b7 8a 3d 85 05 69 3e
       -0.06610366 -0.19051285 0.06773298 0.22756012
0000d0 0d dd d1 bc d5 10 0f be 53 c1 fd 3d 7f a2 9f 3d
       -0.0256181 -0.13971265 0.12390389 0.077946655
0000e0 ee 50 c8 3d 27 ec 92 bd bc ea 1e 3e 02 53 73 bd
       0.09781061 -0.07173949 0.15519232 -0.059405334
0000f0 cf 82 83 be f3 97 35 3d e8 56 33 3e 42 d0 67 3e
       -0.25685737 0.044334363 0.17513621 0.22638038
000100 e9 70 35 be bc 55 0d 3d 63 8b 6d 3e 93 3a f4 3d
       -0.17718853 0.03450559 0.23197703 0.11925235
000110 54 38 0e 3e 7d 74 86 be a5 8f bc bd a1 b8 c8 bd
       0.13888675 -0.26260749 -0.092070855 -0.0980084
000120 db 5e fa bc 3e dd c0 bd 4a a6 e7 3d e3 6e 7a 3d
       -0.030562809 -0.094171986 0.11311014 0.061140906
000130 1f f7 7e be 56 ab 1f 3e 6b 62 e7 3d e8 bc 6f be
       -0.24898957 0.15592703 0.112980686 -0.23411906
000140 37 65 8e bd db 29 ca 3d d2 8f c6 bd 70 1a bc 3c
       -0.06952899 0.098712645 -0.096954 0.022961825
000150 ea 83 f5 3d c2 72 53 bd 2d 73 67 be 72 87 da bd
       0.11988051 -0.051623113 -0.2260253 -0.106703654
000160 47 96 4a 3d cf 90 40 be 75 8b 57 3e 2b bc f9 bd
       0.049459722 -0.1880524 0.21049292 -0.12194093
000170 2c 6a 32 3e bb 03 95 be d3 8b 84 3d 78 2c 6d 3e
       0.17423314 -0.2910441 0.06471982 0.23161495
000180 d5 6b 70 3e dc 99 c7 3d dc 46 33 be 7c 83 2b bd
       0.23478635 0.09746143 -0.175075 -0.04187344
000190 d4 01 0a 3c 23 3b 69 3e 0d 30 46 be 82 48 5c 3d
       0.008423287 0.22776465 -0.19354267 0.053780086
0001a0 2e 6a 38 bd 1f 36 23 3e 8a 25 fd 3d 50 2c bc bc
       -0.045023136 0.15938614 0.12360676 -0.022970349
0001b0 a1 1a 05 be 04 14 46 be 0f 53 6c be 30 a0 6b 3d
       -0.1299844 -0.19343573 -0.2307856 0.057525814
0001c0 80 c0 5e bd eb 44 0b 3e 54 7c 8b 3c 3f d2 25 be
       -0.0543828 0.13600509 0.017027058 -0.16193484
0001d0 a6 cc 1b 3d 33 2b 45 be 4f 25 6e bb 4c 66 05 3e
       0.038036965 -0.1925476 -0.0036338156 0.13027304
0001e0 7c 2e 45 bd f3 d5 0f be 27 10 1e 3e 4a 19 d2 bd
       -0.048140034 -0.14046459 0.15435849 -0.1025873
0001f0 97 a2 2c be e6 d5 49 be 2b 90 9d bc 89 72 87 3e
       -0.16858898 -0.19710502 -0.019233784 0.2645457
000200 53 97 19 3e 58 88 6a 3e 90 5d b3 3d c5 2e 23 3e
       0.14999132 0.22903574 0.0875808 0.1593581
000210 0b d9 88 bd b6 03 cc 3d 6d ad 25 be 2f 8d 8e 3c
       -0.06682023 0.09961645 -0.16179438 0.017401306
000220 0e 8b 0c be 82 a4 35 be 5d 31 b7 3d 4b f8 59 3e
       -0.1372492 -0.17738536 0.08944962 0.21286123
000230 f5 4e 25 be 82 5a f2 bd cd 5a 52 be 21 9f 05 be
       -0.16143401 -0.11833669 -0.2054245 -0.13048984
000240 6a a3 a7 bc 1d b9 77 3d c3 18 70 be f7 6f c4 bd
       -0.020463664 0.060479272 -0.23446946 -0.09591668
000250 b3 22 c2 bd ac 1c 90 3d 92 c9 d1 3d fa 36 66 3b
       -0.094792746 0.07036719 0.102435246 0.0035127983
000260 53 fb 75 bd 2b 42 50 be 74 d0 82 bc 9a ce 55 3d
       -0.060054135 -0.20337741 -0.015968539 0.052198984
000270 9b 06 ea 3d 36 0b 82 3e ea ff 07 3e 8b f9 c1 bd
       0.11427041 0.25399178 0.13281217 -0.09471425
000280 cd 76 fd 3d 9a 40 ae bc 20 f6 5f be c0 03 52 3e
       0.12376175 -0.021271039 -0.21871233 0.20509243
000290 d2 9f 09 3e 97 43 31 be d3 bf 1f 3e 42 f1 cc ba
       0.13439873 -0.1731094 0.15600519 -0.0015635865
0002a0 fd 9a 64 be 68 d4 32 be 91 5c 17 3c 8b 33 01 3e
       -0.22324748 -0.17463839 0.009238378 0.12617318
0002b0 b5 c3 53 3d 55 be 83 3e 1d af 61 be 29 b7 41 3e
       0.051700313 0.2573115 -0.22039457 0.18917526
0002c0 2f 32 15 3d 1d bf 6e 3e 0f f5 fa bd ca 51 60 be
       0.036424812 0.23315091 -0.122537725 -0.219062
0002d0 fc 01 04 be 1d 70 8c 3d 22 e9 e0 bd 67 eb b8 3c
       -0.12891382 0.068573214 -0.109819666 0.022573186
0002e0 73 f9 a3 3d 33 11 9d bd 90 e8 f9 3d 7f ec 81 be
       0.08006563 -0.07669296 0.12202561 -0.25375745
0002f0 18 6e de 3d e7 45 8c bb ed 0b 04 3e 32 e8 d0 3d
       0.108608425 -0.004280794 0.12895174 0.10200538
000300 2b 1a ba 3d 69 a4 bb bc f5 f3 72 3e e2 4d 35 be
       0.090870224 -0.022905545 0.23725875 -0.17705491
000310 ab 41 58 bd 2d 3c 97 bd 29 04 40 3e 13 be 46 bd
       -0.052797 -0.073845245 0.18751587 -0.048521113
000320 c7 f1 0c 3e 73 8e b1 3b 3b 4b fb 3d 92 86 8b be
       0.13764106 0.0054185926 0.122702084 -0.27251107
000330 bc ff 82 3e 83 3b ab 3c 53 6f 79 bd ea fd bd bc
       0.25585735 0.0209024 -0.060897183 -0.023192365
000340 2b a2 7c 3e 0b fe 6d 3c 56 ee 45 be 83 1a 09 bd
       0.24671237 0.014525901 -0.19329199 -0.03347255
000350 38 59 72 bd 3f 59 97 3d 1f 96 2f bd 13 72 1c be
       -0.059167117 0.07390069 -0.042867776 -0.15277891
000360 e0 54 0f be 67 60 56 be 6f 50 81 3d d8 d5 17 be
       -0.13997221 -0.20935212 0.063141696 -0.14827669
000370 15 03 52 3e af f8 e8 3d 40 61 64 be a2 f9 bf 3d
       0.20508988 0.11375558 -0.22302723 0.093737856
000380 36 73 29 3e 07 a7 f2 bb 03 f2 c4 bc 15 6d 4a be
       0.16547856 -0.007405165 -0.024041181 -0.19768174
000390 2b f2 3a be 26 24 3f 3e 83 b0 ed 3b 90 56 fb 3d
       -0.18256442 0.18666133 0.007253708 0.1227237
0003a0 8d 3a 00 3e 0d 05 46 be 46 9b 43 3d d2 c4 2d be
       0.12522335 -0.19337864 0.047755502 -0.16969612
0003b0 df c4 42 be b7 30 06 be a8 ca 2e be 7d d1 f4 3d
       -0.19020413 -0.1310452 -0.17069495 0.11954019
0003c0 d0 81 48 bd 86 b1 b1 bd ca ba 2b 3e ed 99 73 be
       -0.048951924 -0.08676438 0.16770473 -0.23789187
0003d0 92 47 c9 bd 28 fd 30 3e 73 22 11 3e c5 b7 e7 bb
       -0.09828104 0.17284071 0.14173298 -0.0070714676
0003e0 62 7b 1f 3b d7 9e 7a bd d2 be 7e bd f5 d5 8f be
       0.0024335016 -0.061186638 -0.0621937 -0.28092924
0003f0 5d e4 e8 3d 63 37 0e 3d 39 6d c1 bd 74 1b 97 3d
       0.11371682 0.03472079 -0.09444661 0.07378283

Conv2DType3_Batchnorm.norm.weight f4 [16]
000000 7f fe 82 3f 64 cc 82 3f 27 6d 80 3f aa c6 79 3f
       1.0233916 1.0218625 1.0033311 0.9756876
000010 18 38 74 3f 3b ba 74 3f 7f 10 78 3f 68 70 7c 3f
       0.9539809 0.95596665 0.9690017 0.9860902
000020 32 32 82 3f 53 bc 85 3f d3 a4 7b 3f 70 73 7c 3f
       1.0171568 1.0448097 0.98298377 0.98613644
000030 67 41 76 3f 43 e4 81 3f 68 a9 7b 3f 02 62 78 3f
       0.96193546 1.0147785 0.9830537 0.9702455

Conv2DType3_Batchnorm.norm.bias f4 [16]
000000 15 9c 0f b8 47 69 a7 b4 bd 2a c8 b7 dc 5e 28 36
       -3.423922e-05 -3.1182773e-07 -2.386176e-05 2.5089166e-06
000010 2e 7b ae b6 67 41 96 37 3b ca d0 b6 27 0f ed b6
       -5.199944e-06 1.7911849e-05 -6.222426e-06 -7.0649144e-06
000020 3b 68 16 38 50 87 bf b8 8d 2f 82 b6 35 86 18 37
       3.585986e-05 -9.132794e-05 -3.8798375e-06 9.0911535e-06
000030 af b6 cc b5 70 54 ed 37 8b 90 05 b6 2a fc 86 37
       -1.5252352e-06 2.829192e-05 -1.990268e-06 1.6091468e-05

Conv2DType3_Batchnorm.norm.running_mean f4 [16]
000000 43 3e bb bd 26 3d 4c 3d e7 6f 72 3d 16 15 98 3d
       -0.09142735 0.049863003 0.05918875 0.07425897
000010 6f f4 30 3e cb 85 32 bd 14 fa 11 bd 5b 9b d1 3d
       0.17280744 -0.043584626 -0.035638884 0.1023471
000020 65 cf 5f 3d 2f d1 60 3b 53 a7 2a 3d df 2d 85 bc
       0.054641146 0.003430437 0.04166348 -0.016257225
000030 3b 77 a3 bd c2 7d 91 bd 28 27 bc bc ab a0 c6 bd
       -0.07981726 -0.071040645 -0.02296789 -0.09698614

Conv2DType3_Batchnorm.norm.running_var f4 [16]
000000 f5 21 18 3d cb a4 0a 3e 55 f9 85 3d f5 ca 5f 3d
       0.03714176 0.13539426 0.06541697 0.054636914
000010 13 8e 87 3d 66 21 bb 3d c1 0f c2 3d 13 5a 97 3d
       0.066188954 0.091372296 0.09475661 0.07390227
000020 f4 d1 bb 3d 47 ef 27 3d 4a 67 da 3d 64 68 a5 3d
       0.09170905 0.040999677 0.10664232 0.080765516
000030 40 d7 10 3e d8 33 71 3d 4c 83 9b 3d f7 be fb 3d
       0.14144611 0.058887333 0.07593402 0.12292283

Conv2DType4_depthwise.conv.weight f4 [16, 16, 1, 15]
000000 c7 49 05 81 42 61 80 88 48 11 d4 32 d7 b4 ca b9
       -2.4481175e-38 -7.726585e-34 2.4687907e-08 -0.0003866318
000010 0f 87 bb 38 ac 85 48 b0 e3 66 e1 b7 4d 08 6f bd
       8.9420115e-05 -7.2949535e-10 -2.687e-05 -0.058357526
000020 4d a7 e5 b8 b3 0e 3d ab c5 d5 ce 83 ff 5e d1 3a
       -0.00010950733 -6.716669e-13 -1.2156671e-36 0.0015973746
000030 7b 8e 47 bb 1d 25 1e a1 2f a8 db 39 dd 46 8e b9
       -0.0030449915 -5.35816e-19 0.00041896242 -0.00027137148
000040 3d 14 38 3a ff e0 21 36 64 25 24 b8 07 af a8 ba
       0.00070220587 2.4121834e-06 -3.913547e-05 -0.0012869545
000050 f9 e1 2c b8 57 d2 85 ba 38 30 61 3d cf 85 a3 22
       -4.121845e-05 -0.0010209781 0.054977626 4.4322914e-18
000060 eb 73 f5 ba 72 e9 ae ac 0a 14 e3 ba fd b5 d7 b6
       -0.0018726563 -4.971295e-12 -0.0017324698 -6.4286855e-06
000070 85 d4 79 39 54 55 47 bb 7c 6b 94 b6 f4 56 2e 1d
       0.0002382566 -0.003041585 -4.4232565e-06 2.3073662e-21
000080 f8 85 0b b8 d8 33 33 36 6a ec b0 34 1d fc b0 b6
       -3.326495e-05 2.6703256e-06 3.2954568e-07 -5.2745586e-06
000090 17 f6 99 ba 1f f0 b9 3c 48 f0 e2 b9 ac d5 c4 39
       -0.0011746314 0.022697506 -0.00043285103 0.0003754323
0000a0 f3 83 aa 31 77 06 a4 37 52 b1 6c 3a d5 33 23 37
       4.962652e-09 1.9553334e-05 0.00090291083 9.727625e-06
0000b0 13 c3 7b 35 f0 a9 1a 3a b3 8b e0 b5 d8 af 76 38
       9.3788657e-07 0.00058999564 -1.6729958e-06 5.8814738e-05
0000c0 ff e1 f3 b9 a5 4b 75 37 ef 71 2d 2f 4e a1 43 ae
       -0.00046516952 1.462075e-05 1.5774736e-10 -4.4481134e-11
0000d0 da 6f 07 bd 8d 7a 05 00 9a c9 ea 31 d5 aa 82 b7
       -0.033065654 5.0314e-40 6.8332158e-09 -1.5576758e-05
0000e0 0f 37 ac 33 86 a1 4a b5 b7 46 33 39 cf d7 2a ba
       8.019389e-08 -7.548591e-07 0.00017097114 -0.00065171433
0000f0 74 5e 05 00 19 bf 25 2b 53 33 1b ba 92 fe d8 ac
       4.93061e-40 5.8884977e-13 -0.00059204287 -6.1673522e-12
000100 92 4f 13 bb bf 6b 05 00 58 24 29 b6 27 38 01 3d
       -0.0022477848 4.9783e-40 -2.5204117e-06 0.03154769
000110 1d f5 e8 32 e9 b8 ab ac 5f 5a 1c bb 1b e8 c1 b5
       2.711982e-08 -4.8806415e-12 -0.0023857576 -1.4447172e-06
000120 c7 c2 55 36 5f 25 a3 b9 da 71 f3 b6 d3 5c 99 90
       3.1852849e-06 -0.00031117626 -7.2552184e-06 -6.049088e-29
000130 f2 40 5b 9a 38 32 eb b5 69 ad 8c 29 dd 21 73 98
       -4.53406e-23 -1.752348e-06 6.247331e-14 -3.142411e-24
000140 bb 63 84 ae 07 fe ad 3a 88 e9 e9 3c 8b 7f f3 38
       -6.020381e-11 0.0013274559 0.02855374 0.000116109
000150 50 b3 57 b9 38 85 af 39 ea d1 6c ba 0a aa d1 3a
       -0.00020570797 0.00033477857 -0.0009033965 0.001599611
000160 b5 81 81 b0 85 7a d1 36 43 9a 16 b8 ae 8c 9a 3a
       -9.42285e-10 6.2429485e-06 -3.5906454e-05 0.0011791193
000170 fb 5b 05 80 61 57 05 80 1b d0 7c 34 e4 58 05 80
       -4.92174e-40 -4.90523e-40 2.3545037e-07 -4.91065e-40
000180 f7 42 9c ba cb 31 8d 3c f2 16 61 b7 c6 01 8a 35
       -0.0011921813 0.017235657 -1.3416387e-05 1.0282317e-06
000190 74 c2 2b b8 13 df 4e 33 c3 6e fa 3a 87 66 df 3a
       -4.0950676e-05 4.8165997e-08 0.0019106496 0.0017044105
0001a0 04 f6 2d 3b 5d 7c 18 38 77 59 05 00 b3 ac b7 90
       0.0026544342 3.6355446e-05 4.91271e-40 -7.244686e-29
0001b0 9d e0 ba b9 f8 31 80 0a aa 42 d4 b7 7b 5e 05 00
       -0.00035644035 1.2344748e-32 -2.5303412e-05 4.9307e-40
0001c0 43 28 a4 3c 4f 7f a8 32 47 4d ee 3a bb 35 09 b9
       0.02003873 1.9615667e-08 0.001818099 -0.00013085354
0001d0 07 9e e5 2d 5b 0b c2 30 7a 3b 05 80 76 d8 99 3a
       2.6104464e-11 1.4118585e-09 -4.80514e-40 0.0011737484
0001e0 71 67 15 3b 87 8c 80 b7 33 60 03 34 d1 ba 9a b7
       0.0022797252 -1.5324227e-05 1.2235323e-07 -1.8445224e-05
0001f0 ae c3 bf b8 b9 bb 84 37 60 19 d0 ba 5d 57 25 3d
       -9.144038e-05 1.5823041e-05 -0.0015876703 0.04036652
000200 c2 56 63 a1 2d fc e1 b4 84 16 18 37 2a 94 83 b4
       -7.7025415e-19 -4.2092998e-07 9.065148e-06 -2.4508455e-07
000210 30 f9 f4 ba 9a fc 13 b0 1a 29 81 a6 e2 5a 7c 2a
       -0.0018689986 -5.3837257e-10 -8.962314e-16 2.2413627e-13
000220 b1 ee 20 37 3a b3 0b 3a f7 42 d2 3a 15 0f 44 18
       9.592318e-06 0.0005329136 0.0016041686 2.534002e-24
000230 69 b3 91 b9 e6 0a 8a 27 74 b8 87 3d 43 0e 65 2b
       -0.00027790226 3.831451e-15 0.066269785 8.1376935e-13
000240 93 bf 01 3a 05 d6 62 8e 10 d9 5d 34 33 18 34 37
       0.0004949506 -2.7959697e-30 2.0661196e-07 1.073447e-05
000250 f7 76 c2 39 6d 90 29 bb 7a 61 05 80 5b 09 d8 38
       0.000370912 -0.0025873438 -4.94145e-40 0.00010301425
000260 25 73 c5 38 e8 58 05 00 ff 8a 33 ad dd 4e 7d b9
       9.415139e-05 4.91071e-40 -1.0205835e-11 -0.00024157339
000270 ed 64 05 80 e5 0f e4 3c a9 48 15 3b f1 6e 42 a2
       -4.95383e-40 0.02783961 0.0022778905 -2.6350635e-18
000280 c7 63 05 80 c3 1c 03 bb b4 4b a2 a0 90 c0 dc ba
       -4.94971e-40 -0.0020006157 -2.7493964e-19 -0.0016842056
000290 82 ba 12 3a 67 ff d1 ba 10 48 37 aa a3 3e 93 38
       0.000559725 -0.001602155 -1.6278667e-13 7.021173e-05
0002a0 88 b0 20 b9 47 25 d6 35 2f fb f6 39 1f a6 89 38
       -0.00015324552 1.5955092e-06 0.00047107923 6.5636115e-05
0002b0 15 92 33 3d cd 03 fe 31 b0 7d b4 32 b9 29 09 ba
       0.043840487 7.392805e-09 2.1011914e-08 -0.00052323524
0002c0 b0 6d 05 00 c3 11 b4 2d 4d 4d 43 b8 5a 4d 5a ba
       4.98526e-40 2.0471519e-11 -4.6563615e-05 -0.00083275663
0002d0 05 b1 7c 21 1b b6 15 b5 57 33 64 b8 05 b8 b4 3a
       8.5615204e-19 -5.5771824e-07 -5.440725e-05 0.0013787752
0002e0 9b 15 47 ba 72 67 8b b8 d7 22 d4 b9 17 88 07 3d
       -0.0007594467 -6.647305e-05 -0.0004046175 0.03308877
0002f0 71 1f 01 16 f3 c0 bb 35 fb d0 12 35 8f 67 48 b3
       1.0430458e-25 1.3988741e-06 5.4693345e-07 -4.6660315e-08
000300 d3 f8 d4 a8 d4 36 2b b5 32 2d db 2d a3 70 04 32
       -2.3644638e-14 -6.378225e-07 2.4917488e-11 7.709022e-09
000310 03 34 df b4 29 7a 98 39 eb 72 ed 38 0e 07 49 3a
       -4.157483e-07 0.00029082716 0.00011322446 0.0007668593
000320 87 b7 c9 84 bd 4e 01 bb f9 27 33 3d 44 ec 97 21
       -4.7423416e-36 -0.001973077 0.043739293 1.0294697e-18
000330 7d 78 b0 b7 2f 92 18 bb 99 5b 05 80 66 1a 83 34
       -2.1036942e-05 -0.0023280492 -4.92037e-40 2.441986e-07
000340 d5 1c 27 b8 7d cb f0 b9 17 01 f1 38 85 5c 24 3b
       -3.9842755e-05 -0.00045927978 0.000114919785 0.002507956
000350 a1 08 32 ba 10 3f 36 3b 93 bc 6d 06 ea 30 f0 39
       -0.0006791447 0.0027808584 4.4713288e-35 0.0004581281
000360 f0 4c 5c b2 af 88 5c 3d 6e 0c 06 39 a7 60 05 00
       -1.2823179e-08 0.05384129 0.00012783866 4.9385e-40
000370 3e ab 9c 94 27 ea 1c ba dd 39 53 b5 cc 9a 11 b2
       -1.5819518e-26 -0.0005985819 -7.868783e-07 -8.475308e-09
000380 d6 41 1d bb 50 61 51 36 f0 39 9f 36 cd fa 0c ba
       -0.002399554 3.120007e-06 4.745314e-06 -0.00053779484
000390 23 81 c1 10 42 5b 05 00 18 0c 02 b6 c7 ad d9 a0
       7.6324044e-29 4.91915e-40 -1.937855e-06 -3.6876226e-19
0003a0 3d cb 06 bd 35 64 05 00 7f d1 aa ba d8 f5 6e ba
       -0.032908667 4.95125e-40 -0.0013032405 -0.0009115613
0003b0 5d bd 32 3a 5b 66 93 2b ea 2e ea 37 2b 21 96 2e
       0.00068183785 1.0473388e-12 2.791682e-05 6.827102e-11
0003c0 c0 6e 6a b0 d1 dc c1 b5 5a 28 19 3a b4 0c c8 a4
       -8.528609e-10 -1.4443887e-06 0.00058424997 -8.6757694e-17
0003d0 4b 1c 14 89 d1 2b c6 b3 ff 99 00 3b 4f 37 82 bd
       -1.7828155e-33 -9.228064e-08 0.0019623039 -0.063582055
0003e0 b7 63 7d b5 ef 5d 68 b9 74 6a a2 07 b0 3f e1 25
       -9.439495e-07 -0.00022160237 2.4437618e-34 3.9074435e-16
0003f0 c2 f5 20 35 44 60 20 98 47 ae d5 33 db 9f 0f b9
       5.996227e-07 -2.0728117e-24 9.950286e-08 -0.00013697094

Conv2DType4_pointwise.conv.weight f4 [16, 16, 1, 1]
000000 c2 6c de bd db a9 81 3c bf f9 2e be ef fe 27 bc
       -0.10860588 0.015828064 -0.17087458 -0.010253652
000010 87 82 c8 3d 87 63 79 be 7b 3f f3 bb fd 06 70 3d
       0.09790521 -0.24354373 -0.007423339 0.058600415
000020 1f ba 5e 3e 2d 03 55 be c2 a5 16 3e 92 30 40 3d
       0.21750687 -0.20801993 0.14711669 0.04692132
000030 5f 16 00 3e 6f 49 22 be 7d 05 68 3e 4f 10 cb 3d
       0.12508534 -0.15848325 0.22658344 0.0991522
000040 f7 f4 6d 3d 2d b3 10 3e 17 34 e6 bd df 8f 50 3e
       0.058094945 0.1413085 -0.11240404 0.20367382
000050 b7 51 c9 3c 32 1c 5e bd 9f 7b e4 3c 9b 98 3a 3e
       0.024575097 -0.054226108 0.027890978 0.18222277
000060 d6 ad 14 be 40 fe f8 bc 55 2a 7c bd b0 0a 07 be
       -0.14519438 -0.030394673 -0.06156381 -0.1318767
000070 ba de 03 be 20 a8 b8 3d 1b 3b 87 3d 65 d4 c1 bc
       -0.12877932 0.09016442 0.0660307 -0.023660848
000080 53 51 38 3e 83 e8 4a bb 80 4b 1e be c3 ae 64 be
       0.17999773 -0.0030961342 -0.15458488 -0.22332291
000090 f7 a1 25 bd 17 d4 80 be e3 b3 5c 3e 33 69 31 3e
       -0.040437665 -0.25161812 0.21552996 0.17325287
0000a0 d8 b9 09 be 2b ee 3c 3e 87 52 4d be ef ac 58 3e
       -0.134498 0.18450229 -0.20051013 0.21159719
0000b0 9f 45 d9 bd 50 a7 ba 3d fb 75 61 be ca a5 ce 3d
       -0.10608982 0.091139436 -0.22017662 0.100902155
0000c0 ce 4a 10 3e 2d 3b 59 3e 9b 57 76 be cf cf 52 3e
       0.14091036 0.2121398 -0.24056856 0.20587085
0000d0 4f 87 80 3e 9b 4e e8 3a 25 5a 2d be af 59 99 3d
       0.25103232 0.0017723622 -0.16928919 0.07487809
0000e0 18 25 f7 bc 67 08 69 3e 17 a9 22 bc 07 74 a1 3d
       -0.030169055 0.22757111 -0.0099280095 0.078834586
0000f0 58 a9 cd 3d 9b 62 e5 3d 62 5f ee 3d 35 d5 67 be
       0.100420654 0.11200448 0.116392866 -0.22639926
000100 f5 a5 f4 3c e7 a5 1c be d3 34 ec 3d bf a9 8c 3e
       0.02986429 -0.15297662 0.11533513 0.27473256
000110 4a 40 b4 bd ec a5 a8 3c e7 76 82 3e 44 0a 08 3e
       -0.08801325 0.02058693 0.2548134 0.13285166
000120 9c 46 17 be cc 9a 84 3d 95 9f 32 3d d7 15 0c be
       -0.14773029 0.06474838 0.04360922 -0.13680206
000130 d2 eb 11 3d e2 c0 c1 bd 17 91 04 bd 3b 49 8d 3e
       0.035625286 -0.094606176 -0.03236493 0.27594933
000140 62 4b 83 3d b7 bd 8d bd 2a e8 db 3d 66 b5 af bd
       0.064108625 -0.06920951 0.10737641 -0.08579521
000150 19 01 11 be 25 ad c9 3d ad 47 83 bd 2a 56 74 3e
       -0.14160575 0.09847478 -0.064101554 0.23860994
000160 da f8 9a 3c 68 85 a3 3d cb 73 94 bd 43 ac d0 bc
       0.01891749 0.079844296 -0.07248648 -0.025472766
000170 67 06 1b 3e be 93 26 3d 7d e9 46 be 5b 0e dd bd
       0.15139161 0.04066824 -0.19425006 -0.10793754
000180 0e cb 32 3d 67 30 e3 3d e6 3a 21 3e 6f a5 90 3e
       0.04365068 0.110932164 0.15745124 0.28251216
000190 a0 6f 88 3d b1 5d 01 be 97 7f 1b 3e 50 53 88 3d
       0.06661916 -0.12633397 0.1518539 0.066565156
0001a0 8b dd 58 3e d8 fb 3d 3d 13 95 5e 3e ad 75 7d 3e
       0.21178262 0.046382755 0.21736555 0.24751921
0001b0 65 e6 75 3d c3 83 40 be 63 a1 02 be 9f 13 05 3e
       0.060034174 -0.18800263 -0.12756877 0.12995766
0001c0 de 18 14 3e ad 4d 61 3e c3 24 51 3e 47 03 95 bd
       0.14462611 0.22002287 0.2042418 -0.07276016
0001d0 b8 08 c9 bc 75 95 15 be 94 d2 91 3e 24 79 a6 3d
       -0.02454029 -0.14607795 0.2848097 0.081285745
0001e0 43 58 49 3e 61 6d 21 be bf b4 ff bd ee 96 ab 3c
       0.19662575 -0.15764381 -0.124856465 0.020945992
0001f0 7f 06 13 3e fb ca 19 3e 9d 19 d6 3c 7d 61 54 be
       0.14357947 0.15018837 0.02613526 -0.20740314
000200 92 50 5f bc 61 41 04 be 89 16 34 bd 88 83 61 3e
       -0.013630049 -0.12915565 -0.043966804 0.22022831
000210 b6 f7 14 3d ef 50 13 3e f7 a3 83 3d 6a 41 d1 3c
       0.036369048 0.14386342 0.06427758 0.025543887
000220 e5 b5 70 3d ab 57 c2 3d c8 4d 1f be a0 52 ee 3d
       0.05876722 0.094893776 -0.15557015 0.11636853
000230 b0 2d 91 bd ad 9e ea 3b f8 19 59 be cd b4 94 3d
       -0.07088792 0.007160029 -0.21201313 0.072610475
000240 42 ae 61 be da 0b ce 3d d3 ff 82 bd 2a c4 6b 3e
       -0.2203913 0.10060854 -0.06396451 0.2302405
000250 a7 21 3e bc 4e c9 17 be 9f b0 09 3d d3 c9 61 be
       -0.011604703 -0.14822885 0.033615705 -0.22049646
000260 d2 35 6a 3e 57 57 65 3d 34 84 4a bc 5c 26 a8 3c
       0.22872093 0.055991497 -0.012360621 0.020526104
000270 0b e3 40 be 1a 19 64 3d 0d a6 a9 3d f6 7d 2a 3e
       -0.1883661 0.055688 0.08283625 0.16649613
000280 3b 70 8d 3e 5b e1 7e 3e 8a c6 02 be 13 ee 0b be
       0.27624688 0.24890654 -0.12771049 -0.13665037
000290 1c 78 32 be 97 6a 7e bd f4 d1 0b 3e 93 b3 1d be
       -0.1742863 -0.06211337 0.1365431 -0.15400533
0002a0 d8 54 d0 bd 95 8f 5c 3e c7 6e 88 3c 53 df 0b 3e
       -0.10172433 0.21539147 0.016654385 0.1365941
0002b0 1d 5a 3c 3c 33 74 54 3d bd 84 71 3d 33 13 62 be
       0.011496094 0.05186863 0.05896448 -0.22077636
0002c0 6d 09 82 bc 0f f8 fd bd 20 d7 9c 3b 43 8d 30 be
       -0.015873635 -0.12400829 0.004786387 -0.17241387
0002d0 9f 21 18 3b 98 f7 68 be 8b 86 34 3e 00 6c 51 3d
       0.00232134 -0.227507 0.17629449 0.051128387
0002e0 d2 45 5f bd 4e 0a c5 bc 7f 3d 39 be 88 fc 87 be
       -0.054509945 -0.024052765 -0.18089865 -0.26559854
0002f0 53 ae 64 3e b5 3e a9 bd 8b 65 2b bd 9d 91 7b 3c
       0.22332124 -0.082639135 -0.041844886 0.015354541
000300 c3 09 b4 bd 2d 3a 5a bd 5c f3 35 be 33 c9 49 3e
       -0.087909244 -0.053278137 -0.17768615 0.19705658
000310 5d 95 76 be 88 c2 3b 3e c3 7d c1 bd f0 6f 18 be
       -0.24080415 0.18335927 -0.09447815 -0.14886451
000320 97 5e 44 be a5 4a 14 3e 45 84 57 be 97 27 9f bd
       -0.19176708 0.144816 -0.2104655 -0.07771223
000330 70 78 6a be 53 38 84 bd 25 3d 2b be ac 37 a2 3c
       -0.22897506 -0.064560555 -0.16722544 0.019801937
000340 57 f2 e6 3c 9a f6 0f be 15 a1 7e be 7c fc a9 3d
       0.028191729 -0.14058915 -0.24866135 0.08300111
000350 73 ed 31 be 2a b9 16 be 36 de 2e 3e 55 f5 44 3d
       -0.17375736 -0.14719072 0.17076954 0.04808553
000360 5d a4 82 bc 01 ca 87 be 5d 16 50 3c 6b e0 b2 bd
       -0.015947515 -0.26521304 0.012700644 -0.087342106
000370 a8 4f 30 3e 82 ab 81 be 47 94 e7 3d 3c a4 3a 3e
       0.17217886 -0.25326163 0.113075785 0.18226713
000380 a4 0f 9f 3d 15 f9 50 3e c8 cc 5f be 06 24 44 3e
       0.07766655 0.20407517 -0.21855462 0.19154367
000390 d7 bf 2b bd 56 31 2e be ff 55 c0 3c 80 7d 72 3e
       -0.041931 -0.17011008 0.023478506 0.23680687
0003a0 7f 55 63 bd ed d8 d5 bd 0c c8 11 be 36 ce 83 be
       -0.055501457 -0.10441766 -0.14236468 -0.25743264
0003b0 31 ba 21 bc 8c 2f 2e be 7d aa 52 be 3f ab 6a be
       -0.009871052 -0.17010325 -0.20572849 -0.22916888
0003c0 c2 4d 4d 3e fd 06 76 3d 8d 6e 17 be 13 e3 24 3d
       0.20049194 0.06006526 -0.14788266 0.040255617
0003d0 93 04 56 3e db 9a 2a be d7 15 72 bd 00 1d 66 3e
       0.20900182 -0.16660635 -0.05910286 0.22472
0003e0 22 0b 29 3d b2 06 27 3e dc 24 cc 3d 1a bc fa 3c
       0.041270383 0.16311148 0.09967968 0.030607272
0003f0 eb 57 04 3e ab f6 97 3d 8f 47 9e bd 43 48 de bd
       0.12924163 0.07420095 -0.077284925 -0.108536266

Conv2DType4_Batchnorm.norm.weight f4 [16]
000000 94 af 93 3f 52 a1 93 3f ee 97 93 3f bb bd 92 3f
       1.1537957 1.1533606 1.153074 1.1464151
000010 67 39 94 3f 2a 7e 93 3f 18 c6 93 3f da f4 92 3f
       1.1580018 1.1522877 1.1544828 1.1480973
000020 d5 dc 93 3f 67 b7 94 3f 85 b2 93 3f 0b 27 93 3f
       1.1551768 1.161847 1.1538855 1.149629
000030 fc 78 93 3f 7e 49 94 3f 9b f1 92 3f 6e ae 92 3f
       1.1521297 1.1584928 1.1479982 1.1459482

Conv2DType4_Batchnorm.norm.bias f4 [16]
000000 3b 57 0a 3e 68 7e d2 3d ca 09 c4 3d 27 b5 b8 3d
       0.13509838 0.10278016 0.095721796 0.09018927
000010 fe 63 0a 3e 3a 9f b9 3d 2c b6 13 3e b7 e2 b6 3d
       0.13514706 0.09063573 0.14424962 0.08929961
000020 03 fa 06 3e db 5a 17 3e b7 f5 c1 3d ec 1a bf 3d
       0.1318131 0.14780752 0.094706945 0.09331307
000030 a8 18 08 3e 56 db 0b 3e 78 d2 bf 3d 45 2d c3 3d
       0.13290656 0.13657889 0.093663156 0.09530119

Conv2DType4_Batchnorm.norm.running_mean f4 [16]
000000 a7 6a 3d b5 65 82 ec 35 d6 a5 1c 36 c5 7f 63 36
       -7.0563186e-07 1.762132e-06 2.334234e-06 3.3900008e-06
000010 fc 90 09 b6 43 74 db 35 fa 76 a5 b5 9a 04 00 36
       -2.0498983e-06 1.6350608e-06 -1.2328085e-06 1.9076165e-06
000020 dc ba 84 b5 2d f9 e9 b5 75 1a 0a 36 eb 3c 07 35
       -9.88915e-07 -1.7432372e-06 2.0579002e-06 5.0380066e-07
000030 f0 43 a0 b5 90 61 ea b5 1a c0 44 36 20 2f 76 36
       -1.1940701e-06 -1.7462753e-06 2.9318094e-06 3.6684287e-06

Conv2DType4_Batchnorm.norm.running_var f4 [16]
000000 12 d4 6d 3c 1a cd 22 3c 17 18 d3 3c ca 34 d4 3c
       0.0145158935 0.009936595 0.025768323 0.025904078
000010 72 e8 d7 3c d0 70 a5 3c fe f6 40 3d ab 0a 04 3d
       0.026355956 0.020195395 0.04711055 0.032236736
000020 b9 f2 15 3c 43 b2 1e 3d 45 a3 ea 3c 58 a6 31 3c
       0.009152108 0.038744222 0.028642306 0.010842882
000030 9f 6a 8b 3b c2 a7 a8 3c 7e ce 0b 3d 28 a9 ee 3c
       0.0042546536 0.020587806 0.034132473 0.029133394
