benchmarks/MOABB/results/MotorImagery/BNCI2014001/ResidualEEGModelHyperparams/hopt/best/IzvHcj/run1/1986/leave-one-session-out/sub-006/1test/save/CKPT+2024-04-24+05-04-57+02/model.ckpt (torch, 152415 bytes, 29 tensors)

Conv2DType0_Batchnorm.norm.weight f4 [8]
0.98171175 1.00542 0.9784285 0.9956933 1.0065694 1.0099287 0.98952997 0.991574
00000000: 7651 7b3f 9ab1 803f 4a7a 7a3f c2e5 7e3f
00000010: 44d7 803f 5845 813f d651 7d3f cbd7 7d3f

Conv2DType0_Batchnorm.norm.bias f4 [8]
0.039550677 -0.008737067 0.005684259 -0.028231721 0.0014336681 -0.009388869 0.0018357519 -0.00016478289
00000000: e4ff 213d ea25 0fbc 0543 ba3b 3646 e7bc
00000010: ebe9 bb3a c5d3 19bc 9d9d f03a 92c9 2cb9

Conv2DType0_Batchnorm.norm.running_mean f4 [8]
-1.4747324e-08 4.6795905e-09 -4.3897033e-09 -2.6965216e-10 2.1395756e-09 -1.825995e-09 2.5102352e-08 -9.549408e-09
00000000: 6b5b 7db2 1dca a031 3dd4 96b1 2b3e 94af
00000010: d007 1331 7df6 fab0 a8a0 d732 be0e 24b2

Conv2DType0_Batchnorm.norm.running_var f4 [8]
0.15872693 0.036333207 0.045850947 0.027476663 0.014097355 0.024381602 0.27757627 0.08361701
00000000: 5089 223e 21d2 143d 34ce 3b3d bd16 e13c
00000010: 98f8 663c edbb c73c 7a1e 8e3e 653f ab3d

Conv2DType1_cnn.conv.weight f4 [8, 8, 1, 55]
8.4039e-41 -7.488482e-17 -0.00025360883 -3.4905413e-06 -4.91221e-40 5.3398106e-26 -6.8254014e-18 7.05406e-14
3.7516416e-05 -4.9366e-40 -8.197454e-20 -0.045973144 0.010254326 -0.035885565 0.024293521 -0.028914174
0.015516671 -0.04367009 -0.041581023 0.04063287 -0.009506136 -0.030611455 -0.04590009 -0.038638465
0.03695191 0.051286288 0.011351502 -0.03358431 0.0037726485 -0.00030597387 0.03499752 -0.009800722
-0.029993659 0.013729118 0.0128746955 -0.038636517 -0.044037618 0.029525355 -0.004665299 0.039045595
0.038840115 0.006283188 0.028601116 0.020668583 1.008898e-11 7.0866176e-05 -0.00021522224 4.1389157e-07
-3.155778e-05 -0.00010387588 4.9619e-40 3.3888268e-06 4.94025e-40 -1.2924748e-09 -1.0289858e-37 2.997384e-06
5.461714e-06 -8.487899e-06 3.140578e-14 0.0002701478 0.000100935096 -8.29724e-17 -4.981e-40 9.1173875e-05
-3.233212e-05 1.0494221e-09 0.014469342 0.032812998 0.03175261 -0.020675853 0.05586154 -0.027174806
-0.029156426 0.028655311 -0.05477062 -0.02734971 0.042996835 -0.0074389987 0.003106934 -0.022909684
0.046871714 0.03148217 0.043200802 -0.042554345 0.01069051 0.012853712 -0.028704649 0.053679794
0.06635012 0.0023577092 0.020746436 -0.009645371 0.010948105 -0.039522164 -0.010681491 0.035451274
-0.030817073 -0.035437837 -0.0021639632 8.179492e-06 2.1713661e-10 -5.9660186e-24 -2.8982407e-07 5.2060932e-11
-7.602904e-08 1.8616814e-13 -6.545122e-05 -4.95806e-40 -0.00018085714 -0.00026371508 -2.1478408e-22 0.0002160731
9.517218e-11 -3.4143482e-10 4.6060285e-17 -1.9162085e-06 4.96584e-40 -2.2008265e-10 1.8210334e-14 4.1249208e-07
-1.6570134e-12 0.033390753 -0.007967992 -0.026707122 0.022706915 -0.022032771 0.030707652 -0.00661515
-0.015719427 0.012952415 -0.03372869 0.03151531 -0.05389609 0.046611395 0.033235524 0.0037919134
0.024108915 -0.04434599 -0.025528843 -0.015097017 -0.035868596 -0.035414957 -0.004562692 0.021874208
0.020677835 -0.0025090654 0.033425473 -0.028546577 0.047023527 -0.03364844 0.00028921143 -0.015039237
-0.019824889 0.016602214 -5.2198137e-20 1.1648384e-08 -1.331455e-39 4.91102e-40 -8.109648e-27 5.4310716e-21
-0.00020940155 -2.8843e-40 5.2834775e-07 2.5692865e-17 -0.000114004106 6.30028e-40 -2.9402247e-05 1.12546914e-07
1.8584936e-08 4.906029e-06 -0.0003529046 -1.9043866e-05 0.00013614094 -4.91538e-40 1.8294509e-07 -0.00021686016
0.007407336 -0.0036380377 0.020935962 -0.012967115 0.028862432 0.025808638 0.038702644 0.011379417
0.013253501 0.03284032 0.0043090307 -0.017831314 0.042878825 -0.0068554715 -0.009733851 -0.022481957
-0.019445937 0.017018106 -0.03537106 0.03400521 0.035742786 0.029128391 -0.03300602 -0.02785417
0.024898937 0.036812697 0.022191782 0.04108025 -0.00016825713 -0.040635698 -0.030585712 0.013214616
0.011976899 0.00015795026 0.0002505781 -2.2465845e-07 -4.93738e-40 -1.0046008e-16 1.861317e-07 7.8388337e-07
0.00037716696 1.5315516e-10 2.7460896e-05 -0.00015136246 -2.419105e-06 8.4998274e-13 -0.00027234873 -1.4743072e-06
0.0003503586 1.1320341e-36 -4.9264e-40 -8.9888454e-05 -5.1928385e-08 0.0002952883 1.8251876e-05 0.029736597
0.024998505 0.03027969 0.021785026 -0.016372144 -0.021455469 -0.026412964 0.034047537 0.03138534
0.023316752 0.006686113 0.008671099 -0.04099858 0.008240697 -0.010967085 0.02373487 -0.032750983
0.03781844 0.018571977 0.013995232 0.028879631 -0.0393975 0.044270597 0.04636711 -0.04826952
00000000: 44ea 0000 32ac aca4 cdf6 84b9 0b3f 6ab6
00000010: 5359 0580 1235 8415 18d0 fba2 e3d7 9e29
00000020: f25a 1d38 2060 0580 928e c19f 564e 3cbd
00000030: c301 283c befc 12bd 3503 c73c 6bdd ecbc
00000040: a339 7e3c 69df 32bd dd50 2abd a76e 263d
00000050: a0bf 1bbc e0c4 fabc bc01 3cbd 5e43 1ebd
00000060: e35a 173d 9211 523d a6fb 393c b48f 09bd
00000070: 8a3e 773b 1e6b a0b9 8f59 0f3d 3593 20bc
00000080: 43b5 f5bc 18f0 603c 63f0 523c 5341 1ebd
00000090: ca60 34bd 28df f13c 5ddf 98bb 46ee 1f3d
000000a0: d016 1f3d 33e3 cd3b e34c ea3c 2951 a93c
000000b0: ba7c 312d fd9d 9438 48ad 61b9 d334 de34
000000c0: e95c 04b8 f0d7 d9b8 2d67 0500 9a6b 6336
000000d0: 2461 0500 eaa2 b1b0 ec0e 0c82 aa26 4936
000000e0: c443 b736 4067 0eb7 6670 0d29 a0a2 8d39
000000f0: 1ead d338 4352 bfa4 806c 0580 9a34 bf38
00000100: 599c 07b8 423b 9030 d210 6d3c ec66 063d
00000110: 060f 023d 6860 a9bc 12cf 643d b39d debc
00000120: 75d9 eebc 8bbe ea3c 2857 60bd 800c e0bc
00000130: 731d 303d d8c2 f3bb b49d 4b3b 17ad bbbc
00000140: 8efc 3f3d 73f3 003d 53f3 303d 774d 2ebd
00000150: 4027 2f3c 6098 523c 0326 ebbc 58df 5b3d
00000160: 92e2 873d cc83 1a3b 6ef4 a93c 9e07 1ebc
00000170: ae5f 333c fee1 21bd 6c01 2fbc 5b35 113d
00000180: 1674 fcbc 4427 11bd 47d1 0dbb a73a 0937
00000190: 86be 6e2f 96cc e698 1e99 9bb4 66f7 642e
000001a0: 6845 a3b3 509b 512a db42 89b8 1b66 0580
000001b0: 78a4 3db9 3d43 8ab9 3ad4 819b ae91 6239
000001c0: 2d49 d12e aeb4 bbaf 636a 5424 3698 00b6
000001d0: 4668 0500 c2fb 71af 2c06 a428 7b74 dd34
000001e0: 3334 e9ab bec4 083d 2e8c 02bc e5c8 dabc
000001f0: da03 ba3c 127e b4bc 9d8e fb3c e6c3 d8bb
00000200: 07c6 80bc 5e36 543c 1827 0abd 3316 013d
00000210: 25c2 5cbd 97eb 3e3d f921 083d c081 783b
00000220: 0f80 c53c 24a4 35bd dd21 d1bc 7b59 77bc
00000230: f3ea 12bd 460f 11bd a282 95bb 8a31 b33c
00000240: 9064 a93c 226f 24bb 26e9 083d 83da e9bc
00000250: be9b 403d f2d2 09bd 4da1 9739 2267 76bc
00000260: ce67 a2bc 5e01 883c ad7f 769f 221e 4832
00000270: 8e7f 0e80 fe58 0500 cda0 2094 1a2e cd1d
00000280: cd92 5bb9 0724 0380 c8d3 0d35 90f9 ec23
00000290: 7d15 efb8 43dc 0600 d8a4 f6b7 52b1 f133
000002a0: b5a4 9f32 789e a436 0e06 b9b9 64c0 9fb7
000002b0: 0ec1 0e39 355a 0580 906f 4434 f564 63b9
000002c0: 3db9 f23b 256c 6ebb e581 ab3c 0674 54bc
000002d0: e870 ec3c a36c d33c aa86 1e3d bc70 3a3c
000002e0: 3625 593c 9283 063d c532 8d3b fa12 92bc
000002f0: b5a1 2f3d dda3 e0bb bb7a 1fbc 152c b8bc
00000300: 164d 9fbc 8e69 8b3c 3fe1 10bd 0c49 0b3d
00000310: 0767 123d aa9e ee3c 5231 07bd 6e2e e4bc
00000320: dbf8 cb3c e9c8 163d 8acb b53c c443 283d
00000330: 2e6e 30b9 9e71 26bd e38e fabc 1e82 583c
00000340: c13a 443c 739f 2539 0660 8339 a539 71b4
00000350: 5760 0580 2aa5 e7a4 7edb 4734 0e6c 5235
00000360: 7ebe c539 5865 282f d35b e637 0db7 1eb9
00000370: e857 22b6 b63f 6f2b 07ca 8eb9 cfe0 c5b5
00000380: 56b0 b739 0a9b c003 485d 0580 7f82 bcb8
00000390: dd07 5fb3 edd0 9a39 9b1b 9937 2a9a f33c
000003a0: aac9 cc3c 1d0d f83c 8376 b23c e01e 86bc
000003b0: 61c3 afbc 0060 d8bc 6e75 0b3d ea8d 003d
000003c0: c602 bf3c 2e17 db3b 3a11 0e3c 21ee 27bd
000003d0: fd03 073c 4aaf 33bc a16f c23c e525 06bd
000003e0: 82e7 1a3d 4224 983c 424c 653c fa94 ec3c
000003f0: 465f 21bd 1655 353d 70eb 3d3d 43b6 45bd

Conv2DType1_Batchnorm.norm.weight f4 [8]
1.0343459 0.9926162 1.0076993 1.0051614 1.0121434 0.9938142 0.9769241 1.0197982
00000000: 7265 843f 181c 7e3f 4afc 803f 21a9 803f
00000010: ea8d 813f 9b6a 7e3f b317 7a3f bf88 823f

Conv2DType1_Batchnorm.norm.bias f4 [8]
-0.005118816 -0.010541342 -0.015956404 -0.0055371486 -0.0021916414 -0.0045229895 0.023430118 0.011288372
00000000: bebb a7bb 98b5 2cbc 01b7 82bc f870 b5bb
00000010: a4a1 0fbb 9635 94bb 85f0 bf3c ddf2 383c

Conv2DType1_Batchnorm.norm.running_mean f4 [8]
-0.006015977 0.0025258996 0.00024730404 0.0014856247 0.0023660616 -0.0010627976 -0.001681614 -0.0047574765
00000000: ac21 c5bb 9089 253b 96a8 8139 4bb9 c23a
00000010: ed0f 1b3b 924d 8bba 9a69 dcba 9be4 9bbb

Conv2DType1_Batchnorm.norm.running_var f4 [8]
0.0627829 0.06647296 0.051288463 0.04699548 0.0261258 0.09960185 0.047183447 0.03853082
00000000: 5294 803d fa22 883d da13 523d 557e 403d
00000010: c605 d63c 0efc cb3d 6e43 413d 7ed2 1d3d

Conv2DType2_cnn.conv.weight f4 [16, 8, 55, 1]
0.0145972 -0.021807801 -0.035175078 0.01904386 0.023661956 0.028118584 -0.001302977 0.009109132
-0.029785892 -0.0036622738 0.009571626 -0.040388044 0.039609753 0.0013309218 -0.011777316 -0.037191268
0.034579508 0.0029099002 0.015035672 -0.02447051 0.014735641 -0.041852277 0.02620708 0.0015018712
0.008676506 0.0044280225 -0.054088764 0.021603495 -0.049476437 0.023457542 -0.026130319 -0.019014094
-0.044734754 -0.023231447 -0.011622142 0.033936985 -0.0059893113 -0.01060765 0.035586692 -0.051932495
-0.01679356 -0.033372134 0.017719263 -0.0006609846 0.003417582 0.021715874 -0.028187975 -0.025328647
-0.02560825 0.03836076 -0.036889754 0.00047069383 0.008607183 -0.031262714 0.02257761 -0.023477051
-0.028863207 -0.01773763 -0.021198805 -0.02592051 0.0415718 0.033391338 -0.019665599 -0.00887681
-0.018854424 0.0040312894 0.0013949687 0.057165764 0.030802112 0.020007435 0.015132686 -0.0015565294
-0.043652236 0.024773989 -0.030940056 0.019831557 0.019706454 -0.02018456 0.035336733 0.007322947
-0.0029340773 -0.045114957 -0.006670636 -0.0016622441 0.03744637 0.040394045 -0.014786186 -0.015126577
-0.0054985583 -0.03315515 0.0099655595 0.026119057 -0.017821837 -0.044650033 -0.0043344786 -0.0071477555
0.0051348647 0.022111246 -0.030350426 0.029850522 0.023377081 -0.00013476613 0.0017813429 -0.007292626
-0.026593814 0.019127348 0.04068591 -0.00993111 -0.03270625 0.020587046 -0.039670024 -0.016143527
-0.00038571804 0.040589206 -0.016640592 -0.02750754 0.012716929 0.012333201 -0.03556373 -0.007377123
-0.03340824 0.0032767851 0.052338738 0.003505266 -0.007704352 0.009210056 -0.02232115 0.033180222
0.011671988 -0.05818395 -0.044338502 0.021350814 -0.02201287 0.030806145 -0.046626266 0.03767088
-0.017072683 0.021849353 0.008084543 -0.014852358 -0.03026847 0.00837036 0.038204648 -0.03256272
-0.025593374 -0.043983947 -0.015144137 -0.020945463 0.031326484 -0.024832223 0.028755423 0.022937339
0.02489676 -0.031584047 0.024513582 -0.010473588 -0.051772457 0.026287302 -0.02189122 0.011743464
0.021675449 -0.014448846 0.015321392 0.0011976443 -0.04025099 -0.040648706 0.018739771 0.006638882
0.024675772 -0.008907387 -0.014536567 0.0016207804 -0.018835364 -0.011829625 -0.0017135525 0.01851336
0.026484465 0.0077291178 0.042222865 -0.020693326 -0.031691898 -0.00092519744 0.01605963 0.006670547
-0.02749608 0.04321799 -0.029334063 -0.006065179 0.00059835636 -0.020841373 0.015784016 -0.031861823
-0.002235469 -0.00024195158 0.037719913 0.033540778 0.008409254 -0.055655308 -0.054405324 0.032528717
0.03739956 0.011718388 -0.024783289 -0.03934474 -0.04838566 -0.04076009 -0.02864939 -0.006960109
-0.029366648 -0.013525555 0.00012228466 -0.02555871 0.014555017 -0.019375212 -0.025388574 0.0038615365
-0.035674565 -0.04925468 0.012126384 -0.04173181 0.0054892 0.008989969 -0.0069425604 -0.046073824
0.011893829 0.017200598 -0.062289417 -0.033904105 0.026041452 0.007151501 0.015099952 0.007027168
0.039480597 -0.030917054 -0.056110583 -0.008468034 -0.0007362234 0.027928779 0.014805143 0.04697483
0.004433215 -0.035337664 -0.037376527 -0.008771184 0.0035620395 -0.03774823 0.032424204 0.047634676
-0.024629487 0.037759054 -0.008518843 0.029089238 -0.025849085 -0.025895461 -0.021312255 -0.011298165
00000000: 1829 6f3c 46a6 b2bc be13 10bd de01 9c3c
00000010: b8d6 c13c f258 e63c a7c8 aaba 783e 153c
00000020: 8b01 f4bc c202 70bb 4fd2 1c3c ef6d 25bd
00000030: d63d 223d 5372 ae3a a5f5 40bc df55 18bd
00000040: 3ea3 0d3d 06b4 3e3b 2e58 763c 6176 c8bc
00000050: c26d 713c 4b6d 2bbd 3bb0 d63c 6fda c43a
00000060: e727 0e3c f218 913b 2e8c 5dbd d0f9 b03c
00000070: cea7 4abd 082a c03c 400f d6bc 72c3 9bbc
00000080: ca3b 37bd e04f bebc cc6a 3ebc 8201 0b3d
00000090: fc41 c4bb b5cb 2dbc 5ac3 113d 2bb7 54bd
000000a0: a692 89bc 38b1 08bd fd27 913c ed45 2dba
000000b0: 83f9 5f3b 7de5 b13c 78ea e6bc 067e cfbc
000000c0: 65c8 d1bc 2c20 1d3d b619 17bd 75c7 f639
000000d0: 2405 0d3c 550d 00bd aef4 b83c f252 c0bc
000000e0: 8872 ecbc 824e 91bc 1ea9 adbc 4057 d4bc
000000f0: 3147 2a3d 5bc5 083d c019 a1bc 0a70 11bc
00000100: 9874 9abc e818 843b 62d7 b63a a626 6a3d
00000110: b654 fc3c a2e6 a33c 16ef 773c 7604 ccba
00000120: b0cc 32bd d2f2 ca3c 0076 fdbc ca75 a23c
00000130: 6e6f a13c 175a a5bc 40bd 103d 55f5 ef3b
00000140: a649 40bb 76ca 38bd 5a95 dabb a8df d9ba
00000150: 5d61 193d 3a74 253d c241 72bc 76d5 77bc
00000160: 402d b4bb b2cd 07bd 9646 233c a2f7 d53c
00000170: 1aff 91bc f4e2 36bd 3e08 8ebb b837 eabb
00000180: 5e42 a83b a522 b53c 75a1 f8bc 1589 f43c
00000190: 4b81 bf3c 0250 0db9 f37b e93a fbf6 eebb
000001a0: 45db d9bc f5b0 9c3c 45a6 263d 18b6 22bc
000001b0: fdf6 05bd 2aa6 a83c 097d 22bd 6e3f 84bc
000001c0: 333a cab9 de40 263d da51 88bc 7e57 e1bc
000001d0: ab5a 503c 3211 4a3c 46ab 11bd cbbb f1bb
000001e0: 14d7 08bd 55bf 563b 2561 563d 9bb8 653b
000001f0: ca74 fcbb c6e5 163c d8da b6bc fce7 073d
00000200: de3b 3f3c 4b52 6ebd 4a9c 35bd e7e7 ae3c
00000210: 5654 b4bc 2b5d fc3c 2ffb 3ebd c84c 1a3d
00000220: 03dc 8bbc 6afd b23c 0875 043c 4e57 73bc
00000230: 95f5 f7bc d623 093c 7a7c 1c3d 7d60 05bd
00000240: 32a9 d1bc 8328 34bd 1d1f 78bc d295 abbc
00000250: 3350 003d f26c cbbc 7e90 eb3c 16e7 bb3c
00000260: 4af4 cb3c 465e 01bd b5d0 c83c 6999 2bbc
00000270: 5b0f 54bd 7858 d73c 3755 b3bc a867 403c
00000280: b690 b13c daba 6cbc 9306 7b3c 46fa 9c3a
00000290: 39de 24bd 427f 26bd 2684 993c fb8a d93b
000002a0: d824 ca3c 4af0 11bc c82a 6ebc 5e70 d43a
000002b0: 9f4c 9abc 0bd1 41bc 4899 e0ba 54a9 973c
000002c0: f3f5 d83c 8a44 fd3b e2f1 2c3d 0d85 a9bc
000002d0: 5dcf 01bd f388 72ba 7c8f 833c 9b94 da3b
000002e0: 763f e1bc 5905 313d fd4d f0bc 69be c6bb
000002f0: 04db 1c3a 87bb aabc 7b4d 813c 8b81 02bd
00000300: f280 12bb 62b4 7db9 3280 1a3d 0e62 093d
00000310: f8c6 093c d2f6 63bd 1ed8 5ebd d53c 053d
00000320: 4830 193d 7bfe 3f3c 5306 cbbc f327 21bd
00000330: 0b30 46bd 0df4 26bd 20b2 eabc a011 e4bb
00000340: 5392 f0bc 4a9a 5dbc 8a39 0039 8060 d1bc
00000350: 2b78 6e3c c4b8 9ebc b3fb cfbc d511 7d3b
00000360: 7e1f 12bd 46bf 49bd bead 463c f9ee 2abd
00000370: bfde b33b aa4a 133c 6b7e e3bb e8b7 3cbd
00000380: 56de 423c 45e8 8c3c 3023 7fbd 08df 0abd
00000390: e254 d53c 2357 ea3b ca65 773c 2844 e63b
000003a0: 68b6 213d c345 fdbc 36d4 65bd 82bd 0abc
000003b0: 1eff 40ba e5ca e43c 4591 723c ae68 403d
000003c0: 8144 913b 3abe 10bd 2118 19bd 03b5 0fbc
000003d0: 1b71 693b e39d 1abd 3ecf 043d 941c 433d
000003e0: c7c3 c9bc 3da9 1a3d 9e92 0bbc 8e4c ee3c
000003f0: 76c1 d3bc b822 d4bc 0a97 aebc f01b 39bc

Conv2DType2_Batchnorm.norm.weight f4 [16]
0.99995744 1.0016612 1.0250753 1.0229882 1.0251979 1.0166515 1.0242087 1.0095943
1.0053766 1.0251535 1.0020605 1.0347999 1.0123913 1.0182929 1.027797 1.022474
00000000: 36fd 7f3f 6f36 803f ab35 833f 47f1 823f
00000010: af39 833f a321 823f 4519 833f 633a 813f
00000020: 2eb0 803f 3b38 833f 8543 803f 5374 843f
00000030: 0a96 813f 6c57 823f da8e 833f 6ee0 823f

Conv2DType2_Batchnorm.norm.bias f4 [16]
-0.04970075 -0.04987367 -0.048976786 -0.04628702 -0.057485394 -0.051233858 -0.06492624 -0.054133225
-0.062472105 -0.0603141 -0.037824582 -0.06532327 -0.042828124 -0.05032913 -0.059686325 -0.043356925
00000000: 0393 4bbd 5548 4cbd e29b 48bd 7597 3dbd
00000010: ce75 6bbd 98da 51bd 0cf8 84bd cdba 5dbd
00000020: c0e2 7fbd eb0b 77bd f3ed 1abd 35c8 85bd
00000030: 8b6c 2fbd eb25 4ebd a679 74bd 0897 31bd

Conv2DType2_Batchnorm.norm.running_mean f4 [16]
0.0076505453 0.013262158 -0.0056525134 0.038738325 0.0146905705 -0.0042865193 0.03350415 0.04612689
-0.032247886 -0.025009856 -0.0045932345 -0.014541037 0.016215794 0.015908536 -0.018131416 0.043362655
00000000: 6db1 fa3b 8649 593c b838 b9bb 14ac 1e3d
00000010: b8b0 703c ee75 8cbb a63b 093d 8def 3c3d
00000020: 5c16 04bd 78e1 ccbc d882 96bb 883d 6ebc
00000030: fcd6 843c 9e52 823c 5688 94bc 0a9d 313d

Conv2DType2_Batchnorm.norm.running_var f4 [16]
0.24869826 0.40295506 0.26793125 0.4083457 0.39582503 0.29253167 0.32918608 0.423867
0.43093807 0.3300573 0.38460118 0.27983576 0.30474752 0.3221516 0.3448496 0.3712904
00000000: c2aa 7e3e 2050 ce3e 492e 893e b012 d13e
00000010: 94a9 ca3e b6c6 953e 148b a83e 1805 d93e
00000020: eaa3 dc3e 45fd a83e 72ea c43e a246 8f3e
00000030: de07 9c3e 0ef1 a43e 2090 b03e c619 be3e

Conv2DType3_depthwise.conv.weight f4 [16, 16, 1, 17]
0.047594108 0.040482197 0.030242834 0.064584024 0.0069240183 0.06647634 -0.0155848535 0.02422091
-0.03185595 -0.063209094 0.01652487 -0.043940764 0.045320146 -0.021965122 -0.0037305977 -0.011629632
-0.011289157 -0.037101306 0.038598444 -0.05090441 -0.050591283 -0.04125441 -0.0234565 0.052379012
-0.0016096847 0.048815392 -0.046303965 0.017906751 -0.0068015717 -0.0020878655 -0.04640435 -0.007028484
-0.017662872 0.031110585 -0.0034150998 -0.0020005915 0.048295863 0.039106674 -0.015623714 0.020028267
-0.051349986 0.018023664 0.030500334 0.012882283 0.006605486 0.0115340315 0.030659903 -0.039810132
-0.027814558 0.033099785 0.009094877 0.052321523 -0.014950847 -0.01211974 0.004829445 -0.038553715
-0.05976317 0.027729686 0.025756147 -0.039159972 -0.048177447 0.028731097 0.017002184 -0.041321155
-0.027214337 -0.02990285 0.011460564 0.05853062 0.0035668202 -0.031769767 0.012433748 -0.051606584
0.05264061 -0.0300259 0.015901899 0.03209091 -0.07687901 -0.05418787 -0.0031487334 -0.04603622
-0.051032603 0.05214057 -0.019622449 -0.030493295 0.06277773 -0.014760023 0.0552754 0.034271993
-0.020760378 0.015426667 0.044089843 -0.051249474 0.021235457 -0.03119291 0.01862375 -0.045501728
-0.0062574493 -0.05348004 0.050629966 -0.04122458 -0.030005295 0.026857302 -0.015821833 -0.015080844
-0.00852223 -0.059782296 -0.018104836 0.0062364847 0.056357592 0.053294845 0.010724692 -0.031658925
-0.011075164 0.002247759 -0.025816787 -0.018000184 0.0075688288 0.040162645 0.017479384 -0.047756203
0.035793923 0.04766935 -0.051919512 0.0551772 -0.021831011 -0.03804364 -0.046793193 -0.06211088
-0.022945264 0.016957425 0.03519729 -0.042699404 0.07087556 0.025509953 -0.018877136 0.009829819
0.046305746 0.03448044 0.031426854 0.055149097 -0.002336345 -0.025083154 0.02773394 0.009515143
0.035313003 0.01854441 -0.03620239 -0.028972607 -0.02310532 -0.066730276 -0.0065440424 -0.02977502
0.017342906 -0.009622308 -0.02470993 -0.018320523 0.027184252 0.014429882 0.052790273 -0.0062912083
-0.04400116 0.008753501 -0.02766465 -0.046100613 -0.053219102 0.009467006 -8.1308965e-05 -0.06464378
0.019899353 0.03232541 -0.049110234 -0.03343998 -0.0276243 0.024786573 0.005131513 0.02612551
-0.009469229 0.05243786 -0.03420849 0.011842115 0.056524854 -0.03416603 0.043239586 -0.025497055
-0.012151914 -0.04518132 0.022691805 0.05451391 0.006398402 -0.021555448 -0.06202338 0.0808388
0.041688602 -0.046922352 0.0024140712 0.030044934 0.054851364 0.026702527 0.005626903 0.017444551
0.047054533 0.0059929164 0.033843458 0.041774996 0.06751675 0.04295647 0.020330278 0.038349587
0.0084195705 -0.017159726 0.01610381 0.047015525 -0.023130497 0.030180061 0.023226187 0.02346034
0.075608775 -0.030237103 0.056537956 0.019281982 -0.05370856 -0.019011071 0.05372004 -0.0011332141
0.035725363 -0.026221592 0.032846086 0.019528419 -0.06095708 -0.041121967 -0.008799889 0.045577984
0.024919853 -0.012203577 0.037279155 0.021275407 -0.011626082 0.001333086 0.027187103 0.03221909
0.05954694 0.014951536 0.052853722 -0.063787274 0.035494685 -0.015146379 -0.019714726 -0.011358375
-0.00010958038 -0.017051956 0.014153627 -0.02388582 -0.03006866 -0.028896535 0.021032166 0.07115857
00000000: 0af2 423d a9d0 253d d2bf f73c a144 843d
00000010: e0e2 e23b bf24 883d 9d57 7fbc ee6a c63c
00000020: 627b 02bd c573 81bd 2a5f 873c 3bfb 33bd
00000030: 9ea1 393d 33f0 b3bc 0b7d 74bb 368a 3ebc
00000040: 28f6 38bc 8af7 17bd 6719 1e3d 2581 50bd
00000050: ce38 4fbd 62fa 28bd d927 c0bc 608b 563d
00000060: 0efc d2ba a6f2 473d 3aa9 3dbd 2eb1 923c
00000070: b8df debb 92d4 08bb 7d12 3ebd 324f e6bb
00000080: bab1 90bc a0db fe3c decf 5fbb 5b1c 03bb
00000090: e2d1 453d 522e 203d 9bfa 7fbc 5212 a43c
000000a0: 5d54 52bd 5da6 933c d6db f93c 3610 533c
000000b0: d572 d83b 3cf9 3c3c 7a2a fb3c f30f 23bd
000000c0: 5bdb e3bc a493 073d ae02 153c 184f 563d
000000d0: 66f4 74bc e091 46bc 5240 9e3b 80ea 1dbd
000000e0: 3aca 74bd 5e29 e33c 8efe d23c 3566 20bd
000000f0: b755 45bd 7a5d eb3c 2a48 8b3c 5f40 29bd
00000100: 9af0 debc d2f6 f4bc 17c5 3b3c cebd 6f3d
00000110: 50c1 693b 0421 02bd ebb6 4b3c 6d61 53bd
00000120: ae9d 573d e0f8 f5bc b344 823c c271 033d
00000130: be72 9dbd 1af4 5dbd fb5a 4ebb 7a90 3cbd
00000140: 9007 51bd 5a91 553d 42bf a0bc 13cd f9bc
00000150: 9c91 803d 06d4 71bc 7568 623d ca60 0c3d
00000160: ab11 aabc 22c0 7c3c 8d97 343d f8ea 51bd
00000170: fbf5 ad3c 4688 ffbc d690 983c 0560 3abd
00000180: 4a0b cdbb e30d 5bbd 5e61 4f3d 1bdb 28bd
00000190: aacd f5bc d803 dc3c ca9c 81bc a515 77bc
000001a0: d3a0 0bbc 48de 74bd 9850 94bc 6d5b cc3b
000001b0: 38d7 663d b24b 5a3d 9eb6 2f3c caac 01bd
000001c0: 9b74 35bc 234f 133b ba7d d3bc 1f75 93bc
000001d0: f003 f83b 9681 243d ed30 8f3c 029c 43bd
000001e0: a69c 123d f040 433d 8ea9 54bd 7d01 623d
000001f0: f3d6 b2bc a6d3 1bbd 38aa 3fbd fa67 7ebd
00000200: b5f7 bbbc 4cea 8a3c 092b 103d 92e5 2ebd
00000210: 3527 913d 40fa d03c 39a4 9abc 400d 213c
00000220: 18ab 3d3d 5d3b 0d3d 72b9 003d 05e4 613d
00000230: 5d1d 19bb 307b cdbc 4a32 e33c 67e5 1b3c
00000240: 5ea4 103d 72ea 973c f548 14bd f657 edbc
00000250: 5e47 bdbc e2a9 88bd 686f d6bb beea f3bc
00000260: b612 8e3c e3a6 1dbc 7b6c cabc ec14 96bc
00000270: 82b1 de3c 506b 6c3c 9d3a 583d 7b26 cebb
00000280: 8f3a 34bd d86a 0f3c faa0 e2bc ffd3 3cbd
00000290: 46fc 59bd 801b 1b3c 6b84 aab8 f563 84bd
000002a0: f803 a33c a667 043d d027 49bd 5cf8 08bd
000002b0: 5b4c e2bc 360d cb3c 4026 a83b 2a05 d63c
000002c0: d324 1bbc 15c9 563d 341e 0cbd 6e05 423c
000002d0: 9b86 673d aef1 0bbd fe1b 313d 33df d0bc
000002e0: d218 47bc 0c10 39bd 2ae4 b93c fa49 5f3d
000002f0: b0a9 d13b 0d95 b0bc 3a0c 7ebd d08e a53d
00000300: abc1 2a3d a731 40bd 6535 1e3b cb20 f63c
00000310: d3ab 603d 42bf da3c e261 b83b e0e7 8e3c
00000320: 41bc 403d 3a60 c43b 709f 0a3d 421c 2b3d
00000330: 3946 8a3d 20f3 2f3d af8b a63c 7514 1d3d
00000340: 3df2 093c 8e92 8cbc 23ec 833c 5a93 403d
00000350: 2b7c bdbc 2d3c f73c d844 be3c e62f c03c
00000360: c6d8 9a3d cdb3 f7bc 5894 673d 3ff5 9d3c
00000370: 82fd 5bbd 1bbd 9bbc 8b09 5c3d 5b88 94ba
00000380: c254 123d aace d6bc 9e89 063d 10fa 9f3c
00000390: 22ae 79bd 826f 28bd 692d 10bc fbaf 3a3d
000003a0: b824 cc3c 83f1 47bc 07b2 183d c349 ae3c
000003b0: 527b 3ebc f2ba ae3a 7db7 de3c 2af8 033d
000003c0: 7ee7 733d 4af7 743c 257d 583d e7a2 82bd
000003d0: e062 113d 8528 78bc c780 a1bc 7a18 3abc
000003e0: 85ce e5b8 8bb0 8bbc 9de4 673c 32ac c3bc
000003f0: 8d52 f6bc 6db8 ecbc a64b ac3c 96bb 913d

Conv2DType3_pointwise.conv.weight f4 [16, 16, 1, 1]
0.21695991 -0.20216091 0.058380157 -0.051387973 0.013478356 -0.057043422 -0.055023085 0.025343552
-0.11291405 -0.18694803 -0.23410197 0.1411155 0.15038776 0.17530894 0.014023753 -0.06227812
0.16114298 0.13693693 -0.055873115 -0.08254929 -0.018620487 -0.00027979436 0.20576055 -0.08081527
-0.12573794 -0.008360706 -0.25012764 -0.052416217 -0.14612249 0.043319218 0.08002841 0.029424235
0.015578198 0.09995773 0.06594367 -0.2486465 -0.19350232 -0.009289236 0.05514092 -0.23741595
0.063128985 0.22432768 -0.14963584 0.044825617 -0.17014691 -0.20910895 -0.22138377 0.19954601
-0.08701992 -0.0447757 0.20767713 0.22983232 -0.15841901 -0.036934853 0.22758739 -0.22652324
-0.2246013 -0.15234245 -0.085484214 -0.2310204 0.037305288 -0.021065341 -0.20599706 -0.057472855
0.22326164 -0.038062215 -0.1622387 -0.11875601 0.06437647 -0.08294799 -0.17398033 0.032615997
-0.21410933 0.19579113 -0.035011753 -0.1341277 0.235607 0.23058543 -0.24915116 -0.16672227
0.1601978 -0.15102369 0.0075193024 -0.23563476 -0.071264 0.07784867 -0.13484271 0.20930812
0.14367902 0.14599332 0.06392002 -0.12544051 -0.24856624 -0.16633062 0.25301212 0.17338872
-0.18053037 0.1535797 0.17277046 0.22179282 0.13510539 -0.087260574 -0.14983736 -0.12910843
-0.23119923 0.10277802 -0.19032171 0.077401415 -0.07512169 0.057982903 -0.09138793 -0.21889436
-0.054398566 0.04006784 0.24882118 0.11753695 0.098577425 0.05020882 0.008462974 -0.12670583
0.07082576 -0.08047793 -0.24639778 -0.2023298 -0.1274994 0.15308319 0.15308812 0.04270385
-0.113730684 0.0755662 -0.09702523 -0.07409472 -0.21266794 0.19158702 0.08576386 0.23503113
-0.15037408 0.16370031 0.1525989 -0.18797679 0.0641084 -0.15266016 0.1758304 -0.22116049
-0.007875771 -0.12937257 0.07131656 0.1676772 -0.1871818 -0.20339735 0.21702805 0.11839894
-0.03522838 0.14223054 0.00035485486 -0.14327958 -0.0670429 0.23343304 0.052028816 0.19486907
-0.10481819 0.13855675 0.18483043 -0.012882245 0.23133814 0.18734388 -0.04474117 0.22882095
0.09899976 -0.016685437 -0.11882293 0.22328201 -0.15963572 0.04700793 0.14292006 0.17126355
0.13294104 0.020664735 -0.08337467 0.1514472 -0.04932055 -0.13038139 -0.12190543 -0.2376838
-0.15931776 0.16710968 0.003721233 -0.21289408 0.22596602 -0.19070171 -0.034494694 -0.14893284
-0.12304221 0.10700779 0.19633695 0.14090838 -0.08371389 0.044329338 -0.055232573 -0.17529885
-0.20418528 -0.037216406 0.25292104 0.18477853 0.10754974 -0.20690687 -0.11347308 0.017488427
-0.042524755 0.16543537 -0.08785526 0.067396864 0.013302085 0.07131899 0.13290179 -0.24059553
-0.04915628 -0.17023948 0.09837446 0.09416716 -0.06241445 0.10790186 0.13080744 -0.11515071
-0.1663043 -0.055526067 -0.011131053 0.118731044 -0.044419046 -0.1271325 0.119937226 0.18673839
-0.20242397 0.057002343 0.21304794 -0.15916601 0.1835945 0.09252895 -0.22579488 0.064657085
-0.034661703 0.1347896 0.05819414 0.23789458 -0.0074507995 0.016237302 -0.2371258 0.043764092
0.22913007 -0.00942564 0.17856443 0.028070595 -0.16763817 0.21500783 0.13881907 0.10560652
00000000: bd2a 5e3e 4503 4fbe 0820 6f3d 327c 52bd
00000010: 53d4 5c3c 5da6 69bd e35f 61bd 489d cf3c
00000020: 7b3f e7bd 4e6f 3fbe 6db8 6fbe 9580 103e
00000030: 40ff 193e 3084 333e e2c3 653c 5817 7fbd
00000040: aa02 253e 3239 0c3e 35db 64bd 9a0f a9bd
00000050: fe89 98bc 5db1 92b9 e5b2 523e 7a82 a5bd
00000060: 72c1 00be 58fb 08bc bb10 80be 63b2 56bd
00000070: 22a1 15be 7e6f 313d efe5 a33d 180b f13c
00000080: b33b 7f3c a3b6 cc3d 7a0d 873d 309d 7ebe
00000090: 7925 46be e131 18bc 72db 613d 2b1d 73be
000000a0: c549 813d 28b6 653e 233a 19be 119b 373d
000000b0: fe3a 2ebe a820 56be 6db2 62be ca55 4c3e
000000c0: 8037 b2bd b966 37bd 50a9 543e 2a59 6b3e
000000d0: 9838 22be 0049 17bd ab0c 693e b5f5 67be
000000e0: e2fd 65be a9ff 1bbe 5912 afbd 9d90 6cbe
000000f0: 6ecd 183d 3991 acbc e5f0 52be a868 6bbd
00000100: b39e 643e 20e7 1bbd e721 26be 5a36 f3bd
00000110: d0d7 833d a3e0 a9bd e627 32be 5a98 053d
00000120: 7a3f 5bbe 787d 483e 7c68 0fbd c658 09be
00000130: f642 713e 961e 6c3e 7b21 7fbe 3eb9 2abe
00000140: e40a 243e f4a5 1abe 7b64 f63b 3d4a 71be
00000150: dcf2 91bd 206f 9f3d 3514 0abe de54 563e
00000160: 9820 133e 467f 153e 80e8 823d 7a73 00be
00000170: 2688 7ebe 9352 2abe ce8a 813e d08c 313e
00000180: f4dc 38be ff43 1d3e bdea 303e a81d 633e
00000190: 1159 0a3e acb5 b2bd f76e 19be 0035 04be
000001a0: 7ebf 6cbe 487d d23d b2e3 42be a284 9e3d
000001b0: 67d9 99bd 7b7f 6d3d 9829 bbbd d825 60be
000001c0: 08d1 5ebd 2d1e 243d fbca 7e3e 36b7 f03d
000001d0: f6e2 c93d c3a7 4d3d 49a8 0a3c 2cbf 01be
000001e0: 190d 913d 9dd1 a4bd b34f 7cbe 8b2f 4fbe
000001f0: 348f 02be d7c1 1c3e 22c3 1c3e 3bea 2e3d
00000200: a2eb e8bd 74c2 9a3d 2ab5 c6bd f9be 97bd
00000210: a0c5 59be 632f 443e f6a4 af3d 00ac 703e
00000220: aafb 19be 0ea1 273e e342 1c3e fd7c 40be
00000230: 444b 833d f252 1cbe e20c 343e e577 62be
00000240: 6109 01bc 3e7a 04be 6b0e 923d 92b3 2b3e
00000250: 96ac 3fbe 6547 50be 9a3c 5e3e 257b f23d
00000260: a24b 10bd e2a4 113e d00b ba39 e2b7 12be
00000270: ca4d 89bd 1209 6f3e 2b1c 553d c28b 473e
00000280: ebaa d6bd d2e1 0d3e 3044 3d3e 0d10 53bc
00000290: e8e3 6c3e 13d7 3f3e 8442 37bd 0a50 6a3e
000002a0: 63c0 ca3d e6af 88bc 7059 f3bd 0aa4 643e
000002b0: 8c77 23be 638b 403d a359 123e b65f 2f3e
000002c0: b221 083e 1749 a93c 57c0 aabd fa14 1b3e
000002d0: 5804 4abd b382 05be 8ea9 f9bd 6263 73be
000002e0: 3224 23be cd1e 2b3e eedf 733b e800 5abe
000002f0: a363 673e 4f47 43be 4f4a 0dbd da81 18be
00000300: 8efd fbbd e626 db3d 8e0c 493e 494a 103e
00000310: 3072 abbd ae92 353d 8d3b 62bd 8b81 33be
00000320: f215 51be 3b70 18bd de7e 813e 9536 3d3e
00000330: 0a43 dc3d 65df 53be 9364 e8bd e443 8f3c
00000340: 702e 2ebd e467 293e 75ed b3bd 5e07 8a3d
00000350: fdf0 593c b10f 923d 6817 083e ad5e 76be
00000360: 1858 49bd 4253 2ebe 8d78 c93d b6da c03d
00000370: 4ba6 7fbd a6fb dc3d 63f2 053e 23d4 ebbd
00000380: ad4b 2abe 4d6f 63bd 055f 36bc 4329 f33d
00000390: bff0 35bd 062f 02be a6a1 f53d 5938 3f3e
000003a0: 3b48 4fbe 4a7b 693d 3d29 5a3e 6afc 22be
000003b0: 3200 3c3e d17f bd3d c636 67be ef6a 843d
000003c0: 6ef9 0dbd 4906 0a3e fb5c 6e3d a39a 733e
000003d0: d625 f4bb 1704 853c 1bd1 72be fa41 333d
000003e0: 13a1 6a3e 006e 1abc 98d9 363e 4ef4 e53c
000003f0: 57a9 2bbe 032b 5c3e 9626 0e3e 3b48 d83d

Conv2DType3_Batchnorm.norm.weight f4 [16]
1.0209067 1.0333021 1.0246203 1.0249512 1.0269449 1.0068462 1.0145118 1.0259197
1.0093912 1.0353565 1.0409098 1.0254637 1.0354816 1.0408441 1.0294278 1.0370575
00000000: 12ad 823f 3e43 843f c226 833f 9a31 833f
00000010: ee72 833f 56e0 803f 86db 813f 5651 833f
00000020: bb33 813f 9086 843f 883c 853f 6542 833f
00000030: a98a 843f 613a 853f 4ac4 833f 4dbe 843f

Conv2DType3_Batchnorm.norm.bias f4 [16]
0.010675897 0.004665868 0.010153885 0.007039219 0.0024814825 0.011147696 -0.0043542967 0.0019466451
-0.01334687 0.009425352 -0.0109047815 0.013196495 0.0069974936 0.004432921 -0.0038211658 -0.00538922
00000000: f5e9 2e3c 23e4 983b 7b5c 263c 40a9 e63b
00000010: 5ea0 223b d3a4 363c 7dae 8ebb 9226 ff3a
00000020: d5ac 5abc cb6c 1a3c f8a9 32bc 1d36 583c
00000030: 3b4b e53b 0942 913b 866c 7abb 0e98 b0bb

Conv2DType3_Batchnorm.norm.running_mean f4 [16]
0.06401469 0.018578365 0.021831127 0.012931785 0.10042311 0.014713203 -0.008547561 -0.03972169
0.043814477 0.038087126 -0.05980994 0.08048507 0.0032456755 -0.053787243 0.023409164 -0.07285647
00000000: 221a 833d a831 983c 31d7 b23c d6df 533c
00000010: a2aa cd3d a50f 713c 120b 0cbc 36b3 22bd
00000020: cf76 333d 3f01 1c3d 45fb 74bd 5bd5 a43d
00000030: 66b5 543b 0350 5cbd 93c4 bf3c c635 95bd

Conv2DType3_Batchnorm.norm.running_var f4 [16]
0.13096614 0.102668785 0.15986747 0.17788416 0.26576287 0.15202232 0.13516596 0.1137169
0.1708031 0.17316012 0.17849395 0.1727978 0.18024257 0.097224735 0.116816044 0.15448003
00000000: fd1b 063e 0344 d23d 4cb4 233e 4427 363e
00000010: 1212 883e bdab 1b3e f268 0a3e 68e4 e83d
00000020: 02e7 2e3e e350 313e 1ec7 363e e8f1 303e
00000030: 8291 383e c31d c73d 403d ef3d 0330 1e3e

Conv2DType4_depthwise.conv.weight f4 [16, 16, 1, 55]
6.7797773e-06 -1.9306333e-06 2.4208573e-06 8.731063e-06 7.496511e-06 4.478052e-06 4.898873e-06 4.513856e-06
4.355637e-06 -9.593106e-06 -4.6833534e-06 -0.024706513 0.025498513 0.030060153 -0.02423427 -0.018507421
0.017956816 -0.010467812 -0.0063608764 -0.01598221 0.03411528 -0.0144631835 -0.018958556 -0.020411205
0.024606565 0.011602911 -0.026096797 0.015101463 0.00014205444 -0.024316631 -0.027063748 0.023050332
0.03388167 0.006073215 -0.02192114 0.019833429 -0.008119037 -0.0150412945 -0.014941779 -0.013118523
-0.021977933 -0.030931538 0.03223028 -0.01588555 7.434628e-06 3.961679e-06 6.2963213e-06 7.5022663e-06
5.3807426e-06 5.3585104e-06 3.3075946e-06 1.7565486e-06 -1.319461e-06 1.555899e-06 4.235841e-06 -6.2737067e-06
-1.0364224e-05 -1.1312122e-05 -1.1967701e-05 -7.971765e-06 -1.0216791e-05 -2.3017097e-05 -1.3733634e-05 -1.12974685e-05
-1.7529626e-05 -2.061035e-05 -0.003757722 0.015434223 -0.016588036 0.0039550494 0.009218605 0.008796715
-0.022285545 0.026362777 -0.022023678 0.02448888 -0.018973337 0.010413485 -0.014919067 0.0016762346
0.023283284 -0.0095079765 0.025747562 -0.023493735 0.006258803 -0.016935792 0.03351663 -0.02773782
-0.01938565 -0.019134507 -0.018279715 0.019045264 -0.019338662 0.0057233116 -0.022922566 -0.0015201711
0.029879222 -0.011484904 0.025893282 1.281681e-05 7.5853254e-06 1.3663472e-05 7.4029567e-06 1.3299063e-05
1.1044717e-05 9.511979e-06 5.162826e-06 7.427465e-06 1.2390878e-05 1.7243216e-05 7.796193e-06 2.503813e-06
2.6628024e-06 3.97717e-06 4.520756e-06 5.4981506e-06 3.12791e-06 2.7378103e-06 -8.418308e-06 -2.716114e-06
-5.7713787e-06 -0.023259956 -0.0032311962 0.0076052947 0.01788708 -0.02491333 -0.009681 0.024023285
-0.0054758424 -0.003115436 0.027332162 0.025546268 -0.015845364 -0.012612929 -0.017694473 0.006252619
-0.017855681 -0.014007519 -0.014038509 -4.6407156e-05 0.007198388 0.021864813 -0.025352065 0.01857305
0.0073801666 -0.01588 -0.020288946 0.0238564 -0.029943427 -0.009414366 0.0043960353 0.0068020658
0.0043815947 -0.021787703 5.356781e-07 1.7153574e-06 4.865792e-07 3.8765866e-06 5.99245e-07 3.913372e-06
3.2371577e-06 4.3962723e-06 -2.1282242e-06 -1.7329222e-07 1.9785707e-06 -8.115023e-06 -1.0278287e-05 -1.0237201e-05
-9.59328e-06 -9.638724e-06 -8.026591e-06 -9.949252e-06 -6.2603635e-06 -7.296688e-06 -1.3861951e-05 -4.6307136e-06
-0.015722191 0.01746019 0.02982359 0.008750992 -0.013313083 -0.008387511 -0.0261744 -0.014284583
0.025498707 0.04103725 -0.0063600787 0.028019333 0.026588866 -0.014674065 0.020852026 -0.008425575
-0.018452847 -0.0173144 0.029642135 -0.020462565 -0.009556698 0.0013286399 0.015450302 0.014080271
0.025977638 -0.016656414 -0.01704623 0.040531196 0.029604623 0.037450053 -0.027203057 -0.008555891
-0.020685825 -5.4267196e-07 1.0594877e-05 7.661739e-06 8.393863e-06 2.372939e-06 1.3751317e-05 8.287898e-06
7.2193375e-06 7.278327e-06 9.792183e-06 1.7973077e-06 -6.731653e-06 -1.0732852e-05 5.5765904e-06 -9.890886e-06
-7.1828194e-06 -2.4522456e-06 -7.564141e-06 -6.463176e-06 -7.634915e-06 -1.5667421e-05 -9.206717e-06 0.0024090365
-0.033321597 0.0028468838 0.0045915814 0.025640998 -0.004822105 0.04016789 0.03692562 0.017369252
0.011588686 0.020902751 0.0043622283 -0.015834758 0.027835077 0.015278541 0.03128175 0.017349143
0.014943185 -0.0121962605 0.034516975 -0.01598527 0.036033146 -0.018205311 0.010616108 0.017532935
00000000: d87d e336 0790 01b6 0376 2236 a17b 1237
00000010: 8a8a fb36 2c42 9636 0061 a436 ba75 9736
00000020: a326 9236 14f2 20b7 b325 9db6 5065 cabc
00000030: 42e2 d03c b640 f63c f386 c6bc e09c 97bc
00000040: 2c1a 933c 3081 2bbc e66e d0bb 20ed 82bc
00000050: 77bc 0b3d fdf6 6cbc f94e 9bbc 6635 a7bc
00000060: b593 c93c 231a 3e3c f3c8 d5bc 206c 773c
00000070: 73f4 1439 ac33 c7bc cbb4 ddbc 0dd4 bc3c
00000080: 82c7 0a3d d201 c73b f693 b3bc b779 a23c
00000090: b605 05bc c36f 76bc 5dce 74bc 13ef 56bc
000000a0: 110b b4bc 2364 fdbc e603 043d 6a22 82bc
000000b0: f876 f936 90ee 8436 fd44 d336 fabb fb36
000000c0: 3a8c b436 41cd b336 0bf8 5d36 8dc2 eb35
000000d0: 5618 b1b5 48d4 d035 9921 8e36 bb82 d2b6
000000e0: 01e2 2db7 32c9 3db7 e2c8 48b7 78be 05b7
000000f0: c968 2bb7 d714 c1b7 8269 66b7 428a 3db7
00000100: 960c 93b7 64e4 acb7 1d44 76bb d3df 7c3c
00000110: a2e3 87bc 5c99 813b a209 173c 1920 103c
00000120: 2d90 b6bc c0f6 d73c 006b b4bc e79c c83c
00000130: f96d 9bbc 529d 2a3c 1a6f 74bc 1ab5 db3a
00000140: 96bc be3c 58c7 1bbc 8dec d23c ef75 c0bc
00000150: a516 cd3b eebc 8abc bc48 093d 6d3a e3bc
00000160: a8ce 9ebc f8bf 9cbc 57bf 95bc d004 9c3c
00000170: 1d6c 9ebc 9e8a bb3b 1bc8 bbbc 7a40 c7ba
00000180: 45c5 f43c 2e2b 3cbc 261e d43c c807 5737
00000190: 7385 fe36 2a3c 6537 ea66 f836 0a1f 5f37
000001a0: b34c 3937 a495 1f37 563c ad36 7039 f936
000001b0: 6ae2 4f37 86a5 9037 65cc 0237 2e07 2836
000001c0: 99b2 3236 a173 8536 00b1 9736 c17c b836
000001d0: 16e9 5136 39bb 3736 5c3c 0db7 7c46 36b6
000001e0: c4a7 c1b6 aa8b bebc 7ac2 53bb d635 f93b
000001f0: ed87 923c 0a17 ccbc 0f9d 1ebc 7bcc c43c
00000200: b26e b3bb 582c 4cbb b3e7 df3c 6846 d13c
00000210: 23ce 81bc 75a6 4ebc 00f4 90bc c5e2 cc3b
00000220: 1446 92bc cb7f 65bc c601 66bc 4ea5 42b8
00000230: 75e0 eb3b d61d b33c 22af cfbc 8226 983c
00000240: 53d5 f13b c616 82bc 0135 a6bc 7f6e c33c
00000250: eb4b f5bc b73e 1abc 9e0c 903b dde3 de3b
00000260: 7b93 8f3b 207c b2bc 85cb 0f35 3b3b e635
00000270: 789d 0235 a013 8236 cedb 2035 9c4f 8336
00000280: f23d 5936 b183 9336 9dd2 0eb6 3412 3ab4
00000290: 96c7 0436 c225 08b7 e870 2cb7 72c0 2bb7
000002a0: d3f2 20b7 01b6 21b7 f2a9 06b7 b6eb 26b7
000002b0: 1d10 d2b6 13d6 f4b6 a090 68b7 8761 9bb6
000002c0: d3cb 80bc ac08 8f3c 9a50 f43c 5260 0f3c
000002d0: 1e1f 5abc c56b 09bc b26b d6bc e209 6abc
000002e0: aae2 d03c ad16 283d 3568 d0bb cd88 e53c
000002f0: e5d0 d93c 7d6b 70bc ded1 aa3c 6c0b 0abc
00000300: 6d2a 97bc eed6 8dbc 10d4 f23c 1ca1 a7bc
00000310: b293 1cbc c225 ae3a 4323 7d3c f0b0 663c
00000320: 0ecf d43c 0873 88bc 89a4 8bbc 0a04 263d
00000330: 6585 f23c 3a65 193d f2d8 debc 022e 0cbc
00000340: 5275 a9bc 22ac 11b5 a6c0 3137 eb8a 0037
00000350: 5ed3 0c37 c83e 1f36 75b5 6637 400c 0b37
00000360: a33d f236 5a38 f436 1b49 2437 063b f135
00000370: 75e0 e1b6 4011 34b7 8c1e bb36 08f1 25b7
00000380: f303 f1b6 4291 24b6 7acf fdb6 42de d8b6
00000390: b617 00b7 886d 83b7 8c76 1ab7 ede0 1d3b
000003a0: 3a7c 08bd c992 3a3b fa74 963b 120d d23c
000003b0: c002 9ebb 1687 243d 523f 173d f649 8e3c
000003c0: 79de 3d3c 3f3c ab3c 06f1 8e3b e5b7 81bc
000003d0: 6306 e43c d852 7a3c 4b21 003d ca1f 8e3c
000003e0: 43d4 743c d3d2 47bc ac61 0d3d 8af3 82bc
000003f0: 7e97 133d 4e23 95bc 2fef 2d3c 3ba1 8f3c

Conv2DType4_pointwise.conv.weight f4 [16, 16, 1, 1]
-0.08863128 -0.041717757 0.2105668 0.0918481 0.078474745 0.10144851 -0.17381756 0.064063
0.22837934 0.065899596 0.13431779 -0.14509545 -0.1330173 -0.055099 -0.18911247 0.023755388
0.10241319 -0.117039666 -0.16938479 0.011227598 -0.22500554 -0.09012193 -0.17422171 -0.05768962
0.002725049 0.12908503 0.123327136 -0.22383411 -0.2279875 -0.009324687 -0.21394241 0.024963189
0.12693837 -0.20088902 -0.15933757 0.24291691 -0.25443947 0.10823852 -0.22676453 -0.21615672
-0.112516895 0.2311314 -0.21794727 0.23567441 -0.01228387 -0.11822263 0.20200734 0.20620172
0.043118525 -0.2524623 -0.20308194 0.057901166 -0.1691365 -0.1257181 0.018635193 -0.21911676
0.014916154 0.25892383 0.18114606 0.22340062 -0.0856605 0.049057495 0.18940571 0.15297708
0.2552592 0.16467829 -0.04460626 0.22320978 0.0752106 0.15053649 0.049827717 0.00089917437
-0.05521334 0.0072154067 0.06894173 -0.04260103 -0.10316916 -0.22275388 0.19617823 0.10784147
-0.1488575 0.15901048 0.08047883 -0.14736953 -0.1894035 -0.27462703 0.053106327 -0.21994765
0.06406273 0.080495104 -0.18354541 -0.12299611 0.063992485 0.053100634 0.100745104 0.22617456
0.13129187 -0.13608694 0.22978851 -0.17065142 0.052887417 -0.21423912 0.0020610807 -0.12134284
0.011296082 0.2202849 0.0056856875 0.023719197 0.14902265 -0.18672337 -0.12638447 0.25194037
0.075715594 -0.099700354 -0.05363252 -0.24971592 -0.20058632 -0.19937228 -0.106769875 -0.2171679
-0.21252644 0.1891585 0.15088855 0.07945964 -0.21838844 0.18554547 -0.1658094 0.16034555
0.029882412 -0.11624789 -0.17988347 0.09976656 -0.042049833 0.26620337 0.030325914 -0.17845912
0.23943174 -0.18313079 0.18381251 -0.08453194 0.21029675 0.22377665 0.20815578 0.09637306
-0.1255627 0.09731103 0.18317401 0.047956973 -0.23210052 0.05023594 0.16318421 0.1173472
0.04773385 -0.12683885 -0.06430236 0.14279278 -0.19026119 -0.13645846 -0.08850546 0.18398668
0.037797675 0.06167394 -0.12851949 -0.057730578 0.21659096 -0.016955445 0.17977607 0.21608838
-0.14210081 -0.091350384 0.13087699 -0.09731631 0.17939593 -0.045904208 -0.13941732 -0.14143007
0.19814175 -0.103043094 0.06612923 -0.13051823 -0.19361576 0.2521244 -0.14066616 0.24788435
-0.045328412 0.12635437 -0.06628305 0.1012788 -0.15257278 -0.106727764 0.19279155 -0.085895896
0.23996648 -0.11584109 0.07905559 -0.04118041 -0.14638679 0.116878465 0.14573088 0.13515683
-0.028480481 0.22845891 -0.1355344 -0.09855494 0.24938639 0.20993623 -0.056708775 -0.17638478
0.09713839 0.10429084 -0.10463973 0.15943304 -0.16243383 -0.12877391 0.2055889 0.22997916
0.100074925 0.009592615 -0.013808822 -0.016305547 -0.16199891 -0.07056056 0.0037067947 -0.1117142
0.21399228 0.0137835145 -0.1025158 -0.15254782 -0.10247763 -0.09843103 -0.13868019 0.20973162
0.0078770425 -0.18176055 -0.055802085 -0.24532607 -0.035190158 -0.13738479 0.031038385 0.168489
-0.0847536 -0.030154372 -0.13300213 -0.17118071 -0.0015194614 0.25094634 -0.207858 -0.108873054
0.1317826 0.12897567 -0.058046203 0.061184205 0.09666323 0.06164521 0.03640108 0.15581709
00000000: 5184 b5bd 3de0 2abd d39e 573e db1a bc3d
00000010: 5eb7 a03d 3dc4 cf3d 3bfd 31be 7633 833d
00000020: 46dc 693e 5ef6 863d 9a8a 093e e793 14be
00000030: b035 08be 7daf 61bd b3a6 41be a99a c23c
00000040: 02be d13d 7eb2 efbd 3573 2dbe f6f3 373c
00000050: da67 66be d991 b8bd 2d67 32be f34b 6cbd
00000060: bc96 323b de2e 043e f092 fc3d c534 65be
00000070: 8e75 69be 92c6 18bc b813 5bbe 9a7f cc3c
00000080: 22fc 013e dab5 4dbe 6329 23be 36bf 783e
00000090: e445 82be 28ac dd3d f634 68be 3058 5dbe
000000a0: 426f e6bd b6ad 6c3e 922d 5fbe a254 713e
000000b0: 4942 49bc b51e f2bd 03db 4e3e 8b26 533e
000000c0: 0d9d 303d bd42 81be b6f4 4fbe c629 6d3d
000000d0: 1e32 2dbe 3fbc 00be d5a8 983c 2560 60be
000000e0: e262 743c aa91 843e 5a7e 393e 22c3 643e
000000f0: c66e afbd 83f0 483d 92f3 413e 06a6 1c3e
00000100: 55b1 823e 6da1 283e 0eb5 36bd 1b91 643e
00000110: 0408 9a3d 3d26 1a3e 2618 4c3d 92b6 6b3a
00000120: 6227 62bd 386f ec3b 5231 8d3d 6b7e 2ebd
00000130: 5a4a d3bd 9819 64be f2e2 483e fddb dc3d
00000140: 1a6e 18be a5d3 223e 16d2 a43d 0ae8 16be
00000150: fef2 41be ea9b 8cbe 0586 593d f539 61be
00000160: 5233 833d 9eda a43d 54f3 3bbe 62e5 fbbd
00000170: 7e0e 833d 0d80 593d 7353 ce3d 4e9a 673e
00000180: 6071 063e 605a 0bbe ae4d 6b3e 3fbf 2ebe
00000190: 7aa0 583d 8061 5bbe 3213 073b 9882 f8bd
000001a0: 3413 393c 5d92 613e 014f ba3b c34e c23c
000001b0: 6599 183e 6934 3fbe ee6a 01be 54fe 803e
000001c0: c710 9b3d b32f ccbd c6ad 5bbd 88b5 7fbe
000001d0: 8066 4dbe 3f28 4cbe 2aaa dabd 4361 5ebe
000001e0: 88a0 59be c4b2 413e 8782 1a3e bcbb a23d
000001f0: 38a1 5fbe a2ff 3d3e f0c9 29be a031 243e
00000200: f6cb f43c 6013 eebd 5f33 38be 6952 cc3d
00000210: 723c 2cbd cf4b 883e 0d6e f83c fdbd 36be
00000220: 982d 753e a386 3bbe 5939 3c3e 151f adbd
00000230: 0858 573e b525 653e ca26 553e 3d5f c53d
00000240: 8293 00be 014b c73d f891 3b3e 886e 443d
00000250: c2ab 6dbe 33c4 4d3d c319 273e bb53 f03d
00000260: 9284 433d 0be2 01be f5b0 83bd 4538 123e
00000270: d4d3 42be c4bb 0bbe 5a42 b5bd 0167 3c3e
00000280: bcd1 1a3d d09d 7c3d 9d9a 03be e676 6cbd
00000290: 05ca 5d3e 25e6 8abc 3817 383e 4646 5d3e
000002a0: e082 11be e915 bbbd 9e04 063e c64d c7bd
000002b0: 91b3 373e 0d06 3cbd 6ac3 0ebe 0bd3 10be
000002c0: ace5 4a3e 4208 d3bd c36e 873d 92a6 05be
000002d0: 3643 46be 7316 813e ca0a 10be 65d5 7d3e
000002e0: 49aa 39bd 0a63 013e 68bf 87bd 426b cf3d
000002f0: 0a3c 1cbe 1694 dabd 266b 453e 30ea afbd
00000300: c6b9 753e 183e edbd e6e7 a13d caac 28bd
00000310: 6be6 15be fa5d ef3d 7a3a 153e 8d66 0a3e
00000320: e64f e9bc 22f1 693e 88c9 0abe 2cd7 c9bd
00000330: 255f 7f3e 86f9 563e 7647 68bd 369e 34be
00000340: 7ef0 c63d 7096 d53d 5b4d d6bd 6a42 233e
00000350: 0e55 26be 4fdd 03be e685 523e a87f 6b3e
00000360: 15f4 cc3d 582a 1d3c 663e 62bc 3693 85bc
00000370: 0be3 25be 0e82 90bd b2ed 723b 6aca e4bd
00000380: cb20 5b3e 40d4 613c cef3 d1bd 7f35 1cbe
00000390: cbdf d1bd 3596 c9bd 2e02 0ebe e3c3 563e
000003a0: b60e 013c 701f 3abe ba90 64bd c236 7bbe
000003b0: 8e23 10bd 99ae 0cbe 3644 fe3c 6188 2c3e
000003c0: 4c93 adbd 4d06 f7bc b631 08be ff49 2fbe
000003d0: aa28 c7ba 0a7c 803e bad8 54be d6f8 debd
000003e0: 05f2 063e 3312 043e dbc1 6dbd 4a9c 7a3d
000003f0: 5ff7 c53d b07f 7c3d 4d19 153d 848e 1f3e

Conv2DType4_Batchnorm.norm.weight f4 [16]
1.0585511 1.05496 1.0392469 1.0471512 1.03678 1.0713913 1.0557499 1.0645077
1.0652249 1.0583422 1.0541589 1.0452625 1.0503339 1.0625708 1.0539196 1.0634495
00000000: 9a7e 873f ee08 873f 0b06 853f 0d09 863f
00000010: 35b5 843f 5a23 893f d022 873f ca41 883f
00000020: 4a59 883f c277 873f aeee 863f 29cb 853f
00000030: 5771 863f 5202 883f d6e6 863f 1d1f 883f

Conv2DType4_Batchnorm.norm.bias f4 [16]
0.011186909 0.006591388 0.013990417 0.01094369 0.002482272 0.008239636 -0.0034209345 0.011188376
-0.009351984 0.012629989 -0.011973949 0.012891578 0.0037822674 0.010394698 -0.00023077978 -0.004331901
00000000: 4c49 373c 92fc d73b 1038 653c 2a4d 333c
00000010: 9dad 223b 8aff 063c c231 60bb 734f 373c
00000020: 1039 19bc 03ee 4e3c 622e 44bc 3237 533c
00000030: ebdf 773b 864e 2a3c 7afd 71b9 9ff2 8dbb

Conv2DType4_Batchnorm.norm.running_mean f4 [16]
0.031351037 0.070499115 0.071878225 0.06839148 0.029608121 0.018738704 0.060062833 0.048653882
0.045744605 0.011596651 -0.032785855 0.03193321 0.037699763 0.0020783222 0.04191216 0.039489727
00000000: f269 003d d761 903d e434 933d d510 8c3d
00000010: bb8c f23c e981 993c 7204 763d 4b49 473d
00000020: b25e 3b3d e1ff 3d3c 764a 06bd 66cc 023d
00000030: 116b 1a3d 7634 083b 16ac 2b3d fbbf 213d

Conv2DType4_Batchnorm.norm.running_var f4 [16]
0.13711809 0.1609223 0.3558565 0.19763765 0.13808437 0.15434864 0.1823815 0.21117294
0.23216367 0.21678713 0.18014565 0.19686486 0.26858217 0.08131187 0.17117782 0.12003229
00000000: af68 0c3e d1c8 243e d332 b63e 8661 4a3e
00000010: fd65 0d3e 920d 1e3e 37c2 3a3e b83d 583e
00000020: 50bc 6d3e 72fd 5d3e 1a78 383e f196 493e
00000030: 9a83 893e d686 a63d 3d49 2f3e 7dd3 f53d
