benchmarks/MOABB/results/MotorImagery/BNCI2014001/LSTMEEG/run3/21211/leave-one-session-out/sub-002/1test/save/CKPT+2024-04-23+04-15-24+01/model.ckpt (torch, 435656 bytes, 15 tensors)

emb_module.shallownet.0.conv.bias f4 [61]
000000 9b 03 ca bd a9 8f 02 bd 8e 61 77 3d 56 0d 8b bd
       -0.09863969 -0.031875286 0.06039577 -0.06789653
000010 1a 99 b1 3c fe bf 0e bd 86 3b 6c bd fd 84 34 3e
       0.02167945 -0.034851067 -0.057673953 0.17628856
000020 12 dc 74 3d 75 f3 ae 3c 01 5d 2f bd 8b c0 0f 3e
       0.059780188 0.021356324 -0.042813305 0.14038293
000030 96 52 b3 bd 55 44 59 3d 50 9d 6e 3c fa 0a 04 bd
       -0.087559864 0.053043682 0.014563873 -0.03223703
000040 7b 20 7e bd ae 2f 39 bd e0 b9 d5 3c 2e f9 39 bd
       -0.062042695 -0.045211487 0.026089609 -0.045403652
000050 63 bb 1f 3e cc a6 bb bd d0 5d 90 bd e5 df 76 3d
       0.15598826 -0.09162673 -0.07049143 0.060272116
000060 01 7f 12 be 4e dd cb 3c 38 90 13 3e 26 4e ae bd
       -0.1430626 0.0248858 0.14410484 -0.085109994
000070 4e 09 15 3e 40 db 4a bd e6 8b fa bd da df db 3c
       0.1455433 -0.0495255 -0.12233715 0.02684014
000080 b9 ff 04 bb 18 a2 06 3e a8 2b c7 bd 3b d0 27 be
       -0.0020294024 0.13147771 -0.09725124 -0.16388027
000090 b4 fd 00 be 6b 5d f5 3d a3 4a 4d 3d 1e 11 c0 bd
       -0.1259678 0.11980709 0.050120007 -0.09378265
0000a0 ee ee 8a 3d 42 a5 fb 3d 67 2f c5 3c 2d 4c e7 3d
       0.067838535 0.1228738 0.024070455 0.11293826
0000b0 2a 86 aa 3d ea 2d e6 3d d2 c1 2a bd 4e ab 79 3c
       0.08326371 0.11239226 -0.041688748 0.015238596
0000c0 ce 5c ed bd 0b 10 db bd 50 1c d0 3d 52 30 36 3e
       -0.11589967 -0.10696419 0.1016165 0.1779187
0000d0 c8 18 a4 3d 46 dd 0c 3c da eb 61 bc b6 15 23 3d
       0.08012539 0.008597678 -0.013789142 0.039815627
0000e0 0b da 86 be 3c b3 25 bd 91 12 02 bd 7d 20 d7 bd
       -0.2633823 -0.040454134 -0.031755988 -0.105042435
0000f0 e2 d8 63 3c
       0.013906689

emb_module.shallownet.1.conv.weight f4 [64, 61, 1, 17]
000000 2a 68 13 3c 82 38 33 3d 5b 5f 9f 3b b5 b4 ca bc
       0.008997003 0.043755062 0.004863662 -0.024744371
000010 e6 f2 98 3c 96 cc be bd 01 5a 47 bc d0 cb 29 3c
       0.01867051 -0.093163654 -0.012167455 0.010363534
000020 76 03 7c bc 4a 2f bc 3b f0 94 65 bd eb e1 83 3d
       -0.0153816845 0.005742942 -0.05605024 0.06439575
000030 43 fa f7 3c 3a 53 f5 3c 18 06 c5 3b e5 55 b7 bc
       0.030270701 0.029946912 0.0060126893 -0.022379825
000040 20 34 49 3d 82 7a db 3d 93 a1 e2 bb 8a 48 45 bd
       0.049121976 0.10716726 -0.006916234 -0.04816488
000050 22 96 28 bd e5 b0 f1 3d ca 1f b9 3d 27 2d ae bd
       -0.041158803 0.11801318 0.090392664 -0.08504706
000060 2c db 07 bd 7f 1a 91 bc 32 8e 46 bc 4c cc 30 3d
       -0.033168003 -0.01771283 -0.012118863 0.043163583
000070 3a 33 37 3c 85 21 8d 3d 5e 8d 89 3d 65 e8 f0 3d
       0.011181647 0.06891159 0.06716417 0.11763076
000080 f3 11 d5 3d 63 48 26 3e d6 58 ae bd aa 1a 26 3d
       0.10403814 0.16238551 -0.08513038 0.040552773
000090 5a c2 a4 3a 41 53 24 3d 12 8a 20 3b ef 96 90 bd
       0.0012570128 0.04011846 0.0024496359 -0.07060038
0000a0 52 a4 bc 3b 1a 3b 31 3c bc aa 93 3c 82 a3 83 3d
       0.005756893 0.010817314 0.018025748 0.06427671
0000b0 0a 97 a5 bc 8e a0 3e 3d 72 80 81 3c d8 6e 76 3c
       -0.020213623 0.046539836 0.015808318 0.015041076
0000c0 ee f4 44 bc 32 57 a6 bc 0c fd a6 bb 8e 8b 33 3d
       -0.012021286 -0.02030525 -0.0050960835 0.04383426
0000d0 2a 67 59 3d c2 d9 e0 bc fc c4 4a bd 85 1f 53 3d
       0.0530769 -0.027447585 -0.049504265 0.05154373
0000e0 94 0e 92 bd 65 55 a4 3c eb e0 4e 3c 88 6c 0d bd
       -0.07131687 0.02006025 0.012626867 -0.03452733
0000f0 a6 d3 db bd 29 83 af bd 03 ed bf 3d e6 36 39 3d
       -0.10733728 -0.08569939 0.09371378 0.04521837
000100 03 02 ac 3b 8d ae ef 3d 56 91 10 3e fd 06 12 3e
       0.0052492633 0.11703215 0.14117941 0.14260478
000110 0a 32 2a be a3 40 9d 3c f2 5e 28 3d c6 84 ab 3b
       -0.16620651 0.01919586 0.041106172 0.0052343337
000120 3e 9c 94 bd df 99 bb bd 20 52 e8 3c a8 6f 21 3d
       -0.07256363 -0.09160208 0.028359473 0.039413124
000130 ee 2a 94 ba 93 1d 8f 3d 8e 04 b8 3b 7a 29 72 bc
       -0.0011304298 0.06988063 0.0056157773 -0.014780397
000140 b0 09 69 bc 56 8a 8a bc 47 47 3d be 82 49 0a be
       -0.014223501 -0.016911667 -0.18484221 -0.13504604
000150 45 51 fa bd ab 89 55 3d 17 b4 94 3d 33 71 8d 3c
       -0.12222532 0.052133244 0.07260912 0.017265892
000160 9a 7e 90 b9 f8 97 70 3d f8 cb 62 bd ad 1c 43 3c
       -0.00027560146 0.05873868 -0.0553703 0.011908692
000170 46 d3 a4 bc 2a b6 33 bd 98 c4 0d bc ea 7d 34 bd
       -0.020120274 -0.043874897 -0.008652829 -0.044065394
000180 90 d7 e0 3d 03 c8 80 3d 7a 06 02 3d e6 60 4b 3e
       0.10978615 0.06288149 0.031744458 0.19861183
000190 92 ba 1d 3e bd ad 83 3e fa 4e de 3c 42 1f 7c 3c
       0.15403202 0.2571849 0.027137268 0.015388312
0001a0 38 a1 6e bd 99 40 15 be 26 41 6e 3c 6f b0 ac bd
       -0.05825922 -0.14575423 0.0145419 -0.084320895
0001b0 7e fa 8e 3d 08 10 17 bd 86 39 85 bd cb f4 a0 bd
       0.06981371 -0.036880523 -0.06505112 -0.078591906
0001c0 a4 55 9d bc 4c 02 bc 3d 23 21 a3 3c 2b 79 e2 3c
       -0.019205876 0.091801256 0.019913262 0.027645668
0001d0 c8 ff df 3d 98 1b 13 3e eb 01 65 3e 82 64 b2 3d
       0.10937458 0.14365995 0.22364013 0.087105766
0001e0 ab dc 7c bd bd 95 75 bd 3f bb 9c 3c 87 a0 af 3c
       -0.061733883 -0.059957255 0.019132255 0.02143885
0001f0 79 89 40 3d dd 23 d4 bd 01 5e 86 bc 35 a5 dd bb
       0.047006104 -0.10358403 -0.016402246 -0.006764079
000200 99 ca a4 bc c0 d3 99 bb 5a 73 4c bd 70 d0 1c b9
       -0.020116137 -0.004694432 -0.049914695 -0.00014954968
000210 30 89 63 3c 79 f6 c3 3c e8 18 b7 3b ac 00 36 ba
       0.0138876885 0.023921238 0.005587686 -0.0006942849
000220 1a b5 1d 3d 5e ad 18 bc 2a 66 c3 bc ed ac a1 bd
       0.03850279 -0.009318678 -0.023852427 -0.07894311
000230 c4 83 36 bd 4e 71 86 bd 63 9e e0 3c 3d 92 68 bd
       -0.044559255 -0.0656458 0.027419275 -0.05678009
000240 03 98 e8 bc 6e 47 40 bd b0 fd c0 3b b2 a0 93 bc
       -0.028392797 -0.04694312 0.005889617 -0.018020961
000250 aa e4 34 bd 66 50 33 3c 9b 88 d0 3c 74 01 27 3d
       -0.044163384 0.010944461 0.025455764 0.04077287
000260 38 8b 20 3e e4 c4 ba bc c0 2a 25 3d 66 6d 2a 3d
       0.15678108 -0.022798963 0.040323973 0.041608237
000270 f7 7a 24 3d cb f6 1c 3d 5b 81 07 bc 1f 76 98 bd
       0.04015633 0.038321298 -0.008270587 -0.07444405
000280 43 35 56 3b 2e 55 44 3d 1d 0c 6a 3c 57 ac 9d bd
       0.0032685555 0.047932796 0.014285115 -0.07698887
000290 de 78 10 bd ee 57 5d 3d 11 c0 89 3d 80 07 27 bd
       -0.035271518 0.054038934 0.06726087 -0.040778637
0002a0 fc 80 ac 3c 51 94 19 bc be fb 2c bd 40 52 70 3d
       0.021057598 -0.00937374 -0.042232268 0.05867219
0002b0 e9 23 9c bc 44 6f 85 bd bf 43 ad 3d 1f 5f b9 bd
       -0.019060092 -0.06515363 0.08460187 -0.09051346
0002c0 71 c5 8b 3c 9b f3 5f 3c d1 9d 99 bc ed 5d f0 3c
       0.01706192 0.01366892 -0.01875201 0.029341662
0002d0 4a 3c bf bb 1a 33 33 3c ae e5 0f 3d 15 21 9e 3d
       -0.0058360444 0.0109374765 0.03513115 0.07721154
0002e0 70 c7 5c 3d fb 78 33 3d bb 55 f2 3d a1 e2 17 3e
       0.053901136 0.043816548 0.11832758 0.14832546
0002f0 7a 5e ce bd 98 6c 0d bd d7 73 b5 3d e2 de 76 bb
       -0.10076614 -0.03452739 0.08859985 -0.003766947
000300 78 45 e6 3d 2d 06 e9 bd c5 df a4 bd 88 f9 f6 bb
       0.11243719 -0.11378131 -0.08050493 -0.0075370707
000310 6d 69 5f 3c 42 82 0c 3d 5a 30 30 bd b8 48 93 bc
       0.013635975 0.03430391 -0.04301486 -0.017979011
000320 eb 72 0a bd 30 9b 61 bd 36 70 37 bd ce 1f e2 bc
       -0.033801 -0.05507964 -0.044784747 -0.027603056
000330 26 d9 62 3d 15 e9 c2 bb 62 7e 1a 3d 20 23 ec 3d
       0.05538287 -0.0059481957 0.037718184 0.11530137
000340 95 8d f5 3c 83 62 25 3d 47 fb 3a bd 35 09 a1 bb
       0.029974738 0.04037715 -0.045649793 -0.0049144276
000350 00 7e d0 3c 3b 60 dd 3d dd 82 df 3c 78 79 61 bc
       0.025450706 0.1080937 0.02728408 -0.013761871
000360 05 f1 4f 3c 70 4d df 3c 5a b5 90 bd 86 a7 84 bd
       0.012691741 0.027258605 -0.0706584 -0.06477265
000370 49 ac 37 bd ae e3 d9 3d 1d ce 8b 3c ce 5b 5a 3d
       -0.04484204 0.106391296 0.017066056 0.053310208
000380 c0 18 e9 3d ee 90 9c bd 63 1f d1 3c c9 08 95 3b
       0.11381674 -0.07644831 0.025527662 0.0045481664
000390 de 48 af 3c ac 40 a7 3d b2 34 7d 3d ad 89 8a 3c
       0.02139705 0.08166632 0.061817832 0.016911352
0003a0 0b 6a 43 bc c8 23 a4 3d 53 5d 5d 3d 73 dc 54 3d
       -0.011927138 0.08014637 0.05404408 0.05196805
0003b0 a8 c3 c0 3d 63 cf e3 3d 7b a6 d4 3d 15 66 49 3d
       0.094123185 0.1112354 0.10383316 0.04916962
0003c0 aa da fd 3c e1 ba 94 3b 4b 45 a7 3d 46 13 29 bd
       0.030988056 0.0045388793 0.081675135 -0.041278146
0003d0 a2 c7 9d ba ea d7 80 3d 96 4b 2e 3d 6b cb 01 3d
       -0.0012037645 0.06291182 0.042552553 0.031688135
0003e0 29 b0 8a bd f6 b6 26 3d 85 49 4a 3d 96 fc 0b 3c
       -0.06771881 0.04070183 0.04938652 0.008544108
0003f0 75 c2 be 3c cb df c8 3c 7a 31 a6 bc 92 4c 83 bd
       0.023286084 0.024520775 -0.020287264 -0.06411089

emb_module.shallownet.1.conv.bias f4 [64]
000000 13 42 f5 3c 53 38 d6 bc 79 c2 c5 3c e5 d8 45 3c
       0.029938733 -0.026149904 0.024140583 0.0120756375
000010 7a 1d 33 3d 2e 6a ce ba b8 c4 58 3c 14 84 90 bb
       0.043729283 -0.0015748197 0.013230495 -0.004410276
000020 18 68 00 3b 9f 1c 00 3d 4e 0b d9 bc 76 70 7e bc
       0.0019593295 0.031277295 -0.026494648 -0.015529742
000030 d5 a0 73 3c a4 7c 38 3d a2 40 81 3c 56 dd 8d 3b
       0.014869888 0.04504074 0.01577789 0.004329364
000040 77 00 8b 3c 7b 17 fb bb ee 3e 77 3c 0e 59 12 3d
       0.016967995 -0.007662711 0.015090687 0.03572946
000050 e3 a0 0c 3d 3d 82 5b 3c 63 e1 d3 ba cd e3 ed b9
       0.03433312 0.01339775 -0.0016165193 -0.00045373887
000060 a6 b9 d2 3b 52 bd 93 3c c6 64 67 3c e6 00 af 3c
       0.0064308224 0.01803461 0.014123147 0.021362733
000070 5a fb cb 3c cd 1e 65 3d e0 8d 1d bc a6 c5 cc bc
       0.024900127 0.055937577 -0.009616345 -0.02499659
000080 bd d2 95 3b 2a 6e df 3c 3d 69 70 bc cd 57 c3 3b
       0.004572241 0.02727421 -0.014673528 0.0059613944
000090 42 fc d7 3c 4e 14 8d bc 01 9c a9 bc 02 7e 24 3c
       0.026365403 -0.017221596 -0.020704271 0.010039808
0000a0 03 58 f4 3a a7 f0 39 3d 03 16 cd 3c 06 74 0e 3c
       0.0018641952 0.04539552 0.02503491 0.008694654
0000b0 6b 8d 22 3d 4a ee 05 3d e2 58 a9 3c 1c 71 1e 3c
       0.039685648 0.032697953 0.020672265 0.009670522
0000c0 fd 75 bc 3c 7b e8 aa bc 8f 31 0a 3b c5 4a 86 3a
       0.02300548 -0.020862808 0.0021086668 0.0010245672
0000d0 1b b6 60 3b b5 d9 d5 3b 7a 4f 2c bc 98 fe d6 bc
       0.003428823 0.006526197 -0.010516996 -0.026244447
0000e0 89 af ac bc 5e 07 02 bc f8 37 cc ba 09 8b 34 3d
       -0.021079795 -0.007936327 -0.0015580645 0.044077907
0000f0 d2 93 f3 3c 6d 11 de 3c 38 88 bd bc cd 7c 4e 3d
       0.029733572 0.027107919 -0.023136243 0.050411988

emb_module.shallownet.2.norm.weight f4 [64]
000000 26 61 86 3f bb 21 87 3f 93 13 84 3f 1a d2 8f 3f
       1.0498397 1.0557169 1.0318474 1.1235993
000010 68 83 86 3f aa 41 86 3f cb 52 7b 3f e3 53 87 3f
       1.0508852 1.0488789 0.9817321 1.0572475
000020 3c 31 85 3f 42 ec 84 3f 1e 91 82 3f 9a 7c 84 3f
       1.040565 1.03846 1.0200536 1.0350525
000030 80 bb 89 3f f8 e6 84 3f 91 40 89 3f ee b4 89 3f
       1.0760345 1.0382986 1.0722829 1.075834
000040 fc d0 80 3f 36 17 89 3f 38 fb 8a 3f 43 ba 86 3f
       1.0063777 1.0710208 1.0857916 1.0525593
000050 02 f4 88 3f 78 8f 88 3f c8 e6 84 3f 83 db 83 3f
       1.0699465 1.0668783 1.0382929 1.0301365
000060 e7 2b 82 3f 22 f0 87 3f fa e5 8e 3f 81 ee 87 3f
       1.0169648 1.0620158 1.1163933 1.0619661
000070 78 e4 84 3f 62 1c 88 3f d0 5c 87 3f cb 4d 8c 3f
       1.0382223 1.0633662 1.0575199 1.096124
000080 a2 df 88 3f 4b d2 88 3f 1a c6 8b 3f d9 9a 8d 3f
       1.0693247 1.0689176 1.0919831 1.1062881
000090 56 76 83 3f 09 3b 89 3f 38 0a 86 3f f1 6c 84 3f
       1.0270488 1.0721141 1.0471869 1.0345746
0000a0 bb f8 8b 3f ea cf 84 3f c0 bb 81 3f 7a 03 85 3f
       1.0935282 1.037595 1.0135422 1.0391686
0000b0 8b 78 85 3f 63 03 85 3f a2 3b 80 3f 54 76 88 3f
       1.0427412 1.0391659 1.0018198 1.0661111
0000c0 5e 69 86 3f ec ad 90 3f b3 97 85 3f c2 b5 86 3f
       1.0500906 1.1303077 1.043692 1.0524218
0000d0 9a 5b 8c 3f fe 23 87 3f a8 eb 83 3f fa 9c 89 3f
       1.0965455 1.0557859 1.0306292 1.075103
0000e0 a7 50 87 3f 94 e7 86 3f 9c 57 81 3f 77 4f 8d 3f
       1.0571488 1.0539422 1.0104861 1.1039876
0000f0 ca 48 86 3f 9a d5 85 3f 9c f8 84 3f 92 e6 89 3f
       1.0490963 1.0455811 1.038837 1.077349

emb_module.shallownet.2.norm.bias f4 [64]
000000 e6 1a 25 be be 41 71 bd 6b ed 04 be 4e 51 dd bd
       -0.16123542 -0.058900587 -0.12981193 -0.10806523
000010 a1 28 32 be 15 25 51 be 35 ff 40 be 4e f5 97 bd
       -0.17398311 -0.20424302 -0.18847354 -0.07419835
000020 30 8e 13 be ca de 2a be a3 41 d0 bd f5 03 a3 bd
       -0.14409709 -0.1668655 -0.10168769 -0.07959739
000030 2a 18 de bd a2 3a f6 bd 4a ce 40 be 56 84 d3 bd
       -0.10844453 -0.12022902 -0.18828693 -0.103279755
000040 bb 19 52 be 70 17 a0 bd ab 72 08 be 5c ea bd bd
       -0.20517628 -0.0781697 -0.13324992 -0.09273216
000050 d2 b2 88 bd 3b 8f b9 bd da 13 ad bd d0 09 fa bd
       -0.06674732 -0.09060522 -0.08451052 -0.12208903
000060 7e db 54 be 2d 5f 32 be 1a a2 23 be 6a f6 59 bd
       -0.20786855 -0.17419119 -0.15979806 -0.053213514
000070 48 fb 18 be b8 f3 e5 bd fe a9 0d be a6 da 53 be
       -0.14939606 -0.11228126 -0.13834378 -0.20688877
000080 56 e9 db bd ce d4 9b bd 53 94 11 be e3 70 35 be
       -0.10737865 -0.07608949 -0.14216737 -0.17718844
000090 96 1f d9 bd de 6c ce bd 6b a3 ed bd d8 de 15 be
       -0.10601728 -0.100793585 -0.11603435 -0.1463579
0000a0 f2 1b b5 bd 0b cd c5 bd 4d cc 11 be 1d e0 63 be
       -0.08843221 -0.096582495 -0.14238091 -0.22253461
0000b0 5b 7b ce bd fe 66 31 be ba 39 28 be 52 aa 39 be
       -0.10082122 -0.17324445 -0.16428271 -0.18131378
0000c0 07 b7 45 be 7a 93 c7 bd a3 df 01 be 02 31 1b be
       -0.193081 -0.09744926 -0.12682967 -0.15155414
0000d0 82 2e 07 be be c2 ef bd 9b 7f 21 be 2a 09 d8 bd
       -0.13201335 -0.11707066 -0.15771334 -0.10548623
0000e0 73 26 14 be 2f 1a 37 be 83 9a f4 bd 71 33 c4 bd
       -0.14467792 -0.17881082 -0.11943533 -0.09580124
0000f0 0e dc 01 be 1a 67 2b be 27 ec 28 be 4d 94 99 bd
       -0.126816 -0.16738549 -0.16496335 -0.07498989

emb_module.shallownet.2.norm.running_mean f4 [64]
000000 4e a9 d3 be fe 2a 15 be cd 6c ee be 45 d8 ec 3e
       -0.41340107 -0.14567181 -0.46567383 0.4625875
000010 33 19 00 3f 6c e8 b0 3e d8 49 91 be 5a d7 1e bf
       0.5003845 0.34552324 -0.2837665 -0.6204735
000020 b8 ef e8 3c 56 d5 47 3f 2f 7c 8f bd 16 71 6e 3e
       0.02843462 0.780599 -0.07006108 0.23285326
000030 fa ff ba bd 48 f2 d9 3d a8 26 cf 3e 02 5a a7 3d
       -0.09130855 0.106419146 0.4045918 0.081714645
000040 62 9b 4d be 3a 0e ff 3d d6 91 24 3d f3 7a f5 be
       -0.20078805 0.124538854 0.040178142 -0.47945365
000050 e6 f2 6c 3e 39 b7 1f 3c 22 15 d4 3d 0f 85 26 be
       0.23139533 0.0097482735 0.10355593 -0.16261695
000060 4d 4f 34 3f 54 e9 aa 3d 3e 40 ac 3b fc 1c be bd
       0.70433503 0.08345285 0.0052566817 -0.09282872
000070 92 a3 dc bd 80 f7 d3 bd 1a 07 5d 3d 1a ca a9 3d
       -0.10773386 -0.10349941 0.05396185 0.08290501
000080 db 56 6b 3e 70 78 0b bf 8a 74 d8 3e 2c bb 86 3e
       0.22982351 -0.5448065 0.42276412 0.26314676
000090 83 0b f4 3d 80 51 57 3e 54 dc 39 3f e6 04 88 bb
       0.11916258 0.21027184 0.7260182 -0.0041509746
0000a0 21 a4 06 3e f3 68 88 be 40 e5 69 3e f6 8b e6 3d
       0.13148548 -0.2664257 0.22841358 0.11257164
0000b0 c7 d5 90 3e 2d e9 62 3d 84 e9 8a be be 36 f0 be
       0.282881 0.055398155 -0.27131283 -0.46916765
0000c0 22 f4 07 be 06 1e c7 be 52 57 17 3f c6 e5 3f 3e
       -0.13276723 -0.38890094 0.59117615 0.18739995
0000d0 b8 fa de 3e b3 ce 7a 3f 95 db 4f 3e 7e 11 cc be
       0.43550658 0.9797165 0.20298608 -0.39857095
0000e0 17 bb 86 bd 2a 74 be 3e 83 d5 23 bf 08 fd b7 3e
       -0.06578653 0.37198 -0.6399767 0.35935235
0000f0 2a 75 68 be fe 9e 8c bd 1d 63 06 bd 9e 9f b7 3e
       -0.22700945 -0.06866263 -0.032809366 0.35863966

emb_module.shallownet.2.norm.running_var f4 [64]
000000 96 2d 69 41 3d 2a 7d 41 9d 96 7c 41 16 07 55 41
       14.573629 15.822812 15.786771 13.31423
000010 d6 c0 75 41 0a 26 eb 41 e8 46 34 41 c0 9d 5a 41
       15.359579 29.393574 11.267311 13.663513
000020 f3 37 80 41 68 46 83 41 14 96 89 41 35 50 17 41
       16.027319 16.409378 17.19828 9.457082
000030 f2 f4 6c 41 42 7a 75 41 35 3e f3 41 11 6b 8d 40
       14.809801 15.342348 30.405375 4.4193196
000040 16 7b 0b 42 ee 0d a9 40 f4 48 15 41 28 ae 5f 41
       34.8702 5.2829504 9.330311 13.980019
000050 d5 08 23 41 88 65 7e 41 e6 92 1f 41 9a 70 fd 40
       10.189656 15.899788 9.973364 7.9199953
000060 2b eb 14 42 fb 30 76 41 3b b3 62 40 d8 34 fb 40
       37.229656 15.386958 3.5421894 7.8502007
000070 d3 b5 b2 41 d6 c5 b1 40 fd c1 e2 40 50 7e 35 41
       22.338781 5.5554 7.08618 11.343338
000080 c8 77 d9 40 22 8f f0 40 34 0a 2b 41 95 f4 73 41
       6.7958717 7.5174723 10.689991 15.247212
000090 b2 2e 69 41 58 90 06 41 76 86 c8 41 f6 54 9f 41
       14.5739 8.41024 25.065655 19.916485
0000a0 4c 8e 2e 41 fd d0 48 41 3e c3 78 41 ed db 51 41
       10.90974 12.551023 15.547667 13.116193
0000b0 7c eb 99 41 3e 05 bb 40 18 a4 58 41 0c e3 39 41
       19.239983 5.84439 13.540062 11.617931
0000c0 f6 bb db 40 8b c3 75 41 2d 4f 4a 41 c2 0a a7 41
       6.8666945 15.36024 12.64433 20.880253
0000d0 84 f8 90 41 50 1d ff 41 a8 2b b4 41 ee 0e dd 41
       18.121346 31.889313 22.521317 27.63229
0000e0 eb cf e8 41 11 97 0c 42 42 c9 98 41 95 80 2b 40
       29.101522 35.147526 19.09827 2.679723
0000f0 03 ac 0f 41 49 4a 05 41 ab 0a fb 40 16 32 0f 41
       8.979495 8.330636 7.8450522 8.949728

emb_module.projection.conv.weight f4 [64, 64, 1, 1]
000000 c6 02 e4 bd 39 38 a6 bd a2 c8 fc bd 79 fc 89 3d
       -0.111333415 -0.08116192 -0.12342955 0.067376085
000010 16 7e 43 be 68 75 f5 3c d5 92 aa 3d 0e 6b 30 3d
       -0.19091067 0.02996321 0.08328787 0.043070845
000020 05 29 f4 3d 8a ce 9e ba e3 bb a6 3d 49 4f c5 3a
       0.11921886 -0.0012115997 0.08141305 0.0015053536
000030 e4 62 b9 bd 18 0a b7 bb 7a b8 12 bd 7c 27 47 bc
       -0.09052065 -0.00558592 -0.03582046 -0.01215541
000040 3e 8a 05 be ba 4a 6f bd fc 81 80 bd ac 22 0b 3c
       -0.13041016 -0.058420874 -0.062747926 0.008492153
000050 9c 30 4b bd c3 09 87 bd b2 16 1f bd 84 33 86 3d
       -0.049606904 -0.06593659 -0.038840003 0.065527946
000060 55 77 c2 bd 4e ac 91 bd 80 39 63 3d 72 b7 73 3d
       -0.09495417 -0.07112943 0.05547476 0.05950112
000070 d3 64 c1 bd 8b 49 22 be f6 9c 89 3d 78 a4 5a be
       -0.09443059 -0.15848367 0.06719391 -0.21351802
000080 42 cd 46 bd 6a 98 29 bc 2a 5d d1 bd ee fd 42 bd
       -0.048535593 -0.01035128 -0.10222848 -0.047605447
000090 57 4d 0d 3d 3d 75 ce bd 9a 86 f9 bc a0 33 da 3d
       0.034497585 -0.10080955 -0.03045969 0.10654378
0000a0 fa 6a 0c 3e 84 ef 3f 3d 86 f8 fc 3c 4e d7 00 be
       0.13712683 0.04685928 0.030880224 -0.12582132
0000b0 cb 0b f6 bc 1c 3e 38 3e c5 0b bd 3d 2c 48 87 bd
       -0.03003492 0.17992443 0.092307605 -0.066055626
0000c0 c6 49 0a 3d e5 b8 4d 3d fa 7e 0e bd 6b 98 f6 3a
       0.033761762 0.050225157 -0.034789063 0.0018813735
0000d0 2a 65 ef bc e3 7e 83 3d 77 2d 22 3d 6e 2a 89 3d
       -0.029223043 0.06420686 0.03959414 0.06697546
0000e0 c3 93 4a 3e c2 8d 10 3c 08 30 b9 3c 82 8c dd bd
       0.19782929 0.00882286 0.02260591 -0.10817815
0000f0 f2 85 9d 3d 38 eb 0c 3e 3c ef a0 bd da 8a df bb
       0.07691564 0.13761604 -0.0785813 -0.0068219723
000100 0e 5a 56 3d ea 7c bb 3d e0 d0 3d be ae 80 95 bd
       0.052331977 0.09154685 -0.1853671 -0.07299934
000110 e0 28 75 be e8 56 49 3d cd 28 b6 37 5b 68 71 3c
       -0.23941374 0.049155146 2.171509e-05 0.014734353
000120 da 62 22 3d 5d 07 d9 bd 38 5a ca bd a9 97 a8 3d
       0.039645053 -0.105971076 -0.09880489 0.08232052
000130 55 85 32 bd 42 46 3c 3d 25 cd 79 3b 8a f6 93 bd
       -0.043584187 0.04596544 0.003811666 -0.07224758
000140 02 07 11 be 72 6a ce 3d 80 1e 15 3e 0c 1c 06 bd
       -0.1416283 0.100788966 0.14562416 -0.03274159
000150 6d c8 24 3e b3 90 f0 bc e8 7e 76 3d f9 b2 9e 3d
       0.16092081 -0.029365873 0.06017962 0.0774898
000160 fd fe 63 bd e6 8a 88 3d ea c8 f0 3d 53 0f af 3d
       -0.055663098 0.06667118 0.11757071 0.08547845
000170 26 77 28 be 72 b3 da 3d e7 ba 95 bd 24 e9 07 be
       -0.16451702 0.10678758 -0.073110394 -0.1327253
000180 b2 29 95 3c e4 5c 94 bd f5 58 d6 bd 9a 3b 52 be
       0.018208358 -0.0724428 -0.10466186 -0.20530549
000190 2b a6 f2 3c 1b 7b b1 3d e3 72 af bd f2 97 c3 3d
       0.02962025 0.08666059 -0.08566835 0.09550466
0001a0 7a 7a 13 be 72 c8 b0 3d f8 83 c5 bc ac a9 17 3e
       -0.1440219 0.08631982 -0.02411078 0.14810818
0001b0 e5 24 d7 bd 86 6d 6f 3d 66 7f 26 3e b8 0f 66 bc
       -0.10505084 0.05845406 0.16259536 -0.014041834
0001c0 ae 1d 0c 3d a0 65 de 3d 70 ea 22 be 35 e6 04 be
       0.034207992 0.10859227 -0.15909743 -0.12978442
0001d0 c0 24 cf bd 0a 4a b4 bd 6b da d2 3c 59 c9 ad bc
       -0.101144314 -0.08803184 0.025738915 -0.021214174
0001e0 65 2e b7 3d ed 59 73 be ab db 5d bc c8 f5 03 3d
       0.08944396 -0.23764773 -0.013541142 0.032216817
0001f0 78 83 ff bd b8 9d 5c bc ab f1 6d 3e c6 96 f6 bd
       -0.124762475 -0.013465337 0.2323672 -0.120404765
000200 ca e2 5d bd 31 df 25 3d 7e 0d ae bc 53 5c 66 3d
       -0.05417136 0.040496055 -0.021246668 0.05624039
000210 68 20 03 be 5d ec 95 3d 0e b4 93 bd f9 e2 2c be
       -0.12805331 0.07320473 -0.07212077 -0.16883458
000220 f9 25 08 be 0b 24 8a bd 64 8b b9 bc ff c2 a5 bb
       -0.13295735 -0.06745156 -0.022649474 -0.0050586457
000230 e3 55 c2 3d d8 d1 b8 bd c4 ee 14 3e 3d 67 6a 3e
       0.09489038 -0.090243995 0.14544207 0.22890945
000240 f3 aa b1 3c 2a b7 2a 3e 0f 28 15 bd 00 90 ba bd
       0.02168796 0.16671434 -0.036415156 -0.09109497
000250 ee 65 17 be fa 20 0c 3d a8 d0 c8 3d 17 cc 8a 3d
       -0.14784977 0.034211136 0.09805423 0.06777208
000260 34 99 96 bd 5e 9f 9a 3d 5e f4 fe bd b5 2b d6 3d
       -0.0735344 0.07549928 -0.12448953 0.10457555
000270 ce e5 a1 3d ad 6f 30 be 02 62 09 3e 7a 27 c3 3d
       0.0790516 -0.17230101 0.13416293 0.09529014
000280 82 65 f3 3b 62 05 17 be f8 ef e9 bd 36 ef ca 3d
       0.007427872 -0.14748147 -0.114227235 0.09908907
000290 76 ba 98 bd 06 16 7f bd d0 56 b3 bd 8b ee 19 be
       -0.074574396 -0.062276863 -0.087567925 -0.15032403
0002a0 7d 46 e8 bc 36 72 dd 3c 49 9e 20 be 7b d1 82 3a
       -0.028353924 0.027032 -0.15685381 0.0009980643
0002b0 42 df 39 be fd 87 e2 3d fe 10 28 bc 22 20 10 3e
       -0.18151572 0.11061094 -0.0102579575 0.14074758
0002c0 ba ae c0 3d 7c b6 99 3c 2b 83 fe bd f2 ae 8a bd
       0.094083264 0.018763773 -0.12427362 -0.067716494
0002d0 c2 f1 04 bd 56 58 d2 bb 6a c9 05 3e 90 af 21 bd
       -0.03245712 -0.006419222 0.13065115 -0.03947407
0002e0 0e cb 0b be 0b a3 cd 3c 3d f3 f3 bd a8 2e fa bd
       -0.13651678 0.025102159 -0.119116284 -0.1221593
0002f0 a8 ef b9 bd 49 2e 2d bd 90 86 7a bd 70 46 b3 3d
       -0.09078914 -0.04228047 -0.061163485 0.08753669
000300 34 75 22 be 16 a5 05 be 18 33 e2 3d 36 4c 2c 3e
       -0.15865022 -0.13051257 0.110449016 0.16825947
000310 cd db d3 3d 41 5a 1b 3e 36 b7 2a 3d cf 0d ba bc
       0.10344658 0.15171148 0.04167863 -0.022711663
000320 c2 a5 33 3e 4f 87 12 3e 5a 99 99 bd 65 74 e2 bd
       0.175437 0.14309429 -0.074999526 -0.11057357
000330 9e 9e c6 bd d5 06 8d 3d 2d d9 f6 bd d0 42 58 bd
       -0.096982226 0.06886069 -0.12053142 -0.052798092
000340 0a 60 bb 3c f0 eb fb bd a6 9b da 3d 6b 26 db bd
       0.022872943 -0.12300861 0.10674219 -0.10700687
000350 92 75 91 bd e2 5c 07 be c3 71 64 3d fa e3 b0 3d
       -0.07102503 -0.13219026 0.055772554 0.08637233
000360 28 b9 bc 3d ad 0b 7c be 38 ad f2 3d c6 de 13 be
       0.09215003 -0.24613829 0.11849445 -0.1444045
000370 38 7f e9 3c 9a 0a fb 3b 70 f7 b4 bb fc f7 8d be
       0.028503045 0.007661176 -0.005522661 -0.2772826
000380 22 eb 44 3d 4d 63 61 bd b3 f3 c4 bd b1 a6 13 be
       0.048075803 -0.05502634 -0.096167944 -0.14419056
000390 9b 08 03 be c2 6e 32 be 6a 39 2c 3e 4a 3a 4c bd
       -0.12796251 -0.17425063 0.16818777 -0.049860276
0003a0 5c 38 84 bd a2 58 22 be 63 0f 00 3e ae 40 01 bd
       -0.06456062 -0.15854123 0.1250587 -0.031555824
0003b0 92 53 0a bc df f3 4a bd d2 de e5 bd b0 5b 01 bc
       -0.008442776 -0.04954898 -0.1122414 -0.007895395
0003c0 ac 8f 89 bc 65 97 ca bd 4b 5a 5f 3d 86 8c 50 3e
       -0.01679214 -0.098921575 0.05452947 0.20366105
0003d0 ae b0 f9 3d f6 ee bb 3d a7 5d c1 3c 9a 18 dd bd
       0.12191902 0.091764376 0.023604227 -0.10795708
0003e0 e4 6d 38 3d ec 00 1d 3d 26 16 4a bd e9 24 8b 3c
       0.045026675 0.038330957 -0.04933753 0.016985374
0003f0 17 0a 18 be 4a e6 dc bd 6b 50 91 bd 70 f1 de 3d
       -0.14847599 -0.10786112 -0.07095417 0.10885894

emb_module.projection.conv.bias f4 [64]
000000 a0 8a 22 bd ba af 31 bd 61 49 42 3d 21 67 b9 bc
       -0.039682984 -0.043380477 0.04743326 -0.022632184
000010 7a 92 c9 3d b8 d0 d5 bd b3 c1 6c bd c6 96 1c 3e
       0.09842391 -0.104402006 -0.057801913 0.1529189
000020 43 6c d1 3d 68 2b 07 3e ea 3b fd bd 9f 81 c4 bb
       0.102257274 0.13200152 -0.12364943 -0.0059968974
000030 05 d3 f9 3d 1f b1 2b 3c f7 82 bc bb b3 3d 12 be
       0.12198452 0.010479241 -0.005752917 -0.14281349
000040 51 83 ac 3d 89 3f ad 3d c3 90 6f 3d 4c ba c7 3d
       0.08423484 0.08459384 0.058487665 0.0975233
000050 f2 38 c2 bd 76 95 3b bb e5 0c 5a 3d fb 7e 9e 3d
       -0.09483518 -0.0028623021 0.053234953 0.07739063
000060 fe 1b ce bc be 44 ef bd cc b0 b8 bd 31 97 25 bd
       -0.025159832 -0.116830334 -0.09018096 -0.04042739
000070 7a 80 cd bc e9 02 45 3d 47 74 3f 3c d2 66 26 3d
       -0.025085676 0.04809848 0.0116854375 0.0406254
000080 e0 b9 d4 3d 2a 27 57 3d 7d 03 e7 3d c2 03 8e 3d
       0.10387015 0.052527584 0.11279962 0.069343105
000090 db b5 7b 3d ed 27 07 be dc a1 85 3d c7 a0 1a bd
       0.061452728 -0.13198824 0.06525013 -0.037750985
0000a0 39 a2 a0 3d 13 c7 f9 bd ce 70 a8 3d fe 01 c0 3d
       0.078434415 -0.121961735 0.08224641 0.0937538
0000b0 06 75 62 bc c6 16 29 3c 13 05 e4 3c 1a 92 c6 3c
       -0.013821846 0.010320371 0.02783445 0.024239589
0000c0 a6 be f9 bd 0d 1b e3 3d 22 29 88 bb 5a 8b 8b 3d
       -0.121945664 0.11089144 -0.004155294 0.068136886
0000d0 34 02 a2 3b 5b 91 15 bc 22 86 d9 bd 1a 98 02 3d
       0.0049441103 -0.009128894 -0.10621287 0.031883337
0000e0 ea ab a9 bd 16 2e da bd c3 59 a4 bc 7f 22 06 3e
       -0.08284743 -0.106533214 -0.020062333 0.13099097
0000f0 32 9e 43 bd 9e 36 13 bd 30 15 c7 3d 0b 72 23 3d
       -0.04775829 -0.03594076 0.09720838 0.03990368

VanillaLSTM.rnn.weight_ih_l0 f4 [256, 64]
000000 5a 34 0f 3e eb 19 2f be 7a f0 61 be 36 31 11 be
       0.13984814 -0.1709973 -0.22064391 -0.14178929
000010 65 88 48 3e 03 05 42 3e 9b 96 d0 bd ee 4d ad 3d
       0.1958328 0.18947224 -0.10184976 0.084621295
000020 b6 2b f7 bd 90 a1 58 3d 26 d1 93 bb f6 0c bb bd
       -0.12068884 0.052888453 -0.0045110164 -0.091333315
000030 d3 6b 33 be b6 cc 41 3d 4c d6 c4 3d db 72 7d bc
       -0.175216 0.04731437 0.096111864 -0.015469278
000040 d6 1c 9c 3d 8e 9b 1d 3d fe c2 ea bc fd d4 95 bd
       0.076226875 0.038478427 -0.028657433 -0.07316015
000050 8a fc 2a 3e 1e 92 b4 3d be 9f 9c 3e b4 da 09 3e
       0.16697899 0.08816932 0.30590624 0.13462335
000060 e8 6f d9 3b e8 9a 7c be 59 3e 87 3d ba cb c3 b9
       0.0066356547 -0.24668467 0.06603689 -0.00037345086
000070 c0 44 dd 3c 86 5d fe 3d 02 65 b4 3b 2a 31 1e bd
       0.027010322 0.12420182 0.005505205 -0.038621105
000080 b5 b6 dd 3d 2b 52 b6 3d a0 02 6e 3d c7 b1 94 3d
       0.10825864 0.08902391 0.058107972 0.07260471
000090 78 55 8e 3b ad 0a a9 bc 79 a2 a5 3d 22 a3 a2 3d
       0.0043436848 -0.020634973 0.0808763 0.07941271
0000a0 42 81 c3 bd 3e 4b 02 3d 43 ff af bd fb 16 3e be
       -0.09546138 0.031810038 -0.08593609 -0.18563454
0000b0 35 bd 16 3e ab 5a fa 3c 54 75 2e 3e 0f af b0 3e
       0.14720614 0.030560812 0.17036945 0.3450856
0000c0 82 8e bd bc f2 ee 3b 3c 0f c9 46 3e fe d8 b8 3d
       -0.023139242 0.011470543 0.19412635 0.09025763
0000d0 84 a2 06 3e 5d 6c 1c bd fe 94 cf bd aa 50 53 bc
       0.13147932 -0.03818928 -0.1013584 -0.01289765
0000e0 5e fc 60 bc 92 34 da bd 55 8c 67 bd bb f0 05 be
       -0.013732044 -0.10654558 -0.056530315 -0.13080113
0000f0 82 7b 26 bd 13 c4 cc 3d 36 6a 49 3e 64 37 2c 3e
       -0.04064513 0.09998336 0.19669423 0.16818005
000100 32 a2 80 bd 28 26 4f bc 6a d9 07 be 27 0e 2d be
       -0.06280936 -0.0126433745 -0.1326653 -0.1689993
000110 4b 05 d7 3b 35 25 ff bd 00 36 e9 bd 05 1d 16 be
       0.0065619103 -0.124582686 -0.11387253 -0.14659508
000120 7f 77 3c be 7e 5b 21 be 25 8e 56 bd ee 1f 52 3e
       -0.18404959 -0.15757558 -0.052381653 0.20519993
000130 2d 2b 80 be 4a 55 05 3e 7d 23 35 be 8e 3b 77 be
       -0.2503294 0.13020816 -0.17689319 -0.24143812
000140 9b 40 32 3c 42 67 c5 3d 2e fe 99 3d cd 49 44 bc
       0.010879661 0.096388355 0.07519184 -0.011980486
000150 ab b1 49 3e 9b 4b 1b 3e 4e 32 7b bc 6d 0c 90 3d
       0.19696681 0.1516556 -0.015331818 0.0703362
000160 ee c4 36 bd 68 9d 94 3d ca d0 97 3e 46 cb c7 3d
       -0.0446214 0.07256585 0.2965148 0.09755568
000170 8d e8 85 3c 64 e1 3e be 4a 97 d0 bd d8 db 93 3d
       0.01634624 -0.18640667 -0.10185106 0.07219666
000180 0e 5f 9a be 01 e3 0d be b5 0c 04 3d 42 b8 02 3d
       -0.30150646 -0.13856126 0.03223868 0.031914003
000190 bb 18 7e bd e5 70 65 bc ba b3 7b be e6 d2 54 bd
       -0.062035304 -0.014003967 -0.24580279 -0.05195894
0001a0 68 a0 90 bd 3e a6 1d be f0 89 34 bd ee 52 46 3b
       -0.07061845 -0.15395448 -0.04407686 0.0030261832
0001b0 ba f3 b3 bd fd f7 5c 3e 32 40 59 3e c6 59 0b 3e
       -0.087867215 0.21578975 0.21215895 0.13608465
0001c0 32 37 81 be b5 eb a9 bd d6 b0 0d 3e c5 74 f6 bd
       -0.25237423 -0.08296911 0.13836989 -0.12033991
0001d0 e3 3f 71 3d f2 ac d0 3d 12 45 93 3e 3d 18 db 3d
       0.058898818 0.10189237 0.28763634 0.106979825
0001e0 23 6c 17 bc cc 95 09 3e 1e 37 f8 bd 2b 9b df 3d
       -0.00924209 0.13436049 -0.12119888 0.10918268
0001f0 37 5e 09 be de 56 9f 3d db 0c 96 bd 99 7e b3 bd
       -0.13414846 0.077802405 -0.07326671 -0.08764381
000200 a2 60 2b bd 92 74 3e be bf e6 bb be e1 24 c8 3d
       -0.041840203 -0.18599156 -0.36699483 0.09772659
000210 20 b5 13 3e 50 ed 1a 3e c6 a0 0e 3e 37 d3 97 3d
       0.14424562 0.1512959 0.13928518 0.07413333
000220 45 b1 d4 bd 9d 46 10 3c aa d8 ff bd 7b e5 53 3e
       -0.10385374 0.008805898 -0.12492497 0.20693009
000230 4a 16 92 3c cb 98 ff 3c f9 6d 26 be a3 01 21 3e
       0.017832894 0.031200787 -0.16252889 0.1572328
000240 1a d4 36 3d e2 38 41 3c 06 4d ab bc c5 f4 e0 bd
       0.04463587 0.011793347 -0.020910751 -0.10984186
000250 34 49 36 be 25 75 11 be 47 26 26 3e 70 61 95 3d
       -0.17801362 -0.14204843 0.16225539 0.07293975
000260 bd a1 a4 3d d3 7e f6 bd be 6f a3 3d 6a ee 31 3e
       0.08038662 -0.120359086 0.079802975 0.17376104
000270 33 0f ae 3d 26 b7 4a 3e 39 e9 2a bd 14 41 15 bd
       0.08498993 0.19796428 -0.041726325 -0.036439016
000280 07 b8 b9 3d 40 15 ee 3d fe 6d de bd bb ce ce 3c
       0.090683036 0.11625147 -0.10860823 0.025245061
000290 90 4f 6c bc 47 2e 84 3d 0d 27 8c bd 2d 0a 73 bc
       -0.014423266 0.06454139 -0.06843386 -0.014833969
0002a0 38 2b d9 bc 64 09 03 be 4e 3f 08 3e 7e 76 20 be
       -0.026509866 -0.12796551 0.13305399 -0.15670201
0002b0 8b 6c 21 bd 38 f1 c3 bd d6 35 06 3e 4a 68 3c 3e
       -0.039410155 -0.09567493 0.13106474 0.18399158
0002c0 ad 92 01 3d 7e d8 8e 3e bb 68 70 bd 8b 1e 95 3e
       0.03163402 0.27899545 -0.05869363 0.29124865
0002d0 8d 36 b8 3d 26 ec b5 3d 33 19 f1 bd ec 8f 9e 3b
       0.0899478 0.08882932 -0.117723845 0.004838934
0002e0 50 89 8d 3d 9a e4 3e 3e f6 e6 c7 bb 4c e0 2b be
       0.06910956 0.18641892 -0.0061005307 -0.16784781
0002f0 7b 1d 62 3d 5a 38 8b ba bd 67 cf 3d 61 75 a4 bd
       0.055203896 -0.0010621652 0.101272084 -0.08030201
000300 86 f2 62 bc cd 66 57 bc e5 cb 53 be 1a 9b 5a be
       -0.013851767 -0.013147068 -0.20683248 -0.21348229
000310 62 03 65 3d 12 b3 3b bb 2d 5e 9c bd ed 43 5c bd
       0.05591143 -0.002864067 -0.0763515 -0.053775717
000320 76 89 7e be 6d 4c 0b 3e 75 88 3b be 74 dd c2 bd
       -0.24857125 0.13603373 -0.18313773 -0.09514895
000330 ea 01 bd 3d ff 9f 9c bc a0 95 9e bc b6 5e 3c 3e
       0.09228881 -0.01911926 -0.019358456 0.18395504
000340 dd a5 49 3c aa a0 a7 3d 99 82 bc 3c 00 7f ca bd
       0.012307611 0.08184941 0.023011493 -0.098875046
000350 ef 49 ba 3d 9e 82 b9 3d 26 e9 f0 3d 40 85 25 3e
       0.09096133 0.090581164 0.117632195 0.16164112
000360 32 65 19 3c 98 35 7b be 83 3a ba 3c 57 29 09 3e
       0.009362506 -0.24532163 0.022732979 0.13394676
000370 52 eb 2a 3e ce 6d a2 bc 98 b0 f2 3d 6e 19 a9 bd
       0.1669133 -0.01982775 0.11850089 -0.082568035
000380 d4 3f 01 3e a2 45 19 3e 82 c4 77 3d 2e fb b6 3c
       0.12622005 0.14967969 0.06049014 0.022336569
000390 16 05 2c bd a2 18 45 bd 4a 6a 5f 3d a6 57 37 3e
       -0.041997038 -0.048119195 0.054544725 0.17904529
0003a0 9f 54 47 3d 5b a3 85 3b 30 4a b5 bd 83 75 ce 3d
       0.048664685 0.0040783114 -0.08852041 0.10081007
0003b0 9b 19 95 3d b8 a8 01 be 48 d8 a2 bd 4c dc 82 3c
       0.072802745 -0.12662017 -0.079514086 0.015974186
0003c0 83 e0 78 3e 9b c1 88 3d f5 a8 41 3e c2 3e 51 bd
       0.24304394 0.06677552 0.18912108 -0.05108524
0003d0 06 1c 0f 3c be 33 40 3e 7d 64 48 3e fb dd e7 bd
       0.008734709 0.18769738 0.19569583 -0.11321636
0003e0 09 f5 00 bd f7 06 a5 bd 6e b7 4e be 2e 91 93 bd
       -0.031483684 -0.08057969 -0.2018716 -0.07205425
0003f0 ed 87 da 3d d8 db 3a bd bf 05 c3 3d 9d 26 56 be
       0.10670457 -0.045619816 0.0952258 -0.20913167

VanillaLSTM.rnn.weight_hh_l0 f4 [256, 64]
000000 7a ad 65 3c 69 78 03 be f0 b0 1b bc b9 9b 06 be
       0.014018411 -0.12838902 -0.009502634 -0.13145341
000010 be f2 15 3e 02 d9 0f be a1 53 4c be 1c 1c c0 bd
       0.1464338 -0.14047626 -0.19953777 -0.093803614
000020 cd e4 ff bd 76 ed 15 be 55 5a 0a 3d ca c6 80 be
       -0.12494812 -0.14641365 0.033777554 -0.25151664
000030 7f 9d 13 be 5e 13 5d 3d ab ce 3d 3e 4e 07 22 be
       -0.14415549 0.053973548 0.18535869 -0.15823099
000040 d5 1c 9a 3d 74 0e 90 bd 2a 91 fa 3d c5 32 58 3e
       0.075250305 -0.07034007 0.12234719 0.21113117
000050 19 39 10 be a1 f5 47 bd fa 0a d9 bd ed 80 b0 bd
       -0.14084281 -0.048818234 -0.10597797 -0.08618341
000060 f7 de bb bd 2e 0f 00 3d da 1e a3 be 1b 78 84 3d
       -0.091733865 0.031264476 -0.31859475 0.06468221
000070 f5 c5 c9 ba db c3 7a bb a5 de ea bd a1 4e 8e bc
       -0.0015394079 -0.0038263712 -0.11468247 -0.017371478
000080 83 e1 72 3e 62 74 07 3d 12 f9 dc bd b5 28 66 3d
       0.23718838 0.033069976 -0.10789694 0.056191165
000090 00 ea 66 3c 95 a7 ce bd 1e d4 8e 3c 7c ed 43 3d
       0.014093876 -0.100905575 0.01743513 0.047833905
0000a0 10 46 f9 3b ee 4d 82 bd 80 59 94 bc 66 74 20 be
       0.007607229 -0.0636252 -0.018109083 -0.15669402
0000b0 1c 75 0e be 5d b9 4b 3c aa fc 9a 3d 59 56 37 bd
       -0.13911861 0.012434331 0.07567723 -0.044760082
0000c0 a9 bb b4 3d dd f7 5d 3d 5a cd 6a be 26 f1 8f bd
       0.08824856 0.05419146 -0.22929898 -0.07028417
0000d0 6b 10 52 bc f3 40 40 be 03 e6 4d bd 1b 7a 9b 3c
       -0.012821297 -0.18774776 -0.050268184 0.018979123
0000e0 6d 75 ed bd 03 f6 14 3e 8b 22 c0 3b 6f 0e 8f 3b
       -0.11594663 0.14546971 0.005863493 0.0043657343
0000f0 0b 40 db 3d 2d 6d 57 be c1 69 a1 3d 81 9e 3c bd
       0.107055746 -0.21037741 0.07881499 -0.0460496
000100 25 80 f1 3d 0d c9 f5 bd eb 05 57 3d 65 52 68 be
       0.1179202 -0.12001238 0.05249588 -0.22687681
000110 7a 08 23 bd 3a ff 0d be 1e 08 f7 bb 0b 28 84 bd
       -0.039803006 -0.13866892 -0.0075388094 -0.0645295
000120 a2 bf 0e 3d 6e 59 e2 3c 6f 9a 4c 3e 76 82 0b 3e
       0.034850724 0.027630534 0.19980787 0.13623986
000130 ee 64 09 3e ea ee 91 bc ce 41 83 3d 09 9e 81 3d
       0.13417408 -0.017814118 0.064090356 0.06328971
000140 1a bb 85 3d f3 65 4d be 8d c5 b4 bc ca 16 93 bd
       0.065298274 -0.20058422 -0.022066856 -0.07182081
000150 60 14 3b 3e fb c9 26 bd eb 5f 7e be e1 36 3e be
       0.18269491 -0.040719967 -0.24841277 -0.18575622
000160 66 ed 15 be 62 86 8f be db 0a f9 bd 45 cc a1 3d
       -0.14641342 -0.28032213 -0.12160274 0.079002894
000170 ce cb 6f bd a3 d1 f2 bd 47 9a 96 3c 30 79 71 3a
       -0.058543973 -0.11856391 0.018384112 0.0009211479
000180 46 13 f4 bd cd ab e8 3c 88 a1 29 bd ef 4a 1d 3d
       -0.119177386 0.028402233 -0.041413814 0.03840154
000190 a6 6d 0d 3c ba 2d 28 3c 7e 3e 0e 3e 46 24 0f 3e
       0.008632099 0.010264808 0.13891026 0.13978681
0001a0 9e b7 0c be 62 42 99 3c a8 4f 4f bb ea d8 1b 3d
       -0.1374192 0.018708412 -0.0031633172 0.038048662
0001b0 0e 44 5d be c3 e1 ce 3e fe 16 10 bd 10 25 f7 bd
       -0.21607992 0.40406618 -0.035178177 -0.12067616
0001c0 26 31 8c 3e 46 7e c0 bd d5 ef 81 bd de 83 ea bd
       0.27381247 -0.09399085 -0.063445725 -0.11450933
0001d0 16 0a 16 3d 65 6e d4 3d 02 4f 76 be 0a 01 0d bd
       0.036630712 0.103726186 -0.24053577 -0.03442482
0001e0 7a 57 0c 3d 9d 2a 18 be b4 bd 00 3e da 97 c3 be
       0.03426311 -0.14860006 0.12572366 -0.3820179
0001f0 be 20 32 3d 34 5d 22 bd 23 8d 0d 3e 96 23 94 bc
       0.043488257 -0.039639667 0.1382337 -0.018083375
000200 62 fd 30 be 2e fa b2 3d 9d c0 1d 3e 9d 69 31 3e
       -0.17284158 0.08739124 0.15405507 0.17325445
000210 36 a5 35 be dd bc 79 be 12 2c 5b 3c da 31 95 bb
       -0.17738804 -0.24388452 0.013377206 -0.004553062
000220 61 16 83 bd a8 d5 a4 bd c8 3e 02 be 40 7a c4 3d
       -0.06400753 -0.08048564 -0.12719262 0.0959363
000230 78 cf 19 bd 3a c6 af 3e ce 83 91 3d e6 04 36 3e
       -0.037551373 0.34330922 0.07105218 0.17775306
000240 36 92 dc bc c5 b3 29 be 9e 58 b6 3a 8e f7 b8 bd
       -0.026925188 -0.16572483 0.0013911908 -0.09031592
000250 9a bd d1 3d 5b 3c 2b b9 ca a5 dd 3d 22 29 d9 bc
       0.10241242 -0.00016330315 0.108226374 -0.026508871
000260 ab ba 06 be 0d 24 a8 bd 41 37 c7 3d 54 7d af 3d
       -0.13157146 -0.08210001 0.09727336 0.08568826
000270 0e cf 0b bd b6 0f 60 bd ca 7f d7 bb 00 b1 c1 3d
       -0.03413301 -0.054702483 -0.006576513 0.09457588
000280 63 37 2e 3e f5 86 ff bc 5a b1 d6 bc 9a d7 dd bd
       0.17013316 -0.031192282 -0.026207615 -0.10832138
000290 e6 72 87 3d 0e fd bb bd 8d 74 f1 bc 38 37 d3 bc
       0.06613712 -0.09179126 -0.029474521 -0.025783166
0002a0 0b 45 ac 3d 25 ba e7 bd 9c d0 2f 3d d0 86 eb 3c
       0.084116064 -0.11314801 0.042923555 0.028750807
0002b0 85 e6 66 3e 90 97 61 bd 42 42 85 bd 7d c8 be 3d
       0.22548874 -0.055076182 -0.06506778 0.09315584
0002c0 9b 8d 33 3d 93 4b 7e bd fb 1b 51 3b fc 31 4b be
       0.043836217 -0.062083792 0.0031907547 -0.19843286
0002d0 55 9d f9 3b 16 14 8e bd e6 2e f0 3c 8b 53 0f 3e
       0.0076176324 -0.06937425 0.029319238 0.13996713
0002e0 83 a8 4b 3e e0 b3 9c 3d 35 67 0f be f0 37 65 be
       0.19888501 0.07651496 -0.14004214 -0.2238462
0002f0 e6 de 58 3e 9a 80 1a be df d5 cb 3c 01 5d 8f 3d
       0.21178779 -0.1508812 0.024882255 0.07000161
000300 35 c9 1f 3e fa 06 51 39 fa e8 04 3e 4a b4 f8 bd
       0.15604098 0.00019934392 0.12979499 -0.121437624
000310 0b 6b 0e 3e 6c a4 08 be d7 16 15 bd b2 6f 26 bd
       0.13908021 -0.13343972 -0.036398735 -0.040633865
000320 5b 38 33 be 83 61 8b bd 73 aa 55 bb 02 07 c1 bd
       -0.17501967 -0.06805708 -0.0032602816 -0.09425165
000330 fb 39 05 bd 9c 5f cc 3e e6 c9 65 3c 6e 97 ae 3e
       -0.032525998 0.39916694 0.014025187 0.34099907
000340 a2 d3 bd 3c 4a 63 db 3d d7 e8 86 3e de 9c 51 3d
       0.023172203 0.10712297 0.26349518 0.05117499
000350 90 fb 1d bd db 3b 2f be c2 83 08 bd a0 48 a3 bd
       -0.038569987 -0.17112677 -0.03332878 -0.079728365
000360 d2 4c cd bd 0a 50 1e be f2 0d a6 3d c8 d7 22 3d
       -0.10024418 -0.1546022 0.081081286 0.039756566
000370 6b 47 09 be d5 26 70 3d 58 c2 8b bc 82 3b 9a 3c
       -0.1340615 0.058630783 -0.017060444 0.018827204
000380 56 04 6b 3d c0 d8 7d 3e 40 45 f6 3d 06 85 53 3e
       0.057377182 0.24789715 0.12024927 0.20656213
000390 f0 b6 7d bd ad 98 a7 bd dd 29 9b bc 6f 36 86 3e
       -0.06194204 -0.081834175 -0.01894086 0.26213405
0003a0 83 e9 5f 3d 27 55 02 be be 91 a5 ba 03 30 28 be
       0.054666054 -0.12727796 -0.0012631936 -0.16424565
0003b0 e7 41 24 bd eb ae 5b 3b 87 2c 40 3e 46 53 52 bd
       -0.040101912 0.0033521007 0.18766986 -0.051348947
0003c0 7c e1 30 3e 7b 0e 79 3c 91 b5 41 bc 65 8f 28 3d
       0.17273515 0.015201206 -0.011823074 0.041152377
0003d0 10 bc e4 bc f8 6f f9 bd 8a f5 d6 bd 37 1e 4a 3e
       -0.027921706 -0.121795595 -0.104960516 0.19738089
0003e0 78 2b 0b 3e 58 a3 5d 3d a0 08 dd bc 8f 1e 30 3d
       0.13590801 0.054110855 -0.026981652 0.042997893
0003f0 d9 a0 18 3e 7e e7 ac bd 69 5a 23 3e ae ad a5 be
       0.14905109 -0.08442591 0.15952457 -0.3235907

VanillaLSTM.rnn.bias_ih_l0 f4 [256]
000000 7f ae a5 3d 82 6a 27 3d f7 b7 02 3e 06 c6 ed 3c
       0.08089923 0.04087306 0.1276549 0.029025089
000010 0d 41 63 bd d8 34 3d 3e e7 66 34 bd 75 c3 0a bd
       -0.05548196 0.1847719 -0.044043448 -0.03387781
000020 cb 3b 0f 3e 69 ba 11 bc 53 42 de 3d e6 a3 44 3e
       0.13987653 -0.008894541 0.10852494 0.19203147
000030 7b d4 83 3d 72 bb 09 bc 8d 58 5a 3c 7e e3 94 3e
       0.06437012 -0.008406507 0.013326776 0.29079813
000040 72 c0 ab ba 0f 75 01 bc 36 ca 65 bd 52 62 eb 3d
       -0.0013103618 -0.007901444 -0.056101047 0.114933625
000050 b5 3e 9b 3d 82 27 80 3d 56 5f 4d 3d 83 c0 d2 3d
       0.0758032 0.062575355 0.050139748 0.10290625
000060 46 67 8f 3d 36 7a 4b bd 23 b9 03 3e 3b 68 d5 3d
       0.0700212 -0.049677096 0.12863593 0.10420271
000070 66 d6 d9 3d 06 54 f3 bd 32 c7 69 3e 62 5e b0 bd
       0.106365964 -0.118812606 0.22829893 -0.08611752
000080 2a 7b 06 bd 98 12 99 3d ae f3 ca 3d 05 41 99 3c
       -0.032832302 0.074742496 0.099097595 0.018707762
000090 8d 70 98 3c 47 1f 43 bc 4a 4b 14 3e a6 6f e5 3d
       0.018608356 -0.011909313 0.14481845 0.11202936
0000a0 72 1a 39 3c 52 b4 07 bd a6 83 32 bc 55 60 0c 3e
       0.011297809 -0.03313095 -0.010895645 0.13708623
0000b0 1e b6 e0 3d b6 e1 94 3e bb df 2c 3e 68 5b cd 3c
       0.10972236 0.29078454 0.16882221 0.025068
0000c0 e9 39 ba 3d 56 5a d6 bd de 90 a8 3d 85 a7 77 3d
       0.09093077 -0.10466449 0.08230756 0.060462493
0000d0 4c a5 b1 3d 18 99 eb 3c 6d f6 61 3d 84 2d 44 3d
       0.08674106 0.028759524 0.05516665 0.04789497
0000e0 bc 8b 30 3e 73 bb 59 bd 26 26 bf bd 8e 33 22 3e
       0.17240804 -0.05315728 -0.09333448 0.15839979
0000f0 d6 f5 10 3e 2c e8 8b 3c 2e c2 26 bd 4d 54 70 bd
       0.14156279 0.017078482 -0.040712528 -0.058674145
000100 32 30 c4 3d 8b da 27 3d cd 17 5b 3d 6e 64 21 3e
       0.09579505 0.040979903 0.053489495 0.15760967
000110 ba 02 36 3e 92 9b b7 bc 2d 4d fc 3d b1 d5 4b 3e
       0.17774478 -0.022413049 0.123194076 0.19905736
000120 46 5e ee 3c 02 b1 91 3d 23 12 52 3c 81 42 c7 bd
       0.029097687 0.0711384 0.012821707 -0.097294815
000130 fa f3 d8 3d 5a 24 65 bc aa df ba 3d 90 87 bf 3d
       0.1059341 -0.013985718 0.09124692 0.09352028
000140 71 21 04 3e 4a 09 4b 3e e1 6e 97 3c 82 5b 04 3d
       0.12903382 0.19827762 0.018485488 0.03231383
000150 1a 68 b9 3c 8a 16 64 3d 50 07 9a 3d d3 6d ec 3c
       0.022632647 0.055685557 0.07520926 0.028860962
000160 a6 93 44 3e 42 1d c2 3d fd 17 c1 bc 6e 04 b3 bd
       0.19196948 0.09478237 -0.023571009 -0.08741079
000170 a8 6d 37 3c e7 27 b3 3d 3e e2 bf bd 11 44 80 3d
       0.011195578 0.08747845 -0.09369324 0.06262983
000180 c2 eb 16 3e 0d 0c f3 3d 96 cf 0d 3e 9e 5b de 3d
       0.14738372 0.11867533 0.13848719 0.10857318
000190 28 d9 db 3d a1 ac 27 3e 2d 34 4e bc 8e 5c b9 3d
       0.10734779 0.16374446 -0.012585682 0.090508565
0001a0 da f8 42 3e 44 72 31 bd 46 b9 f3 3d 80 b7 8e 3d
       0.19040242 -0.043321863 0.119005725 0.069685936
0001b0 a6 97 4f 3e eb 62 58 bd 58 9e 7a 3c a2 b0 0e 3e
       0.20272693 -0.05282871 0.015296541 0.13934568
0001c0 37 a9 a4 bb 72 7b 83 3d 16 9a ec bc 92 8a ba 3d
       -0.005025055 0.0642003 -0.028882068 0.091084614
0001d0 75 87 12 3e ea ca 39 3e fd c4 ee 3d 6b 88 67 3c
       0.14309485 0.18143812 0.11658666 0.014131646
0001e0 c0 f3 de 3c 00 91 01 3e 4d ad 32 3d ea 92 36 3d
       0.027215838 0.1265297 0.043622304 0.044573702
0001f0 5a 13 10 3e 80 76 40 bd 80 3e e0 3b 40 93 f6 bc
       0.14069882 -0.04698801 0.006843388 -0.030099511
000200 88 4d 31 bc 4e 45 56 bd fe 9a 5d 3d 78 e1 04 be
       -0.010821708 -0.052312188 0.05410289 -0.12976635
000210 a2 7d ee bc 38 48 c4 bd 70 fb ca bd 12 6a a2 bd
       -0.02911264 -0.09584087 -0.09911239 -0.079303876
000220 c6 ee 95 bd ce 9f 00 3e ee f2 91 3d 2d 18 a3 3c
       -0.07320933 0.1256096 0.07126413 0.019908989
000230 0e 08 77 3d 69 38 47 3d 61 dc b9 3d fc 4a bb 3d
       0.060310416 0.04863778 0.09075237 0.091451615
000240 80 78 6c 3c 3e 54 8e bd d3 64 18 3e de 5b f0 bd
       0.014433026 -0.06949662 0.14882211 -0.11736272
000250 db fa d3 3d 0a 98 a2 3c e6 b1 1d bd 7a a5 dc 3d
       0.10350581 0.019847888 -0.038499735 0.1077375
000260 69 3f aa bc 14 ba bb 3d d8 ed 16 3c 0e 83 16 bc
       -0.02078219 0.09166351 0.00921198 -0.009186519
000270 13 ad 93 bd 1a 5b 25 3d f9 3f 0a bc 3b 67 06 be
       -0.07210746 0.040370084 -0.008438104 -0.13125317
000280 e5 f3 ea 3d 7d 3a 0e 3e 62 49 4a bd 18 e0 60 bd
       0.114723004 0.13889499 -0.04938639 -0.054901212
000290 d5 89 02 3d db 76 17 3d 0b f4 8b 3d 5a e0 3d bc
       0.031869728 0.036978584 0.06833657 -0.011589134
0002a0 bb 3f 8c b9 45 41 92 bd e2 41 2b bc 7e bb e2 bd
       -0.00026750364 -0.071413554 -0.010452719 -0.110709175
0002b0 ab 36 70 bc 0b d2 89 3c fe 63 54 3d 08 a2 ba 3d
       -0.014661471 0.01682379 0.051853172 0.09112936
0002c0 e8 fc fc 3c 10 9c dd 3d c2 45 20 3c 9e da a4 bc
       0.030882314 0.10820782 0.009782257 -0.020123776
0002d0 c0 f6 96 3c c6 1c 00 3e 96 56 bb 3c 35 ae 08 3e
       0.018428206 0.12510976 0.022868436 0.13347705
0002e0 3b c2 f6 bc 22 18 18 3e 8a d7 65 bd 0d 0e 77 bc
       -0.030121913 0.14852956 -0.056113757 -0.015079034
0002f0 d6 d6 16 3e 8e 1b 90 3c 60 e1 f9 3d d5 e4 a8 3c
       0.14730391 0.017591264 0.1220119 0.020616928
000300 68 bc e5 3d c6 a1 d1 3d bc 5d 06 3e 7f 92 34 bc
       0.11217576 0.10235934 0.13121694 -0.0110212555
000310 09 a1 85 3e 46 5e a4 3e 5e 5d 29 3d d6 ba 75 3d
       0.26099423 0.32103175 0.041348808 0.059992634
000320 c0 b7 64 3e 73 ce 08 3e fa 7c 56 3e 4e 5d 7d 3d
       0.2233572 0.13360004 0.20946112 0.06185656
000330 ca 63 78 3e ba 6c b6 3d 9f 6a 20 3e d6 c7 cc 3d
       0.24256817 0.08907457 0.15665673 0.09999053
000340 5e 14 ce 3d ca 70 12 3e 1e 5b 73 3d 40 73 38 3d
       0.100624785 0.14300838 0.059413068 0.045031786
000350 ce 5a e9 3d ce 5e 02 3e 12 42 da 3d f0 e8 40 3e
       0.11394273 0.12731478 0.10657133 0.18838859
000360 56 b7 a0 3d 8b 3f 67 3e 76 14 92 3c 85 fb b3 3e
       0.078474686 0.22582833 0.017832022 0.35152832
000370 f7 92 b1 bc 7e b8 6f 3e c2 ce 84 3e 4a c9 2f 3e
       -0.021676524 0.23410222 0.25938994 0.1716663
000380 56 48 6a 3e ee eb 2b 3e 08 6d 61 3e f4 34 93 3e
       0.22879156 0.16789219 0.22014248 0.28751338
000390 68 a6 1b 3e 9d 45 6a 3d 90 79 70 3d fb 49 e8 3d
       0.15200198 0.057195295 0.05870968 0.11342236
0003a0 72 68 06 3d 0c 56 24 3e 5f d8 19 3e 66 b8 47 3e
       0.03281445 0.1604845 0.15023945 0.19503936
0003b0 a3 2b 7e 3e 4e 72 62 3e 0a 4b 04 3e 5b 34 74 bd
       0.24821334 0.22113916 0.1291925 -0.059620243
0003c0 76 d1 e3 3d 05 9b 0c 3e 1a 12 bd 3d f9 66 18 3e
       0.11123936 0.1373101 0.09231968 0.14883031
0003d0 b5 15 87 3e 15 85 91 bc dd 6f a6 3e 9b 9d 70 3e
       0.2638375 -0.017763654 0.3250722 0.23497622
0003e0 f5 8e 3b 3e 68 36 f0 3d 05 ae 50 3e 56 94 83 3e
       0.18316253 0.11729127 0.20378883 0.2569911
0003f0 50 81 60 3e dc 78 39 3e d0 2b 11 3e a6 e9 0c 3e
       0.21924329 0.1811251 0.1417687 0.13761005
