benchmarks/MOABB/results/MotorImagery/BNCI2014001/LSTMEEG/run1/21209/leave-one-session-out/sub-006/1test/save/CKPT+2024-04-23+01-22-50+01/model.ckpt (torch, 435656 bytes, 15 tensors)

emb_module.shallownet.0.conv.bias f4 [61]
000000 c8 3d 26 3e 16 ce b9 3d 52 a8 81 3d 55 69 f4 bc
       0.16234505 0.09072511 0.06330933 -0.029835382
000010 d1 33 bb bd 8d d0 72 3d af 6c 96 3d f5 b1 9c 3b
       -0.091407426 0.05928092 0.073449485 0.0047819563
000020 5d 2a f2 3b b3 f2 ad 3d 86 05 0d 3d fe 6e 01 3d
       0.007390304 0.08493557 0.034429096 0.03159999
000030 7a 04 0c 3d 22 52 1b be 79 61 c8 ba 09 c1 0d 3d
       0.034183957 -0.1516805 -0.0015287838 0.03460792
000040 1a 06 a2 bd 91 8c 04 bd 10 12 25 3e eb ff d7 3b
       -0.0791132 -0.032360617 0.16120172 0.006591787
000050 0b d3 67 bd 30 1c 9e 3d 6b 59 51 3c bb 0f c1 3b
       -0.05659775 0.0772022 0.012777667 0.005891768
000060 13 b1 dd bd 6c ee 3c 3d 8b 50 e5 bd 2e 82 d9 bc
       -0.1082479 0.046125814 -0.11197003 -0.026551332
000070 02 39 dd bd d8 c7 fe 3d 9a 0c 47 bd 20 0f 66 3c
       -0.10801889 0.12440461 -0.048596002 0.014041692
000080 e6 e7 77 3d 16 0d d0 3d 0e 9f 57 3b 7e 12 88 bd
       0.06052389 0.10158746 0.00329012 -0.06644152
000090 05 87 14 3e c3 f9 ac bb 67 28 c3 bd fd be f4 bb
       0.14504631 -0.0052787974 -0.095291905 -0.0074690566
0000a0 05 f3 ce 3d 5c 07 0c 3d e9 66 c8 bc fa f7 ba bd
       0.10104946 0.034186706 -0.024463134 -0.09129329
0000b0 40 78 5b bd f3 f4 08 3e 1b 3e ca bd 9f 28 13 3e
       -0.053581476 0.1337469 -0.09875127 0.14370964
0000c0 25 57 6f 3e 3e bf 25 bd 7a 00 a6 3d eb b5 f3 bc
       0.23373087 -0.040465586 0.0810556 -0.029749831
0000d0 68 b5 e6 bd b3 d7 50 be 20 9f 15 3e aa 51 39 be
       -0.11265069 -0.20394783 0.14611483 -0.18097559
0000e0 fa d3 da ba b2 38 5f bd 66 fd 02 be 23 84 21 3e
       -0.0016695254 -0.05449743 -0.12791976 0.15773062
0000f0 c6 df d1 bd
       -0.102477595

emb_module.shallownet.1.conv.weight f4 [64, 61, 1, 17]
000000 ea 5c a4 3d 9a d6 7d 3d 46 ef ac bd 4e 12 49 bd
       0.080255345 0.061972238 -0.08444075 -0.049089722
000010 75 04 09 3d 90 99 d5 3d bd 31 78 3d 50 5b 91 bd
       0.033451516 0.1042968 0.06059431 -0.070974946
000020 c2 b1 e6 bd 10 34 d0 bd c8 e1 4c 3d fc 8f 8c bd
       -0.11264373 -0.1016618 0.05002001 -0.068634
000030 aa f2 a2 bd 38 93 fc 3c fa 0d d8 3c 77 ef 49 3b
       -0.07956441 0.030831918 0.026373852 0.0030812898
000040 5d e8 9a 3d b8 b0 55 bd 02 4b 69 3d 63 d6 b2 3d
       0.07563851 -0.052170485 0.0569563 0.08732297
000050 9a a2 14 39 3c e4 ca bd 7b 39 4a bd 18 7b a7 3d
       0.00014174954 -0.099068135 -0.049371224 0.08177775
000060 78 42 95 3d d7 5c bf 3d 56 97 3a 3d 08 70 4d 3b
       0.072880685 0.0934388 0.04555448 0.0031347293
000070 11 24 20 3b f5 a8 52 3d 88 ff 27 3d 0d 4d 92 bd
       0.002443556 0.05143066 0.041015178 -0.071436025
000080 92 fc d8 3b 40 77 3a 3d 13 12 f9 bc 0b 68 8d 3c
       0.0066219056 0.045523882 -0.030404126 0.017261526
000090 6a 2f f9 3b df 9d 08 bd b1 b1 2d bd ba c9 71 bd
       0.007604529 -0.033353683 -0.042405788 -0.059030272
0000a0 e5 67 e8 bb 10 50 f2 39 74 5e b4 3c ab 4b 67 3d
       -0.0070924633 0.00046217488 0.022017695 0.056468647
0000b0 8b 6d 56 bd 2e 19 f2 3b 68 87 ad 3c 32 a3 f0 3c
       -0.052350562 0.0073882556 0.02118273 0.029374693
0000c0 7c 0e a5 bc c4 f3 07 bd 68 2a 68 3d ac ec 1c 3d
       -0.020148508 -0.033191457 0.056681067 0.038311645
0000d0 22 27 38 bd 28 53 d1 3d 66 c7 a9 3d f0 cc e8 bb
       -0.044959195 0.10220939 0.08289985 -0.0071045086
0000e0 ce 4e af bd cd d3 bc bd cd 94 d9 3b a6 45 2a 3e
       -0.08559953 -0.09220085 0.006640053 0.16628131
0000f0 3e 00 9f 3d a7 c2 20 be e6 63 08 bd 3d bb 65 3d
       0.07763718 -0.15699254 -0.033298396 0.056086767
000100 7e 26 b7 bd 2f 39 4b bd ab 2f 33 bd 34 79 80 bd
       -0.08942889 -0.04961508 -0.04374663 -0.06273118
000110 5e 8e 98 3b 06 9b f9 bd c1 ee ac bd 9b ea 88 3d
       0.0046556434 -0.121877715 -0.08443976 0.066853724
000120 9a ad 02 3e 5d b9 c2 3d 3e b9 1b be 74 05 bd bd
       0.12761536 0.095080115 -0.15207383 -0.09229556
000130 53 01 9c 3c c9 94 99 3d 23 e9 30 3e 1d 32 b9 bd
       0.0190436 0.07499082 0.17276435 -0.090427615
000140 23 cf b1 bb 15 7b 87 3d 22 aa 15 be c6 d2 1d bd
       -0.005426304 0.06615273 -0.14615682 -0.038531087
000150 e6 92 b6 bc 6e fe 95 3d b6 0e 22 bc ff 8d b1 3d
       -0.022286844 0.07323919 -0.009891203 0.08669662
000160 c9 69 9c 3d 7d 1f 03 3d 36 9b cb bc 2e 28 4d be
       0.076373644 0.03201245 -0.024854284 -0.20034859
000170 86 4a 1e bd d0 fd ec bc 3a 49 09 bb 6b e5 ce bd
       -0.03864529 -0.028929621 -0.0020948187 -0.10102352
000180 6a 3c e5 bb e0 72 84 bd 9f 1d c9 bd c0 f1 d5 3c
       -0.0069957273 -0.06467223 -0.09820103 0.026116252
000190 f5 c9 c6 bb e4 ef 32 bd fd c7 b7 3b 9b 43 61 bd
       -0.0060665556 -0.04368581 0.0056085573 -0.054996114
0001a0 6c 0d bf 3c 62 25 a0 3c 36 e1 7e bd 22 c2 e8 bd
       0.02332183 0.019549076 -0.062226497 -0.11365153
0001b0 78 3a 54 3c ad ff f5 3c 5b fb 06 3e b3 90 4f 3d
       0.012953393 0.030029142 0.13181822 0.050675105
0001c0 1b 85 8f bd 43 b6 c3 3b 0b 82 e3 3d 78 26 97 bc
       -0.0700781 0.005972655 0.11108788 -0.01845096
0001d0 7e 9d 13 bd e3 23 fe bc 03 17 65 bd d4 8d 47 3c
       -0.036038868 -0.031022971 -0.05593015 0.012179811
0001e0 d0 d1 2e bd 48 55 ae 3c cc bb ca 3c a6 48 82 3d
       -0.04268056 0.0212809 0.024747752 0.06361513
0001f0 7a 5f 58 bb c0 f8 50 bc 47 8d 9d bb 08 85 f7 bc
       -0.0033015893 -0.012754619 -0.0048081013 -0.030214801
000200 c6 58 09 3d 32 09 5c 3c bb 14 72 bc 1b 88 77 bc
       0.033531927 0.013429927 -0.01477545 -0.015108134
000210 1d 1e 8e bc c7 4a 21 3d ef 5f 92 bc 65 85 19 3d
       -0.017348344 0.039377954 -0.01786801 0.03748073
000220 ee ab 66 bd be 73 06 3e 5a 14 1c bc 1d 6c 42 bd
       -0.05631631 0.1313009 -0.009526337 -0.047466386
000230 8a ac b4 bc 9b 45 59 bd 19 8a af 3d 20 b5 56 3d
       -0.02205493 -0.053044897 0.08571262 0.052418828
000240 1e c5 5a bd 4e bb 10 bd be b6 8d bd d8 aa d9 bc
       -0.05341064 -0.035334878 -0.06919621 -0.026570722
000250 86 8b f7 bc 98 58 0c 3c aa 20 0d 3c a4 56 14 bc
       -0.030217897 0.008566044 0.008613745 -0.00905386
000260 bb f2 a0 bc b8 b2 46 bd 3e c0 1b bd b3 eb 6f 3d
       -0.019646993 -0.048510283 -0.038025133 0.05857439
000270 d3 18 04 3d d0 ae fc bc b8 5f b6 bd b3 c4 a4 3c
       0.032250237 -0.030845076 -0.08904976 0.020113325
000280 8f 01 a0 3d 02 96 d4 3d 09 eb ae 3d 65 65 6b bd
       0.07812797 0.10380174 0.08540923 -0.057469744
000290 93 b5 ec 3c 34 59 90 3d b2 10 92 ba 27 0c 27 3c
       0.028895175 0.07048264 -0.0011143892 0.010195768
0002a0 9d 74 53 bc f2 82 62 bd f5 b9 4f 3b 84 1f 11 bd
       -0.012906221 -0.05530066 0.0031696532 -0.035430446
0002b0 7d c6 ec 3c 88 d0 34 bc e3 cc 4e bd 98 ae 60 bd
       0.02890324 -0.011036046 -0.050488364 -0.054854006
0002c0 b8 fc f7 bd be bd 07 bd d3 78 88 3b e8 64 cf 3d
       -0.12108749 -0.033139937 0.004164794 0.10126668
0002d0 42 66 02 3d 6b 3f 03 be 23 cd 63 3c a0 30 d0 3d
       0.031835802 -0.12817161 0.013903889 0.101655245
0002e0 4b e8 29 be a3 7d 0a bc 76 24 61 3d 5e 43 ee bd
       -0.16592519 -0.008452806 0.054966412 -0.11633943
0002f0 64 bb 43 3d 7a a3 08 bc bb 90 ec bd 29 b6 38 be
       0.04778613 -0.008339757 -0.11551043 -0.18038239
000300 16 11 02 be 2a 16 14 3e b0 9a 8d 3d 26 0e 93 3d
       -0.1270183 0.1446158 0.0691427 0.07180433
000310 20 0f 81 3c f3 6c 6b bd 48 ab 62 3d ae 1d 5c 3d
       0.015754282 -0.05747695 0.055339128 0.053739242
000320 29 9e 88 3d d6 b9 15 3d a0 46 59 3d 82 fd 70 3d
       0.06670792 0.03655418 0.05304587 0.058835514
000330 80 26 f6 3b e3 68 0e 3d 49 07 27 3d 83 c9 bf 3b
       0.007511914 0.034767997 0.040778432 0.0058528795
000340 e2 45 c0 3b 5a dd 24 bd d2 a4 15 bd d9 00 bb 3c
       0.0058677057 -0.04025016 -0.036534138 0.022827553
000350 bb 5a 58 3c 8a 55 e0 3c 99 42 2d 3b 39 21 37 bd
       0.013205226 0.027384538 0.00264374 -0.044709418
000360 f2 c6 4d bd c7 96 8b b9 2d 34 63 bd f9 fc 15 bc
       -0.050238557 -0.00026624484 -0.05546968 -0.009154552
000370 15 6f 90 bc ce 0c 6b bc 78 76 08 3c 8c c2 31 bd
       -0.017631093 -0.014346315 0.008329026 -0.043398425
000380 82 52 ca bc e1 1e 34 bd 70 5f 9b bc 0b 78 84 bd
       -0.024697546 -0.04397476 -0.018966407 -0.06468209
000390 0a 97 6a bd 72 b2 4d bd 43 3b d5 3b f0 d7 ea 3c
       -0.05727295 -0.050219007 0.0065073087 0.02866742
0003a0 1e 7a d9 bc 6e 26 e8 3b 32 81 71 3d 23 03 6e bc
       -0.026547488 0.0070846593 0.0589611 -0.014527115
0003b0 6b 6b 55 3d 70 a3 df 3d 59 e3 9b 3d fd 76 dc bc
       0.052104395 0.10919845 0.076117225 -0.026912207
0003c0 36 cc a0 3c dd e2 61 3c 18 a3 3b 3b b2 b6 dd 3a
       0.019628625 0.013786999 0.0028631147 0.0016915409
0003d0 9b a4 07 be f3 33 d2 bd aa e4 e5 bc 99 2d 89 3d
       -0.13246386 -0.10263815 -0.028063137 0.0669815
0003e0 9a 48 f0 3d e6 9e a5 bd 73 c7 59 bc f6 dd 78 3d
       0.11732598 -0.08086948 -0.013292181 0.060758553
0003f0 0b 57 9a bd 41 58 35 bd 1e db 7e 3d 5c ef 14 be
       -0.075361334 -0.04427362 0.062220685 -0.14544433

emb_module.shallownet.1.conv.bias f4 [64]
000000 d3 66 7c bc 8d 99 ea 3b 6a fc 08 3a 6c 46 0d 3c
       -0.015405375 0.007159418 0.0005225601 0.008622747
000010 fa 26 7d 3c a0 6f e9 bc c9 f9 97 3c 58 5e c3 3c
       0.015451187 -0.02849561 0.018551724 0.023848698
000020 df b2 1e 3d ed 28 ce 3c 2a 65 9f 3c 4f e8 c0 3b
       0.038744804 0.025166 0.019457418 0.0058870683
000030 a5 bb 8a 3c e3 27 a8 3c a6 7f a7 bc 29 84 04 bc
       0.016935179 0.020526832 -0.02044661 -0.00808815
000040 ba cb 4c 3d 5e 81 4e 3c 80 46 2f 3c c6 7c 9b bc
       0.049998976 0.012604086 0.010697961 -0.018980395
000050 0a d7 94 bc 36 1c 3b ba eb b6 54 bb 12 ce c4 b8
       -0.018168945 -0.00071376876 -0.003245766 -9.384392e-05
000060 60 0a 5d 3d 3e fa 8b 3d d9 5d 0e ba 2e 8b 25 3d
       0.053964972 0.06834839 -0.00054308545 0.040415935
000070 88 ac 95 ba 9a 4c c7 3c f6 aa a2 3c 4f b2 0d 3d
       -0.0011419216 0.024328519 0.019856911 0.034593876
000080 9c 68 08 3c 62 31 ab bc 18 45 2a bc dc 0a 0b 3c
       0.008325722 -0.020897571 -0.01039245 0.008486476
000090 ed ad 50 3c 0a 39 bf 3c 33 8a 88 bc 98 f2 e7 3c
       0.01273678 0.023342628 -0.016667461 0.02831392
0000a0 fd 2a 52 3c b5 f0 15 bc 8b 0d 78 bc fc 0a b7 bc
       0.012827632 -0.009151627 -0.015139948 -0.022344105
0000b0 ce 8c 73 3c 13 0f 22 bb 47 f6 16 3d 79 50 3b 3c
       0.014865113 -0.0024728223 0.036855962 0.01143276
0000c0 0c 26 03 3c 32 e3 27 bc f5 d8 fa bc f3 da 09 bc
       0.008004677 -0.010247039 -0.030621031 -0.008414018
0000d0 be cc 6d 3d c7 0c 44 3c bc 16 a8 bc da 7d ab bc
       0.058056585 0.011965937 -0.020518653 -0.020934034
0000e0 90 90 51 3d b7 5f 10 bb 66 a9 87 3c 0d fe 19 3d
       0.051163256 -0.0022029707 0.016560268 0.037595797
0000f0 b8 53 f2 bc ed 1a cb 3b ad 62 a4 bc 8a 4b 0c bc
       -0.029580936 0.006198278 -0.020066584 -0.008562932

emb_module.shallownet.2.norm.weight f4 [64]
000000 49 7c 8e 3f 75 93 8a 3f 8a 5e 83 3f d3 45 85 3f
       1.1131679 1.082625 1.0263226 1.0411934
000010 40 81 83 3f 3a 50 7d 3f 16 16 89 3f e6 55 84 3f
       1.0273819 0.9895054 1.0709865 1.0338714
000020 6e 30 86 3f 6e 39 84 3f 7f 50 83 3f 8e 45 80 3f
       1.048353 1.0330026 1.025894 1.0021226
000030 46 21 7d 3f 72 e7 83 3f 92 b1 84 3f f0 70 81 3f
       0.98878896 1.0305007 1.036669 1.0112591
000040 4b ee 81 3f 3a 12 84 3f 32 f3 86 3f 86 3c 83 3f
       1.0150846 1.0318062 1.0542967 1.0252845
000050 0e 60 8a 3f 25 ca 85 3f 09 88 8b 3f c6 c0 85 3f
       1.0810564 1.0452315 1.090089 1.0449455
000060 3e e7 85 3f 93 0e 84 3f 56 90 86 3f b8 05 8d 3f
       1.0461195 1.0316948 1.0512798 1.101737
000070 6a c0 86 3f 9c 69 85 3f f4 0f 87 3f 9a 3f 84 3f
       1.052747 1.0422854 1.0551744 1.033191
000080 0e a0 85 3f 33 dc 84 3f 9a 87 87 3f 40 42 87 3f
       1.043947 1.03797 1.0588257 1.0567093
000090 de 0a 7c 3f 30 0c 83 3f 4a bf 85 3f 12 71 85 3f
       0.9845408 1.0238094 1.0449002 1.0425131
0000a0 ca c1 86 3f 05 45 8b 3f bd bd 8a 3f 20 4d 8b 3f
       1.052789 1.0880438 1.0839154 1.0882912
0000b0 9b ba 85 3f d3 82 8d 3f e3 1a 86 3f 76 cc 89 3f
       1.0447572 1.1055549 1.0476955 1.0765522
0000c0 b2 e4 81 3f 45 89 85 3f cc a0 87 3f 8e 79 87 3f
       1.0147917 1.0432516 1.0595946 1.058397
0000d0 9d d3 88 3f ec 5d 8c 3f 53 19 8a 3f 0d 68 81 3f
       1.0689579 1.0966163 1.0788978 1.0109879
0000e0 1b 77 87 3f ef da 87 3f 5f 9f 83 3f 0e b0 86 3f
       1.0583223 1.0613688 1.0283011 1.0522478
0000f0 54 e1 89 3f ea 38 80 3f de af 87 3f 26 30 86 3f
       1.077189 1.0017369 1.0600545 1.0483444

emb_module.shallownet.2.norm.bias f4 [64]
000000 0a a6 2e be 26 e7 23 bd 36 2c eb bd ab 8f 0b be
       -0.17055526 -0.040015362 -0.11483042 -0.13629024
000010 d9 7f a8 bd 6a b5 f7 bd 00 94 d4 bd 6b e0 da bd
       -0.0822751 -0.12095149 -0.10379791 -0.106873356
000020 9d 05 23 be 28 8d 64 be fe e8 21 be ff df 26 be
       -0.1592011 -0.22319472 -0.15811536 -0.16296385
000030 56 08 13 be b0 b1 0c be 69 98 1b be 1a c4 04 be
       -0.14358649 -0.13739657 -0.15194859 -0.12965432
000040 92 6e 26 be 80 04 72 be ca 1f fc bd 13 53 1e be
       -0.16253117 -0.23634529 -0.12310751 -0.15461378
000050 62 33 13 be d5 e3 74 be b3 7a 51 bd 6c cb 08 be
       -0.1437507 -0.23915036 -0.051142406 -0.1335885
000060 b2 11 6a be 6c 14 2b be 49 37 06 be a5 b5 22 bd
       -0.22858313 -0.16707009 -0.13107027 -0.03972401
000070 55 e6 40 be 2e 0d 0f be 0b 22 0d be 96 96 23 be
       -0.18837865 -0.13969871 -0.13782518 -0.15975413
000080 e7 07 0a be 8e c4 37 be fa ef 50 bd fc 9d 1f be
       -0.13479577 -0.17946073 -0.05101011 -0.1558761
000090 91 3f 40 be 21 11 1a be 16 86 ec bd 25 ac 0b be
       -0.18774249 -0.15045597 -0.11549012 -0.13639887
0000a0 da 18 09 be e1 44 29 be 06 7b 15 be fc 47 13 be
       -0.13388386 -0.16530181 -0.14597711 -0.14382929
0000b0 c2 ae 3c be 72 85 0e be 3d 20 07 be 84 cd 08 bd
       -0.1842604 -0.13918093 -0.13195892 -0.03339912
0000c0 be a7 2d be d6 cc e9 bd 6a 49 b4 bd 52 44 23 be
       -0.1695852 -0.114160225 -0.08803065 -0.15944031
0000d0 fa ba 17 be 4a 88 6d be 20 e8 34 be 46 6c 48 be
       -0.1481742 -0.23196521 -0.17666674 -0.19572553
0000e0 72 90 6b be c0 bf 15 be 5e 04 1a be 19 9b 0c be
       -0.2300432 -0.14623928 -0.15040728 -0.1373104
0000f0 7b dd bf bd 08 a8 cb bd 0f 4d 10 be 72 e0 da bd
       -0.09368416 -0.09944159 -0.14091896 -0.10687341

emb_module.shallownet.2.norm.running_mean f4 [64]
000000 4f 05 3a 3d 5a 9a fa bd d2 44 2d bc c4 61 0f be
       0.04541522 -0.122364715 -0.01057549 -0.14002138
000010 ee 02 7d 3e d7 c8 b9 be 6d 83 3b 3d 76 4f cf be
       0.24708149 -0.3628604 0.045779634 -0.4049031
000020 6d 65 a4 bd 76 f6 11 3e 95 a5 95 be 20 7b 88 3e
       -0.08027158 0.14254174 -0.29227892 0.26656437
000030 b9 d3 3f 3d e1 35 ab be 46 f1 06 be 3e c0 76 be
       0.046832774 -0.33439544 -0.13177976 -0.24096772
000040 6d 74 61 bd b3 5c 6b be 7d 21 8a 3e 02 5e 08 be
       -0.055042673 -0.2298458 0.26978675 -0.13317111
000050 aa a0 ce be df c5 96 3e 9b d7 0c 3f 7e 8c ef be
       -0.40356952 0.2944784 0.5501649 -0.46786875
000060 7a d2 2c 3d 21 c9 ab bd ca 67 0e 3e 2a 87 0e bd
       0.042192914 -0.08387972 0.1390678 -0.03479687
000070 2d 44 2b be d8 14 cd 3d 82 e3 5b be cd 00 5b be
       -0.16725226 0.10013741 -0.21473506 -0.21387024
000080 6b f5 04 bf bd 57 70 be 2a 71 aa bd 50 2e 3f be
       -0.5193698 -0.2347097 -0.083223656 -0.1867001
000090 96 63 cb bc 9d d4 17 3e 83 d3 54 3e f9 a5 bf bd
       -0.02482776 0.148272 0.2078381 -0.09357829
0000a0 22 31 43 3c 72 74 67 bd ae c2 65 be b2 cd 94 be
       0.01191357 -0.056507535 -0.22437546 -0.29063183
0000b0 0d 9f 5f 3e 22 24 cb bd 00 cf e1 bd 4c 09 92 3e
       0.21838017 -0.09919001 -0.1102581 0.28522718
0000c0 9e 7d e6 be c4 07 1f be c2 a9 b4 bc db 9a e0 bc
       -0.45017713 -0.15530306 -0.022053603 -0.02741759
0000d0 67 c3 39 be 30 d1 12 be 5c 36 38 be 8d 18 33 be
       -0.18140946 -0.14337611 -0.17989486 -0.17489834
0000e0 93 73 24 be 07 11 b8 be f0 85 63 be 57 84 ab be
       -0.16059713 -0.3595049 -0.22219062 -0.33499405
0000f0 f3 9a 0b bf 42 3a e1 be 1d 4f 51 be c9 c5 09 be
       -0.5453331 -0.4398976 -0.20440336 -0.13454355

emb_module.shallownet.2.norm.running_var f4 [64]
000000 ba dd f4 40 3c 7e b8 41 be f1 4c 41 c6 91 da 40
       7.652066 23.061638 12.809019 6.8302946
000010 f1 ad 41 41 35 02 c7 40 80 22 70 41 cb 27 74 41
       12.104966 6.2190194 15.008423 15.259715
000020 68 d9 f1 40 a2 22 fb 40 50 b2 40 41 d3 5d 8b 41
       7.557789 7.8479776 12.043533 17.420813
000030 2b e3 05 41 f4 77 00 41 7c fe 0d 41 ab c8 7f 41
       8.367961 8.029285 8.87463 15.986491
000040 7a a9 1a 41 97 2b 10 41 46 a8 44 41 eb 3c ff 40
       9.666376 9.010642 12.291082 7.9761863
000050 63 73 f6 40 80 cf e4 40 a1 d6 39 41 9e fb 0c 41
       7.7015853 7.1503296 11.6149 8.81143
000060 ea d6 9f 40 8f 98 98 40 c5 bc 2c 41 d4 54 26 41
       4.9949846 4.768623 10.796086 10.39571
000070 a6 95 15 41 6e d6 8a 41 46 5a 1c 41 63 5f 04 41
       9.349035 17.354702 9.772039 8.273288
000080 35 e4 2a 41 b2 c2 c5 40 5d ae d8 40 78 45 ce 40
       10.680715 6.1800165 6.7712846 6.44598
000090 03 a9 f1 40 0d 3b de 40 ef d5 07 41 56 7f ee 40
       7.5518813 6.9447083 8.48973 7.453044
0000a0 d0 ff d2 40 2d ec 5d 41 7d af 1f 41 db 0d 54 41
       6.593727 13.87016 9.980344 13.253383
0000b0 9e dd 09 41 ca 42 dc 40 5b bb 33 41 ae 95 ff 41
       8.616606 6.883153 11.233241 31.948086
0000c0 b8 c7 1b 41 1e cf 80 41 0d 62 a6 40 a5 4f ec 40
       9.736259 16.101131 5.199469 7.384722
0000d0 ca 9d 8f 40 b9 c4 3d 41 16 c1 14 41 5a 16 b2 40
       4.4880114 11.860528 9.29714 5.5652285
0000e0 4a ef 51 41 0e d1 0e 41 85 11 cd 40 da 90 d4 40
       13.12092 8.926039 6.4083886 6.642682
0000f0 2d e9 4f 41 e8 80 b2 41 f7 0c 2f 41 7a c4 c0 41
       12.994428 22.312943 10.940665 24.095936

emb_module.projection.conv.weight f4 [64, 64, 1, 1]
000000 38 8e a2 3d 82 69 a6 3d 6c ff 18 be 86 08 02 3e
       0.07937282 0.08125593 -0.14941186 0.12698564
000010 ed d0 96 bd c3 ce 92 3d f4 0e 26 bd c2 f9 af 3d
       -0.07364068 0.07168343 -0.040541604 0.085925594
000020 f2 33 ef 3d 5a 2d b1 3c 3d 56 94 bd d0 11 19 be
       0.1167983 0.02162807 -0.07243011 -0.14948201
000030 88 9c 28 bc cf e9 8b bd 3e 1c 01 3e a7 a3 34 3e
       -0.010291226 -0.06831705 0.1260843 0.17640553
000040 55 ac ee bd 73 81 08 be 42 04 23 be 9e 58 da 3c
       -0.116539635 -0.13330631 -0.15919593 0.026653584
000050 63 d2 ff 3d 52 f8 32 3d d1 19 24 3d c6 63 29 bd
       0.124913 0.043693848 0.040063683 -0.041354917
000060 3c 09 03 be 18 e3 82 3d 42 30 2d bd 8a eb 80 3d
       -0.12796491 0.06390971 -0.04228235 0.062949255
000070 20 f8 3a be 66 aa 94 3d ee b6 1c be 80 b1 60 3d
       -0.18258715 0.072590634 -0.15304157 0.054856777
000080 ee 75 0e bd 8e 7f 17 3d 56 34 bb 3d 72 77 31 3d
       -0.034780435 0.03698688 0.09140842 0.043326803
000090 ff 77 19 be d3 fc 25 be 4a d9 06 be 35 77 f7 3d
       -0.14987181 -0.16209726 -0.13168827 0.12083284
0000a0 e8 c7 ef 3d b2 0e 91 3d bc 0b 1e be a9 41 48 be
       0.11708051 0.07082881 -0.15434164 -0.19556297
0000b0 69 35 12 3d c7 9a a3 3d 42 f5 4e bc 6a 37 e2 3d
       0.035695467 0.07988506 -0.012631716 0.11045726
0000c0 62 b1 ff bd 4b 31 eb bd 1a 75 1c be 81 85 12 3d
       -0.12485005 -0.11484011 -0.15279046 0.03577185
0000d0 8e 69 18 3d aa e0 fc 3d 78 8f 43 bd 06 a9 1e 3e
       0.03721004 0.12347539 -0.047744244 0.15494165
0000e0 48 75 b0 bd 7c 90 32 bc 4c ac 44 3d 6a 02 ec bd
       -0.086161196 -0.010898706 0.048015878 -0.11523898
0000f0 4e 79 40 be c2 87 cd 3d c5 07 39 3d 13 3e c8 bd
       -0.18796274 0.100356594 0.045173425 -0.09777465
000100 e2 24 ce 3c c2 64 c5 bd dd b1 85 3d 34 ef aa 3d
       0.025164071 -0.09638359 0.06528065 0.083464056
000110 4d f4 8f 3d fd cf d8 bd 6d 21 e7 3d 2e 91 e8 3d
       0.070290186 -0.105865456 0.11285672 0.11355816
000120 06 71 6b bb ed 68 43 3d 4a 7f d7 3d de 1e 25 3d
       -0.0035925522 0.047707487 0.10522325 0.04031264
000130 66 0c 0a 3d d2 93 0d 3d 98 86 6e bd ae 4c f2 3c
       0.03370323 0.0345648 -0.058233827 0.02957758
000140 92 96 0a 3e 1b 3b 8c 3d 03 2a 11 be 3e 0b 1e 3e
       0.13534 0.06847211 -0.14176182 0.15433976
000150 72 d8 8b 3d f2 d1 25 be 7d d8 11 3d 3b 4b 2a 3e
       0.06828393 -0.16193369 0.03560685 0.1663026
000160 be d2 60 3d bb 05 0b 3e 06 9e be bd 7a db 0c be
       0.05488848 0.13576405 -0.09307484 -0.13755599
000170 b1 5d a6 b9 2c 12 83 3d df 15 bd 3d 76 9f e8 3d
       -0.00031731793 0.063999504 0.09232687 0.1135854
000180 8a ca 17 3e ed 2c f1 bd b0 be a4 bd cd 41 7e bc
       0.14823356 -0.11776147 -0.08044183 -0.015518618
000190 bc 71 b9 bd fe be fe 3d 18 52 f3 3d 44 36 29 3c
       -0.09054896 0.124387726 0.118808925 0.010327879
0001a0 e2 79 28 3e 7b 96 55 3d 42 ae db bd 62 af 6d 3d
       0.16452745 0.052145462 -0.107265964 0.058028586
0001b0 9b 01 7c 3c de dc 90 3d 35 67 9c 3d 63 8b fb bd
       0.015381242 0.07073377 0.07636873 -0.12282445
0001c0 89 3f b0 bd e2 0c 63 bd 7c 6d 2f bc 0c 6d 0e bc
       -0.08605868 -0.055432208 -0.010707255 -0.008692991
0001d0 c3 c1 e8 bd 00 eb b1 bd 7d 07 47 bd dc fc 24 3d
       -0.11365082 -0.08687401 -0.048591126 0.040280208
0001e0 5f 43 9f 3d 63 56 d0 bc 6d fd 30 be 13 3e 61 3d
       0.07776522 -0.025431817 -0.17284174 0.05499084
0001f0 6a 72 e7 bd 20 a0 b3 3d aa 74 47 be ab c1 51 be
       -0.113011196 0.08770776 -0.19478098 -0.20484035
000200 72 dc c5 3d c5 d4 cd 3c f8 52 00 be ed bd 1b be
       0.09661187 0.02512587 -0.1253165 -0.1520917
000210 c0 dc 06 3d 5a f4 7d bd 1a 33 e3 3d b5 16 07 bd
       0.032925367 -0.06200061 0.11093731 -0.03298064
000220 16 88 75 3d b8 20 07 3e 5a 64 2c bd 62 f6 1a 3d
       0.059944235 0.13196075 -0.04208789 0.037832625
000230 30 98 bc bb 9b 3f 0e be 27 07 0b be ca 89 52 be
       -0.005755447 -0.13891451 -0.13576947 -0.20560375
000240 2d c1 37 3c 8a ed ba bd f5 ea 01 3e 52 71 14 bc
       0.01121549 -0.09127338 0.12687285 -0.009060221
000250 73 4f e4 bd e6 98 a4 bc a5 7c c8 3d 1d 35 8c 3c
       -0.11147966 -0.020092439 0.09789399 0.01711517
000260 ac af 38 3e d2 a2 32 be 85 44 dd 3d 66 e3 3b bd
       0.18035764 -0.17444924 0.10804085 -0.04587116
000270 42 67 89 3d 9d ce 05 be ee d1 36 3e 75 49 54 be
       0.06709148 -0.13067098 0.1785352 -0.20731147
000280 5a f5 48 bd 0a 10 20 3d 8a c0 22 be d5 74 0f 3e
       -0.04906211 0.039077796 -0.1589376 0.14009412
000290 bf d6 13 3e a2 7c 45 bc 53 19 62 bd 3e 6f 29 3d
       0.14437388 -0.012053641 -0.055199932 0.041365854
0002a0 78 f4 ea bd 12 4b 2d 3e 86 67 2b be 7e 9e c4 3b
       -0.1147241 0.16923168 -0.1673871 0.006000339
0002b0 e0 60 d1 3d 42 da 93 bd 50 4c 3b 3c 98 07 56 3d
       0.102235556 -0.07219364 0.011431769 0.052253336
0002c0 78 27 9f 3d 52 0f 00 3d e0 63 52 bd c2 bd 36 3d
       0.077712 0.03126461 -0.05136478 0.04461456
0002d0 f3 57 3c be f2 d2 ab 3c 29 a8 96 bd 83 d5 be 3d
       -0.18392925 0.02097461 -0.07356293 0.09318068
0002e0 e0 39 6b 3b 66 68 99 3d ea 5e ff bd bb 36 e1 3c
       0.003589265 0.074906155 -0.12469275 0.027491918
0002f0 e5 85 32 3e fe 0e 22 be a8 a6 51 3e 71 8e a8 3d
       0.17433889 -0.15826032 0.2047373 0.082302935
000300 1e 96 dd 3d e6 f2 37 3e 4a e0 4e bd 8e 45 d6 bb
       0.10819648 0.17963752 -0.050506867 -0.0065390533
000310 e6 9a db 3d fb 56 89 3d b4 67 89 bd 45 8d 2c 3e
       0.10722904 0.06706043 -0.06709233 0.16850765
000320 9e df 36 bd aa 53 ac 3c 92 f5 2d be 79 d3 81 3d
       -0.04464685 0.021035988 -0.16988209 0.06339163
000330 51 73 8f bd 2d a7 f0 bd 3d 0c a9 bd bc 0c b8 3d
       -0.07004417 -0.11750636 -0.082542874 0.08986804
000340 46 53 91 bd 03 1d 61 bd 04 9d b6 3d e6 48 af bd
       -0.07095961 -0.05495931 0.08916667 -0.08558826
000350 57 c2 c4 3d 92 f6 c8 bd eb ef 21 3e c2 67 e4 3d
       0.0960738 -0.098126546 0.15814178 0.11152603
000360 de e8 76 be 1a 3e b7 3b f5 a4 b2 bd 64 b2 29 3e
       -0.2411227 0.00559212 -0.08722869 0.16571957
000370 ca 76 ea bc db d9 af 3c b8 87 b4 3d de e6 22 3d
       -0.028621096 0.021466186 0.08814949 0.039770953
000380 8b 44 0d 3e ca 2c 5d bd 3e 90 82 3d 30 7e 9c 3b
       0.13795678 -0.053997792 0.06375168 0.004775785
000390 05 b8 fc bd c0 c9 6d 3b 62 f2 11 be 23 ae 98 bc
       -0.123397864 0.0036283582 -0.14252618 -0.018637722
0003a0 1b 25 a8 3c 4b 69 df bc 42 20 45 bc fe 66 29 3d
       0.020525506 -0.027271887 -0.012031617 0.041357987
0003b0 1d 4e 18 3c 73 0b 6d bd 5c fb 1f be 97 18 30 3e
       0.009295967 -0.057872247 -0.1562323 0.1719688
0003c0 8f 0a 81 bd 99 ca 9d 3d 6d 7e dc 3d 60 8d f2 bd
       -0.06300842 0.07704658 0.10766301 -0.118433714
0003d0 18 21 1c 3e e6 13 8c 3d ce a1 86 bd 96 89 3d bd
       0.15247 0.06839733 -0.065738305 -0.04627379
0003e0 12 00 c9 bc e3 5c ad bd f4 6f 93 3d bb 10 6e bd
       -0.024536166 -0.08464982 0.07199088 -0.058121424
0003f0 8b 8e fe 3c 1b e6 48 3d 82 50 53 bd ea 44 fc 3c
       0.03107383 0.04904757 -0.05159045 0.03079458

emb_module.projection.conv.bias f4 [64]
000000 94 6c 0d 3e fc f3 18 3c b0 9f 5c bd 92 f1 20 3d
       0.1381095 0.009335514 -0.053863227 0.03929288
000010 1e eb e5 3d c7 a0 28 bd 4d ed da 3d bb 4d 8a bd
       0.11226486 -0.041168954 0.10689793 -0.06753107
000020 2d 09 d1 3d e5 97 d7 bd ae f9 6e 3b 89 f8 ab 3d
       0.10206828 -0.105270185 0.0036464739 0.08397014
000030 9a a9 0a be 81 f8 16 be 03 90 ef 3c 3a 4c c8 bc
       -0.1354126 -0.14743234 0.029243475 -0.02445041
000040 b7 7f 39 bd 66 5a 9e 3d cb 76 b7 3d 25 50 75 b9
       -0.045287814 0.07732086 0.08958205 -0.00023394877
000050 9e ad 7f 3d 4b 7c 97 3d de 9c d3 bc 20 93 f3 3d
       0.062421434 0.07396754 -0.025831636 0.11893296
000060 dd 04 da bd 27 38 9c 3d e2 96 dc bc 9e 85 cc bd
       -0.10645459 0.07627898 -0.026927415 -0.09986423
000070 65 7b af 3d 94 2e 3c 3d 9f 69 bc bd d0 c8 0c 3e
       0.085684575 0.045942858 -0.09199833 0.13748479
000080 1a e0 3b 3d dc fb 8d 3d 07 cc 85 bd a3 6f 02 3e
       0.045868017 0.06932804 -0.06533056 0.12737899
000090 e0 6c f2 bd 0f 95 47 3d b5 74 29 3c c3 67 f7 bd
       -0.118371725 0.048726138 0.0103427665 -0.12080338
0000a0 a6 73 dd 3d 9e fe 17 3d d6 99 18 bd e9 ae c8 3d
       0.10813074 0.037108056 -0.037256084 0.097989865
0000b0 ed 1b f8 bc 4a 1f d8 3d 88 41 f7 bb 51 b3 a0 3d
       -0.030286754 0.10552843 -0.0075456537 0.07846702
0000c0 3f d2 00 3d 5a bf 22 3e ed 94 ea bc 3a 80 00 bb
       0.031450506 0.15893307 -0.028635466 -0.001960768
0000d0 0e 15 27 be f6 da 92 3c 3b 3c 64 3d 53 04 54 bd
       -0.16316625 0.017926674 0.055721503 -0.051761936
0000e0 70 9b 71 bd ad 77 df bc 0d 2b 19 3d f5 61 56 3d
       -0.058986127 -0.027278746 0.037394572 0.052339513
0000f0 7e 17 d4 3d b6 33 13 bd e2 08 e3 3d bc b2 a7 3d
       0.10356043 -0.035937987 0.11085679 0.08188388

VanillaLSTM.rnn.weight_ih_l0 f4 [256, 64]
000000 10 4b 80 be c9 59 a4 bd fe c7 00 3e 71 2c 8b bc
       -0.25057268 -0.08024938 0.12576291 -0.016988965
000010 26 4b 0f 3d d6 a6 20 bd 6f d6 90 3c 1b cb a4 bd
       0.034983777 -0.039221607 0.017680375 -0.08046552
000020 c0 f5 da 3d 7e 8d cf 3c 76 3d d6 bc 9e 26 48 be
       0.10691404 0.025336023 -0.026152354 -0.19545981
000030 b3 9b f4 3d 72 eb fb bd 91 30 b2 bd f5 bb 87 bd
       0.1194376 -0.12300767 -0.087006696 -0.06627647
000040 f3 9c 17 3e 2e 4e 67 bd c0 ca ea 3d f4 04 b5 bd
       0.14805965 -0.056471042 0.11464453 -0.08838835
000050 18 6e 22 be 5e b1 a6 bd a0 88 a2 3d bd ce 3f 3d
       -0.1586231 -0.08139299 0.079362154 0.04682802
000060 7e e8 05 3e 5d 20 d2 bc 6d 07 b2 bd 3c 96 85 bd
       0.1307697 -0.025650198 -0.086928226 -0.065227956
000070 16 70 35 3e a3 31 05 be bd 53 4d 3c ce ac 81 bd
       0.17718539 -0.13007216 0.012532172 -0.06331788
000080 08 8d cc bd ef cc 22 bd 79 0f b3 3d 52 c6 27 3c
       -0.09987837 -0.03974622 0.087431855 0.010240154
000090 ee 85 d8 3d 95 ff 20 3e e0 c0 ad bc d3 ef 77 be
       0.1057242 0.15722497 -0.021210134 -0.2421258
0000a0 76 4d 94 3d 23 76 14 bd 36 e2 fc 3d ad e5 dc 3d
       0.07241337 -0.036245476 0.12347834 0.10785995
0000b0 a4 93 04 3e 53 3e 67 3d 13 c9 5b 3d c8 d6 02 3e
       0.12946945 0.05645592 0.053658556 0.12777245
0000c0 ba 1f b4 bc 99 ef 46 be ea c6 df 3d db 74 9f bd
       -0.021987785 -0.19427337 0.10926612 -0.0778596
0000d0 b5 19 e9 3c f6 c5 fb bd 38 54 5a be 91 18 af bd
       0.02845464 -0.122936174 -0.2132119 -0.085496075
0000e0 91 37 93 3d b5 cd 61 be 83 d1 6c be 5b 69 1b bc
       0.07188333 -0.22051127 -0.23126797 -0.009485568
0000f0 30 88 87 3d 12 00 b5 bd 1a 8c 84 3e 8b 3a e9 3d
       0.066177726 -0.08837904 0.2588814 0.11388119
000100 53 16 39 3d 5f a6 38 3d 53 bb 27 be df 4e 28 3e
       0.045187306 0.04508054 -0.16380052 0.16436337
000110 be e6 0c 3c d8 75 5c bd d8 80 86 3d 1a 1f ce 3d
       0.008599935 -0.053823322 0.06567544 0.10064526
000120 94 c1 ad bc aa 2f 2d 3d 78 be c7 bd c0 c0 1e bd
       -0.02121047 0.042281784 -0.09753126 -0.03875804
000130 31 bd 2a bc db 94 fc 3c 7f 41 9c bc ca de cc bd
       -0.010421083 0.030832699 -0.0190742 -0.10003431
000140 ff 9e 19 3e f2 e8 c6 3d c0 c1 e5 bc 7d 18 d1 bc
       0.15002058 0.097123995 -0.028046489 -0.025524372
000150 d8 b7 c3 3d 56 bb 64 bd 42 b7 cd bd e6 16 29 3d
       0.0955655 -0.05584272 -0.10044719 0.041281603
000160 5b 25 6c 3d ce da e2 bb 8d 42 57 3e ed b0 fd 3d
       0.057652812 -0.006923056 0.21021481 0.123872615
000170 f3 2f d8 3c e5 bf f6 3d 77 80 bc bc ba fa f1 bd
       0.026390051 0.1204832 -0.023010476 -0.118154004
000180 5e fa 01 3e 72 c7 c2 bd 1d 10 7e bb fd 38 76 3c
       0.12693164 -0.095106974 -0.0038766928 0.0150282355
000190 a0 91 e9 bd d2 62 21 be ef aa 92 3d ae bc f0 3d
       -0.11404729 -0.15760353 0.07161509 0.11754738
0001a0 60 37 e0 3b 16 af 17 bd cb c7 21 3d 03 7a 7b 3d
       0.0068425387 -0.03703221 0.039497178 0.061395656
0001b0 00 be ec bb fa f1 e5 bd ca ce e2 bc 92 7c 23 3e
       -0.007224798 -0.11227794 -0.027686495 0.15965489
0001c0 f2 05 5d bd 31 83 0b 3e 40 df ba 3d e6 82 4d 3c
       -0.053960748 0.13624264 0.09124613 0.012543416
0001d0 cd 2c 55 3d ca 3a 47 3d ee f1 a9 bb 65 f0 60 bd
       0.05204468 0.04864005 -0.005186311 -0.054916758
0001e0 69 6a 1c be 0e af 6b bd 5a 9f e8 bd a9 55 40 be
       -0.15274967 -0.057539992 -0.11358519 -0.18782677
0001f0 a3 e7 0c 3e b5 3d 7c 3d ee 0f 6f be c6 88 26 bd
       0.13760237 0.061582286 -0.2334592 -0.04065778
000200 2a f9 07 be 35 32 24 3e 0c 3d ca bd a6 b7 06 bd
       -0.13278642 0.16034777 -0.09874925 -0.032889985
000210 82 35 2a 3d bb 4f 4f 3e f2 b6 f7 3c 3d f7 6f be
       0.041554935 0.20245259 0.030238602 -0.23434158
000220 22 60 a1 3d 34 26 1b bd 69 e4 05 3e f5 be af 3c
       0.07879664 -0.03787823 0.13075413 0.02145336
000230 3a 33 6a be 7b 23 64 be ed 0b 95 bc c5 9c 21 bd
       -0.22871104 -0.2227916 -0.018194163 -0.039456148
000240 cf 16 c7 3d f2 2a 81 3d e3 28 d8 3d 75 17 41 3d
       0.09721147 0.06307019 0.105546735 0.04714151
000250 30 47 2e 3e f0 f1 e3 bd e2 95 d2 3d be f6 1a 3c
       0.17019343 -0.1113013 0.10282494 0.009458242
000260 a2 e3 1b be 0b 57 00 3e a3 d7 86 be 35 c4 7f 3e
       -0.15223554 0.12533204 -0.26336393 0.24977191
000270 ff 53 28 3e 3b e6 fc bc 5e 3f f1 bc 51 a8 a3 3e
       0.16438292 -0.030871501 -0.029449161 0.31964353
000280 a6 fc c2 bd 0f 17 25 bc 40 a0 80 bd e2 5f bb bd
       -0.09520845 -0.010076298 -0.06280565 -0.091491476
000290 0c da be bd cd a0 12 3e 56 ff 80 3e c5 1b 1d bd
       -0.09318933 0.14319153 0.25194806 -0.03835656
0002a0 66 7d 88 3d 3b 3a 8d 3b 76 5a 06 3e da 7f 85 3d
       0.06664543 0.00430992 0.13120446 0.065185264
0002b0 0c 14 04 3e 2a a9 59 be 93 3c f7 3d 70 cb 68 3c
       0.12898272 -0.21255937 0.120721005 0.0142086595
0002c0 ae 44 ad bd 46 79 81 3c ca 05 07 be 1d 5c 92 3d
       -0.08460365 0.015804898 -0.13185802 0.071464755
0002d0 ea de 8d 3d 62 f4 6a be c6 9e b6 3d 2e 27 d2 bd
       0.06927283 -0.22944787 0.089170024 -0.10261379
0002e0 c5 d6 fc 3d de 62 01 be 2e 29 39 bb 5d 59 8d 3e
       0.123456515 -0.12635371 -0.0028253305 0.2760724
0002f0 74 6d 17 be 46 9d 0c bd e5 e6 f1 3c c3 e4 0f be
       -0.14787847 -0.034329675 0.029529044 -0.1405211
000300 00 bc ea bd ba b6 50 3e 57 16 3d be b3 2d 32 bc
       -0.114616394 0.20382205 -0.18465553 -0.010875153
000310 30 1e 7d 3e dc 03 2e 3d 15 9a be 3d 15 7d 7b 3c
       0.24718547 0.04248415 0.093067326 0.015349646
000320 bc 6f 45 be 6d 27 8e bc 99 c4 1e be de 8b 3f 3e
       -0.19280905 -0.017352784 -0.15504684 0.18705699
000330 23 15 1f bd f0 a5 49 bc a5 b6 94 bd 05 4b b4 3c
       -0.038838517 -0.012307629 -0.07261399 0.022008428
000340 fd 24 c0 bd a8 1f c4 ba aa 6f 06 be 85 c5 36 3e
       -0.09382055 -0.0014963048 -0.13128534 0.17848785
000350 26 57 aa 3d ff ea b3 bd c6 62 3b 3e 27 4b 41 3e
       0.083174035 -0.08785056 0.18299398 0.18876325
000360 be 43 76 3d b9 5f a9 3d 5a ae fb bd 7d 33 fe 3d
       0.060123198 0.08270211 -0.12289114 0.12412164
000370 6e 52 00 3d 66 81 72 3e fb 9c 0c bc 76 63 29 3e
       0.03132861 0.23682174 -0.008582349 0.16541848
000380 e0 68 f9 bd 68 ef a4 3d ae aa 2b be 7d d6 87 bd
       -0.121782064 0.080534756 -0.16764328 -0.06632707
000390 4a f7 58 3e 72 51 d2 3d 0e 89 85 3d 0e 3d 32 3e
       0.21188083 0.10269441 0.06520282 0.17406103
0003a0 6f 99 19 3e ad b3 1c 3e 0b 81 90 3d 74 8a bc bd
       0.14999937 0.15302916 0.07055863 -0.09206095
0003b0 0a d7 bf 3c b2 95 9b bc 3a 32 1d be 85 71 87 3d
       0.023417968 -0.018992279 -0.15351191 0.06613449
0003c0 a3 b1 ef bd 3f 99 9f bc 15 73 9c bd 6f 07 91 bd
       -0.117038034 -0.019482253 -0.07639138 -0.07081496
0003d0 92 6d 67 3e 0a 6b 68 ba 66 c7 8b bd ef e4 c5 bd
       0.22600392 -0.0008866048 -0.068251416 -0.09662806
0003e0 25 b6 64 bc 46 dd 11 3d 06 20 23 be 60 0e 7f bd
       -0.013959442 0.035611413 -0.15930185 -0.06226957
0003f0 d0 4f c9 bd c6 4d 84 bd 6c 9c 00 be a8 a4 89 be
       -0.09829676 -0.064601466 -0.1255967 -0.26883435

VanillaLSTM.rnn.weight_hh_l0 f4 [256, 64]
000000 8b 13 fa bd b6 9e 53 bc f2 46 9d 3e ae 32 0c be
       -0.12210759 -0.012916258 0.3071819 -0.13691208
000010 15 86 86 3c 86 33 d2 3c 62 a8 8e bd 48 77 dc 3c
       0.016421357 0.025659334 -0.0696571 0.026912346
000020 d9 c9 02 bd 0f 78 87 be cd 12 99 bb 9d 37 56 be
       -0.03193078 -0.26458785 -0.0046714307 -0.20919652
000030 b3 cc bd 3c 02 a5 1e be de 80 1c 3d 2e 01 02 bc
       0.023168897 -0.15492633 0.038208835 -0.007934852
000040 fe 7a 0a be fb 1f 55 be 2b c0 f0 bd fb a0 46 be
       -0.1352348 -0.20812981 -0.11755403 -0.19397347
000050 01 75 2a be 20 89 a1 3d 06 0a c4 bd 7b 5b 95 3d
       -0.16646196 0.07887483 -0.09572224 0.07292839
000060 bb bf 0c 3e 73 62 53 3e c7 ac 82 be 1d 63 ee 3d
       0.13745014 0.20643024 -0.25522444 0.11639998
000070 d2 29 c8 bc eb 6b 75 3e c5 b1 b4 bd ed 04 99 3e
       -0.024434004 0.23966949 -0.08822969 0.2988657
000080 0a fa be 3d f3 da 11 3d 48 b3 20 bd 06 30 da bc
       0.09325035 0.035609197 -0.039233476 -0.026634227
000090 f5 7f 14 3e a6 32 f1 ba 46 43 03 3e 6e 88 ae bd
       0.14501937 -0.0018401935 0.12818632 -0.08522116
0000a0 e2 b7 5f be 62 42 e0 bc 81 cb 42 bd 30 d5 31 be
       -0.2184749 -0.027375404 -0.047557358 -0.17366481
0000b0 a8 7f 3b bd 34 f8 08 3e d2 7c 47 3e 64 1a 35 be
       -0.04577604 0.13375932 0.19481209 -0.17685848
0000c0 f0 ca 6c 3e b2 e2 0d 3e 9a 37 8b ba c0 15 e3 3d
       0.2312429 0.13856009 -0.0010621429 0.11088133
0000d0 a3 d4 0c 3e 0d 87 81 3d fb f7 25 3d 3e b1 de 3d
       0.1375299 0.06324587 0.040519696 0.1087365
0000e0 5b a1 a6 bd b0 57 b1 3e 70 00 e5 bc c3 25 d1 3d
       -0.08136245 0.34637213 -0.02795431 0.102122806
0000f0 cc 89 1d be cb 43 f0 3d 0e e4 19 bd d2 5e 9d 3d
       -0.15384597 0.117316805 -0.037571006 0.07684101
000100 25 26 ad bd 3e 8d ca bd 04 26 07 be 65 b1 da bd
       -0.08454541 -0.09890221 -0.13198096 -0.106783666
000110 ea d1 5d bb 53 e6 53 be ed 6b 0a 3d f4 45 be bc
       -0.0033847042 -0.2069333 0.033794332 -0.023226716
000120 8c 00 41 3e fa 6e 1e 3d fc 2b 29 bc 48 12 48 bd
       0.18847865 0.038680054 -0.010325428 -0.04884556
000130 93 9a 6f 3d 85 d6 3c 3d 5a 98 d5 3c f2 3f 45 bd
       0.058497023 0.04610302 0.026073623 -0.048156686
000140 40 08 25 3d 28 1b 12 bd ce 61 d8 3d 65 c8 3d be
       0.04029107 -0.03567043 0.1056553 -0.18533476
000150 e2 c2 00 be ad ba 54 3e f3 08 9b 3d 42 c7 48 bc
       -0.12574342 0.20774336 0.07570066 -0.012254538
000160 c3 e1 96 3d c8 e4 fa 3d 70 1e 1d 3d d2 04 50 bd
       0.073672794 0.12250668 0.038359106 -0.050785847
000170 96 8c ba bd 42 e0 53 bd 93 c0 06 be cb 7f 7d bc
       -0.09108846 -0.05172754 -0.13159399 -0.015472363
000180 ae 49 4c be 73 13 6b 3d 22 6f 08 3e 46 e4 7d bd
       -0.19949982 0.057391595 0.13323644 -0.061985277
000190 61 13 2e 3d c3 fe 40 3e ab f0 50 3d a2 bb 64 3d
       0.04249895 0.18847184 0.05101077 0.055843003
0001a0 97 c5 04 3d 1a 28 21 3d 05 b7 11 be fd 17 ee bd
       0.032415 0.039344884 -0.14229973 -0.11625669
0001b0 a8 bd 7a 3e b7 97 c9 3c 6a 77 52 bd cc 6e 9e be
       0.2448641 0.024608476 -0.051383413 -0.30943906
0001c0 da 75 7e 3d aa bf ea 3d bc 98 9a bd 70 92 6f 3d
       0.06212411 0.11462338 -0.07548663 0.058489263
0001d0 7f 2d 31 3d 90 76 89 bd eb 6c 83 bd 72 f0 c0 bd
       0.04325628 -0.06712067 -0.06417259 -0.09420861
0001e0 e0 a5 e3 3c ed 3f eb 3d 77 e6 40 bd 8d 52 86 3b
       0.027789056 0.11486802 -0.04709479 0.0040991963
0001f0 92 18 ff bd fe 61 e9 3c e7 f4 96 3c c2 a4 d4 3b
       -0.12455858 0.02848911 0.018427325 0.006489367
000200 1e ad 60 be bd 07 dc 3c cb b3 06 be 92 9e 85 bd
       -0.21941039 0.026859159 -0.13154523 -0.065243855
000210 8a 31 10 3e a6 7c b1 bd c2 f0 38 be 58 cd 67 be
       0.14081398 -0.08666353 -0.18060592 -0.22636926
000220 25 2e 24 3e 1a 80 60 be d0 e3 da bd 8a 38 f0 3c
       0.16033228 -0.21923867 -0.10687983 0.029323835
000230 a6 f7 50 3e cb 76 3f be 1c 3a 9c 3d ab e5 4b bd
       0.2040697 -0.1869766 0.07628271 -0.049779575
000240 82 f9 ce bc f6 20 57 be 7e b1 24 be 39 fa 07 be
       -0.025265459 -0.21008667 -0.16083333 -0.13279046
000250 b0 d5 6a 3d a9 9d 10 3e a2 32 55 be 7e 71 22 bc
       0.057332695 0.14122643 -0.20820096 -0.009914754
000260 9a 16 6c 3e c6 fc a3 3e 9e 97 93 3d a2 d2 e7 bd
       0.23055497 0.32028788 0.07206653 -0.11319472
000270 aa 82 38 3d 6e df 32 3e a9 ef 1c 3d e1 fc 2a bd
       0.045046486 0.17468044 0.038314495 -0.04174507
000280 f7 95 ab 3d 42 f5 8c 3e e3 51 49 3d aa 7d a2 bd
       0.08378213 0.27530867 0.04915036 -0.07934125
000290 90 f6 88 3d e6 a9 45 3e b5 1c 8c 3d e6 9a ce 3d
       0.06687653 0.19303092 0.06841413 0.10088138
0002a0 e6 0f cc bc 7e 12 a0 bd 93 9c 77 be cd 5c 2d 3e
       -0.024909925 -0.07816027 -0.24180822 0.16929932
0002b0 16 d2 d9 bd 43 33 55 3e ad a5 1d 3e d6 a5 0e be
       -0.10635774 0.20820336 0.15395232 -0.13930449
0002c0 6a cd c4 3d fa 9b 98 3d da 1e 05 be ef b4 11 3d
       0.09609492 0.07451625 -0.1300005 0.035572942
0002d0 60 3a 08 3e 32 47 93 bd b2 6f d3 3d 9e a6 93 bb
       0.13303518 -0.07191314 0.103240386 -0.0045059463
0002e0 23 43 cc 3d 2c 52 18 3e 3e 39 0c be 70 70 ef 3d
       0.09973743 0.14875096 -0.13693711 0.116913676
0002f0 30 1c 40 be 05 aa 93 3c bb 5e f0 bc 3a a4 ad bd
       -0.18760753 0.018025408 -0.029342046 -0.08478589
000300 0e 35 88 bc db 08 6e bd a6 00 b3 bd 04 9f 25 bd
       -0.016626861 -0.058113914 -0.08740358 -0.040434852
000310 20 43 33 be 6e fd 38 be 90 87 5a be 1e fe a8 bd
       -0.17506075 -0.18065426 -0.21340775 -0.08251594
000320 d8 9c af 3d 02 8f e2 bd 9c 82 22 bd 9d 25 c3 bd
       0.085748374 -0.11062433 -0.03967534 -0.095286585
000330 bc 5f 1e 3c 5f e6 44 be 75 db ed 3d 6e 80 3b bd
       0.00966638 -0.19228505 0.11614124 -0.045776777
000340 c6 dd 68 bd f6 03 0e be 85 21 71 bd 25 88 52 bd
       -0.056852125 -0.13868698 -0.058869857 -0.05139937
000350 42 60 6d be 52 6b 10 be df e1 40 be b2 db cd 3d
       -0.2318125 -0.1410344 -0.18836163 0.10051669
000360 76 eb a2 3c 0a 0b 73 bd a0 af 63 bc 56 b8 f3 3d
       0.019887667 -0.0593367 -0.013896853 0.11900394
000370 6e 39 30 bd 82 48 bb 3d ea 70 9c bd c8 d6 63 3e
       -0.04302352 0.09144689 -0.07638724 0.22249901
000380 70 78 8a 3c 48 bf b6 3d 36 19 52 3d dd 88 99 3d
       0.016903132 0.08923203 0.051293574 0.07496808
000390 43 19 0e 3e 06 6e 5b 3e 16 af dc 3d 28 2c 8a 3d
       0.13876824 0.2142869 0.107755825 0.067467034
0003a0 a5 86 16 3d 4c ed 2c 3d e4 61 00 be 17 8e b8 bd
       0.0367495 0.04221849 -0.12537342 -0.090114765
0003b0 66 2c 06 3d 95 03 3d 3e 4a 54 39 3e a2 4a 1b be
       0.032757185 0.18458398 0.1809856 -0.15165189
0003c0 ca 88 10 3e 92 35 e6 3d 53 23 d6 3b 6d f7 d5 3d
       0.14114681 0.112406865 0.0065349727 0.10447583
0003d0 4e 84 0b 3e 49 f5 88 bd 62 28 f7 3d 7e 33 06 bd
       0.13624689 -0.066874094 0.12068249 -0.03276395
0003e0 34 16 89 bd 76 c3 f1 3c 50 dd 32 3e 80 97 04 3e
       -0.06693688 0.029512148 0.17467237 0.12948418
0003f0 7f a2 26 be fb 25 28 3e a1 b4 b0 3d 0e 01 d0 3d
       -0.16272925 0.16420738 0.08628202 0.10156451

VanillaLSTM.rnn.bias_ih_l0 f4 [256]
000000 82 a1 a6 3d ca 11 02 3c a3 ae 3b 3e ea 3d d3 3d
       0.08136274 0.007938812 0.18328337 0.103145435
000010 5f da a3 3d 60 e3 29 3e 5c ee 45 bc 66 c5 07 3e
       0.08000635 0.16590643 -0.012080755 0.13258895
000020 be f5 28 3e ba 7c 8a 3d ad 21 38 3e 6e 72 1c 3e
       0.16499993 0.06762071 0.17981596 0.15278026
000030 5e 03 58 3e 2e 9f cc 3d 03 4e b9 3d 3a 01 93 3b
       0.21095034 0.099912986 0.09048083 0.00448623
000040 de 71 7a bd 3d 85 76 3d 28 55 0b 3e 96 1e 75 3c
       -0.06114375 0.06018566 0.13606703 0.014960906
000050 75 78 a0 3d 36 ea 4c 3d 4f 95 33 3e 11 e2 c3 3d
       0.07835475 0.05002805 0.17537425 0.09564603
000060 a5 f9 89 bd ad 9a 0c bb 1d 12 ce 3d fa cd e4 bc
       -0.06737069 -0.0021454499 0.100620486 -0.027930249
000070 2b 51 7d 3c de 42 0d 3e 22 d5 16 3e e3 e2 1b 3e
       0.0154612465 0.13795039 0.14729741 0.15223269
000080 11 66 01 3e 4a 53 86 3d 4e 40 18 3e 96 dc 40 3e
       0.12636591 0.06558855 0.1486828 0.18834147
000090 6e 55 1f 3e e8 9f 59 bd c8 e4 6b 3e 01 39 01 3d
       0.15559933 -0.053131014 0.23036492 0.031548504
0000a0 2d 23 1b 3d 45 d0 ef 3b f5 cb 80 3d 4e 57 81 3d
       0.037875343 0.007318529 0.06288902 0.0631548
0000b0 62 9d 8f 3c 09 a2 b5 3d 02 50 b5 bd 38 59 35 3e
       0.0175311 0.088687964 -0.08853151 0.17709816
0000c0 44 2a cb 3d 4e c4 5b 3d d4 84 08 3e 2e 6f cb 3d
       0.09920171 0.053654008 0.1333192 0.09933315
0000d0 b3 83 a8 bd b2 74 3d 3e b1 fd 48 3e d9 c6 10 3e
       -0.08228245 0.18501547 0.19628026 0.14138354
0000e0 79 54 b0 3d 80 f7 90 bc ab f2 73 3e 7a 16 ab 3d
       0.08609862 -0.017696142 0.23823039 0.083538964
0000f0 eb 0b 7e 3d 6d 85 ce 3d 6a 5d 57 bd 2a 30 96 3c
       0.062023085 0.10084043 -0.05257932 0.018333513
000100 62 59 8d 3c 1b f3 7f 3e cb 38 43 3e c0 a4 05 3e
       0.017254535 0.24995081 0.19064634 0.13051128
000110 76 94 2d 3d 65 36 a2 3d e9 f6 40 3e f4 ba 15 3e
       0.04237791 0.07920531 0.18844189 0.14622098
000120 ea 81 b8 3d 8e a8 20 3a a1 fa 0a 3e 03 ba f5 39
       0.09009154 0.0006128632 0.1357217 0.0004686863
000130 dd ff 91 3d 30 99 d5 3c 49 64 cb 3d 42 64 a3 bd
       0.0712888 0.026074022 0.09931237 -0.07978107
000140 86 d0 68 3d 7d de e9 3d c2 f5 d7 3d 99 e5 c0 3d
       0.05683949 0.114193894 0.105449215 0.09418792
000150 c3 46 91 3d ce 64 bb 3d 64 c1 04 3e 8a c8 92 3d
       0.07093575 0.09150086 0.12964398 0.07167156
000160 0a ec b6 3d b7 3a 37 3d 05 5f 6d 3d 22 a8 06 3e
       0.0893174 0.04473373 0.057951946 0.13150075
000170 a0 ae 32 3e a6 26 3d 3e a8 c8 3b 3e 32 7a 59 bd
       0.17449427 0.18471774 0.18338263 -0.05309505
000180 ca c6 3f bc 3e 56 a8 bd 36 bb 1d 3e 2e 2d a8 3c
       -0.01170511 -0.082195744 0.15403447 0.020529356
000190 d2 3f 99 3c b2 35 72 bd 86 17 27 3c 43 38 4e 3e
       0.01870719 -0.05913324 0.0101984795 0.2013865
0001a0 b4 ca 8b 3d d4 79 89 3d bd 10 b8 3c 65 f4 ab 3d
       0.06825772 0.0671269 0.022468919 0.08396224
0001b0 e5 4a 5d 3d d0 b4 69 3d 4e e9 d0 3d 23 12 9d 3d
       0.054026503 0.0570572 0.10200749 0.07669475
0001c0 8e 25 11 3e fd 66 26 3d 44 84 06 3d b4 a9 1b 3d
       0.14174482 0.04062556 0.032840982 0.03800364
0001d0 e4 09 16 3e 59 f1 90 bd c2 fd c1 3d a5 01 ac 3d
       0.1465221 -0.070772834 0.094722286 0.08398751
0001e0 05 26 78 bc c0 37 b8 bc 60 18 43 bd fe 6c 85 3a
       -0.015145783 -0.022487521 -0.047630668 0.0010179577
0001f0 c2 1b d1 3d 36 b4 28 bc 52 d8 3e 3e 7b 31 89 3d
       0.102103725 -0.010296872 0.18637207 0.06698891
000200 2d 98 b4 bd 92 5e ba 3d 28 5c 26 3e 3a 69 88 bd
       -0.08818088 0.09100069 0.16246092 -0.066606954
000210 1b bd e0 3c bb 51 e5 3d 43 8a 8d 3d ce 83 a7 bd
       0.027433923 0.111972295 0.06911137 -0.081794366
000220 5f c8 08 bc 91 5e aa bd ce ae 76 3d 3a ac 09 3d
       -0.008348553 -0.08318818 0.0602253 0.033611514
000230 78 c5 71 3d 40 ac ad bd bd e9 07 3e fe b6 3f 3a
       0.05902621 -0.0848012 0.13272758 0.000731334
000240 da 5c cf bd f4 cf 9b bc da 1a bf bd 1f 2f bb bd
       -0.10125132 -0.019020058 -0.093312934 -0.09139847
000250 43 fb 77 be e3 16 dc 3c 67 88 38 bd cc b8 aa 3c
       -0.24216942 0.026866382 -0.04505196 0.020840071
000260 de 54 fe 3a 15 8a e0 3d 26 2a fa bd 26 f9 f3 bc
       0.0019403955 0.10963837 -0.122150704 -0.02978189
000270 43 23 92 3d b6 61 58 bd 26 98 8e bd f3 a8 f1 bc
       0.07135632 -0.05282756 -0.06962614 -0.029499507
000280 44 8f 19 3e 36 d5 9f bd 59 15 0e be bd d2 d1 bd
       0.14996058 -0.07804339 -0.13875331 -0.10245273
000290 00 4b 5d 3d e5 84 9c 3d 42 05 85 bd ec 80 01 3e
       0.054026604 0.07642535 -0.064951435 0.12646836
0002a0 f6 a0 ac 3d 3f 5f ab 3d 99 c8 c4 3d 96 9a 21 bd
       0.08429138 0.08367776 0.096085735 -0.039454065
0002b0 9a c1 bb 3d 27 91 8e 3d a0 14 9c bc c9 e5 2d 3c
       0.09167786 0.06961279 -0.019052804 0.010613867
0002c0 82 4b 83 3d 13 c2 a6 3c ab 19 a3 bd fa c8 ad bd
       0.06410886 0.020356214 -0.0796388 -0.08485599
0002d0 bb 13 9b 3c 04 c8 c2 bb d0 6f 71 bd 6c cd 8d 3c
       0.018930307 -0.005944254 -0.058944523 0.017309867
0002e0 6e ab cc bd c0 e5 1d 3c ef bd 05 3e 64 7c 0f 3e
       -0.09993635 0.009637296 0.13060735 0.14012295
0002f0 c2 c3 a4 bd 99 a0 ad bc 8a 0b 0a 3e 2b ec 4c 3d
       -0.0804515 -0.021194743 0.13480964 0.050029915
000300 52 31 d2 3c 32 69 90 3e 28 eb 3f 3e a2 7d 9f 3d
       0.025658283 0.28205258 0.18742049 0.077876344
000310 15 b0 85 3e 85 4d 0f 3d 4e 93 df 3d 7d e6 6d 3e
       0.26110902 0.034986038 0.10916768 0.23232456
000320 bd 12 d9 3d 2a bd 77 3e 0a c7 5a 3e 8d e6 41 3e
       0.10599277 0.24193254 0.2136499 0.18935604
000330 0d 03 dd bb 82 99 32 3e bd e3 7f bd 1c f9 19 3e
       -0.0067447484 0.17441371 -0.062473048 0.15036434
000340 09 9c 2a 3c 50 f7 12 3e d6 17 46 3e 5a cf 79 3e
       0.010413178 0.14352155 0.1934503 0.24395505
000350 60 11 ab bc 5e b9 92 3e 28 de 1f 3e ed 1f 50 3e
       -0.020882308 0.2865705 0.1561209 0.20324679
000360 25 81 f3 3d 24 8f b2 3d 7b 91 43 3d a6 a1 0a 3e
       0.11889867 0.08718708 0.047746163 0.13538226
000370 b5 b8 1c 3e bd 6a 7c 3e eb 5b 42 3e 43 cf 58 3e
       0.15304835 0.24650092 0.18980376 0.21172814
000380 4d e7 57 3e f0 85 fb bd 84 0b c6 3d 49 f6 3b 3e
       0.21084328 -0.12281406 0.09670165 0.18355669
000390 fc 73 14 3d ea cd f0 3d 61 4c 35 3e 67 d9 97 3d
       0.036243424 0.11758025 0.17704917 0.07414513
0003a0 8c f4 0f 3e 7a 08 8a 3e 98 a5 05 3e d5 ef 4f 3e
       0.14058131 0.26959592 0.1305145 0.20306332
0003b0 9d ae f7 3d dd 85 62 3d d0 94 d3 bd f7 de 80 3d
       0.12093852 0.055303443 -0.10331118 0.06292527
0003c0 88 90 15 bc 62 18 88 3e 7d cd 5b 3e c6 44 ab 3e
       -0.009128697 0.26581103 0.21465106 0.33450907
0003d0 85 6a ca 3a 6a 99 8e 3d a0 ec 5b 3d ce 8a 5b 3d
       0.0015443122 0.06962855 0.05369246 0.05359917
0003e0 5e 8a 90 3d a2 50 0e 3e c5 f4 d2 3d 5e 55 81 3e
       0.070576414 0.13897946 0.10300592 0.25260442
0003f0 f3 69 dd 3d 1d b9 97 3d 5e 34 e4 3d 7a 17 3b 3e
       0.10811224 0.074083544 0.11142801 0.18270674
