benchmarks/MOABB/results/MotorImagery/BNCI2014001/LSTMEEG/run3/21211/leave-one-session-out/sub-005/1test/save/CKPT+2024-04-23+04-31-39+01/model.ckpt (torch, 435656 bytes, 15 tensors)

emb_module.shallownet.0.conv.bias f4 [61]
0	0xbe80992a	-0.25116855
1	0xbd802916	-0.062578365
2	0xbd811cbf	-0.06304311
3	0xbdef2735	-0.116774
4	0xbd970bb8	-0.07375282
5	0xbded074e	-0.11573659
6	0xbc968333	-0.018373108
7	0x3e57a4ca	0.21058956
8	0x3d42f335	0.04759522
9	0xbc8762c2	-0.016526584
10	0x3da0ee4a	0.0785795
11	0xbc1d9f83	-0.00962055
12	0xbe0ba403	-0.13636784
13	0xbdca73aa	-0.098853424
14	0x3be75062	0.007059143
15	0x3d3cf11b	0.046128374
16	0x3dad52a8	0.08463031
17	0x3d9f43e8	0.07776624
18	0xbcd5b7db	-0.026088646
19	0xbd8f84c7	-0.07007747
20	0x3e42eb82	0.19035152
21	0xbdda0598	-0.10645598
22	0xbe718c1b	-0.23588602
23	0x3d01325d	0.03154217
24	0x3cb5067c	0.022097819
25	0x3dae3af4	0.08507338
26	0x3e10f719	0.1415676
27	0x3cc293d6	0.023752134
28	0x3dc046a0	0.09388471
29	0xbda0fb26	-0.07860403
30	0xbc948215	-0.018128434
31	0xbe0774ae	-0.13228104
32	0x3e4d90f6	0.2007483
33	0x3d93aed9	0.07211084
34	0xbd25bef7	-0.04046532
35	0xbe4d1b36	-0.20029911
36	0xbdb91c2a	-0.09038575
37	0x3dcc41aa	0.09973462
38	0x3d3105c9	0.043218408
39	0xbe1861db	-0.14881079
40	0xbad2557b	-0.0016047204
41	0xbce3d2e3	-0.02781052
42	0x3e4cdf56	0.20007071
43	0x3d917ad1	0.071035035
44	0x3c8e3474	0.017358996
45	0x3c8420c5	0.016128907
46	0x3e0a80bc	0.13525671
47	0xbbdfc010	-0.0068283156
48	0xbe382122	-0.17981389
49	0xbdd9058d	-0.10596762
50	0x3e225691	0.15853335
51	0x3e17e34a	0.14832798
52	0x3e3dad22	0.18523076
53	0xbc029ada	-0.00797149
54	0xbc83d98e	-0.01609495
55	0xbaf20e1a	-0.0018467337
56	0xbe0cbe68	-0.13744509
57	0xbe5a659d	-0.21327825
58	0x3cbec42b	0.0232869
59	0xbd65ce85	-0.056105155
60	0x3e266049	0.16247667

emb_module.shallownet.1.conv.weight f4 [64, 61, 1, 17]
0	0xbbb8e8fe	-0.005643009
1	0x3dac94c3	0.084268115
2	0x3d9cfe1a	0.076656535
3	0x3d47dab5	0.04879256
4	0x3d42293a	0.047402598
5	0xbb975c2f	-0.0046191434
6	0x3d9f3907	0.07774549
7	0x3da00a5e	0.078144774
8	0x3bac00c1	0.0052491133
9	0x3d672620	0.056432843
10	0x3c90861f	0.017642079
11	0x3cd75a8b	0.026288291
12	0xbd862ba2	-0.06551291
13	0x3cfd1f30	0.03089866
14	0xbd3640e9	-0.044495497
15	0xbd755363	-0.059893977
16	0x3c9f82aa	0.019471485
17	0xbdb21a8e	-0.08696471
18	0xbdb9986d	-0.09062276
19	0xbd2abe1b	-0.041685205
20	0xbd03936b	-0.03212301
21	0x3cc95d13	0.024580514
22	0x3db89676	0.09013073
23	0x3d0b3dca	0.033994474
24	0x3bcaf176	0.006193335
25	0x3990f82a	0.00027650717
26	0x3d139854	0.036033943
27	0x3e0bea99	0.1366371
28	0xbd3ce178	-0.04611346
29	0xbd87f4b9	-0.06638474
30	0xbd037b26	-0.032099865
31	0xbcb3ac6e	-0.021932807
32	0xbd6367e8	-0.055519015
33	0x3db439e6	0.08800106
34	0x3d446569	0.047948275
35	0x3cff847d	0.031191105
36	0xbac8024b	-0.0015259472
37	0x3d6f89a8	0.05848089
38	0x3d7777e3	0.060417067
39	0xbd9e0289	-0.07715327
40	0xbdce21c8	-0.10065037
41	0x3c5509cd	0.013002825
42	0x3cc150a3	0.02359802
43	0x3c746be6	0.014918303
44	0xbde5258d	-0.11188803
45	0x3d07d9db	0.033166748
46	0x3d7f2f3d	0.06230091
47	0x3cffd780	0.031230688
48	0xbce6d5d5	-0.028178135
49	0x3d294e5a	0.041334487
50	0xbd69891d	-0.057015527
51	0xbdf9f720	-0.122053385
52	0x3c01a5d7	0.007913074
53	0x3ce3d720	0.02781254
54	0x3ca97e38	0.020690069
55	0xbc309224	-0.01077703
56	0xbcd2037b	-0.025636425
57	0x3da4ab2d	0.08040462
58	0x3da14792	0.07874979
59	0x3d04c502	0.032414444
60	0x3c71b543	0.014752689
61	0x3d89e72e	0.06733547
62	0x3d599b8a	0.05312685
63	0xbd6f0028	-0.05834976
64	0x3b0eb7f2	0.002177712
65	0xbd8423f8	-0.06452173
66	0xbcdedebe	-0.027205821
67	0x3bf3033a	0.007416156
68	0xbd6bdf55	-0.057586033
69	0xbd3e05aa	-0.04639212
70	0x3ccb8f66	0.024848651
71	0x3d08407a	0.033264615
72	0xbc111129	-0.008854189
73	0xbde7ba13	-0.11314788
74	0xbdb9460e	-0.09046565
75	0x3cdbf102	0.02684832
76	0x3d281507	0.04103568
77	0x3d2b43f0	0.041812837
78	0xbcf48883	-0.02985025
79	0x3cc1f5b9	0.02367674
80	0xbc766880	-0.015039563
81	0x3d66ebc6	0.056377195
82	0x3d9dd5ee	0.077068195
83	0x3dcf1478	0.10111326
84	0x3de4eafa	0.11177631
85	0x3d4227f6	0.04740139
86	0x3d6b2afa	0.057414033
87	0x3d7ffb3a	0.062495448
88	0x3d62346e	0.055225782
89	0x3dc4d269	0.09610445
90	0xbcad3f1d	-0.021148259
91	0xbbab07d1	-0.0052194376
92	0x3d434154	0.047669724
93	0xbc9dc289	-0.0192578
94	0x3d2dfde0	0.042478442
95	0xbd194ad5	-0.03742488
96	0x3d1f762a	0.03893105
97	0x3cdfd645	0.027323851
98	0x3bb4b537	0.0055147666
99	0xbdcbbe8d	-0.09948454
100	0xbcc5dc0d	-0.02415278
101	0xbccb3fca	-0.02481069
102	0xbdc091de	-0.09402822
103	0xbd731c63	-0.059353244
104	0x3cc9c051	0.024627836
105	0xbbbc8366	-0.0057529686
106	0x3c7e4980	0.015520453
107	0xbd8568bd	-0.06514118
108	0x3ca359dc	0.01994031
109	0x3d9c545b	0.07633277
110	0x3d91eb9b	0.07125016
111	0x3d5283e3	0.05139531
112	0xbbb5e5b5	-0.005551065
113	0x3d459d55	0.048245747
114	0xbcea9442	-0.028635148
115	0x3c8d2509	0.017229574
116	0xbe22e752	-0.15908554
117	0xbd550bf5	-0.052013356
118	0xbcf86d35	-0.030325511
119	0x3d64baf0	0.05584234
120	0x3ca9adf8	0.020712838
121	0xbd27eef8	-0.040999383
122	0xbcd9bb65	-0.026578614
123	0x3d131928	0.035912663
124	0x3e111816	0.14169344
125	0x3dec6223	0.115421556
126	0xbc78970d	-0.015172732
127	0xbd90e37e	-0.07074641
128	0xbc8c3952	-0.017117176
129	0x3dd3167a	0.103070214
130	0xbcf316d6	-0.029673975
131	0xbd13c9ce	-0.036081128
132	0xbc9dfc2e	-0.019285288
133	0x3d7a7e3b	0.06115554
134	0xbcc1a956	-0.023640316
135	0x3d9193fb	0.07108303
136	0x3cdbd31d	0.026834065
137	0x3d590e55	0.052992184
138	0x3c4d27ee	0.012521727
139	0xbc8d8f5f	-0.017280279
140	0xbd203532	-0.03911323
141	0xbda6e88b	-0.08149823
142	0xbc5f1ab0	-0.013617203
143	0xbc849ad8	-0.016187117
144	0x3d045b4e	0.032313637
145	0xbd1dc3ab	-0.03851668
146	0xbdd1ab26	-0.10237722
147	0x3d009186	0.031388782
148	0x3dbf28df	0.093339674
149	0x3ce7478a	0.028232355
150	0xbce74dae	-0.028235283
151	0x3c8e863c	0.017397992
152	0xbd173004	-0.036911026
153	0xbdc54ff6	-0.09634392
154	0xbcaa095d	-0.020756418
155	0x3d2573a9	0.040393505
156	0x3b61a712	0.0034431857
157	0x3bc06431	0.0058713187
158	0x3cc113bf	0.023568986
159	0x3cd80a5e	0.026372131
160	0x3c06110a	0.008182773
161	0x3caf8ac5	0.021428475
162	0x3c3cb99a	0.01151886
163	0x3cb2016c	0.021729194
164	0xbd2b373b	-0.04180072
165	0xbdbec2a3	-0.09314468
166	0xbb0bfb4b	-0.00213595
167	0x3ca841a5	0.020539114
168	0x3c8fa7da	0.017536093
169	0x3d67a7c3	0.056556474
170	0xbd4773fa	-0.04869459
171	0xbd743f76	-0.059630834
172	0xbb051461	-0.0020306336
173	0x3cb65689	0.02225806
174	0x3c2554ea	0.010091046
175	0xbd94f60b	-0.072734915
176	0xbdd37446	-0.10324912
177	0x3d4ba0e2	0.049713977
178	0x3d72345a	0.059131958
179	0x3d427a8b	0.047480147
180	0xbd36edab	-0.04466025
181	0x3b087b46	0.002082543
182	0x3dbb7ee8	0.09155065
183	0x3d529505	0.051411647
184	0xbdbeb1bd	-0.09311245
185	0xbc4c2db2	-0.0124620665
186	0xbe06e3ce	-0.13172838
187	0x3d9dea4c	0.07710704
188	0x3cb7a127	0.02241571
189	0xbc706258	-0.0146718845
190	0x3d79bce5	0.06097116
191	0x3d83a7c2	0.06428482
192	0x3e0f363a	0.1398553
193	0x3e0f7a13	0.14011411
194	0xbd2479b1	-0.040155116
195	0xbd62a983	-0.05533744
196	0xbc70fc32	-0.014708566
197	0x3d7ab2aa	0.061205544
198	0xbc993e2c	-0.018706404
199	0xbd4d8b46	-0.05018165
200	0xbd8ed0df	-0.06973433
201	0x3d1c514a	0.03816346
202	0xbd2e7b94	-0.042598322
203	0x3da00992	0.078143254
204	0x3dfa2d66	0.1221569
205	0x3d3f13f1	0.046649877
206	0xbc923eb7	-0.01785217
207	0x3c68b5f0	0.0142035335
208	0x3d69bd45	0.057065267
209	0x3c82834c	0.015931748
210	0x3c88f0fd	0.016716475
211	0xbcf4d548	-0.029886857
212	0xbd56831e	-0.052371137
213	0xbbe23798	-0.0069036
214	0xbcd7354d	-0.026270533
215	0x3c5cc872	0.013475524
216	0x3d858220	0.0651896
217	0x3c5bcb8e	0.01341523
218	0x3cba7588	0.022761121
219	0x3ce71b6a	0.028211314
220	0x3cf26cc5	0.029592881
221	0x3e0e77f5	0.13912947
222	0x3d1ab96e	0.037774496
223	0xbc258232	-0.010101842
224	0x3cbe66e5	0.023242423
225	0x3c1c78d7	0.009550295
226	0x3cdfa5ea	0.027300794
227	0x3ceb67de	0.028736051
228	0xbd4a8ca6	-0.04945054
229	0x3c696246	0.014244622
230	0xbd04179f	-0.03224909
231	0xbc5f1cd8	-0.013617717
232	0xbcb4cc22	-0.022069994
233	0x3c773f05	0.015090709
234	0xbbe3527b	-0.0069373227
235	0x3e01ff48	0.12695038
236	0x3dc0b924	0.09410313
237	0x3dcd25d6	0.10016982
238	0xbcf5d2d3	-0.030007755
239	0xbd1b05b5	-0.03784724
240	0xbc4411de	-0.0119671505
241	0xbbd6cf5e	-0.006555482
242	0xbc261d23	-0.010138783
243	0x3d827cf9	0.06371493
244	0x3d12043a	0.035648562
245	0xbc6dd4e5	-0.01451609
246	0x3b57bfab	0.003292064
247	0x3d00af02	0.0314169
248	0x3dad417e	0.08459757
249	0xbd4003dd	-0.046878684
250	0xbd8975a2	-0.0671189
251	0xbd650370	-0.05591148
252	0xbd1610bc	-0.036637053
253	0xbdabbf43	-0.0838609
254	0xbd1d836e	-0.03845542
255	0x3caa79ef	0.020810096

emb_module.shallownet.1.conv.bias f4 [64]
0	0x3c7ec418	0.015549682
1	0xbc825a18	-0.0159121
2	0x3cc71b42	0.02430499
3	0x3c267952	0.010160761
4	0x3cedb5b6	0.02901731
5	0xbbe66fd0	-0.007032372
6	0x3c80e4da	0.015734125
7	0x3c072e72	0.0082508195
8	0xbbcbd50b	-0.006220465
9	0x3c83c79e	0.016086396
10	0xbcb59acc	-0.02216854
11	0xbcbc52bb	-0.022988668
12	0x3c033415	0.008008023
13	0x3c83fa1d	0.016110474
14	0xb9097abc	-0.0001311106
15	0xbc9b9fd6	-0.018997114
16	0x3cb96002	0.022628788
17	0xbcd0f35e	-0.025506672
18	0x3bd7c035	0.006584192
19	0x3bedb6ad	0.0072544427
20	0x3d072952	0.03299839
21	0x3ac99f9e	0.0015382653
22	0xbab0f59e	-0.0013500934
23	0xbc1c3556	-0.009534201
24	0x3c834c05	0.01602746
25	0x3c874ef3	0.016517138
26	0xbc22555d	-0.0099080475
27	0x3c25897d	0.010103581
28	0x3d2e2b72	0.0425219
29	0x3cc10934	0.023563959
30	0xbcc2ad93	-0.023764407
31	0xbc94141b	-0.018075993
32	0x3c811346	0.01575626
33	0x3cb73c52	0.02236763
34	0xbbeb6b8d	-0.007184452
35	0x3cccee25	0.0250159
36	0x3c8f2495	0.017473498
37	0xbab90fda	-0.0014119104
38	0xbcab5fed	-0.020919764
39	0x3c2f9ca5	0.010718499
40	0x3c394e8c	0.011310231
41	0x3cba2336	0.022721868
42	0x3ceb1bfa	0.028699864
43	0x3c8b125d	0.01697653
44	0x3d0d97ce	0.0345686
45	0x3c9b46ed	0.018954718
46	0x3cce2dc0	0.0251683
47	0xba8051cf	-0.0009790006
48	0x3c80d1b1	0.015724989
49	0xbd033676	-0.03203436
50	0xbcb5d72e	-0.022197332
51	0xbba557ec	-0.0050458815
52	0x3cb30172	0.021851275
53	0x3b951fcf	0.004550911
54	0xbbbfe772	-0.005856448
55	0xbc67fff5	-0.014160146
56	0xbcc02a6e	-0.023457732
57	0xbca16e86	-0.019706022
58	0x3c16354c	0.00916798
59	0x3c4250b1	0.011860059
60	0x3d03148c	0.032002017
61	0x3ccfec82	0.02538133
62	0xbcbe5947	-0.02323593
63	0x3bf11ba5	0.007358032

emb_module.shallownet.2.norm.weight f4 [64]
0	0x3f81e738	1.0148687
1	0x3f7d993d	0.9906195
2	0x3f83fe7f	1.0312041
3	0x3f816c8c	1.0111251
4	0x3f89b3ae	1.0757959
5	0x3f84cb2e	1.0374506
6	0x3f823d26	1.0174911
7	0x3f82a256	1.0205791
8	0x3f81d3c9	1.0142757
9	0x3f8c3dc7	1.0956353
10	0x3f865dee	1.0497415
11	0x3f86246d	1.0479866
12	0x3f828102	1.019562
13	0x3f838b20	1.0276833
14	0x3f8d1d16	1.1024501
15	0x3f973adc	1.1814837
16	0x3f886765	1.0656554
17	0x3f891d34	1.0712037
18	0x3f831eb5	1.0243746
19	0x3f7f501b	0.99731606
20	0x3f877e98	1.0585508
21	0x3f8b1638	1.0866156
22	0x3f8be100	1.092804
23	0x3f87e45b	1.0616564
24	0x3f84f69e	1.0387762
25	0x3f876095	1.057635
26	0x3f8b57f7	1.088622
27	0x3f8961ca	1.0732968
28	0x3f887ff2	1.0664046
29	0x3f88cab0	1.0686855
30	0x3f85cf02	1.0453799
31	0x3f83f4a2	1.0309031
32	0x3f8a4523	1.0802349
33	0x3f84c947	1.0373925
34	0x3f87d9c5	1.0613333
35	0x3f8351ca	1.0259335
36	0x3f7cc172	0.98732674
37	0x3f88c87a	1.068618
38	0x3f890925	1.0705916
39	0x3f84f7ed	1.0388161
40	0x3f84192e	1.0320184
41	0x3f85036c	1.0391669
42	0x3f85c20c	1.0449843
43	0x3f84490a	1.033479
44	0x3f849c31	1.0360166
45	0x3f895272	1.0728285
46	0x3f846b31	1.0345212
47	0x3f86c00a	1.0527356
48	0x3f83e5b3	1.0304474
49	0x3f895e72	1.0731947
50	0x3f884f38	1.0649176
51	0x3f89c002	1.0761721
52	0x3f87c653	1.0607399
53	0x3f872709	1.0558788
54	0x3f841cba	1.0321267
55	0x3f8a638f	1.0811633
56	0x3f883b4a	1.0643094
57	0x3f89699e	1.0735357
58	0x3f8aa755	1.0832316
59	0x3f88887e	1.0666654
60	0x3f855f7a	1.0419762
61	0x3f88c6d2	1.0685675
62	0x3f8486ca	1.0353634
63	0x3f8a7daa	1.08196

emb_module.shallownet.2.norm.bias f4 [64]
0	0xbe08651c	-0.1331982
1	0xbe256963	-0.16153483
2	0xbe13f5c9	-0.14449228
3	0xbdb1f9e6	-0.086902425
4	0xbdad7986	-0.084704444
5	0xbdba067a	-0.090832666
6	0xbddb4500	-0.1070652
7	0xbe0b37fc	-0.13595575
8	0xbe03d5ac	-0.12874478
9	0xbe24429c	-0.16041034
10	0xbdd29670	-0.102826
11	0xbd865b21	-0.0656035
12	0xbe404bac	-0.18778867
13	0xbd915bf0	-0.07097614
14	0xbe01535b	-0.12629454
15	0xbe41dc3c	-0.18931669
16	0xbda296ee	-0.07938944
17	0xbdf9d9c5	-0.12199739
18	0xbe3b1ab2	-0.18271902
19	0xbe08a8f4	-0.133457
20	0xbdc09f03	-0.09405329
21	0xbe09a94d	-0.1344349
22	0xbe3d497e	-0.18485066
23	0xbe233422	-0.15937856
24	0xbe07ff5d	-0.13281007
25	0xbdabd2fa	-0.0838985
26	0xbd290973	-0.041268777
27	0xbdf0c9ae	-0.11757217
28	0xbe7a6c0d	-0.2445528
29	0xbdae4d62	-0.08510853
30	0xbd6418c5	-0.055687685
31	0xbe1e549c	-0.15461963
32	0xbdf6161a	-0.12015934
33	0xbdf674f0	-0.12034023
34	0xbde445fa	-0.111461595
35	0xbe4bd527	-0.1990553
36	0xbe374205	-0.17896278
37	0xbdd89550	-0.10575354
38	0xbd9db760	-0.07700992
39	0xbe26239d	-0.16224523
40	0xbe1bb7d0	-0.15206838
41	0xbde80556	-0.11329143
42	0xbdd49e32	-0.10381736
43	0xbe107916	-0.1410869
44	0xbe0a799f	-0.13522957
45	0xbd864201	-0.06555558
46	0xbe0a3c8e	-0.13499662
47	0xbda5e14e	-0.08099614
48	0xbddb8772	-0.107191935
49	0xbde4d336	-0.11173098
50	0xbe0d240e	-0.13783285
51	0xbdfaad78	-0.12240118
52	0xbd68ce10	-0.05683714
53	0xbe095a20	-0.13413286
54	0xbd5cbcad	-0.053890873
55	0xbdaeaf58	-0.08529538
56	0xbd0c9d3c	-0.034329638
57	0xbda33102	-0.07968332
58	0xbe1487e4	-0.14504963
59	0xbdc0c649	-0.0941282
60	0xbdca1956	-0.09868114
61	0xbdc2e780	-0.09516811
62	0xbdfd6d92	-0.123744145
63	0xbdd52f10	-0.10409367

emb_module.shallownet.2.norm.running_mean f4 [64]
0	0xbf1de289	-0.6167379
1	0xbd447ac9	-0.04796866
2	0xbf6920a6	-0.9106544
3	0x3f7ab42e	0.9793118
4	0x3ef10f95	0.470822
5	0x3e9b860d	0.3037571
6	0xbf2c211f	-0.6723804
7	0xbf0c1185	-0.5471423
8	0x3e478b67	0.19486772
9	0x3f016d42	0.5055734
10	0xbe34fcfa	-0.17674628
11	0xbd112cf2	-0.035443254
12	0x3f2d7a0a	0.6776434
13	0xbe8dbfd5	-0.2768542
14	0xbd80ab92	-0.062827244
15	0x3fa83bd4	1.3143258
16	0xbf28f513	-0.65998954
17	0x3f4355d1	0.7630282
18	0xbeca5a48	-0.39522004
19	0x3e7a72e3	0.24457888
20	0x3f9bcc0e	1.2171648
21	0xbe5f4075	-0.21801932
22	0x3e95f422	0.2928782
23	0xbe4c18d7	-0.1993135
24	0x3e0b31de	0.13593242
25	0x3da0e657	0.07856434
26	0x3f825a80	1.0183868
27	0x3ecbf401	0.39834598
28	0x3eaf8ff3	0.34289512
29	0x3f580c3d	0.84393674
30	0x3f068d16	0.5255903
31	0x3e526a3a	0.20548335
32	0x3e77c17a	0.24194899
33	0xbfd68aeb	-1.6761144
34	0x3f4fa563	0.81111735
35	0xbf0522a8	-0.52006006
36	0xbd5e497d	-0.054269303
37	0x3f265962	0.6498014
38	0x3e413cbf	0.18870829
39	0x3f5ef570	0.8709326
40	0x3f25ea08	0.6481023
41	0x3eab525d	0.33461276
42	0xbe033302	-0.12812427
43	0x3ed0e2fe	0.4079818
44	0xbd872dee	-0.06600557
45	0xbf4a90b2	-0.7912704
46	0x3df18cbb	0.1179442
47	0xbfbbf84e	-1.4685152
48	0xbebe1106	-0.37122363
49	0x3d0462be	0.03232073
50	0xbe8e857d	-0.27836218
51	0x3df62973	0.120196246
52	0x3ef790ce	0.48352665
53	0xbf0c092f	-0.54701513
54	0xbf944152	-1.1582434
55	0x3f1e7011	0.6188975
56	0xbe424795	-0.18972619
57	0xbf9170ee	-1.1362588
58	0xbe6bb41b	-0.23017924
59	0x3f433f56	0.7626852
60	0x3d999673	0.07499399
61	0xbe1589e5	-0.14603384
62	0x3f3500d6	0.707044
63	0x3ec9cda3	0.394147

emb_module.shallownet.2.norm.running_var f4 [64]
0	0x412e9c85	10.913213
1	0x4166022a	14.375528
2	0x41d6dbe2	26.857365
3	0x429fa07b	79.81344
4	0x41cb2c31	25.396578
5	0x414bcf1d	12.738065
6	0x41cae7a3	25.363104
7	0x4197b38e	18.962673
8	0x41138a1a	9.221216
9	0x4105c6a4	8.360996
10	0x411fae60	9.980072
11	0x419a6cda	19.30315
12	0x41496c7e	12.588987
13	0x42184db9	38.0759
14	0x40ca62d4	6.324564
15	0x418e415b	17.781912
16	0x418e6e86	17.803967
17	0x4191e442	18.236454
18	0x41b7f332	22.993748
19	0x4195f9a0	18.746887
20	0x417b8b50	15.721512
21	0x41589963	13.537448
22	0x4160ce4e	14.050367
23	0x4126d0c2	10.425966
24	0x4195604d	18.672022
25	0x42123f2e	36.5617
26	0x4204c680	33.193848
27	0x419b2f24	19.398018
28	0x40b3e48f	5.62165
29	0x41f637e0	30.777283
30	0x41943e69	18.530474
31	0x4154b822	13.294954
32	0x40f3ab50	7.614662
33	0x4257b675	53.92818
34	0x41c2a5e8	24.331009
35	0x41a0c109	20.094255
36	0x4118d355	9.551595
37	0x41d7007e	26.87524
38	0x4193d099	18.476854
39	0x413d9d78	11.8509445
40	0x41a3ef35	20.4918
41	0x40f8b6fe	7.772338
42	0x4181697a	16.176502
43	0x418c4520	17.533752
44	0x418487a2	16.566227
45	0x41c5f311	24.743685
46	0x416d5b63	14.834811
47	0x420ddc8e	35.465385
48	0x415b9c7e	13.725706
49	0x41015337	8.082816
50	0x412d598b	10.834361
51	0x416af47e	14.68469
52	0x414f451d	12.954373
53	0x41ce95f2	25.823215
54	0x413858e0	11.521698
55	0x418c1526	17.510326
56	0x41d3490a	26.410664
57	0x4246558b	49.583538
58	0x415f77a6	13.966711
59	0x42218276	40.377403
60	0x417607a0	15.376862
61	0x41856ab2	16.677097
62	0x4194ef6a	18.616901
63	0x416b44a6	14.70426

emb_module.projection.conv.weight f4 [64, 64, 1, 1]
0	0xbded0930	-0.11574018
1	0xbde5be6b	-0.1121796
2	0xbe2b98e5	-0.16757543
3	0x3d236a70	0.03989643
4	0xbe333ca3	-0.175036
5	0x3cb852b2	0.02250037
6	0x3dc630c2	0.096772686
7	0xbb310ced	-0.002701576
8	0x3e512eed	0.20428057
9	0x3d0d3110	0.034470618
10	0xbd3dd81e	-0.046348684
11	0x3e010b8c	0.12602061
12	0xbd7a3cc2	-0.0610931
13	0x3da97f75	0.082762636
14	0xbd47763e	-0.04869675
15	0xbd94674a	-0.07246263
16	0xbdb2d241	-0.08731509
17	0xbdb5dd88	-0.08880144
18	0xbd99ad89	-0.07503802
19	0xbd9b6f84	-0.07589629
20	0xbd54dd0d	-0.051968623
21	0xbdbf2da7	-0.09334879
22	0xbddc007a	-0.107422784
23	0x3e0758e0	0.13217497
24	0xbde983b6	-0.11402075
25	0xbd34bd2b	-0.044125717
26	0x3da7feab	0.08202871
27	0x3dca7885	0.098862685
28	0xbd1746c1	-0.03693271
29	0xbe0f1bce	-0.1397545
30	0x3d8aae2a	0.067715004
31	0xbe1279a8	-0.1430422
32	0xbdad8578	-0.08472723
33	0xbda7fe40	-0.08202791
34	0xbd586b5b	-0.052836757
35	0xbd94d3de	-0.07266973
36	0x3d04c3a5	0.032413144
37	0xbe174b52	-0.14774826
38	0xbca67e1e	-0.02032381
39	0x3e1f42c8	0.15552819
40	0x3e48b3eb	0.19599883
41	0xbce920a2	-0.028457943
42	0x3d49c69a	0.049261667
43	0xbe3665ea	-0.17812315
44	0xbd936cc8	-0.07198483
45	0x3e20d9c2	0.15708068
46	0x3da5087d	0.0805826
47	0xbd9b5ba6	-0.0758584
48	0x3c631e28	0.01386217
49	0x3ddb0dcd	0.10695992
50	0xbcfe893a	-0.031071294
51	0xbcf56ff6	-0.029960614
52	0x3d2d2af7	0.042277303
53	0x3da770ee	0.081758365
54	0xbd0a43ee	-0.03375619
55	0x3da7c4de	0.08191846
56	0x3e305b42	0.17222312
57	0x3d98cca9	0.07460911
58	0x3ddb9302	0.10721399
59	0xbd1f3e4a	-0.038877763
60	0x3de6fc25	0.112785615
61	0x3e27f959	0.16403712
62	0xbdd0619b	-0.10174867
63	0xbcc62eac	-0.024192177
64	0x3c8c2813	0.017108953
65	0x3d404b86	0.046947025
66	0xbdb93f08	-0.090452254
67	0xbd8a9082	-0.06765844
68	0xbd758b83	-0.059947502
69	0x3d0e6cdf	0.034771796
70	0xbcc6ba75	-0.024258832
71	0xbd41315e	-0.04716622
72	0x3cc1ca82	0.023656134
73	0xbd459b1e	-0.048243634
74	0xbdb431de	-0.08798574
75	0x3d9841ee	0.0743445
76	0x3dca4410	0.09876263
77	0x3d3c4e52	0.04597313
78	0x3d9f9583	0.07792189
79	0xbdc266a9	-0.09492237
80	0xbe1ca289	-0.15296377
81	0xbc546eee	-0.012965901
82	0x3d9fa70c	0.077955335
83	0xbc0a2c07	-0.0084333485
84	0x3e591c1d	0.2120213
85	0xbaf4039a	-0.0018616796
86	0x3d88b478	0.06675047
87	0x3c01c4a6	0.00792042
88	0x3d5b4eed	0.053542066
89	0x3cbb3ccb	0.022856137
90	0x3dd1574e	0.1022173
91	0x3d67c4e0	0.05658424
92	0xbd3f1233	-0.046648216
93	0x3d16b534	0.036793903
94	0xbdad4c56	-0.084618255
95	0xbdfbd215	-0.12295929
96	0xbdb912c1	-0.0903678
97	0xbe0be3fc	-0.13661188
98	0x3d2d55e2	0.042318232
99	0xbdd2ba4e	-0.10289441
100	0x3d8a9132	0.06765975
101	0x3dd97bdd	0.10619328
102	0xbe22a2b3	-0.15882377
103	0x3dee183a	0.116257146
104	0xbd3e1f0b	-0.046416324
105	0x3d1b969b	0.037985425
106	0xbd325426	-0.04353728
107	0x3e4b1e9c	0.19835895
108	0xbd206a4e	-0.03916388
109	0xbd151deb	-0.036405485
110	0x3e5f087d	0.21780582
111	0x3b4fc273	0.0031701594
112	0xbd027a32	-0.031854816
113	0x3da95b39	0.082693525
114	0xbe142027	-0.1446539
115	0xbdf6e0d3	-0.120546006
116	0xbdc0baa2	-0.094105974
117	0xbe25c5a6	-0.16188678
118	0x3c74ac52	0.0149336625
119	0x3d878890	0.06617844
120	0x3d17ccb7	0.037060466
121	0xbe112ef4	-0.14178067
122	0xbcce9dd5	-0.025221745
123	0x3e00609d	0.12536855
124	0xbe267995	-0.16257317
125	0xbda5d455	-0.0809714
126	0x3e4de253	0.20105867
127	0xbe67854e	-0.22609445
128	0xbbd6cf58	-0.006555479
129	0x3dc29f15	0.09502999
130	0xbcc02dc3	-0.02345932
131	0x3d899655	0.06718127
132	0xbe0c75a3	-0.1371675
133	0x3db75d1e	0.089533076
134	0xbd6ec3b5	-0.05829211
135	0xbcc0a6ac	-0.023516975
136	0xbe150eb5	-0.14556392
137	0xbdc80e30	-0.09768331
138	0x3d3dc8b8	0.046334
139	0xbcbf13ae	-0.023324814
140	0x3d30df8f	0.043181952
141	0xbdd50f30	-0.104032874
142	0x3e704392	0.23463276
143	0x3e35195d	0.17685457
144	0x3da4aa8a	0.0804034
145	0x3dc3d146	0.095614
146	0xbc8c37b9	-0.017116414
147	0xbdf2e12e	-0.11859356
148	0xbe00fa5d	-0.12595506
149	0x3d2a2e3e	0.041548006
150	0x3db21b43	0.08696606
151	0x3d19ca6d	0.037546564
152	0xbdeeef96	-0.11666791
153	0x3cac2117	0.021011872
154	0xbdafd35e	-0.08585237
155	0x3dd1fc9d	0.1025326
156	0x3e133be2	0.14378312
157	0xbe1e47be	-0.15457055
158	0x3d968a50	0.073506
159	0x3e1c65a2	0.15273145
160	0x3d733a5a	0.05938182
161	0xbe02d066	-0.1277481
162	0xbddc747b	-0.107644044
163	0x3e35ea48	0.17765152
164	0xbd6d1f12	-0.05789096
165	0xbcdba683	-0.026812797
166	0xbd2bdccc	-0.041958615
167	0xbe2e8e46	-0.1704646
168	0xbdbd851c	-0.09253904
169	0x3da40065	0.08007888
170	0xbdd10b12	-0.102071896
171	0xbd156ca2	-0.036480553
172	0xbe3ef193	-0.18646841
173	0x3e0e9aa3	0.13926177
174	0xbd17ffc2	-0.037109144
175	0x3e012875	0.1261309
176	0x3e1ebbe8	0.15501368
177	0x3e0f556b	0.13997428
178	0xbe1eef5c	-0.15520996
179	0x3b801c0d	0.003909594
180	0x3cdaf9d3	0.026730454
181	0xbb2d37bb	-0.0026430923
182	0x3e26cf8a	0.16290107
183	0xbce849bd	-0.028355474
184	0xbe15ad19	-0.14616813
185	0x3e10f930	0.14157557
186	0xbe16d2ee	-0.14728901
187	0xbe297060	-0.16546774
188	0xbd9c0bd0	-0.076194406
189	0xbcba8751	-0.022769602
190	0xbdbdf845	-0.09275869
191	0x3ca4f123	0.020134514
192	0xbcda9c2b	-0.026685795
193	0xbd8aa0cb	-0.0676895
194	0x3e47062f	0.19435953
195	0x3de7f1b8	0.11325401
196	0x3e3c1832	0.18368605
197	0x3d751638	0.059835643
198	0x3d4bcfda	0.04975877
199	0x3b603f5d	0.0034217455
200	0x3e03fea8	0.12890112
201	0x3e249ae8	0.16074717
202	0xbe1706ae	-0.14748642
203	0xbd3f5f32	-0.046721645
204	0xbe13d4ec	-0.14436692
205	0x3dd1a8bd	0.102372624
206	0xbe0bd76e	-0.13656399
207	0x3d3b0441	0.045658354
208	0x3d6d630b	0.057955783
209	0xbe03342e	-0.12812874
210	0x3cd067ca	0.025440115
211	0xbd0ebfbf	-0.034850832
212	0xbdd174eb	-0.102273785
213	0xbdd1fbea	-0.10253127
214	0x3e20889a	0.1567711
215	0x3dd24188	0.10266405
216	0x3d615be2	0.055019267
217	0xbda71e6c	-0.081600994
218	0x3d630f4e	0.055434518
219	0xbe2228f2	-0.15835932
220	0x3d189bc0	0.03725791
221	0xbdf621de	-0.120181784
222	0xbd88629a	-0.06659432
223	0xbe27d4f8	-0.16389835
224	0x3c716ac8	0.014734931
225	0x3dba9baa	0.09111722
226	0xbdc80a9a	-0.09767647
227	0xbdbf04ea	-0.09327109
228	0xbde42793	-0.11140361
229	0xbe52face	-0.20603487
230	0x3e2d98f2	0.16952875
231	0xbd61e912	-0.055153914
232	0xbdc218f1	-0.094774134
233	0xbe5a1fdb	-0.21301214
234	0x3dbe78be	0.093003735
235	0xbda55efa	-0.08074756
236	0x3cb03f16	0.021514457
237	0xbcd6e1d6	-0.026230734
238	0xbdee868b	-0.11646756
239	0x3dc062b0	0.09393823
240	0xbd799d8e	-0.06094127
241	0xbd905195	-0.070468105
242	0x3cb6a412	0.022295032
243	0x3d5172e2	0.05113495
244	0x3d785535	0.060628135
245	0x3e3fab4b	0.18717687
246	0x3dbe17f6	0.09281914
247	0xbe3251d4	-0.17414027
248	0x3d614d16	0.055005156
249	0x3c83c1ca	0.016083617
250	0x3c8f462c	0.017489515
251	0x3d06b53a	0.032887675
252	0xbd9a0086	-0.07519631
253	0xbe29c20e	-0.16577932
254	0xbb5b7578	-0.0033486765
255	0x3df085cb	0.11744269

emb_module.projection.conv.bias f4 [64]
0	0xb98c12e6	-0.0002671696
1	0xbdc341c9	-0.09534032
2	0x3d0d8eaa	0.034559883
3	0xbcb06fa5	-0.021537611
4	0x3d8caafe	0.06868552
5	0xbdb017f6	-0.0859832
6	0xbd786bf0	-0.060649812
7	0x3e1b3ef1	0.15160729
8	0x3da389c2	0.079852596
9	0x3e1263b1	0.14295842
10	0xbde75cca	-0.11296995
11	0x3b84ea4b	0.00405625
12	0x3e2ade50	0.16686368
13	0xbcab2389	-0.020890968
14	0x3cab1272	0.020882819
15	0xbdd9b9f0	-0.10631168
16	0x3d80d29b	0.0629017
17	0x3e000843	0.12503152
18	0x3d0d66a5	0.034521718
19	0x3de58488	0.11206919
20	0xbde18c10	-0.11013043
21	0xbd181da4	-0.037137643
22	0x3da9d662	0.082928434
23	0x3e04eeb6	0.12981686
24	0xbc958a16	-0.018254321
25	0xbdcf086b	-0.101090275
26	0xbdbe1b5b	-0.092825614
27	0xbdacb26d	-0.084324695
28	0x3c1a9882	0.009435775
29	0x3dcc2daa	0.09969647
30	0x3c6ca10e	0.014442695
31	0x3d613ef8	0.054991692
32	0x3de06266	0.10956268
33	0x3d39aaa6	0.04532876
34	0x3d95e39b	0.07318803
35	0x3d4a72d0	0.0494259
36	0x3d032101	0.032013897
37	0xbdf5be22	-0.119991556
38	0x3d530b7d	0.051524628
39	0xbcd7631a	-0.026292372
40	0x3d6faf80	0.05851698
41	0xbdf8c9e6	-0.12147884
42	0x3db52314	0.08844581
43	0x3da84ad3	0.082173966
44	0xbca38fd1	-0.019966038
45	0xbc8d7792	-0.01726893
46	0x3d4de662	0.05026854
47	0x3b9d9d8a	0.00481004
48	0xbe1c6578	-0.15273082
49	0x3e02cda0	0.12773752
50	0xbc914a5e	-0.017735656
51	0x3db3d62c	0.087810844
52	0x3b96f6e2	0.0046070674
53	0xbc03c984	-0.008043651
54	0xbe106632	-0.14101484
55	0x3d50edf5	0.051008184
56	0xbdd30c10	-0.10305035
57	0xbdaa8588	-0.0832625
58	0xbd472b90	-0.04862553
59	0x3e1c23f5	0.15248092
60	0xbd85a546	-0.06525664
61	0xbd1b65a4	-0.03793873
62	0x3df923d0	0.12165034
63	0x3da26e52	0.07931198

VanillaLSTM.rnn.weight_ih_l0 f4 [256, 64]
0	0x3dcdbf72	0.10046281
1	0x3dd3afc3	0.10336258
2	0xbe59adfe	-0.21257779
3	0xbe6932c6	-0.22773275
4	0x3e2895f4	0.16463453
5	0x3e20bcbd	0.15696998
6	0xbe1ad6e8	-0.15121043
7	0x3da50b6e	0.08058821
8	0xbc86bcd5	-0.016447464
9	0xbd3da63d	-0.046301115
10	0xbe02d342	-0.12775901
11	0xbc576365	-0.013146256
12	0xbe048b3e	-0.12943742
13	0x3e0e705a	0.13910046
14	0xbd4bc437	-0.049747672
15	0xbdc2504a	-0.0948797
16	0x3d20704a	0.039169587
17	0xbdb9ab67	-0.090658955
18	0xbd3c6b44	-0.046000734
19	0x3e10d5a5	0.14143999
20	0x3d07c48a	0.03314642
21	0x3d9f6460	0.07782817
22	0x3df179ae	0.11790787
23	0xbcb170e1	-0.02166027
24	0x3de5db7d	0.11223505
25	0xbd34a672	-0.044104047
26	0x3daf6fdb	0.085662566
27	0x3ded8380	0.11597347
28	0xbc318d45	-0.010836904
29	0x3eb18dd8	0.3467853
30	0xbe448a59	-0.191934
31	0x3bec77fd	0.007216452
32	0x3dc25fad	0.09490905
33	0x3cae64a6	0.021288227
34	0xbde1c0b2	-0.11023082
35	0x3de5602b	0.11199983
36	0xbb214f67	-0.0024613978
37	0x3e41776d	0.18893214
38	0x3e268bd5	0.16264279
39	0x3c36a5ca	0.011147926
40	0xbd533dba	-0.05157254
41	0xbe30ccc6	-0.17265615
42	0x3dcd7646	0.100323245
43	0xbe67368b	-0.225794
44	0x3dc8ffc0	0.098144054
45	0xbd8a28ae	-0.0674604
46	0x3e74a8cb	0.23892514
47	0x3e0cbe12	0.13744381
48	0xbcf7ee18	-0.0302649
49	0x3d9d467d	0.0767946
50	0x3e1f3956	0.15549216
51	0x3e024e56	0.12725195
52	0x3e0592c1	0.13044263
53	0xbd1092c8	-0.03529623
54	0x3b42577a	0.002965419
55	0x3dd6f070	0.104950786
56	0x3d97a4b8	0.074044645
57	0xbb5539cb	-0.0032535668
58	0x3b66ce75	0.0035218273
59	0xbe15675e	-0.14590213
60	0xbe445b34	-0.19175416
61	0x3dbec736	0.0931534
62	0x3e79b3a8	0.2438494
63	0xbca1a4dc	-0.019731931
64	0x3d108de9	0.035291586
65	0xbd2b394d	-0.041802693
66	0xbdac3b9c	-0.08409807
67	0xbd205aec	-0.03914921
68	0xbd392820	-0.04520428
69	0x3c434d84	0.011920337
70	0xbd4bccbd	-0.0497558
71	0x3c721ae3	0.014776918
72	0xbe166efe	-0.14690778
73	0xb9a18572	-0.00030807737
74	0xbe2856d1	-0.16439368
75	0x3c795722	0.015218528
76	0xbe61d063	-0.2205215
77	0x3cd98a33	0.026555156
78	0xbd7bfdba	-0.06152127
79	0xbe1c6065	-0.15271147
80	0xbdb3a75f	-0.08772158
81	0x3ca867a8	0.02055724
82	0xbd948cbb	-0.07253405
83	0xbc8b6585	-0.017016182
84	0x3df693f0	0.120399356
85	0x3c2fb05b	0.010723199
86	0xbddef60b	-0.10886773
87	0x3e0c1d2a	0.13683
88	0xbc4397bf	-0.011938035
89	0x3e2b71f5	0.1674269
90	0x3e45c319	0.19312705
91	0x3e174973	0.14774112
92	0xbcfb73eb	-0.030694922
93	0x3e9d479f	0.30718705
94	0xbe3ea19f	-0.18616341
95	0xbd19e270	-0.037569463
96	0xbd8c9a91	-0.06865419
97	0xbd2a11c6	-0.041520856
98	0x3c3eaaff	0.011637448
99	0x3e4b5e57	0.19860207
100	0xbc6ee0d5	-0.014579971
101	0xbd4746dd	-0.048651565
102	0x3c86a209	0.016434686
103	0xbc2cf51f	-0.010556488
104	0x3d5ea06a	0.0543522
105	0xbdf90ea2	-0.12160994
106	0x3b9c3be9	0.004767884
107	0x3dc1aaf5	0.094564356
108	0x3d9cae99	0.07650489
109	0xbde79b0a	-0.11308868
110	0x3d9fc5f0	0.078014255
111	0xbc29f610	-0.010373607
112	0x3c2c08fd	0.01050019
113	0xbc8f9880	-0.017528772
114	0x3d5e0323	0.05420221
115	0xbe45b94d	-0.19308968
116	0xbe23330e	-0.15937445
117	0x3e14beae	0.14525864
118	0x3e2832a1	0.16425563
119	0xbd49246c	-0.049107
120	0x3dba9e36	0.091122076
121	0xbd3ae55e	-0.045628898
122	0xbdad2b2b	-0.08455499
123	0xbd8291a2	-0.063754335
124	0xbd5f0ff3	-0.05445857
125	0x3cd8124b	0.02637591
126	0xbdb5cd3a	-0.088770345
127	0xbdb3b745	-0.0877519
128	0x3d4ed0db	0.05049215
129	0xbc9189b1	-0.017765852
130	0xbdc3daed	-0.09563241
131	0xbcc46e52	-0.023978386
132	0x3d5255ea	0.051351465
133	0x3e1e6573	0.15468387
134	0x3e54a8a6	0.2076746
135	0x3dc37f21	0.09545732
136	0xbd1f8716	-0.038947187
137	0x3d76ca0b	0.060251277
138	0xbe84f449	-0.25967625
139	0x3dd59ede	0.10430692
140	0x3e76adca	0.24089733
141	0x3dafc40c	0.08582315
142	0x3ca60b82	0.02026916
143	0x3d4a67bd	0.04941534
144	0x3cb44c5c	0.022009067
145	0x3ca04d6d	0.01956817
146	0x3d5f6903	0.054543506
147	0x3c5d691d	0.0135138305
148	0xbe24d046	-0.16095075
149	0xbe45baec	-0.19309586
150	0x3d6df78b	0.058097403
151	0x3e0d03c8	0.13770974
152	0x3e17cf24	0.14825112
153	0xbe7c5d1e	-0.24644896
154	0xbdb831aa	-0.08993848
155	0xbc715ee6	-0.014732098
156	0xbdd60c5b	-0.10451575
157	0x3d95e6ba	0.07319398
158	0xbadd0f1d	-0.0016865466
159	0x3e467421	0.19380237
160	0x3e60b08b	0.21942346
161	0x3d8e76e2	0.06956269
162	0xbdec28e8	-0.1153124
163	0x3e5979be	0.21237847
164	0xbda672ac	-0.08127341
165	0x3e0c394f	0.13693736
166	0x3c3ca2d6	0.0115134325
167	0x3c0f3f9b	0.008743192
168	0x3e52dd56	0.20592245
169	0xbdcae03a	-0.09906049
170	0x3c201202	0.009769918
171	0x3de78aad	0.11305747
172	0xbd86268e	-0.065503225
173	0xbe84417f	-0.2583122
174	0x3dcc741c	0.099830836
175	0xbd80e94a	-0.06294496
176	0x3d182509	0.037144694
177	0x3e5c7e62	0.21532586
178	0xbdb0f489	-0.086403914
179	0x3e65ed85	0.22453888
180	0x3dac27a3	0.084059976
181	0x3d9a1de7	0.07525235
182	0xbdf26f33	-0.11837616
183	0x3c2e4d7e	0.010638593
184	0x3e09703d	0.13421722
185	0x3e5f70a3	0.21820311
186	0x3ce94ca8	0.028478935
187	0x3c19e343	0.009392562
188	0x3dff5816	0.12467973
189	0x3c0741fa	0.008255476
190	0x3e09f484	0.13472182
191	0xbd5323ed	-0.051547933
192	0xbd8133e2	-0.06308724
193	0x3debefce	0.115203485
194	0xba7e7ff8	-0.00097084
195	0xbe00101e	-0.12506148
196	0x3cae0764	0.021243758
197	0x3e0d4331	0.13795163
198	0xbe15cf67	-0.14629899
199	0xbd9406e0	-0.07227874
200	0xbdf07b18	-0.11742228
201	0xbe558740	-0.20852375
202	0xbe41dbe2	-0.18931535
203	0x3d4025b7	0.046910968
204	0x3d443969	0.047906313
205	0x3dde693b	0.10859915
206	0xbe1801c6	-0.14844427
207	0x3e5ddd1d	0.2166638
208	0x3ccd3772	0.025050852
209	0x3cc0aa11	0.023518594
210	0x3e0f040d	0.13966389
211	0xbdcbae96	-0.09945409
212	0x3d884be1	0.06655098
213	0x3e477f4a	0.1948215
214	0x3dccd54a	0.10001619
215	0x3d560f3a	0.052260615
216	0x3dbb6069	0.09149248
217	0xbd2833a6	-0.04106488
218	0xbd2f4b62	-0.0427965
219	0xbd99452f	-0.07483899
220	0x3e1ba8c8	0.15201104
221	0xbe50a01e	-0.2037358
222	0x3e320322	0.17384008
223	0xbdaa29de	-0.08308767
224	0x3daf7769	0.085676976
225	0x3cc3e8a2	0.023914639
226	0xbdd47082	-0.10373022
227	0xbde15c88	-0.11003977
228	0x3d91ab1a	0.07112713
229	0x3de2a4ba	0.11066575
230	0xbd8820c5	-0.06646875
231	0x3e5eafdb	0.21746771
232	0x3d13a521	0.03604615
233	0xbd95a154	-0.073061615
234	0xbdf04130	-0.117311835
235	0xbdda8bb5	-0.10671178
236	0xbe2f2345	-0.17103298
237	0xbe24df30	-0.16100764
238	0xbc76841a	-0.015046144
239	0x3e865ceb	0.26242766
240	0xbdb09793	-0.086226605
241	0x39c6f012	0.0003794437
242	0x3d45b800	0.04827118
243	0xbdf39d96	-0.118952915
244	0xbe175d3e	-0.14781663
245	0x3e07ade6	0.1324993
246	0x3d97a096	0.07403676
247	0xbd041512	-0.032246657
248	0xbe70396d	-0.23459406
249	0x3ce8bf7d	0.028411621
250	0xbe1c2468	-0.15248263
251	0x3e7ed4a0	0.24885798
252	0x3d39d1ae	0.04536598
253	0xbdf3ec28	-0.119102776
254	0x3cdab69a	0.0266984
255	0xbe8888b3	-0.26666793

VanillaLSTM.rnn.weight_hh_l0 f4 [256, 64]
0	0xbd8eea7e	-0.069783196
1	0xbe853527	-0.26017115
2	0x3e66d96b	0.22543876
3	0xbd02a956	-0.031899773
4	0x3da637a2	0.0811608
5	0xbe44895d	-0.19193025
6	0xbe03f3d2	-0.12885979
7	0xbe1365c2	-0.14394286
8	0x3b57e610	0.0032943524
9	0xbe807482	-0.25088888
10	0x3e09b96a	0.13449636
11	0xbd5402d2	-0.051760502
12	0xbde0a6e5	-0.109693326
13	0xbc1d1d56	-0.009589514
14	0x3e1ca88d	0.15298672
15	0x3e11b248	0.14228165
16	0x3e2a7fda	0.16650334
17	0xbd4e22ab	-0.05032603
18	0x3e1af363	0.15131907
19	0x3d67d42e	0.056598835
20	0xbe31e717	-0.1737331
21	0xbc410f26	-0.011783397
22	0x3c04fc05	0.008116727
23	0xbddd1dba	-0.107966855
24	0xbe3600c4	-0.1777373
25	0xbe15c100	-0.14624405
26	0xbea046f6	-0.3130414
27	0x3df40218	0.11914462
28	0xbe0981e6	-0.13428459
29	0xbd9798d9	-0.074022
30	0xbc70f10d	-0.0147059085
31	0xbe22caba	-0.15897647
32	0x3e087db3	0.133292
33	0xbca2f466	-0.019891929
34	0xbe2b0422	-0.16700795
35	0x3d610415	0.054935534
36	0x3ce783a5	0.028261015
37	0x39733f33	0.0002319783
38	0x3d836b2b	0.06416925
39	0x3e31cfcb	0.17364423
40	0xbd47f385	-0.048816223
41	0xbc37cdef	-0.011218532
42	0xbe1e8f2d	-0.15484305
43	0xbe4af0cb	-0.19818418
44	0xbd38da8e	-0.045130305
45	0x3df8020a	0.12109764
46	0x3e492d7d	0.19646259
47	0xbca0d762	-0.019633953
48	0x3e645615	0.22298463
49	0x3df7b7be	0.12095593
50	0xbe4c562e	-0.1995475
51	0x3b345207	0.0027514712
52	0x3e2878dd	0.16452356
53	0xbea0a4dc	-0.31375778
54	0xbde09408	-0.10965735
55	0x3e6e94f6	0.23299012
56	0xbccd3462	-0.025049392
57	0x3e0dc83e	0.13845918
58	0xbe051829	-0.12997498
59	0x3d56d02d	0.052444626
60	0x3d4be628	0.04978004
61	0x3e1ce93b	0.15323345
62	0x3da6df0e	0.08148013
63	0xbe87b7d0	-0.26507425
64	0x3af41648	0.0018622363
65	0xbd5f15fb	-0.05446432
66	0x3ca6249e	0.020281132
67	0xbdb6aff7	-0.089202814
68	0xbd8e2905	-0.069414176
69	0xbe01136d	-0.12605067
70	0xbdb23160	-0.08700824
71	0xbe265e5d	-0.16246934
72	0xbc6a9b68	-0.014319278
73	0xbdc79441	-0.09745074
74	0xbd180b2b	-0.037120026
75	0xbe349c2e	-0.17637703
76	0xbc9674ae	-0.018366184
77	0xbdcc658d	-0.09980307
78	0xbd000fca	-0.031265058
79	0xbd60f066	-0.05491676
80	0x3db8297c	0.089922875
81	0xbd530e3d	-0.05152725
82	0x3d41f25a	0.047350265
83	0x3ddf2228	0.10895187
84	0x3bcd8372	0.006271773
85	0x3d8f4965	0.06996421
86	0xbd840ed6	-0.06448142
87	0x3cc8b23e	0.024499055
88	0xbdab046f	-0.08350455
89	0xbd5ea7d3	-0.05435927
90	0x3cff0e53	0.03113476
91	0x3cc1adf9	0.023642527
92	0xbe0422bb	-0.12903874
93	0xbcbab3ce	-0.022790816
94	0x3d82f58a	0.06394489
95	0xbdba9551	-0.09110511
96	0xbe1e6486	-0.15468034
97	0x3e413c5f	0.18870686
98	0xbdf1323d	-0.1177716
99	0x3d83f12f	0.064424865
100	0x3e0d6642	0.1380854
101	0x3dfd0c9d	0.123559214
102	0x3d856b6e	0.06514631
103	0x3cae78b3	0.021297788
104	0x3c8de59e	0.017321404
105	0xbd91a8f9	-0.07112307
106	0xbe40b330	-0.18818355
107	0xbdb30df6	-0.08742897
108	0x3b1fc013	0.002437596
109	0x3c792b20	0.015208036
110	0x3e81d711	0.25359395
111	0x3e2ed9e4	0.17075306
112	0x3d4dbde3	0.05022992
113	0x3c304dd0	0.010760739
114	0xbd8199f5	-0.06328193
115	0x3c940789	0.01807
116	0x3da3bc21	0.07994867
117	0x3a9b6472	0.0011855497
118	0xbdf0e51e	-0.11762451
119	0x3daf928c	0.085728735
120	0xbdff0e2e	-0.124538764
121	0x39de036d	0.00042345692
122	0xbd32a5d4	-0.043615177
123	0xbe92e686	-0.286915
124	0x390af2fa	0.00013251221
125	0x3ddb80db	0.107179366
126	0x3e050322	0.12989476
127	0xbd8cf855	-0.06883303
128	0x3e2b821e	0.16748855
129	0xbe8274b2	-0.25479656
130	0xbd6ee58e	-0.05832439
131	0x3d01c2bf	0.031679865
132	0x3d75005d	0.0598148
133	0xbcd1680b	-0.025562307
134	0x3dfc08c6	0.12306361
135	0x3e6f259a	0.23354188
136	0xbcd3e0a3	-0.025863951
137	0xbc38fb4a	-0.011290381
138	0xbd1d1e49	-0.03835896
139	0xbd3b5168	-0.045731932
140	0xbd8183a4	-0.063239366
141	0x3cd25e62	0.02567977
142	0x3df5a2da	0.11993952
143	0x3e4553d3	0.19270258
144	0xbcf3ba93	-0.029752051
145	0xbe724298	-0.23658216
146	0x3de23543	0.11045315
147	0xbd9ebb4e	-0.07750569
148	0x3e6958ee	0.2278783
149	0xbd8c5f09	-0.06854064
150	0xbe27f679	-0.16402616
151	0xbe54b6e5	-0.20772894
152	0xbd10ef39	-0.03538439
153	0xbdeee345	-0.11664442
154	0xbe72d712	-0.23714855
155	0x3d96d048	0.07363945
156	0xbd50c740	-0.05097127
157	0x3e0435b6	0.12911114
158	0x3e6e81dd	0.23291726
159	0x3d21ae8e	0.03947311
160	0x3dd2e782	0.10298063
161	0x3cdf93c6	0.027292144
162	0x3d5c5312	0.05379016
163	0xbda2372d	-0.0792068
164	0xbc3d4d48	-0.01155407
165	0xbc64637d	-0.0139397355
166	0x3e2e0b3a	0.1699647
167	0x3c5a691b	0.013330723
168	0xbdc3ad98	-0.09554595
169	0xbec0a733	-0.37627563
170	0xbe1ee62a	-0.15517488
171	0x3d07558b	0.033040565
172	0x3e10c696	0.14138255
173	0x3ddbb2fe	0.107274994
174	0x3e1ca1b5	0.15296061
175	0x3e1b8eae	0.15191147
176	0x3df00f90	0.11721718
177	0xbe0a3d4c	-0.13499945
178	0x3e853fce	0.26025242
179	0x3e4b9287	0.19880114
180	0xbcbab728	-0.022792414
181	0x3c121177	0.008915297
182	0xbdb0bc92	-0.08629717
183	0x3e8b9900	0.27265167
184	0x3cfedd48	0.031111374
185	0x3d8a3516	0.067484066
186	0xbdd30f66	-0.103056714
187	0xbe3df766	-0.18551406
188	0x3e10280d	0.14077778
189	0x3d23079e	0.039802186
190	0x3e1764ba	0.14784518
191	0x3d7fec08	0.062480956
192	0x3d984016	0.074340984
193	0xbe177a5a	-0.14792767
194	0x3e94893d	0.29010954
195	0xbcfc4675	-0.030795315
196	0x3e20e36a	0.15711752
197	0xbe69a876	-0.22818169
198	0x3d4383cc	0.047733113
199	0xbe213892	-0.15744236
200	0xbe2b4aa4	-0.16727692
201	0xbc187bf7	-0.009306899
202	0x3dcc1bc8	0.09966236
203	0xbda29d8e	-0.079402074
204	0xbd367856	-0.044548355
205	0x3e8abd96	0.27097768
206	0x3b25cf7d	0.0025300675
207	0x3ead19dd	0.33808795
208	0x3e8bd709	0.27312496
209	0x3d918be5	0.07106761
210	0x3d826e96	0.06368749
211	0xbdeea453	-0.11652436
212	0xbca74fb3	-0.020423746
213	0xbe640f6e	-0.22271511
214	0x3da8905c	0.08230659
215	0x3db309f4	0.08742133
216	0xbe7b319a	-0.2453064
217	0xbd8b1030	-0.06790197
218	0xbbb71515	-0.00558723
219	0xbcd4d358	-0.025979683
220	0xbd0a5427	-0.03377166
221	0x3d029d45	0.031888265
222	0xbdd4341d	-0.10361502
223	0xbdcc8841	-0.09986926
224	0x3d066a45	0.03281619
225	0x3e857008	0.26062036
226	0x3cb01afb	0.02149724
227	0x3d74435e	0.05963456
228	0x3d3c6654	0.045996025
229	0xbe062c34	-0.131028
230	0x3d801422	0.0625384
231	0x3ed53a50	0.4164605
232	0x3a9ab867	0.0011804224
233	0xbe008838	-0.12551963
234	0x3d71b3f8	0.059009522
235	0xbdf5e47e	-0.12006472
236	0xbe86bb90	-0.26314974
237	0x3dfa950d	0.122354604
238	0x3cf24050	0.029571682
239	0x3e0ff6fe	0.14059064
240	0x3eb787f6	0.35845917
241	0x3de84352	0.11340965
242	0xbde59ea8	-0.11211902
243	0xbe284d0b	-0.1643564
244	0x3de2cfc5	0.11074785
245	0xbe358e07	-0.1772996
246	0x3d96fdf2	0.07372655
247	0x3ea77eec	0.3271402
248	0x3dffcc66	0.12490158
249	0x3c23ddf0	0.0100016445
250	0x3c64a346	0.013954943
251	0x3c6f727a	0.014614696
252	0x3e2e75d8	0.17037141
253	0xbd4e1a96	-0.050318323
254	0x3d6824f5	0.05667587
255	0xbe80a8cd	-0.25128785

VanillaLSTM.rnn.bias_ih_l0 f4 [256]
0	0x3dfb0beb	0.122581325
1	0x3c20932d	0.009800714
2	0x3e4b3480	0.19844246
3	0x3d1df076	0.0385594
4	0x3dcac3a5	0.099005975
5	0x3de2dcca	0.110772684
6	0xbd8d3202	-0.06894304
7	0x3d31a96e	0.04337447
8	0x3e125ffe	0.1429443
9	0x3e05e68b	0.13076226
10	0x3e02e595	0.12782891
11	0x3e94a6f0	0.29033613
12	0x3e944a3a	0.2896288
13	0x3d32fc77	0.0436978
14	0x3857a14e	5.141022e-05
15	0x3e1dd366	0.15412673
16	0xbcf70fd3	-0.030158913
17	0xbd70c566	-0.058782004
18	0xbd671f50	-0.056426346
19	0x3e315378	0.17316997
20	0x3d102661	0.03519285
21	0x3bac9f86	0.00526804
22	0x3c806ba2	0.015676323
23	0xbae4ad1d	-0.0017446611
24	0xbde65960	-0.11247516
25	0x3d155055	0.036453564
26	0x3d4dd545	0.050252218
27	0xbc4d9155	-0.012546857
28	0x3d99aa5c	0.075031966
29	0xbcaa1ade	-0.020764764
30	0x3e82b552	0.2552896
31	0xbc25491c	-0.010088231
32	0x3d800b66	0.06252174
33	0x3dcc0ddf	0.09963583
34	0x3e53d94e	0.20688364
35	0x3d5d29de	0.053995006
36	0xbb9747fd	-0.004616736
37	0x3d5d655a	0.054051735
38	0x3e10793f	0.14108752
39	0x3def2653	0.11677232
40	0x3db8825a	0.090092376
41	0x3da51ec8	0.08062512
42	0x3dcec3c5	0.10095934
43	0x3e331e82	0.17492107
44	0x3e5ac355	0.21363576
45	0x3e64dec3	0.22350602
46	0x3e34b5c7	0.17647468
47	0xbbd9baf3	-0.0066446005
48	0x3e2e0092	0.16992405
49	0x3bd791a8	0.006578643
50	0x3cf28ba3	0.0296076
51	0x3b431350	0.002976615
52	0x3c241747	0.010015315
53	0x3d8b219e	0.06793521
54	0x3ba666c6	0.0050781695
55	0xbcd2c61e	-0.025729235
56	0x3e4c352d	0.1994216
57	0xbddfc886	-0.10926919
58	0xbe0f3e19	-0.13988532
59	0x3bdbf1f8	0.0067121945
60	0x3e5c2966	0.21500167
61	0x3c39a06b	0.0113297505
62	0x3cb113ea	0.021615941
63	0xbd4c895e	-0.04993569
64	0x3d8dec4e	0.06929837
65	0x3d38ba63	0.045099627
66	0x3cec6430	0.028856367
67	0x3e3ffe16	0.1874927
68	0x3decd655	0.11564318
69	0xbd8892e6	-0.06668644
70	0x3e3432f7	0.17597567
71	0x3e60946a	0.21931615
72	0x3d851d1a	0.06499691
73	0x3dd9178a	0.10600193
74	0x3ce865b0	0.0283688
75	0xbd456b1a	-0.048197843
76	0x3dccf88b	0.10008343
77	0x3c28dec6	0.01030702
78	0x3df8de25	0.12151746
79	0x3e1fd5d6	0.15608916
80	0x3df41ff3	0.11920156
81	0x3e0120a8	0.12610114
82	0xbc0b3fd6	-0.008499106
83	0x3d13967e	0.036032192
84	0x3d130ac4	0.03589894
85	0xbc9c23b5	-0.019059995
86	0x3db496ea	0.08817847
87	0x3b41bde3	0.0029562644
88	0x3e2bf084	0.16790968
89	0x3dfa5615	0.1222345
90	0xbcb9c426	-0.022676539
91	0xbd3b697e	-0.045754902
92	0xbce48b7b	-0.02789854
93	0x3d23e36a	0.0400118
94	0xbc08429b	-0.008316661
95	0x3d12d43f	0.035846945
96	0x3e09901a	0.13433877
97	0x3dde64de	0.10859083
98	0x3e53dff3	0.20690899
99	0x3dac309a	0.084077075
100	0x3d9244ec	0.07142052
101	0x3e44e629	0.19228424
102	0x3d41ae39	0.047285292
103	0x3e0be2d4	0.13660747
104	0x3e73490b	0.23758332
105	0xbc854080	-0.016266108
106	0x3dc456ca	0.09586866
107	0x3dee0393	0.116217755
108	0x3e07833e	0.13233659
109	0xbc9865d7	-0.018603249
110	0x3db0f46e	0.08640371
111	0x3e57006e	0.20996258
112	0x3c6fe67e	0.014642356
113	0x3d80e4c1	0.06293631
114	0xbcb5935e	-0.022164997
115	0x3db1d4fd	0.086832024
116	0x3da4c126	0.08044653
117	0x3e3bcfc5	0.18340977
118	0x3dd3bc6d	0.10338674
119	0x3dab8690	0.08375275
120	0x3d232679	0.039831612
121	0x3df27970	0.118395686
122	0x3d524552	0.05133564
123	0x3d3d2e1b	0.046186548
124	0x3d12804a	0.035766877
125	0xbd17f968	-0.037103087
126	0x3c083f58	0.008315884
127	0x3caec830	0.021335691
128	0xbd5ed7b3	-0.054404926
129	0xbe045622	-0.12923482
130	0x3d4daeb3	0.050215434
131	0xbda96d07	-0.082727484
132	0xbdab3231	-0.083591826
133	0xbdf74c1a	-0.12075062
134	0xbdd3668e	-0.10322295
135	0xbdf72bd6	-0.12068908
136	0xbd703d5a	-0.05865226
137	0x3d9cc5ac	0.076548904
138	0x3d7c0cba	0.061535574
139	0x3d97a9fb	0.07405468
140	0x3d507fa5	0.05090298
141	0x3c498c4b	0.012301515
142	0x3c964db5	0.0183476
143	0x3dbc5376	0.091956064
144	0x3d0fa85a	0.035072662
145	0xbd8ea86d	-0.069657184
146	0x3da03fe2	0.07824685
147	0xbe1ccd12	-0.15312603
148	0x3da2f304	0.07956508
149	0x3ce3e80b	0.027820608
150	0xbc5f1d6d	-0.0136178555
151	0x3e091fd6	0.1339105
152	0x3bc9239f	0.0061382796
153	0x3d6f5208	0.05842784
154	0xbc73a59b	-0.014871026
155	0xbc9b0fce	-0.018928435
156	0xbdcdde18	-0.10052127
157	0x3d2104dc	0.039311275
158	0xbc888274	-0.016663767
159	0xbe0c5ce4	-0.1370731
160	0x3dfab308	0.12241179
161	0x3e2ab5dd	0.16670938
162	0xbd1f05c6	-0.038823865
163	0xbd46725a	-0.048448898
164	0x3d8b80e6	0.06811695
165	0x3d0d4981	0.034493927
166	0x3cd9fc4d	0.026609564
167	0x3d70eef5	0.058821637
168	0x3d2a3be0	0.041561007
169	0xbd8173ae	-0.06320892
170	0xbc92679a	-0.017871667
171	0xbdae738f	-0.08518135
172	0xbdad2525	-0.084543504
173	0x3ccb9e82	0.024855856
174	0x3c8bb793	0.017055308
175	0x3dfa0d50	0.122095704
176	0x3dbfe36c	0.09369549
177	0x3e26318c	0.16229838
178	0x3caa0b42	0.020757321
179	0xbd7cd66d	-0.06172793
180	0x3cbee5a9	0.02330287
181	0x3dc3322f	0.09531056
182	0x3d54ca2a	0.05195061
183	0x3e26e30e	0.16297552
184	0xbb2b364a	-0.0026124888
185	0x3df4b17a	0.119479135
186	0xbdb37dec	-0.08764252
187	0xbd196dc1	-0.037458185
188	0x3e1eea65	0.15519102
189	0x3cd991d6	0.026558798
190	0x3e08aa93	0.13346319
191	0xbcc910ad	-0.024544084
192	0x3e2b871d	0.1675076
193	0x3d806bfe	0.06270598
194	0x3e3b9cea	0.18321577
195	0x3dc8462d	0.0977901
196	0x3eaa2b4f	0.33236167
197	0x3e93daf2	0.2887798
198	0x3e491128	0.19635451
199	0x3dcf56ce	0.101239786
200	0x3e87204a	0.26391822
201	0x3e454153	0.192632
202	0x3e4787c4	0.19485384
203	0x3e2321bc	0.15930837
204	0x3eb203c1	0.3476849
205	0x3d246cf6	0.040142976
206	0x3e9749aa	0.2954839
207	0xbc6f8e4b	-0.014621328
208	0x3cf23440	0.02956593
209	0x3dfb2e45	0.122646846
210	0x3dae9aea	0.08525641
211	0x3d9fdb21	0.078054674
212	0x3dc05a9e	0.09392284
213	0xbcf171d0	-0.029473215
214	0x3d944574	0.0723981
215	0x3e833fb4	0.2563454
216	0xbd8c7aae	-0.06859337
217	0x3e4b931c	0.19880337
218	0xbd0c0e71	-0.03419346
219	0x3e56fd25	0.20995004
220	0x3c7ab99d	0.015303043
221	0x3e2857f1	0.16439797
222	0x3e0e8012	0.13916042
223	0x3e1c3466	0.15254363
224	0x3e5e1e63	0.21691279
225	0x3e2d9a66	0.1695343
226	0x3ea2c2cc	0.31789243
227	0x3e246370	0.16053557
228	0x3e1a9cf4	0.15098935
229	0x3d9989b7	0.0749697
230	0x3d935a0e	0.07194911
231	0x3e07ee26	0.1327444
232	0x3dabd9b2	0.083911315
233	0x3e605ae3	0.2190967
234	0x3e70895a	0.23489895
235	0x3e8cd9fd	0.27510062
236	0x3e81739c	0.25283515
237	0x3e524d78	0.20537364
238	0x3d75c468	0.06000176
239	0xbcf22010	-0.029556304
240	0x3e82e8d4	0.2556826
241	0x3e14cabb	0.1453046
242	0x3de49e62	0.111630216
243	0x3e443b62	0.19163278
244	0x3e27a98d	0.16373272
245	0xbc54f5db	-0.01299807
246	0x3e2dc62a	0.16970125
247	0x3e23835b	0.15968077
248	0x3e63af1e	0.2223477
249	0x3e060eed	0.13091631
250	0x3e64602a	0.22302309
251	0x3e23e23d	0.16004272
252	0x3e3fd506	0.18733606
253	0x3db522b3	0.08844509
254	0x3e27ab96	0.16374049
255	0x3e360202	0.17774203
