benchmarks/MOABB/results/MotorImagery/BNCI2014001/ResidualEEGModel/run3/7585/leave-one-session-out/sub-003/1test/save/CKPT+2024-04-20+04-02-31+01/model.ckpt (torch, 117023 bytes, 29 tensors)

Conv2DType0_Batchnorm.norm.weight f4 [8]
000000 1c 32 80 3f 7f 03 7e 3f 20 70 7f 3f 7f b2 7f 3f
       1.0015292 0.99224085 0.99780464 0.9988174
000010 a0 e3 7f 3f a7 a3 7f 3f 52 ab 7c 3f ab 6f 80 3f
       0.99956703 0.9985909 0.98698914 1.0034078

Conv2DType0_Batchnorm.norm.bias f4 [8]
000000 87 9c 1b 3c 94 2d ae bc 80 ba d0 bb b2 de f7 bb
       0.009497768 -0.021261968 -0.006369889 -0.007564389
000010 5b 41 ea bc 89 bf ac bc 88 77 91 3c d5 7a 66 3c
       -0.028595617 -0.021087425 0.017757192 0.014067371

Conv2DType0_Batchnorm.norm.running_mean f4 [8]
000000 18 3b 73 ad b2 c2 d4 af 21 bb 9a 2f 0f 14 28 30
       -1.3826072e-11 -3.8700915e-10 2.81454e-10 6.114655e-10
000010 b3 b1 01 30 0a 0f 82 30 eb 0c b1 af 89 d8 1f 2e
       4.718245e-10 9.463019e-10 -3.220529e-10 3.6344736e-11

Conv2DType0_Batchnorm.norm.running_var f4 [8]
000000 54 30 bd 3c 68 5e 51 3d 90 47 2b 3d f2 92 a9 3d
       0.023094334 0.051115423 0.041816294 0.08279981
000010 ae 1e c0 3d e0 f1 6f 3e 2f 72 07 3d c3 03 ac 3d
       0.09380852 0.23432112 0.03306788 0.08399155

Conv2DType1_cnn.conv.weight f4 [8, 8, 1, 51]
000000 81 66 05 00 02 ec 4f b9 3a 99 41 b9 d8 32 d9 a2
       4.95949e-40 -0.00019828978 -0.00018462996 -5.88718e-18
000010 83 98 52 ab 4c 07 9a b4 ef 89 0e 38 63 5a 05 80
       -7.481864e-13 -2.8690044e-07 3.39839e-05 -4.91602e-40
000020 cd 97 25 20 0f 63 3c 3d bd ab 28 3d 3b 5d e2 bc
       1.402627e-19 0.045992907 0.041179407 -0.027632346
000030 2b 5d 8c bc 5e 34 ba bb 3d 08 dc 3c f7 4e 13 3d
       -0.01713427 -0.005682512 0.026859397 0.03596398
000040 99 0b b5 bc 98 df 7a 3c c2 0f eb bc 9a 9e f1 ba
       -0.022100257 0.015312098 -0.028694037 -0.0018434108
000050 ff 1a 36 bd 9a 30 6a bc ce b5 2a 3d 08 8e 3f 3c
       -0.04445934 -0.014293814 0.04167729 0.011691578
000060 07 d4 d7 3c 23 99 f1 3c 37 24 aa bb f7 33 ec 3a
       0.02634622 0.029491967 -0.0051923054 0.0018020858
000070 17 b0 d5 3c cb 6a b4 bc d0 bd fe 39 53 55 d3 ba
       0.026084943 -0.02202358 0.00048588077 -0.0016123451
000080 72 85 0b bd 2f 2e 76 3b 7b 8f 12 3c bb d7 1e 3d
       -0.03406281 0.0037564149 0.008945341 0.038779955
000090 e7 fa d4 bb 57 26 c2 3c bc 51 34 3d 7a 74 20 bd
       -0.0064996365 0.023699922 0.04402326 -0.03917358
0000a0 10 08 d5 bc bc 02 9e bc 53 4e f4 39 b1 36 90 38
       -0.026004821 -0.019288413 0.00046597663 6.876642e-05
0000b0 13 10 5e 99 db 33 5b 1d e7 f7 8b 37 b5 5d d4 b8
       -1.1480377e-23 2.9011217e-21 1.668553e-05 -0.00010126402
0000c0 be 0c 38 1d 87 ff 4d 8e 84 2e c7 b7 80 45 92 b8
       2.4358785e-21 -2.5391233e-30 -2.374431e-05 -6.974768e-05
0000d0 0f 77 aa ad b7 5b 05 00 bd 79 73 21 be 4e c4 37
       -1.9379635e-11 4.92079e-40 8.249272e-19 2.3401688e-05
0000e0 ee 54 ab 38 2e 91 1d 35 20 e8 06 ba 4a 8e b0 b2
       8.169735e-05 5.869832e-07 -0.00051462837 -2.0553802e-08
0000f0 03 2f f6 bc 63 9b d1 3c e4 d6 05 bd be 94 1a 3d
       -0.030051714 0.02558679 -0.03267564 0.037739508
000100 7d 67 02 3d 55 14 91 3b bd 3b 3a bd 80 36 d2 bc
       0.031836975 0.0044274726 -0.045467127 -0.025660753
000110 b7 86 be bc dc 26 08 bd b8 c6 50 3d 92 df 1f 3d
       -0.023257596 -0.033240184 0.050970763 0.039031573
000120 e2 7e 7f bc b5 a6 6f bb 04 4b 90 bc 13 74 a5 3c
       -0.015594216 -0.003656787 -0.017613895 0.02019695
000130 d7 a3 25 3d 76 d8 86 3c 9d ee 21 38 e7 81 ba 3b
       0.040439453 0.016460638 3.8607617e-05 0.005691755
000140 eb 46 b6 3c a8 fc 3c bc 5b 5e c0 3c c7 72 69 bb
       0.022250613 -0.011534847 0.023482492 -0.003562139
000150 c9 3c b7 bb 35 bb 5c bb 60 c7 19 3c fa 10 73 bc
       -0.005591963 -0.003368092 0.009385914 -0.0148355905
000160 de e2 c6 3c 79 3e 0e bd 69 72 12 3c a3 f2 27 bd
       0.0242781 -0.034727547 0.00893841 -0.04100288
000170 50 4d 9a bc 7d 8f 4d 20 f6 d0 9a 31 48 ce a3 34
       -0.018835694 1.7411652e-19 4.505746e-09 3.0511205e-07
000180 ea 8a c6 39 4b 4c 13 35 39 b6 01 18 8f 5f 05 80
       0.00037869002 5.487279e-07 1.6764858e-24 -4.93457e-40
000190 9f 37 05 39 08 93 a1 b8 12 93 f4 2d 0b c0 c8 2a
       0.00012704589 -7.704465e-05 2.78049e-11 3.5660393e-13
0001a0 73 eb be b2 1b 13 29 b9 a5 cd 37 39 bf 16 95 b2
       -2.2225981e-08 -0.00016124213 0.00017528849 -1.7356227e-08
0001b0 ca 5a 05 00 47 e7 53 01 cf 0d 03 35 cb af ff 3c
       4.91746e-40 3.8920513e-38 4.8821397e-07 0.031211754
0001c0 f2 95 ee bc 5a d4 ee 3c 62 33 64 bc 81 e1 95 bc
       -0.029124234 0.029153991 -0.013928266 -0.018296005
0001d0 93 6a 88 bc 23 bb 5a 3c cf ae d3 bb 0e c2 2d 3a
       -0.016652381 0.013350281 -0.006460048 0.00066283427
0001e0 75 bb 22 3d ae e0 c1 3b 53 eb 41 3c d6 3f 47 3c
       0.039729554 0.0059166765 0.011835891 0.012161216
0001f0 82 29 ae 3c d6 de 36 3b 8a 4d 7c 3c fa 9d 55 3b
       0.021260027 0.0027903817 0.015399346 0.0032595382
000200 0a db 08 3d b5 20 e5 3c e0 e2 8f 3c c5 e2 2c bd
       0.033412017 0.027969697 0.017564237 -0.04220845
000210 8a 05 19 bd 43 92 4c 3d a5 32 f5 3c 1f 34 4e bc
       -0.037358798 0.049944174 0.029931376 -0.012585669
000220 03 5e 53 3d c0 c6 af bc c1 9f bd 3c cd e9 1a bc
       0.05160333 -0.021457076 0.023147466 -0.0094551565
000230 33 f2 1a bd 9a 2f 77 3a 78 80 f5 bc cb 23 e0 bc
       -0.037828635 0.00094293954 -0.029968485 -0.027360817
000240 d0 68 05 00 f3 e7 60 0a 05 9d e8 24 83 e5 d1 b1
       4.96777e-40 1.08288325e-32 1.0087996e-16 -6.108793e-09
000250 2d d0 d6 b2 d5 40 53 34 e0 9f db b6 72 90 10 33
       -2.5007546e-08 1.9674492e-07 -6.5453205e-06 3.3658985e-08
000260 a1 80 96 b3 78 0a 09 30 4b 98 8b b6 72 01 b0 39
       -7.008317e-08 4.9855187e-10 -4.160252e-06 0.00033570413
000270 bf 4f 4e 38 d7 00 55 b9 d7 58 05 80 31 f0 bf b8
       4.9188497e-05 -0.00020313576 -4.91047e-40 -9.152329e-05
000280 8b 1f 08 1b e7 c6 98 38 15 53 e9 3c de 2c 0e bd
       1.1259848e-22 7.284973e-05 0.028482 -0.034710757
000290 1c 31 0a 3c 65 bf 84 3c d3 01 f1 3b da f1 05 3d
       0.00843456 0.016204545 0.007354954 0.03270135
0002a0 4b 13 9b bc cb ef 3c bd eb b0 0d bd 4e 6f 9f 3c
       -0.018930098 -0.046127122 -0.03459255 0.019462254
0002b0 63 c8 2a bd 3d 90 ea 3c b0 69 54 bc 99 ff 3c bd
       -0.04169501 0.028633231 -0.012964651 -0.046142194
0002c0 a0 a8 94 ba b3 a2 97 bc f5 ed 4f 3a 92 79 dd 3c
       -0.0011341758 -0.018510198 0.00079318817 0.027035508
0002d0 c8 4c ea bc f7 f9 86 3c ac 0b 33 bd ce 00 10 bd
       -0.028601065 0.016476614 -0.043712303 -0.035157017
0002e0 95 77 9a 3c c0 14 a8 3c cc 2b 1a bc 8f 37 f9 bc
       0.01885585 0.020517707 -0.009409856 -0.030422
0002f0 c4 08 a1 3c 78 ea d2 3c 40 8d 60 bd e5 a3 b9 3c
       0.0196575 0.025746569 -0.054822206 0.022661159
000300 2b f3 d4 3b 95 80 ff bc 50 dc 8e 3c 66 8a a6 00
       0.0064987144 -0.031189242 0.017439038 1.529434e-38
000310 4d 14 48 97 16 64 05 00 f4 31 b9 32 3d 21 33 b4
       -6.464911e-25 4.95082e-40 2.155955e-08 -1.6682766e-07
000320 25 cd 7c 36 97 6c 67 2d 32 13 38 a4 30 3f 43 39
       3.7670336e-06 1.31549415e-11 -3.99149e-17 0.00018620188
000330 bf ce d9 2f 8a 3d 00 b7 c7 29 71 b9 02 67 05 80
       3.9618972e-10 -7.643723e-06 -0.00022999114 -4.9613e-40
000340 1a 30 0c 97 d8 3a 79 38 3a 64 05 80 b3 84 33 b0
       -4.529715e-25 5.942103e-05 -4.95132e-40 -6.53084e-10
000350 ed 7f 0a 00 1f ef 77 3c 40 cc 15 bb 70 f0 27 3d
       9.64246e-40 0.0151326945 -0.0022857338 0.041000783
000360 12 87 a4 bc 14 b1 04 3d ea f5 7b 3c 6f db 78 3c
       -0.020083938 0.032395437 0.015378455 0.015189036
000370 f4 a1 2a 3d 72 ed a3 3c 15 04 eb ba 52 fb d7 3c
       0.041658357 0.020010684 -0.0017930294 0.026364956
000380 4f e1 c6 bc ff ab 5f 3c 93 43 33 bd 2b 70 a4 39
       -0.024277357 0.013651847 -0.043765616 0.0003136409
000390 2a 6a f8 bc 2b 70 5b 3c 40 d7 82 3c a2 e1 06 bd
       -0.03032406 0.013393442 0.01597178 -0.032930024
0003a0 bf d5 09 bd e5 23 51 3c eb 4b 37 3d 66 d6 ac bc
       -0.03365111 0.012764906 0.044750135 -0.021098327
0003b0 f2 2c 02 3d 31 b2 2f 3d a4 c8 30 3d 3e ce 07 3d
       0.031781144 0.042894546 0.043160096 0.033155672
0003c0 31 80 a9 3c b3 88 27 bd 43 40 59 bc e8 6e fa 3c
       0.02069101 -0.04090185 -0.01325995 0.030570462
0003d0 c5 b7 93 bc 80 41 3e 3d 1b 73 05 34 42 c8 3b 39
       -0.018031964 0.046449184 1.2428465e-07 0.00017908312
0003e0 46 6e 8c b9 b8 68 05 80 8d 60 05 00 df 62 05 80
       -0.0002678504 -4.96743e-40 4.93813e-40 -4.94646e-40
0003f0 76 42 0a b2 78 02 dc 8c c8 2a 5c b9 69 5a 05 00
       -8.047769e-09 -3.3897853e-31 -0.00020996772 4.9161e-40

Conv2DType1_Batchnorm.norm.weight f4 [8]
000000 06 a9 81 3f 8b 07 85 3f 5a 61 7b 3f 9b 9c 7e 3f
       1.0129707 1.0392927 0.9819542 0.9945771
000010 4a 4e 81 3f 27 27 7f 3f a7 a5 77 3f 41 d9 82 3f
       1.0102017 0.99669117 0.9673714 1.0222551

Conv2DType1_Batchnorm.norm.bias f4 [8]
000000 e3 2c 54 bc 87 b0 e5 bc 8b ee ff bb 21 9d 96 bc
       -0.012950155 -0.028038276 -0.007810419 -0.018385472
000010 2b 53 b8 bc f1 6b a9 bc 6b c6 36 bc 00 65 c0 3c
       -0.022500595 -0.020681353 -0.011155705 0.02348566

Conv2DType1_Batchnorm.norm.running_mean f4 [8]
000000 46 22 96 bb 30 fb d5 bb b2 b1 5b 3b d7 21 40 bb
       -0.0045817224 -0.006530188 0.0033522663 -0.0029317045
000010 af 50 b0 ba 2d 27 e9 3b c9 3c 20 3b 00 54 87 3a
       -0.001345178 0.007115266 0.0024450293 0.0010324717

Conv2DType1_Batchnorm.norm.running_var f4 [8]
000000 22 1c 28 3d 13 1e 81 3c 03 ab 6b 3d 1f b9 37 3d
       0.041042455 0.01576141 0.057536136 0.04485428
000010 0a 10 00 3d 2f 50 61 3d c7 10 8c 3d 9a 49 38 3d
       0.031265296 0.05500811 0.068391375 0.044992067

Conv2DType2_cnn.conv.weight f4 [16, 8, 63, 1]
000000 17 e1 81 3a 33 82 dd bc a9 f8 b3 bc ce 80 b8 bb
       0.0009909001 -0.027039623 -0.021969156 -0.005630589
000010 e7 0c 08 bc 73 d4 09 bd a2 fd 3c 3d ff ce 55 bb
       -0.008303857 -0.033649873 0.04614032 -0.00326246
000020 73 ff 1d 3c 03 1c 9a 3c 96 d5 3f 3d 94 12 27 bd
       0.009643423 0.018812185 0.04683455 -0.0407892
000030 fa 4e dd 3c f3 42 8c 3c 8e 14 98 bc 71 c6 96 bc
       0.027015198 0.017121768 -0.018564489 -0.018405171
000040 93 aa 2f bd b7 8b fc bb 87 79 09 bd 77 1b 08 bd
       -0.04288728 -0.007707085 -0.033563163 -0.033229318
000050 97 6f 3a bd 5c 82 16 bd c7 b6 3f bd ff 0c b7 bc
       -0.045516577 -0.036745414 -0.04680517 -0.022345064
000060 f3 ab 0b bd 1f f9 8d bc dd 79 ee bc 58 0f d1 bc
       -0.03409953 -0.017330704 -0.029110843 -0.025520012
000070 84 4f 84 bb 7b 9d 0f 3c 43 7b 12 3d 8b 7f 99 3c
       -0.0040377993 0.008765574 0.035762083 0.018737575
000080 77 6e fc bc 7c ed 07 bd dd 40 e7 3c 8b b2 cd 3a
       -0.030814392 -0.033185467 0.028229171 0.0015693469
000090 35 90 57 3c ff f8 34 3c ab b2 c9 3c d4 36 0b 3d
       0.01315694 0.011045693 0.024621328 0.033987835
0000a0 f7 ee 30 3c 8f ca 3a bc 1b 75 09 bb b9 c5 26 bd
       0.010799161 -0.011400833 -0.0020974341 -0.040715907
0000b0 3a d1 dd 3c 67 d8 b4 bc 96 a7 21 bd 97 44 9b bc
       0.027077306 -0.022075845 -0.039466463 -0.018953605
0000c0 df 66 c5 3c cb 75 1e bd e9 65 1f bd 83 6b a0 3c
       0.024096904 -0.038686555 -0.03891555 0.019582516
0000d0 c8 20 5e bc bf 81 90 3c 63 4c 16 bd d0 c8 1f bb
       -0.01355762 0.017639993 -0.03669394 -0.0024381168
0000e0 d5 2a 37 bc d7 c9 e4 3c fb 2c 3f bd 5f de 0b bd
       -0.011179646 0.027928276 -0.046673756 -0.034147616
0000f0 9b 4a 0a bc eb 76 83 bb c1 81 0b bc 62 ef 35 3d
       -0.008440639 -0.004011979 -0.008514822 0.044417746
000100 93 18 87 3c 5a e5 e1 3c d3 c9 08 bd 8f 71 46 3c
       0.01649121 0.027575184 -0.0333956 0.012112035
000110 13 28 c4 bc 6b c9 9c 3c 37 23 90 bc 9d b4 e1 3c
       -0.02394489 0.019139012 -0.017594917 0.027551943
000120 5d df 82 bb 21 4c 36 3d c2 fc 97 bc 67 46 2c 3c
       -0.003993912 0.044506196 -0.018553142 0.010514832
000130 13 ce 15 3d c9 27 09 3d 5a b1 37 bc b5 0c e1 bc
       0.03657348 0.033485208 -0.0112117175 -0.02747188
000140 ca e3 01 3a 04 9c 31 3d 7b da d4 bc 53 7b 7e 3b
       0.00049549027 0.04336168 -0.025983086 0.0038830831
000150 fa 65 3b 3c 43 1b ae 3c ce d6 85 3c 0a c2 a7 3c
       0.011437887 0.021253234 0.016337778 0.020478267
000160 82 1b 4d bc 44 85 a6 3c 66 6a c0 bb 9f 38 b8 bb
       -0.012518765 0.020327218 -0.0058720587 -0.005621984
000170 d2 9c da 3c 12 e5 67 bc 8d db e4 bc 67 ea 70 bc
       0.026686106 -0.014153736 -0.027936721 -0.014704323
000180 27 7a 9a 3b ea 81 37 bc 68 c5 a4 bb e2 58 d1 bb
       0.0047142687 -0.0112004075 -0.0050284155 -0.0063887695
000190 81 3d cc bc 2b 72 cd 3c f3 27 69 bc 4e e7 85 3c
       -0.024931671 0.025078854 -0.014230716 0.016345646
0001a0 82 f5 de 3c df cc da 3c df ca 48 bd 33 c3 c6 bc
       0.027216677 0.026709018 -0.049021598 -0.024263
0001b0 2b 85 00 bd b6 6d 01 3d b3 54 f5 3b 67 43 90 3c
       -0.031377 0.03159877 0.0074869036 0.017610265
0001c0 6f be a0 3c b7 9f 2e bc fa 74 c2 bc e7 56 7b bb
       0.019622056 -0.010658196 -0.02373742 -0.0038351358
0001d0 52 d0 19 3d 38 b0 ee 3b e3 93 25 3c 4d a0 c8 bb
       0.037552185 0.0072841905 0.01010606 -0.006122625
0001e0 93 2e 2a bd 82 5e b7 3a 0b 6f 77 bc eb af 4b 3c
       -0.041548323 0.0013989958 -0.015102158 0.012432079
0001f0 45 7e b3 3b 73 83 b4 3b 0c 1e 37 3d b0 94 1e bc
       0.005477699 0.005508834 0.04470639 -0.009679005
000200 3d b5 c5 39 50 c8 0d 3d 4a fa 85 3c a0 a3 cf 3c
       0.000377098 0.03461486 0.016354699 0.025346577
000210 fb 8a ff 3a 37 40 ce bc f9 37 00 bc 07 1e f4 3b
       0.0019496375 -0.025177104 -0.007825845 0.0074498686
000220 b0 86 da bb ca a2 3d 3d c6 be 3e 3c 8b df 85 bc
       -0.006668888 0.046297826 0.011642164 -0.016341945
000230 5d db 0c 3d 15 50 66 3d 51 7b a4 b9 ad d8 7c 3d
       0.03438889 0.056228716 -0.00031372395 0.061730076
000240 bb ae bb 3c 25 5a f4 3c 57 36 5f bc b5 79 d2 bc
       0.022910466 0.02982814 -0.0136237955 -0.0256928
000250 f2 9d d6 bc b4 7a ae 3c b8 3c 5f 3b 27 61 9b bc
       -0.026198361 0.021298744 0.003406329 -0.018967224
000260 f0 c7 ec bc 49 64 a7 bb 4f de 9a bc c3 3a 08 3c
       -0.028903931 -0.0051083905 -0.018904833 0.008314791
000270 44 1f b5 3a 33 ad 0d bd 7b 7e 46 3b e0 da 52 3d
       0.0013818522 -0.034589004 0.003028779 0.051478267
000280 68 13 0d bc 20 01 8f bb ac af a5 3c 53 35 3e 3d
       -0.008610584 -0.004364148 0.020225368 0.046437573
000290 5b e7 f6 3c e4 5a 97 3b e0 f6 d3 3c b0 a6 8e 3b
       0.030139616 0.0046189893 0.025874555 0.004353367
0002a0 0f 42 18 3c ff 5e 42 3d 42 84 66 3b 01 41 8d 3c
       0.009293093 0.047453877 0.0035174047 0.01724291
0002b0 61 69 0b bd 37 85 fd bc 3a 2f 92 bc d5 b1 9f 3c
       -0.034036044 -0.03094731 -0.017844785 0.019493977
0002c0 53 2a 0a 3c 25 4d a2 3a 42 01 4b bd b0 ce f1 bb
       0.008432942 0.001238261 -0.049561746 -0.0073793754
0002d0 db 33 46 bd 95 e0 a0 3b 97 23 47 3c a0 f0 df 3c
       -0.048389297 0.0049095848 0.012154481 0.027336419
0002e0 b5 2c 50 bd 44 7f be 3c 03 b9 df 3b 38 85 f1 bc
       -0.050823886 0.023254044 0.006827475 -0.029482469
0002f0 24 0b 2b 3d b7 b9 a0 bc a5 34 5d ba 5d d1 5e 3c
       0.04175867 -0.019619806 -0.00084383256 0.013599721
000300 8b 3e e6 3c 5b fc 46 bb 64 68 24 bd cb 02 1b 3d
       0.028105995 -0.0030362818 -0.040138617 0.03784446
000310 2b 11 fc 3c fc e0 93 3c 75 0b 8f bc 2b 5e f9 3c
       0.030769905 0.018051617 -0.017461518 0.03044041
000320 0b 30 1e bd ec a3 0b 3d 61 f0 35 bd db 72 c1 bc
       -0.038620036 0.034091875 -0.044418696 -0.023614338
000330 35 d6 20 bc 10 37 70 bc 24 35 a4 bc 6b a3 3e bd
       -0.009816696 -0.014661565 -0.02004487 -0.046542566
000340 8b d5 52 bd 67 db e2 bc a1 7d 2d bd ca 11 5f bc
       -0.05147318 -0.02769251 -0.042356137 -0.013615081
000350 c9 0b 33 3c 6b 6c 8e 3c ea d4 10 bd 4d ee 04 bd
       0.010928103 0.017385682 -0.0353593 -0.032453824
000360 36 e2 94 bc a6 ab 3a bd 5b 4d fc 3c c7 3a 54 bb
       -0.018174272 -0.045573853 0.030798605 -0.0032383667
000370 13 b2 23 bd 04 63 86 bc d5 55 af bb f5 18 b2 3b
       -0.039964747 -0.016404636 -0.005350808 0.005435104
000380 32 3d 99 bb 80 59 5c 3c ba 63 0b bd b8 e2 73 bc
       -0.0046764845 0.013449073 -0.034030654 -0.014885597
000390 07 f0 d0 bb 4d 66 83 bc 48 60 b2 bc 5a 8e e6 3c
       -0.0063762697 -0.016039992 -0.021774426 0.02814405
0003a0 62 6f 0f 3d 5e 94 85 3c db 4e a3 bc d1 3c 0c 3d
       0.035018332 0.016306099 -0.019935062 0.034237687
0003b0 37 d2 a8 3b bb 5c 5f bc 2a ac 06 3d 0c fd 25 3b
       0.0051520127 -0.0136329485 0.032879032 0.002532783
0003c0 92 66 0e bd fc b7 1b 3d d2 b1 e4 bc 03 0f a6 3c
       -0.034765787 0.038017258 -0.027916823 0.02027083
0003d0 c5 77 97 bc 57 ab 01 3d 53 55 27 3b fc ed 3c bd
       -0.018489728 0.031657543 0.0025533035 -0.046125397
0003e0 2f 82 ef ba de 6b 9f 3c 7f f6 8b 3c 6f 09 bd bc
       -0.0018273051 0.019460615 0.017085312 -0.023075787
0003f0 35 08 6c bd 9b a9 f2 bb 8d 88 d3 3b 7b c3 34 bd
       -0.057625014 -0.0074054725 0.006455487 -0.044131737

Conv2DType2_Batchnorm.norm.weight f4 [16]
000000 5f 8e 84 3f 2d 25 83 3f 3b 58 7f 3f a7 12 81 3f
       1.0355948 1.024572 0.99744004 1.0083817
000010 30 43 83 3f a7 4f 83 3f 02 5b 82 3f 7b 4e 84 3f
       1.0254879 1.0258683 1.0184023 1.033645
000020 c8 7d 80 3f d6 7b 82 3f ba ad 82 3f 3b 79 81 3f
       1.0038385 1.0194042 1.0209267 1.0115122
000030 81 e4 84 3f 7f cc 82 3f 7d 50 83 3f cf b7 83 3f
       1.0382234 1.0218657 1.0258938 1.0290469

Conv2DType2_Batchnorm.norm.bias f4 [16]
000000 0b 0f 57 bd c5 fc 06 bd b3 6a 09 bd 2d 1d 11 bd
       -0.05250458 -0.032955904 -0.033549022 -0.035428215
000010 80 f0 ab bc 75 3f f0 bc 98 00 28 bd 77 05 ea bc
       -0.020988703 -0.029327134 -0.04101619 -0.028567059
000020 40 6c b3 bc 0b cd 8e bc a7 d3 29 bd 55 e6 ce bc
       -0.021902204 -0.017431756 -0.041461613 -0.025256315
000030 cd 85 df bc 23 aa 2e bc 73 13 86 bc 2c a6 14 bd
       -0.02728548 -0.010660681 -0.016366696 -0.036291286

Conv2DType2_Batchnorm.norm.running_mean f4 [16]
000000 b5 c1 68 3d 0b a1 0e 3d 88 f6 5f 3d a1 bd 0b 3d
       0.05682536 0.03482155 0.05467847 0.03411639
000010 be 15 ae bc 6d 5a f1 bb 5b 92 fd 3b ec d8 82 bd
       -0.021250602 -0.007365516 0.007738394 -0.06389031
000020 00 1c 79 3a c7 21 89 3a 40 d3 8b b8 a7 37 83 3c
       0.00095027685 0.0010462337 -6.667385e-05 0.016017748
000030 6a 59 f2 3c 8b a5 0b 3d 8f e4 8c 3d d3 92 ff ba
       0.029583652 0.03409342 0.068795316 -0.0019498713

Conv2DType2_Batchnorm.norm.running_var f4 [16]
000000 bf 78 13 3f 05 1a dd 3e 73 37 e3 3e d3 87 c8 3e
       0.5760612 0.43183914 0.44378242 0.39166126
000010 48 3a ff 3e db 13 17 3f fa 15 e1 3e 55 df 01 3f
       0.49849153 0.5901467 0.4396208 0.507314
000020 7b 8a 1c 3f 58 5c ef 3e 6d 4f 38 3f 31 e1 08 3f
       0.61148804 0.4675014 0.71996194 0.53468615
000030 0a 3c 19 3f 6f f6 ff 3e 28 83 0f 3f e7 a6 e8 3e
       0.5985724 0.499927 0.56059504 0.45439836

Conv2DType3_depthwise.conv.weight f4 [16, 16, 1, 17]
000000 c2 11 bd bc 7f 7b 98 3c f8 e1 52 bd 74 65 10 3d
       -0.023079757 0.018613575 -0.05148503 0.035253003
000010 3f 73 5f bd 9a f6 8c bc 78 06 60 bd b5 bf ce 3b
       -0.054553267 -0.017207433 -0.05469367 0.0063094744
000020 d4 36 97 3d 91 50 1e bd 12 7f 18 3d 33 f5 45 3d
       0.073835045 -0.038651053 0.03723056 0.048329543
000030 5f ad 11 3d 4d 1d 92 3d 9d 46 c4 3c 72 39 8a bc
       0.03556573 0.07134495 0.023959452 -0.016873095
000040 85 94 e2 3c 27 db 7a 3d a9 2b 01 bd 3b 7e db bc
       0.02765871 0.061244156 -0.03153578 -0.02679359
000050 df 92 2e 3b ea 19 eb bb 7f 73 95 3d 93 db 26 3d
       0.0026637835 -0.00717472 0.0729742 0.040736746
000060 33 54 16 bd 32 0a 7f 3d 59 3c aa 3c 05 f2 dc bb
       -0.036701392 0.062265582 0.02078073 -0.006742718
000070 fb f6 1a bd 33 40 17 3d c1 90 2c bc 1e 53 01 bd
       -0.037833195 0.03692646 -0.010532559 -0.031573407
000080 37 f8 50 3d 6e 40 4b bd 52 e1 03 bd d2 99 62 3d
       0.051017966 -0.04962199 -0.032197304 0.055322476
000090 c3 62 bb 3c 23 1d 7d bc 4f b6 ce 3b fa 4c 45 3d
       0.022874242 -0.015448841 0.006308354 0.048169114
0000a0 7b b8 0f 3a 3f 19 27 bd 93 41 4c 3d ff 6f 8e bc
       0.0005482507 -0.04079556 0.049867224 -0.017387388
0000b0 ab 15 6c ba c3 ba d1 38 f0 4a d9 3c eb ac 45 bd
       -0.00090059143 0.00010000684 0.02652499 -0.04826061
0000c0 54 66 1c bd 8f c4 a2 bc 87 16 47 3d cf d7 30 bd
       -0.038183525 -0.019869117 0.048605468 -0.04317456
0000d0 a6 6b 93 3c 13 24 a2 bc d7 95 16 bd 22 52 da 3c
       0.017995667 -0.019792592 -0.036763992 0.026650492
0000e0 0c 8e 44 bd 2a 0c 0f bd b1 ab 37 3d f2 e1 55 3d
       -0.04798703 -0.03492371 0.044841472 0.05221743
0000f0 f9 5a 4a bd 48 0e 32 3c 50 fd 57 bd 39 ef 46 bd
       -0.049403165 0.010867663 -0.052731812 -0.048567984
000100 77 90 c5 bb c0 70 2c 3d 9a db 64 bd 47 22 43 bd
       -0.0060291844 0.042099714 -0.05587349 -0.04764011
000110 49 c5 45 bd 2e 22 21 bd 71 62 34 bc c3 cf 71 bd
       -0.04828385 -0.039339237 -0.011009798 -0.059036028
000120 90 63 75 3c 6f 80 ef bc 4d 96 ef 3c 98 d7 f2 3b
       0.014977351 -0.029236047 0.029246474 0.0074109547
000130 84 40 36 bd e2 c1 92 3b 3b b0 a6 bb 5a ac 50 bd
       -0.04449512 0.004478679 -0.0050869263 -0.050945617
000140 d7 b1 48 bc f1 f9 20 bb 83 fa 04 3d 2a 7c d7 3c
       -0.012249432 -0.002456304 0.03246547 0.026304323
000150 e7 12 9f bc 42 e6 cf ba 4b 99 86 3d 35 e3 43 bd
       -0.019418193 -0.0015861469 0.06572207 -0.047824103
000160 2d 8e 59 bb a0 f2 42 3d a2 1a 55 bb 10 3f 8e bc
       -0.0033196316 0.047594666 -0.0032517095 -0.017364055
000170 2b 93 87 3d 03 21 e8 3c cd 84 27 3d 85 e4 79 3c
       0.06619867 0.028336054 0.040898133 0.015252237
000180 57 64 ad 3c 4e c1 2a 3c 38 f5 03 3c 2a 13 6b 3d
       0.02116601 0.010422064 0.00805407 0.057391323
000190 d7 3a 37 3d 13 1d 43 bd 5b 58 1b bd f3 e9 9f 3c
       0.04473385 -0.04763515 -0.03792606 0.019520735
0001a0 9d 57 5c bd b3 d7 4d bc 60 55 1e 3d a2 9f 66 3c
       -0.053794492 -0.012563634 0.03865564 0.014076145
0001b0 db de 2f 3d 1d 36 41 3d f2 a6 63 bd 7f c7 92 ba
       0.04293714 0.047170747 -0.055579133 -0.001119837
0001c0 8f a2 77 3d 1d f8 a8 3c 67 e7 2a 3c 1f 40 3b 3d
       0.060457762 0.020626122 0.010431147 0.045715448
0001d0 97 34 25 bc b3 ea 34 3d 29 60 2f 3d ca f8 68 3d
       -0.010083339 0.04416914 0.042816315 0.05687789
0001e0 47 d7 0d 3c e0 2b 2c 3d eb ed 02 bd 27 fa e0 3c
       0.008657283 0.04203403 -0.031965178 0.027463032
0001f0 22 5e 1f bd 35 f9 c3 3c 83 e6 00 3c 7b d6 b4 bc
       -0.03890813 0.023922542 0.007867458 -0.022074929
000200 fb 26 30 3d 96 d0 85 3d 5b 68 90 3d 17 ce 1b 3d
       0.043005925 0.06533925 0.07051154 0.03803834
000210 8f aa 28 3d 5a 1f 46 bc ed fd 42 3d d2 b3 f1 3c
       0.041178282 -0.012092436 0.047605444 0.02950469
000220 c1 6b 03 bc 4d 0f 41 3d 67 dc 41 bc 83 09 ec bc
       -0.008021296 0.047133733 -0.011832333 -0.02881313
000230 5b 6d db bc 20 3a 1b bc 83 0d 2e 3c 7a eb 4a 3d
       -0.026785543 -0.009474307 0.010623339 0.049540974
000240 c2 e5 70 3c f8 ff 9b 3b d6 fa 3d bd cd b2 bb bc
       0.014703216 0.0047607385 -0.046381794 -0.022912407
000250 28 bb db 3c 9f c4 49 bd f7 fe de 3c 33 03 65 3b
       0.026822641 -0.049259778 0.027221186 0.0034944534
000260 53 d9 38 bd f1 a3 ae 3c 6f 35 a1 3c bd 67 08 3d
       -0.04512913 0.021318408 0.0196788 0.033302058
000270 68 57 55 bd de 54 47 3d 43 da 34 3b 00 8d ca bc
       -0.05208531 0.04866492 0.0027595914 -0.024725437
000280 57 aa 6a 3d a7 d7 32 bd 7b bf 17 bc 90 5f cc 3c
       0.057291355 -0.043662693 -0.009261961 0.024947912
000290 b3 cb 8a 3d 73 90 3f 3d d0 bd 27 3d 8b 31 71 3d
       0.06777134 0.046768617 0.040952504 0.05888514
0002a0 72 5a 5d 3c 49 49 01 bd b1 70 18 bc 2c 4d 83 bc
       0.013510333 -0.03156403 -0.0093042115 -0.01602801
0002b0 3f 60 99 3c 8e ba a7 3c 4b cf b4 3c 1b 15 7a bc
       0.018722652 0.020474698 0.022071501 -0.015263821
0002c0 0a 0d 7f 3d 8d be e4 bc 23 d3 5d 3c 12 2e 0f bd
       0.062268294 -0.027922893 0.013539108 -0.034956045
0002d0 67 a4 b0 bc ef 37 d8 3c e7 60 b3 bc ee b1 48 3b
       -0.021562768 0.026393859 -0.021896793 0.0030623632
0002e0 35 56 f6 3c 28 fc 10 3d bb c7 c4 bc 07 79 1f 3d
       0.030070404 0.035396725 -0.02402102 0.03893378
0002f0 8c f8 0f 3c 43 30 69 3d 16 6b c4 ba c8 9e db 3c
       0.008787286 0.05693079 -0.0014985527 0.026809111
000300 72 d7 94 bb cf 50 80 bc a8 31 eb bc e2 08 8a 3b
       -0.0045422846 -0.015663533 -0.028710201 0.0042124847
000310 c8 3b 8c bc e2 5b 27 bc bd a3 3b bd 54 17 9d 3c
       -0.01711835 -0.010214778 -0.04581045 0.019176163
000320 c8 f2 45 bc ed 10 64 bd 7b 56 f4 bc 02 aa 84 bd
       -0.012081809 -0.055680204 -0.029826393 -0.06477739
000330 a9 bf 0b bd 27 5a b5 bb 8f 4b 94 3c 35 a2 0f bb
       -0.03411833 -0.0055344286 0.018102435 -0.0021916751
000340 27 d0 4d bc 95 0c 13 bd ce a9 4c 3d ef 79 f4 bb
       -0.012561834 -0.03590067 0.049966626 -0.0074608247
000350 e4 65 a3 bc a1 c8 88 3b 60 e7 e7 3a 8f ed 8d bd
       -0.019946046 0.0041743075 0.0017692856 -0.06930076
000360 f7 fc 28 bd 34 4c 05 3b 8b 6d 45 bd b7 c3 57 bd
       -0.04125687 0.002033961 -0.04820017 -0.052676883
000370 ea 0d ff 3c 42 25 ed 3c d4 44 44 bd 98 a6 e6 bc
       0.031134564 0.02894843 -0.047917202 -0.02815561
000380 38 9a ee bc e5 f4 7a bc 00 a4 23 bd 10 21 d4 bc
       -0.029126272 -0.0153171765 -0.039951324 -0.025894672
000390 c7 b4 35 bb a1 bc 0c bd 53 6f 22 3d c3 ae 6f 3c
       -0.002772616 -0.034359578 0.03965695 0.014629069
0003a0 78 2f f5 3c a7 a5 18 3d d3 70 f7 3a d0 b4 e5 3c
       0.029929861 0.037267353 0.0018878229 0.02804032
0003b0 20 b3 1f 3d ef a8 3b 3d 70 54 f7 3c 57 de ad 3c
       0.038989186 0.045815405 0.03019163 0.021224184
0003c0 55 e1 7a 3d 5f 90 42 bc f8 58 48 bd 37 ba ac ba
       0.06125005 -0.011875241 -0.048912972 -0.0013178055
0003d0 ff a9 59 bd 58 76 64 3c 1f 29 cf bb ae fe 8c 3c
       -0.053140637 0.013944231 -0.0063220407 0.017211284
0003e0 14 6f 3b 3d b0 0f 6e 3d 3f a8 7b bd 13 1e 12 bc
       0.04576023 0.05812043 -0.06143975 -0.008918303
0003f0 fd 89 37 3d af 12 95 3c 40 a4 14 bc cf 3a 01 bd
       0.04480933 0.018197386 -0.009072363 -0.031550225

Conv2DType3_pointwise.conv.weight f4 [16, 16, 1, 1]
000000 ef c2 33 bd d7 08 01 be b0 c1 8a be 3a 1b 6c be
       -0.043887075 -0.12601028 -0.27100897 -0.23057261
000010 4f f2 2b 3e 5c fb a0 3d 13 75 40 3e 72 f3 37 3e
       0.16791652 0.07860443 0.1879466 0.17963961
000020 34 bd b7 bd 8b 78 3f 3e 3d 4e 83 be 1f 36 52 3e
       -0.089716345 0.18698327 -0.2564563 0.20528458
000030 27 92 89 3d eb 28 53 be 97 ef fb 3a 04 a7 a6 3d
       0.067173295 -0.20621078 0.0019221184 0.081373245
000040 d7 5d 15 3e c2 dc e2 3d 2a 78 76 be 40 ea 6f be
       0.14586578 0.110772625 -0.24069276 -0.23429203
000050 88 56 0f be 94 b6 ab bd f7 b0 fe bc 2d c8 3b bd
       -0.13997853 -0.083844334 -0.031090243 -0.0458452
000060 eb 15 2d be 00 d9 71 3e 37 71 51 bd ba cd 24 3e
       -0.16902892 0.23617935 -0.05113336 0.16094103
000070 a0 d3 58 3e 60 72 81 3d 40 ed e6 3d 32 36 21 3e
       0.21174479 0.063206434 0.112757206 0.1574333
000080 79 aa 0f be c7 05 4d 3e c0 26 11 3c 9a 97 69 3e
       -0.14029874 0.20021735 0.008859336 0.22811738
000090 dd 85 44 be 73 83 0d 3d f8 16 07 be f2 33 e3 bd
       -0.1919169 0.034549188 -0.13192356 -0.11093892
0000a0 57 d4 eb 3c af bd 3f bd 53 51 e9 3d 88 64 dc bd
       0.028787775 -0.046811756 0.113924645 -0.10761362
0000b0 af 6b 75 bb 8b 1e 3c 3c 00 bc 45 3e e6 e2 ac bc
       -0.0037448218 0.011481891 0.19309998 -0.021104287
0000c0 4f bd c0 3c c2 05 b0 3d 6b 98 53 be 43 1c 46 be
       0.02352777 0.08594848 -0.20663612 -0.19346718
0000d0 98 bc 1f be 1d 59 3f be 09 d5 19 be 0f 81 4a 3e
       -0.15599287 -0.18686338 -0.15022673 0.19775794
0000e0 70 3c e8 3d 13 93 ef 3d 54 29 90 bc f5 3e f2 bc
       0.113396525 0.11697974 -0.017597832 -0.029571036
0000f0 db ce 36 bd 85 49 2c be bb 1c ae bd b2 ed d8 bd
       -0.044630866 -0.1682492 -0.08501574 -0.10592212
000100 9f fc 19 be 02 fb cf bd 70 aa e4 3d 47 4a cf 3c
       -0.15037774 -0.10155298 0.11165321 0.025303973
000110 35 d8 90 3b ef 54 6e be 36 22 a1 3d 58 5d 88 bd
       0.004420305 -0.23274587 0.07867853 -0.06658429
000120 15 12 53 be 33 27 f2 bc 08 f1 6d 3e 9d 43 b6 bb
       -0.20612366 -0.029559707 0.23236477 -0.0055622593
000130 1b 06 31 be 6a 3e 28 be 6a 1a eb bc e7 3c 84 bd
       -0.17287485 -0.16430059 -0.028699119 -0.06456929
000140 32 5d 70 3e 88 e3 c2 3d 0f 1f 2b 3d 44 d4 17 3e
       0.23473051 0.095160544 0.041777667 0.14827067
000150 d7 97 f0 3d ed c3 32 3e c3 98 cd bd 49 8b 89 be
       0.11747711 0.17457552 -0.100389026 -0.2686408
000160 58 46 ae 3d 83 e7 17 be 48 3c 79 3e 2b bb b8 bd
       0.08509511 -0.14834408 0.24339402 -0.090200745
000170 8d 70 21 be 43 79 fb bb b3 1c a6 3d c2 2d 2e 3e
       -0.15765591 -0.0076743676 0.08110943 0.17009643
000180 a1 7d 1b 3e 3a 3a 3e bd 8b 4c 7e be 86 1f 85 bb
       0.15184642 -0.046442248 -0.24833886 -0.004062596
000190 6f 2b 35 3e a3 28 23 3e 62 e5 d3 3d 3f be 02 be
       0.1769235 0.1593347 0.10346486 -0.12767886
0001a0 a8 4e 53 3d ee fd 17 be 87 7a 10 bd 4b c7 14 bd
       0.051588684 -0.1484296 -0.0352731 -0.036322873
0001b0 df 54 f2 bc e3 70 12 bc b2 ac 01 3e b0 a1 51 be
       -0.029581485 -0.008938047 0.12663534 -0.20471835
0001c0 f3 fd d9 3d 37 2d e6 3c 3c d9 02 3e 58 6d 62 be
       0.1064414 0.028097732 0.12778181 -0.22112024
0001d0 aa cd 61 bd ff a0 7a 3d c3 bf b8 bd db df 3f be
       -0.055127777 0.061188694 -0.09020951 -0.18737738
0001e0 79 8f 1e 3e 9b 92 42 3b 2f 22 67 be a8 a4 39 3e
       0.15484418 0.0029689434 -0.22571634 0.18129218
0001f0 ef 16 e8 3d 9a 52 5f 3e dc 58 a6 bd 57 53 ea bd
       0.11332499 0.21808854 -0.08122417 -0.11441677
000200 00 23 d3 3d 46 dc 25 be 73 fc f9 bd 4a 87 0f be
       0.1030941 -0.16197309 -0.12206354 -0.14016452
000210 18 87 37 3e b7 6c 46 3e f1 43 08 bd 47 fd c8 3d
       0.17922628 0.19377409 -0.03326792 0.09813934
000220 5e 63 20 3e 4c 23 0d 3e 2c 25 12 3e 53 39 57 be
       0.15662906 0.13782996 0.14271992 -0.21017961
000230 a1 21 82 3e 73 5b 86 3e e5 9b 94 bd c1 54 c3 bd
       0.25416282 0.26241645 -0.07256297 -0.0953765
000240 57 ed 31 be 00 e9 74 3d 7b 9f 0a 3c 97 8f 4a 3e
       -0.17375694 0.05979252 0.008460875 0.19781338
000250 5e 5f b5 bc b0 73 73 be 63 de a7 bd 49 9f b6 3d
       -0.022140201 -0.237746 -0.08196714 0.089171
000260 1d 65 30 be ea cf 5c 3e c6 02 28 bc d3 c2 3c be
       -0.17226072 0.21563688 -0.0102545675 -0.18433695
000270 45 3e 07 3d 4e a4 03 be 3a a6 a6 bd ef 87 53 3e
       0.03301837 -0.12855646 -0.08137174 0.20657323
000280 4f 7f 21 bc fb f1 21 be 1e b7 39 be 6a b3 5c be
       -0.009857013 -0.15814964 -0.1813626 -0.21552816
000290 82 20 b2 bd 7b 1f 1a 3e 27 d3 68 be e7 bd 11 be
       -0.086976066 0.15051071 -0.22736798 -0.14232598
0002a0 8f 9c 2b bd b6 17 47 be 9b 3a 2c 3e 03 c6 2c 3e
       -0.041897353 -0.19442639 0.16819231 0.1687241
0002b0 e2 9c 8d 3e a5 d2 72 3c d5 91 b1 3c f5 17 29 3d
       0.27658755 0.014820729 0.021675983 0.041282613
0002c0 b1 a0 c9 3d c3 86 9d 3d 1a 85 2e be 17 52 bd bd
       0.098451026 0.076917194 -0.17042962 -0.09244173
0002d0 47 0f 86 3e 1b f8 ba 3c 16 1b 91 3d 0a 70 e6 bd
       0.2618353 0.022823384 0.07085244 -0.112518385
0002e0 fb af 93 be 70 ba c5 3c c0 b2 5f 3e 24 6c 28 3d
       -0.288452 0.024136752 0.21845531 0.041118756
0002f0 ea db f6 3d fa 72 21 be 78 0c dc 3d d7 e6 9b bd
       0.12053664 -0.15766516 0.10744566 -0.076123886
000300 d1 53 ad 3d 6d a3 7c be 37 5b a6 3d a7 25 34 bd
       0.08463252 -0.24671717 0.081228666 -0.04398122
000310 4f 54 33 3e 69 bb 05 3d 68 99 3c 3e a8 40 56 3e
       0.1751263 0.03264943 0.18417895 0.20923102
000320 fd 37 6e 3e 73 e7 ee 3c 6b 5c e0 bd 7b 33 c5 3d
       0.23263545 0.029163098 -0.10955127 0.0962896
000330 72 9b 1b 3e b3 68 62 3e 3f ee f3 bd 2f 57 24 3e
       0.15196016 0.22110252 -0.11910676 0.16048883
000340 5d 98 b7 bd a2 3e 22 bd 8b 4a 11 3e 64 3f 1d 3e
       -0.08964608 -0.039610513 0.14188592 0.15356213
000350 c5 56 ee 3d e3 59 b9 bd 82 c5 59 be 07 b9 39 3e
       0.11637644 -0.09050348 -0.2126675 0.18136989
000360 52 3c 81 3d 6f 3a 83 3d 20 73 98 3d 23 61 76 3e
       0.06310333 0.0640763 0.07443833 0.24060492
000370 10 8a fe bd c2 bc 07 be 6a 83 11 be 33 bf bc bb
       -0.12428677 -0.13255599 -0.14210287 -0.0057600974
000380 4a b0 7e be 10 dc 16 be 23 bb 9d bd f7 23 a6 bc
       -0.24871936 -0.14732385 -0.07701709 -0.020280821
000390 69 29 0b 3c bd 94 1d 3e c7 45 2b bd 0e fb 44 3e
       0.00849376 0.1538877 -0.04181459 0.19236395
0003a0 2f 79 77 be 6e 84 07 bc 99 c5 14 bc b4 65 ad 3d
       -0.24167322 -0.00827132 -0.009080314 0.08466664
0003b0 5e 2f 01 be 30 bc 46 3d af 6f 56 3e 60 2a 74 3e
       -0.12615725 0.048519313 0.20941041 0.2384429
0003c0 58 8e 3b 3e 1a bf fb 3d 8d 09 55 bc 57 61 26 be
       0.18316019 0.12292309 -0.013002765 -0.1624807
0003d0 b5 18 f8 bc 09 42 3f be bb 40 3b be 63 b6 35 3e
       -0.030285219 -0.18677534 -0.18286411 0.17745356
0003e0 b3 b1 44 3d db 5a bd bd a2 ce 86 be d3 ff 81 3e
       0.04802103 -0.09245845 -0.26329523 0.2539049
0003f0 63 82 a5 bd 14 88 05 3e a8 36 94 bd ae 70 12 3d
       -0.0808151 0.13040191 -0.07236987 0.03575199

Conv2DType3_Batchnorm.norm.weight f4 [16]
000000 1b 25 83 3f 1c 2d 86 3f 0a e6 85 3f be 76 83 3f
       1.0245699 1.0482516 1.0460827 1.0270612
000010 28 e4 86 3f 4c 6a 84 3f 88 71 85 3f 06 49 83 3f
       1.0538378 1.0344939 1.0425272 1.025666
000020 5b e3 86 3f 80 a2 85 3f d2 73 83 3f 38 62 82 3f
       1.0538133 1.0440216 1.026972 1.0186224
000030 a2 f4 84 3f 7c 9a 84 3f 05 18 86 3f 2b 7e 85 3f
       1.0387156 1.0359645 1.047608 1.0429128

Conv2DType3_Batchnorm.norm.bias f4 [16]
000000 83 45 75 3c e7 c9 ad 3c 6b 5e ab 3c b7 09 08 3c
       0.014970186 0.021214439 0.020919045 0.008303097
000010 d3 50 d7 3c 47 67 da 3a 7d db db 3b 8a 9f bc 3c
       0.026283657 0.0016662859 0.0067095147 0.023025293
000020 09 eb 9e 3c 15 b7 c6 3c 52 f8 7c 3c 97 66 85 3c
       0.019399183 0.024257222 0.015440064 0.01628427
000030 7d 75 94 3c 99 42 bd 3c 01 00 c2 3c c1 7f c3 3c
       0.018122429 0.023103045 0.023681642 0.023864629

Conv2DType3_Batchnorm.norm.running_mean f4 [16]
000000 95 4a 78 3d 6b b6 0e 3d c5 8c 72 bd ca 50 d5 bd
       0.060618002 0.034841936 -0.05921628 -0.104158
000010 75 b3 46 bc 2f b3 11 bd 8d 17 4b 3d a7 fa 19 3d
       -0.012127747 -0.035571273 0.049583007 0.037592556
000020 0a 0a 59 3d 6c bb b8 bd 40 ea f9 3d a6 9a 8f 3d
       0.05298809 -0.09020123 0.12202883 0.07011919
000030 40 30 bc 3d 63 a8 09 3d 47 73 f3 3d 72 ee 33 3d
       0.091888905 0.03360785 0.11887222 0.04392857

Conv2DType3_Batchnorm.norm.running_var f4 [16]
000000 93 98 94 3d b7 f9 6e 3d a4 fa 49 3d ba 32 56 3d
       0.07255664 0.058343615 0.049311295 0.05229447
000010 72 5c a3 3d 08 4a 9d 3d c1 6d 33 3d ab ab fd 3d
       0.07976617 0.07680136 0.04380584 0.12386259
000020 0b 90 9d 3d d8 48 b0 3d d3 b4 c0 3d 47 91 d9 3d
       0.0769349 0.08607644 0.094094895 0.106234126
000030 62 5d 9e 3d 9d 30 69 3d 09 28 a4 3d cf d3 c1 3d
       0.07732655 0.056931127 0.080154486 0.094642274

Conv2DType4_depthwise.conv.weight f4 [16, 16, 1, 15]
000000 eb b4 95 bc f3 b8 e6 3c 53 cb 37 3d 57 8f dd bb
       -0.018274745 0.028164363 0.04487164 -0.006761472
000010 55 a5 13 3d 01 9a ca bb 58 f5 6e 3c e4 f0 8c 3c
       0.036046345 -0.0061829095 0.014584862 0.01720471
000020 cf ca 5e 3c 57 99 1d 3d a4 b7 a2 3b e0 8c 6d 3d
       0.013598158 0.038476314 0.0049657393 0.057995677
000030 ec 4b b5 bc 98 75 08 bd 2d bd a1 3c 0b db 0b bd
       -0.022130929 -0.03331527 0.019743526 -0.034144443
000040 cf 0f 0e 3d 65 54 71 3d ed 59 5b 3d 1b 97 1a 3d
       0.034683045 0.058918376 0.053552557 0.03774176
000050 bc fc 3b 3b a3 ee c6 bc 65 78 e3 bc 70 4e ee bc
       0.0028684577 -0.024283713 -0.02776737 -0.029090136
000060 25 bd 73 3d d5 89 46 3d c3 fd 08 bd 9d 67 3d 3d
       0.059506554 0.04847129 -0.03344513 0.04624139
000070 dd 6a dc 3c d3 be 15 bc e7 8c 5e bb 5b bc 84 3c
       0.026906425 -0.009139734 -0.0033958496 0.016203096
000080 67 1d 2f bd 8a 00 6e 3d 5f e9 f9 3a 91 0f 8c bc
       -0.04275265 0.058105983 0.0019066742 -0.017097266
000090 98 c2 29 3d ba f4 0a 3d d7 d2 6e bd e3 c8 3c bd
       0.041445345 0.033924796 -0.05830654 -0.046090018
0000a0 4f fe 82 3d 4c ac 09 3d 07 37 0b bd f5 3e 25 bd
       0.06396162 0.03361158 -0.033988025 -0.040343244
0000b0 74 e0 1e bd d2 b4 6c 3d 3f ee c6 bc 6a 50 13 3d
       -0.038788274 0.05778963 -0.024283526 0.03596536
0000c0 07 cb dd bc d6 05 0f 3d 75 e3 f8 3c da 83 52 3d
       -0.02707435 0.034917675 0.030381897 0.051395275
0000d0 ca 8c 37 bd cf 22 21 bd 99 f9 8f 3d 18 0f 50 3d
       -0.044812 -0.039339837 0.07030029 0.050795645
0000e0 a2 f4 7f 3d 57 a7 06 bd c9 f2 c1 b9 d5 bb ba 3b
       0.06248916 -0.03287443 -0.00036992718 0.005698661
0000f0 78 e2 33 3d d4 c7 99 3b 9f b7 91 3c 6b ff 0f 3c
       0.04391715 0.004693011 0.017787753 0.008788924
000100 5b d1 41 bd 63 3a 87 bd 58 3c 7d 3c 97 6b e9 3c
       -0.047318798 -0.06602933 0.015456282 0.028493686
000110 4d 56 58 3d a7 a7 69 ba de 70 83 bd 6f 8e 11 bc
       0.052816678 -0.0008913227 -0.06418012 -0.0088840565
000120 e2 0d 48 3d 5b 7c ff ba 7d bd 08 3d 45 ab 8a 3c
       0.048841365 -0.0019492017 0.033383835 0.01692737
000130 03 28 79 3d c0 77 ec 3c 94 26 01 ba b0 6a 88 3d
       0.060829174 0.028865695 -0.0004926708 0.06660974
000140 f2 53 01 bd 1e 9c 32 3d 82 10 30 3d 83 18 09 3d
       -0.031574197 0.043605916 0.042984493 0.03347064
000150 9d 7b 13 bc 3d 3c 6e 3d 12 cd 85 3c 00 0d 5a 39
       -0.00900164 0.058162916 0.016333137 0.00020794943
000160 5f 0d 2c bd c5 f5 eb 3c 5c 3d 1e 3b ca 52 ee bc
       -0.04200494 0.028803715 0.002414546 -0.029092211
000170 0f ee 35 bd 77 e3 5e 3d c4 70 0a 3c 00 20 5a 3d
       -0.044416483 0.054416146 0.008449737 0.053253174
000180 1a 24 21 3d b2 13 85 3d 5d 29 65 bc 08 57 16 bd
       0.03934107 0.06497897 -0.013986913 -0.036704093
000190 7b 9e 2f 3d df c9 74 3c 48 6d 2f 3d 0d 51 ab 3c
       0.042875748 0.014940708 0.042828828 0.020912671
0001a0 18 ca e7 bc cd 17 4f bd 03 fe bc bb b5 08 91 3d
       -0.028294608 -0.050559808 -0.0057675852 0.07081739
0001b0 60 b5 48 bd 88 a9 64 3d 4e 4d af 3b eb f7 73 3d
       -0.049001098 0.05582574 0.0053497916 0.059562605
0001c0 2f 90 20 3c f2 8a fe 3b 1e 89 32 bd bc 2d b1 3c
       0.009800001 0.0077680284 -0.043587796 0.021628253
0001d0 77 94 34 3d ea 69 58 bd 4e cf b0 bb b3 36 97 3c
       0.0440869 -0.052835383 -0.0053958064 0.0184587
0001e0 ab d5 b0 bc 60 3d 33 3d 06 3e a9 3c ae 6c 93 3c
       -0.02158626 0.043759704 0.020659458 0.017996158
0001f0 35 e9 80 3c a2 ab 66 bd f0 60 e4 3c 7b 07 5f bd
       0.015736202 -0.056316026 0.027878255 -0.054450493
000200 56 70 b3 3c 6b db ba bc 9e 63 97 3b 02 7f b2 bc
       0.021904152 -0.022809705 0.0046200296 -0.021789078
000210 41 da ad bc 6d 17 d2 3b 93 67 4d 3d cd 82 b3 3a
       -0.021222236 0.006411484 0.050147604 0.0013695598
000220 17 48 51 3d 2d 5e b4 3b 42 cd dc 3c d3 4d 14 3d
       0.05109414 0.0055043907 0.026953343 0.03620703
000230 b8 a7 2d bd aa 9a 78 bb ca 7f ae 3c 87 e3 43 bd
       -0.042396277 -0.0037933984 0.021301169 -0.04782441
000240 1d 25 37 bd 77 af 5d 3d 6b 60 3a 3c a5 e3 7c bd
       -0.04471313 0.054122414 0.011375527 -0.061740536
000250 b5 1c 01 3d 0f c1 22 3d af 6c ec bc 8c b1 c7 bb
       0.031521518 0.039734896 -0.028860418 -0.0060941633
000260 ff f0 a1 3c d5 4f f0 3b dd 99 d5 3c bb ec f7 3b
       0.019768236 0.0073337355 0.026074344 0.0075660623
000270 02 2a 2d 3d 77 a5 cc bc 2d d1 ef 3c 7b 51 c2 bc
       0.04227639 -0.024981244 0.029274547 -0.023720494
000280 d0 e1 d5 3c df 5e 17 bc 48 e3 6d bb 45 13 a3 bc
       0.026108652 -0.009238928 -0.00362988 -0.01990665
000290 4b 9f 75 bc 51 59 a9 bc 92 a5 46 3c df ea 83 3c
       -0.014991592 -0.020672472 0.012124436 0.016103206
0002a0 a3 bb b5 3b e4 09 98 3c 82 2f f5 bb b8 2b cb bc
       0.0055460497 0.018559404 -0.00748247 -0.02480112
0002b0 1b 46 53 3d 6a 74 33 bd b3 c2 54 bd e5 5f 04 3d
       0.05158053 -0.043812193 -0.051943492 0.032318015
0002c0 d3 50 0b bd be 57 a4 3b 22 08 4b bd fb 01 04 3c
       -0.034012627 0.0050153425 -0.049568303 0.008057113
0002d0 47 90 87 bc e9 5f 4c bd 8b 4c 23 bd 7d 95 64 bd
       -0.016548289 -0.049896155 -0.03986792 -0.055806626
0002e0 14 99 31 bc 6a 31 08 3d 8e fa aa bc b8 16 d3 bc
       -0.010839719 0.03325025 -0.020871427 -0.02576767
0002f0 38 20 50 3d 12 7f 67 bd 0d 29 fc 3b a8 67 4f bd
       0.050811976 -0.056517668 0.0076953233 -0.050635964
000300 7f 2c 7d bd 58 7e 27 3d 74 a7 41 bd 67 b1 e6 3b
       -0.061810013 0.040891975 -0.047278836 0.007040191
000310 ed d6 51 bc b8 f6 11 3d 15 5d 4d bd ad d7 f8 bc
       -0.01280759 0.03563568 -0.050137598 -0.03037628
000320 13 7f 82 3c 4a 3f 83 bc d4 e9 27 bd 56 ad a2 3c
       0.015929734 -0.01602139 -0.04099448 0.019858044
000330 97 83 91 bd 9d 60 61 bd 45 67 4f bc ad 1f e7 bc
       -0.07105177 -0.05502378 -0.012658899 -0.028213346
000340 4d 41 7a bd 70 62 62 bd 34 b0 29 bc 17 c3 a5 bb
       -0.061097432 -0.05526966 -0.0103569515 -0.005058657
000350 1a bf 53 3d de 76 ac bc 33 b6 01 bd f5 21 31 bb
       0.05169592 -0.021052774 -0.0316679 -0.0027028297
000360 ed 97 8b bd d2 7c 65 bd e5 1f 8b 3c 68 e3 1d bd
       -0.06816087 -0.05602724 0.016982982 -0.03854695
000370 f3 27 c9 3c 17 da 76 bd 1b 2a 7b bd 23 d0 c5 bc
       0.024555182 -0.06026658 -0.06131945 -0.024147099
000380 7d 05 27 3d 8b d1 21 bd 2a 60 5d 3c 97 ba c1 bc
       0.04077672 -0.039506476 0.013511697 -0.023648543
000390 47 72 4e 3d a2 85 21 bd 96 74 0d bc 5b bd 3b 3d
       0.050401952 -0.039434083 -0.008633753 0.04583488
0003a0 98 70 b7 3c d1 53 32 3d 63 e0 9d bc e5 c0 4b bd
       0.022392556 0.043536965 -0.019272035 -0.049744505
0003b0 d5 e8 66 bd 63 da f7 3b 3e 11 c0 bb 4b af 77 3c
       -0.05637439 0.0075638755 -0.0058614304 0.015117477
0003c0 f4 b3 47 3d f3 fa 58 bd 0a fa 58 3c ea f5 e8 3c
       0.0487556 -0.0529737 0.013243208 0.028437573
0003d0 c9 de 0b bd 67 55 8e 3d ab 88 e9 3c f3 5d e4 3c
       -0.03414801 0.06949883 0.028507551 0.02787683
0003e0 5a 78 fb 3c 94 37 0d 3d f2 99 ef bc 2b b8 8b 3d
       0.030697037 0.03447683 -0.029248212 0.068222366
0003f0 53 c8 f9 3c 37 0c 8d bc c4 6e 23 3d 85 28 4d 3d
       0.03049103 -0.017217739 0.039900556 0.05008747

Conv2DType4_pointwise.conv.weight f4 [16, 16, 1, 1]
000000 63 7a 28 be e0 d9 01 3e b6 e0 27 bd 95 ac 34 be
       -0.16452937 0.12680769 -0.040985785 -0.1764396
000010 e7 c7 24 3e 5a ef 7c 3d ed ee 6e be f7 60 ae bd
       0.16091882 0.0617517 -0.2333333 -0.08514588
000020 bf 86 7f 3e 81 5f 40 3e a8 61 51 be c0 2b 7d be
       0.24953745 0.18786432 -0.20447409 -0.2472372
000030 67 1e 45 be 7e 7b 12 3e 72 0c 35 bd 17 f7 ae 3d
       -0.19249879 0.14304921 -0.044201322 0.085432224
000040 30 00 0a bc 09 bc 00 bd 6b 18 7c 3e c9 b1 45 be
       -0.008422896 -0.031429324 0.2461869 -0.19306101
000050 f2 af 7a bd ff ba 0f be ed 1a b0 bd db ea 0c be
       -0.06120295 -0.14036177 -0.08598886 -0.13761465
000060 78 d3 b1 3d d5 a1 45 be 87 dc bd bd 35 31 16 3e
       0.086829126 -0.19300015 -0.09270578 0.14667208
000070 79 23 08 3e 24 f8 14 be 98 88 ab 3c d3 0d 7b 3b
       0.13294782 -0.14547783 0.020939156 0.00383078
000080 8b 6b 30 3e ad a1 07 be d5 ac 9e 3c 6b a3 d4 3d
       0.17228524 -0.13245268 0.019369522 0.10382732
000090 af 46 1e 3e 12 ba e1 bd 22 01 3f 3a bb cf 02 3e
       0.15456651 -0.11021818 0.00072862406 0.12774555
0000a0 4b f2 c1 bd 90 5b 3f 3e 94 94 45 3d 2b 96 11 bc
       -0.09470042 0.18687272 0.0482374 -0.0088859005
0000b0 db 17 04 3e c8 a0 63 be 78 ea 3f be 8d bd 39 3e
       0.12899725 -0.22229302 -0.18741786 0.18138714
0000c0 f0 69 12 3e 3b 8b 4f be 9f 9f 77 3e 13 56 b3 bd
       0.14298224 -0.20267956 0.24181984 -0.08756652
0000d0 45 86 1b 3e 78 f5 dd 3c 09 9e 4b be a1 8a 38 be
       0.15187939 0.027094588 -0.19884504 -0.18021633
0000e0 b0 1e 42 be 26 0a 39 be 4b 3c c9 bd fb b6 19 3d
       -0.18957019 -0.18070278 -0.09825953 0.03752802
0000f0 42 1c af 3d 7a ec 89 3d 6b 5d 6b 3d 20 83 60 3d
       0.085503116 0.067345574 0.057462137 0.05481255
000100 9b 8c af bd 43 23 03 3e 78 32 51 be 4f f1 23 3c
       -0.0857174 0.1280642 -0.20429409 0.010006263
000110 6f 9b 7b 3d 1d a9 d2 bd e3 00 71 3e ef 23 23 3d
       0.06142753 -0.10286162 0.23535495 0.03982919
000120 5f f6 08 be 32 7e d1 bc 4d 6e e3 bc 01 17 a5 bd
       -0.13375233 -0.02557287 -0.027762556 -0.08061028
000130 ea dd c8 bd 1f 05 00 3e 4a dc ab 3d d2 06 78 3c
       -0.09807952 0.12501954 0.08391626 0.015138345
000140 27 50 82 3e 59 30 b1 3d cf b9 b3 3d 0d 6c 59 be
       0.25451776 0.086518 0.087756746 -0.21232624
000150 f9 77 1b be e9 df 14 3c 0b e6 3d be ab 37 f9 3d
       -0.15182485 0.0090865875 -0.18544786 0.12168821
000160 a1 bc 44 be 93 10 fa 3c ba d6 f1 3d df be a4 3d
       -0.19212581 0.030525481 0.11808534 0.08044218
000170 9f d1 24 3e 23 39 8e bc 1f 66 4d be a5 39 7f 3e
       0.16095589 -0.01736123 -0.20058487 0.24924333
000180 1b b0 5e 3e 5d 39 f9 bd 32 c0 0e bd aa 17 6c 3e
       0.21746866 -0.12169144 -0.03485126 0.23055902
000190 03 4f 87 bd d3 22 63 bd c7 b6 32 be b3 a8 94 bd
       -0.06606867 -0.055453133 -0.17452537 -0.07258739
0001a0 3b a6 a8 3d 5f a2 b5 bd 31 9c b3 bd 9a 1f da 3d
       0.08234831 -0.088688605 -0.087700255 0.10650559
0001b0 af 63 a0 3d df 56 ca bd 6b ee a0 3d 43 03 30 bd
       0.07831513 -0.098798506 0.078579746 -0.04297186
0001c0 6b 01 11 3e 1c 65 a0 3d 3b 40 64 be dc c9 31 be
       0.14160697 0.07831785 -0.22290127 -0.1736216
0001d0 4b ac 64 3d 1a d4 75 3e ff 11 0b 3e c3 b2 28 3e
       0.055828374 0.24006692 0.13581084 0.16474442
0001e0 49 02 13 3e 25 d7 7b be af 2d a4 3d cf f1 c7 bd
       0.1435634 -0.2459379 0.08016526 -0.09762918
0001f0 e2 94 1f 3e ca d6 3c 3e 1a f7 bb bd 27 af 6a 3e
       0.15584138 0.1844131 -0.0917799 0.22918378
000200 42 30 63 be dd b6 10 be 27 41 24 3e 13 fa 71 be
       -0.22186378 -0.14132257 0.16040479 -0.23630552
000210 92 5c 8c bd 41 54 aa 3c b1 ac 25 3e 52 00 35 be
       -0.06853594 0.020792129 0.16179158 -0.17675903
000220 c5 9d 77 3e e3 1b b5 3d e7 45 81 bd 51 48 33 be
       0.24181278 0.088432096 -0.06312161 -0.17508055
000230 50 14 6a 3d 5d 7e 63 3e 13 b3 5b be 57 eb 24 3d
       0.057148278 0.22216173 -0.2145503 0.0402635
000240 a5 5c 3f be 07 00 0d 3e 53 59 4f 3d f2 58 41 3d
       -0.18687685 0.13769542 0.050622296 0.047203965
000250 3b 5f 46 3c 0b cf 58 be af 18 22 be 1d 83 04 3e
       0.012107666 -0.2117273 -0.15829729 0.12940641
000260 08 34 22 bd 34 71 ba 3d 84 1b 3d be 3f ae 36 3e
       -0.039600402 0.09103623 -0.18467528 0.17839907
000270 c5 c0 ca 3d 42 db ac bd 17 1e d9 bd cb 4c d0 bd
       0.09900049 -0.084402576 -0.10601442 -0.10170897
000280 d7 58 59 be 1d a1 5c be 76 b5 42 be f0 ba 6a be
       -0.21225296 -0.21545835 -0.19014534 -0.22922873
000290 b7 51 ca 3d f9 84 36 3e 78 1c f1 3d 98 44 6f bd
       0.09878867 0.17824163 0.11773008 -0.058415025
0002a0 74 d0 a2 3d a7 f4 1f 3d 2c 68 4b 3d 07 22 85 bc
       0.079499155 0.039051678 0.049659893 -0.016251577
0002b0 22 cb dc bc 3b 45 ed 3c af 7b 2f be b2 2f 59 3e
       -0.02695233 0.028963676 -0.17137025 0.212096
0002c0 0b af 3e be 4a 0b 2f bd 6a 4c 78 3c cd ac eb bd
       -0.18621461 -0.042735375 0.015154937 -0.115075685
0002d0 31 95 90 bc 95 24 5d be 05 d3 d7 3d 7d 14 11 be
       -0.017649265 -0.21595986 0.10538296 -0.14167972
0002e0 f3 2a 88 bd b2 3d 59 bd fe 0c a1 bd 77 38 71 bd
       -0.06648817 -0.053037353 -0.07863806 -0.05889174
0002f0 cf 97 45 3e 37 54 11 be 5e e4 37 3e cd e3 87 3c
       0.19296192 -0.14192282 0.17958209 0.016588116
000300 c3 19 9c 3d 13 91 e1 3d 89 74 4c be bd 5d 58 be
       0.07622101 0.11013999 -0.1996633 -0.21129508
000310 f2 a1 38 3e df e3 27 3e 70 45 0f be 39 94 a9 3d
       0.18030527 0.1639552 -0.13991332 0.08280224
000320 a9 b8 49 3e 27 1d 2d be 3b ee 7b 3d 05 fc 5d be
       0.19699349 -0.16905652 0.06150649 -0.21678169
000330 93 ca 3f 3e e0 3b ef bd b8 2a e9 bc 69 f5 c0 3b
       0.1872962 -0.11681342 -0.028462753 0.00588863
000340 00 f1 69 bd 16 8d 49 bc 4b 3d 4d be 82 15 d5 bd
       -0.0571146 -0.012301704 -0.20042913 -0.10404493
000350 1a fd 0a bc 6f 52 43 3e 4a 2f 7d 3e c8 66 5b 3d
       -0.008483196 0.19074415 0.2472507 0.053564817
000360 91 7b 1e 3e 77 85 c7 3c 33 c8 45 be 03 30 e9 3d
       0.15476824 0.024355633 -0.19314651 0.11386111
000370 72 fe 66 3d 5b 7a 08 bd 4d ee f2 bc 9d 30 7f be
       0.056395 -0.033319812 -0.029654646 -0.24920888
000380 0b 39 97 bd 7d 0f 40 be 61 66 26 be b5 b4 15 be
       -0.07383927 -0.18755908 -0.16249992 -0.14619716
000390 50 f2 0e 3e a5 47 f0 3d 8b 48 f2 3d 17 1e 54 3e
       0.13959622 0.11732415 0.11830243 0.20714603
0003a0 a9 8b 0e be 3b e0 88 3d fb 28 22 be 61 ac b7 bd
       -0.13920464 0.066833936 -0.15835945 -0.089684255
0003b0 de 40 a1 3a 65 06 48 bd bd ac 0a 3d a3 d4 42 bd
       0.0012302657 -0.048834223 0.033856142 -0.047566067
0003c0 8a 34 89 3d 73 4b 1d 3e 97 0e e5 3d 25 d7 17 be
       0.06699474 0.15360813 0.111844234 -0.14828165
0003d0 07 df 5b 3e d2 a6 3a be b5 b6 3f 3e 0d 7c 6c bd
       0.21471797 -0.182277 0.18722041 -0.05773549
0003e0 8b b4 78 bc f1 b2 4c be ba 32 7a 3d 5b e5 69 be
       -0.015179764 -0.19990136 0.061083533 -0.22841398
0003f0 f7 e6 8d bc c2 5e 66 be 37 f0 78 be 00 3a df bd
       -0.017322047 -0.22497085 -0.24310385 -0.108997345

Conv2DType4_Batchnorm.norm.weight f4 [16]
000000 32 54 87 3f 94 fa 87 3f c2 fe 87 3f 67 06 86 3f
       1.0572569 1.0623345 1.0624621 1.0470704
000010 e3 e0 87 3f 83 e3 85 3f 65 0d 87 3f 3b 28 87 3f
       1.0615505 1.0460056 1.0550963 1.0559152
000020 73 58 86 3f b0 b7 88 3f 5e b6 87 3f 22 99 88 3f
       1.0495743 1.0681057 1.0602529 1.0671732
000030 3b e4 85 3f 8e ad 86 3f 3d 5f 87 3f 95 ad 87 3f
       1.0460275 1.0521715 1.057594 1.0599848

Conv2DType4_Batchnorm.norm.bias f4 [16]
000000 d1 de 93 3c 3b f8 9c 3c bd a1 b7 3c d5 05 30 3c
       0.018050583 0.019161334 0.02241599 0.010743578
000010 48 53 d7 3c 63 2a 1d 3b df 1a 17 3c ae 0b c9 3c
       0.026284829 0.0023981563 0.009222715 0.024541702
000020 08 35 a3 3c 25 52 ca 3c c2 50 81 3c f9 37 8e 3c
       0.019922748 0.024697373 0.015785579 0.017360674
000030 10 74 9d 3c 00 e2 bd 3c aa 36 d0 3c 37 e8 cb 3c
       0.019220382 0.023179054 0.02541669 0.024891002

Conv2DType4_Batchnorm.norm.running_mean f4 [16]
000000 c7 3e cd 3c 32 63 d6 3d 15 53 ea bb ab 16 52 3d
       0.025054349 0.10468139 -0.0071510174 0.05129115
000010 a8 27 49 bd 30 72 12 3d b9 56 3c 3d ce 11 bf 3d
       -0.049110085 0.03575343 0.045981143 0.09329568
000020 6f 75 5a bc 0e cb 09 3d 6a 68 8e 3c 93 13 6e 3c
       -0.013333662 0.033640914 0.017383773 0.014531034
000030 fb 64 08 3e 43 2e 27 3d a5 8d 48 bc 2c 56 96 3d
       0.13319771 0.040815603 -0.012240802 0.07340655

Conv2DType4_Batchnorm.norm.running_var f4 [16]
000000 b8 ea d4 3e 48 8b ab 3e 93 e0 9b 3e 6f 67 b6 3e
       0.41585326 0.335047 0.30444774 0.3562579
000010 11 02 c7 3e 9f 88 12 3f 62 1c 83 3e 5f 55 f5 3e
       0.38868764 0.5723972 0.25607592 0.47916695
000020 90 04 09 3f 43 7b db 3e 7a e9 eb 3e 49 06 c9 3e
       0.53522587 0.4286748 0.46076566 0.39262608
000030 f2 c2 1b 3f d1 86 0f 3f bb 8b 19 3f 3c 22 2d 3f
       0.6084434 0.5606509 0.59978837 0.6763036
