benchmarks/MOABB/results/MotorImagery/BNCI2014001/LSTMEEGHyperparams/hopt/best/XIGpEg/run2/1987/leave-one-session-out/sub-005/0train/save/CKPT+2024-04-25+06-01-27+00/model.ckpt (torch, 105608 bytes, 15 tensors)

emb_module.shallownet.0.conv.bias f4 [32]
000000 e2 15 0b 3e 1d 5c ff 3d 8a 07 d6 bd ed 24 53 3e
       0.13582566 0.12468741 -0.10450657 0.20619555
000010 3e c1 56 3d 1b f3 53 3c 4a 14 45 be 1d cd 38 3e
       0.052430384 0.012936379 -0.19246021 0.18046995
000020 84 e3 10 3e 32 4f 3d bd 68 37 ca bc 62 0d 24 3e
       0.1414929 -0.046218105 -0.024684623 0.1602073
000030 55 c2 04 be bd a2 7e 3d d2 38 98 bc 10 9f 8d 3d
       -0.12964757 0.062166918 -0.018581782 0.069151044
000040 e6 b9 b6 bd 76 db b8 bd 78 b0 6a bd e9 a9 92 bd
       -0.08922176 -0.09026234 -0.0572972 -0.07161314
000050 90 e9 f0 bd f6 a9 91 bd 86 0c df bc c0 2e 4d be
       -0.117632985 -0.071124956 -0.027227651 -0.20037365
000060 a3 63 9a 3d 92 a2 aa 3d a5 cc 2f be 32 58 d8 bd
       0.075385354 0.08331789 -0.1716791 -0.10563697
000070 01 07 1a 3d 72 67 99 bc 4e 99 ff 3c 10 3c d3 bd
       0.037604336 -0.018726084 0.031201031 -0.103141904

emb_module.shallownet.1.conv.weight f4 [8, 32, 1, 17]
000000 6f cb 99 3d 55 25 38 bd 99 d6 c1 3b 60 2e 42 bc
       0.07509505 -0.044957478 0.0059154746 -0.011851877
000010 a0 b5 8e bd 9c 10 90 bd ba cd 20 be b2 9d c4 3b
       -0.06968236 -0.07034418 -0.15703478 0.006000244
000020 27 21 b8 3d 2e c2 06 3b 2e 79 15 3d 83 e7 fe 3c
       0.08990698 0.0020562517 0.03649252 0.031116253
000030 46 57 08 bd c8 24 22 3b 2d e4 88 3d 5b 01 23 3d
       -0.033286355 0.0024741162 0.06684146 0.039796215
000040 3a 9e 00 bd 67 84 97 3d 2e 56 4c 3d f7 e2 23 3d
       -0.031400897 0.073983006 0.049886875 0.040011372
000050 4e 86 fd ba 66 d6 3e bd af 2f 33 bd 66 ef 25 3d
       -0.0019342394 -0.046591185 -0.043746646 0.04051151
000060 79 31 24 3d 36 1f 20 3d 20 0b ad 3c f6 f2 85 bc
       0.040086243 0.039092265 0.021123469 -0.016351204
000070 9e 13 49 3d 08 3b 37 3b e2 1c f8 bc e8 3d 6f bd
       0.049090974 0.002795877 -0.03028721 -0.058408648
000080 3e 15 b7 bd 5f 19 0f be 77 b2 a6 3d e7 7e 8a 3d
       -0.089395985 -0.13974522 0.08139508 0.06762486
000090 48 22 23 3c ed ca 55 bd e5 05 bc 3d 6e a4 b6 3d
       0.009956904 -0.05219548 0.09180812 0.08918081
0000a0 e8 4b 10 3d 8b f0 6c bd 9b 2c e8 bd b2 8e 6b bc
       0.03522864 -0.057846587 -0.11336633 -0.014377283
0000b0 fb 77 0c bd e2 57 86 bd 7a 77 cf bc 43 79 0e 3d
       -0.03429411 -0.06559731 -0.025325526 0.034783613
0000c0 fa 73 d1 bc f0 70 6d 3a 85 5a 50 bc e2 5d b9 bd
       -0.025567997 0.00090576615 -0.012716894 -0.0905111
0000d0 23 24 a6 bd f0 77 b2 3d 32 3a 1a bd 1f 92 19 3c
       -0.08112361 0.087142825 -0.037653156 0.009373217
0000e0 f8 c4 c2 bc 3a 11 1e bd 3d bb ef 3d 52 a7 aa 3c
       -0.023775563 -0.038590647 0.11705635 0.020831738
0000f0 1a df fd 3d 0a 9d fe bc ec ee 93 3d 50 93 2a bb
       0.12396069 -0.031080741 0.07223305 -0.0026027746
000100 ee 63 98 bc 76 ce 9c bd d2 b6 54 bd 5b 96 7f 3c
       -0.018602338 -0.07656567 -0.051932164 0.015599812
000110 2d 20 23 3d 85 5d 9f bd 8a f0 f3 bb 14 4a 1b bd
       0.039825607 -0.07781509 -0.007444446 -0.037912443
000120 ab 1c 5c 3c 8e d5 a0 bc cb c1 c5 bd fa 4d 30 bd
       0.013434569 -0.01963308 -0.09656104 -0.043043114
000130 55 e9 0b bb ad 7b e4 3b 0e 6e fa bc 8b f2 25 3b
       -0.0021348794 0.006972751 -0.030570056 0.0025321569
000140 76 c3 0b be 93 30 4e bd 38 2d 40 3d 8a a2 d6 3d
       -0.13648781 -0.050339293 0.046918124 0.104802206
000150 ba 65 bd bc 9a 2d d5 3d 1c 02 a3 ba d2 2f dd 3d
       -0.023119796 0.104090884 -0.0012436542 0.108001366
000160 2f 20 bd 3c 11 98 48 3d 0a c2 93 bd d3 3c 05 be
       0.023086635 0.048973147 -0.072147444 -0.13011484
000170 aa bd 96 3c d0 a3 df 3d eb 04 1c 3d 72 9f 4d bc
       0.018400986 0.10919917 0.038090628 -0.012550222
000180 26 ee ee 3c ef 87 a0 bc 0a b7 b1 bd 26 93 58 bd
       0.029166292 -0.019596068 -0.0867749 -0.052874707
000190 52 bd 0c 3d e8 15 7d 3d 12 19 08 be 2a 18 2d bd
       0.034360237 0.06178847 -0.13290814 -0.042259373
0001a0 db 2b 64 3c 18 08 0c 3d 1a ca 6f bd cb 94 95 3b
       0.013926472 0.034187406 -0.05854235 0.0045648566
0001b0 a0 f3 6f bd 20 b5 72 3d b9 ea 04 3e f0 db 00 3e
       -0.05858195 0.059254766 0.12980165 0.125839
0001c0 ae 2b 50 3d dd ef ff 3b 05 ce 7c 3d dc ca 19 3c
       0.050822906 0.0078105764 0.061719913 0.009386744
0001d0 0b 9f 06 be 7b 40 67 3d 5f dd 08 be ce 16 90 3c
       -0.13146608 0.056457978 -0.13365696 0.017589
0001e0 52 73 70 bd ab 52 13 3d 96 0b 00 3d a2 d8 b1 bd
       -0.058703728 0.03596751 0.03126105 -0.086838976
0001f0 62 c9 23 3c f0 dd 98 bd 73 52 1f 3c e6 d1 12 3e
       0.009996744 -0.07464206 0.009724247 0.14337882
000200 30 2a e3 3c 0b 3f ee bc 73 99 ed 3c 83 dd 6b 3d
       0.027730078 -0.029082796 0.029003834 0.057584297
000210 fd 30 65 bd 12 d5 55 bd bd 51 57 3d a2 19 bf bd
       -0.055954922 -0.052205153 0.052568186 -0.09331061
000220 12 dd 57 bd de 07 df bd 39 72 9c bd 8e a3 22 bd
       -0.052701063 -0.108901724 -0.07638974 -0.03970676
000230 e5 62 1e 3d f0 e6 01 be 73 a9 5f 3d ef 08 9b 3d
       0.038668532 -0.12685752 0.05460496 0.07570063
000240 06 15 3b bc 7e ed fc 3d 7a 32 c5 bd a8 e5 b0 3d
       -0.011418587 0.123499855 -0.09628768 0.086375535
000250 76 fc 40 3d b6 39 62 3d c8 7e 3c 3c 1c 3f 94 bd
       0.047115766 0.05523082 0.011504836 -0.072386
000260 26 59 00 3e 36 57 4f bc d0 ba 82 3d 83 8f b3 bd
       0.12534007 -0.01265507 0.06383288 -0.08767607
000270 2e 83 43 bd 00 e7 83 3d 8e 55 06 3b ea 21 0e 3e
       -0.047732525 0.06440544 0.0020497772 0.13880125
000280 0b 08 85 3c 78 75 21 be aa e3 2d bd 1b 7e a6 bc
       0.016239187 -0.15767467 -0.042453445 -0.020323804
000290 42 d9 b8 bc 2e 69 cf bc ca 8e 1e 3a ad ae fd 3c
       -0.022564534 -0.025318708 0.0006048499 0.030967081
0002a0 4a 8c 23 bd c8 a8 ce 3d ed 3f dd bc 35 e4 7a 3d
       -0.039928712 0.10090786 -0.027008021 0.06125279
0002b0 5f d4 87 bd 79 26 39 bc 1a c6 3e 3d d7 1d 14 3d
       -0.066323034 -0.0113006765 0.046575643 0.03616127
0002c0 34 4d 96 3d 90 bc 00 bd dd cb af bd e0 4b 40 bd
       0.07338944 -0.031429827 -0.08583806 -0.04694736
0002d0 b1 8e 8f bc 2e 23 9b 3b 40 39 d8 3c c7 bf 2f 3c
       -0.017524095 0.0047344184 0.026394486 0.010726876
0002e0 bd a7 6f 3d 2a 49 e2 bd 9f 70 80 3d 7d 57 41 3e
       0.058509577 -0.11049111 0.06271481 0.1888103
0002f0 b3 ed a5 bb d8 6c 27 3e 06 58 16 3e 6d fa ab bb
       -0.0050637363 0.16350114 0.14682016 -0.005248359
000300 76 ba f2 bd 22 a1 8b be 48 25 e0 bc ba 08 0e 3e
       -0.11851971 -0.27271372 -0.027361527 0.13870516
000310 2e 9b 80 bd a3 94 a4 bd a8 51 fa bc e5 21 da bd
       -0.06279598 -0.08036163 -0.030556515 -0.10650996
000320 40 20 da bc 4b e8 ef 3c 44 7d 3e 3d 5c 2f a1 3d
       -0.026626706 0.02928557 0.04650618 0.07870361
000330 e9 f3 b1 3d 7a 55 59 bd 48 b9 84 bb 8a 30 1b 3d
       0.086891 -0.053060032 -0.0040504076 0.037888087
000340 46 8d e6 3c d3 63 ce bd e8 e5 e9 bd 07 f6 c6 3c
       0.028143536 -0.10077634 -0.11420804 0.024287237
000350 59 db 07 3e 3e cf ca bb 66 0d d0 bc 4a 7f 14 3d
       0.13267268 -0.006189256 -0.025397014 0.036254205
000360 ec 31 80 3c 5b 83 a9 bc 43 b7 95 bc 7d 56 2a 3d
       0.015648805 -0.020692518 -0.018275863 0.041586388
000370 26 ea 40 3b 68 03 d5 3b 9f 03 03 be 42 38 d9 bd
       0.0029436438 0.00650065 -0.1279435 -0.106064335
000380 93 08 63 bd b0 8c b0 3d 76 fe 5c 3d a8 77 65 bc
       -0.0554281 0.08620584 0.05395361 -0.014005579
000390 4b ed 23 3d ed 5e 64 bc b8 ba a3 3d 8f c8 b1 3c
       0.040021222 -0.013938648 0.07994598 0.02170208
0003a0 00 a4 9c 3d c8 09 d8 3b 50 2d b0 3d 50 db c5 3c
       0.07648468 0.006592963 0.08602393 0.024152428
0003b0 3b 4d 3a bd e6 e9 1c be c5 b8 3c bc b2 f6 7d bd
       -0.04548381 -0.153236 -0.011518662 -0.062002845
0003c0 31 21 88 bc 64 17 23 3b 37 02 4c bd 25 d1 4d bd
       -0.01661739 0.0024885768 -0.0498068 -0.050248284
0003d0 bf 4d 8e 3d 37 95 0c 3d 9e 79 80 3d b2 af 68 bd
       0.06948423 0.03432199 0.06273197 -0.05680818
0003e0 c9 7f 03 bd 4b c3 52 3d 7a e4 51 3d 12 e4 92 3b
       -0.032104287 0.051455777 0.051243283 0.0044827545
0003f0 4e 94 67 bb 63 87 67 bd 65 50 fa bd 3d 37 ed 3c
       -0.00353362 -0.0565256 -0.12222365 0.028957004

emb_module.shallownet.1.conv.bias f4 [8]
000000 89 24 1d bd 10 81 34 bd ea a1 05 be 20 e6 76 bd
       -0.03836492 -0.044068396 -0.13050047 -0.060278058
000010 c0 07 f5 bd 5b 58 ea 3a f0 46 5c bd cc d3 a9 bd
       -0.11964369 0.0017879115 -0.05377859 -0.0829235

emb_module.shallownet.2.norm.weight f4 [8]
000000 0d cd 9a 3f 17 d6 92 3f 3c d1 91 3f 63 ed 8d 3f
       1.2093827 1.1471585 1.1391978 1.108807
000010 8a 06 9c 3f 7d 79 8f 3f 5e 82 93 3f f2 9e a5 3f
       1.2189496 1.120895 1.152416 1.2939131

emb_module.shallownet.2.norm.bias f4 [8]
000000 03 a9 6c be 4a 9b 89 be ed ce 53 be 32 b3 aa be
       -0.23111348 -0.2687629 -0.20684405 -0.3333984
000010 5a a7 28 be 97 e6 32 be bc 9e 9f be 57 f0 1d be
       -0.1647009 -0.17470776 -0.31175792 -0.15423714

emb_module.shallownet.2.norm.running_mean f4 [8]
000000 f5 33 28 bd f3 61 74 3d a8 04 4e be 0a 19 38 bd
       -0.041065175 0.059663724 -0.20118964 -0.044945754
000010 10 96 ac bd 56 66 36 3d bd 32 a9 bd ba 2b 3c bd
       -0.0842706 0.04453119 -0.08261631 -0.04594014

emb_module.shallownet.2.norm.running_var f4 [8]
000000 16 64 00 3f d9 c5 c3 3f 85 2d 34 3f 6d 05 98 3f
       0.5015272 1.5294753 0.7038196 1.1876656
000010 5e 28 86 3f cc 4c a0 3f d2 7a 61 3f 99 cf 95 3f
       1.0481069 1.2523437 0.88078034 1.1703979

emb_module.projection.conv.weight f4 [8, 8, 1, 1]
000000 b6 a4 4c 3e e9 b1 c6 be ef 69 82 3e 82 f1 e3 be
       0.19984707 -0.3880761 0.25471446 -0.44520193
000010 80 be 77 3e 93 76 ec 3e 12 c9 3f be 0a e9 e4 3d
       0.24193764 0.46184215 -0.18729046 0.11177261
000020 be 2c 39 3e 46 b2 e3 be 0d a8 58 3d 32 9a ef be
       0.18083474 -0.4447195 0.05289464 -0.4679733
000030 60 98 84 3e a5 4b 3a 3e fb aa 14 bf 6d 50 37 3e
       0.25897503 0.18192919 -0.58073395 0.17901774
000040 da e8 b0 3e de 74 7d 3e a0 d4 7a be b2 c3 a4 3e
       0.34552652 0.24751613 -0.24495173 0.32180554
000050 38 83 d2 bd 16 b8 83 bd 50 cc f4 3e e8 05 98 be
       -0.10278934 -0.06431596 0.47812128 -0.29692006
000060 13 27 b1 be f0 3c da be 50 24 56 be 69 fd 89 3b
       -0.34600124 -0.42624617 -0.2091229 0.004211117
000070 13 4e da bd 7e c9 90 3e a3 b2 7e bd 9f ab 07 bf
       -0.10659423 0.28278726 -0.06218208 -0.5299625
000080 65 cc 18 3f 2c 6f 8f be 15 5d 09 bf 7d 9d d9 3d
       0.5968688 -0.28014505 -0.53657657 0.10625742
000090 fc 45 84 3b 00 58 84 3e 48 d7 64 3b 4a 26 1e bd
       0.004036663 0.2584839 0.0034918357 -0.038610734
0000a0 76 dc 94 3e f7 b3 ac 3e 1d f4 d3 be 8e 99 95 bd
       0.29074448 0.33731052 -0.4139718 -0.07304679
0000b0 0e ec 34 be 1d 5e 02 bf 6a ca 5a bd 20 81 0a 3f
       -0.17668173 -0.50924855 -0.053415693 0.5410328
0000c0 97 e2 a9 3e 04 96 c4 be 0b 59 d2 be a4 c9 21 be
       0.33180687 -0.38395703 -0.4108356 -0.15799576
0000d0 54 32 07 bf dd d0 7f be aa 31 4d be 20 a6 b3 3e
       -0.5281117 -0.24982019 -0.20038477 0.3508768
0000e0 32 7d 89 3e c2 19 1a be d3 51 20 3e bb 4e c5 be
       0.2685333 -0.15048888 0.15656213 -0.3853663
0000f0 92 86 a7 3e b7 a5 bd 3d 7c 47 8f be f5 74 bc 3e
       0.32719857 0.09260123 -0.27984226 0.3680798

emb_module.projection.conv.bias f4 [8]
000000 69 4a 0a bd d0 9a fa 3d 8a 4f 84 3e 8b 8f d4 3d
       -0.03376237 0.122365594 0.25841933 0.10378941
000010 4e 7a fc bd 72 37 2a 3e 90 be 88 be 33 43 76 be
       -0.12328015 0.16622713 -0.26707888 -0.24049072

VanillaLSTM.rnn.weight_ih_l0 f4 [256, 8]
000000 bf a7 83 3e c7 0d 97 3d 7d 53 8c 3d 4e 54 e1 3d
       0.25713918 0.07375675 0.068518616 0.11002408
000010 22 2a 00 be 2a f5 5e be e4 51 41 bd 2a f2 c2 3d
       -0.12516072 -0.2177321 -0.047197238 0.095188454
000020 1b e8 ce bd 5e c7 94 be 2b 1c 86 3e 7a d2 98 bd
       -0.10102864 -0.29058355 0.26193365 -0.0746202
000030 e0 55 6f bc bb f1 32 be b3 20 07 be ca c6 74 be
       -0.014607877 -0.17475025 -0.13196068 -0.23903957
000040 55 73 b5 3c 6b 78 5a bd b6 7f 89 3c c0 b0 29 3d
       0.022149721 -0.053337496 0.01678453 0.041428328
000050 70 a1 2f 3d 64 bf 82 bd 73 9d bb 3d 4e fb 2d be
       0.04287857 -0.06384161 0.091608904 -0.16990396
000060 4d f5 26 bd f7 1b ac 3d 0d c4 db bd f6 1b 2a be
       -0.04076128 0.08403771 -0.10730753 -0.16612229
000070 14 e6 85 bd 6a 1b d6 3e df b1 41 3e a3 ad 02 3e
       -0.065380245 0.4181779 0.18915509 0.1276155
000080 33 80 a0 3e 89 9c 84 3d e0 9a e8 bb 82 f9 cd be
       0.31347808 0.06475169 -0.0070985407 -0.40229422
000090 6d 54 a6 be ba de 61 3e 5a 4f 86 be d9 5e 35 3e
       -0.32486287 0.2205762 -0.26232415 0.17711963
0000a0 62 b3 0e 3e 95 5b 57 3c 0d 79 c3 bd ab 71 2b be
       0.13935617 0.013144393 -0.09544573 -0.1674258
0000b0 a2 04 56 be 60 c7 78 bc 7b 98 aa be c5 7e 1d 3e
       -0.20900205 -0.015184253 -0.33319458 0.1538039
0000c0 16 ca fd 3d e0 6f bf 3e 5d d9 59 bc 5d 44 82 3e
       0.123920605 0.3739004 -0.013296452 0.25442782
0000d0 33 4e 89 3d d2 e3 2c be 29 7a ba bd de 43 c3 3d
       0.067043684 -0.16883782 -0.091053315 0.09534429
0000e0 76 97 ba 3e 9a de 47 3e d2 3b c2 3d c5 01 38 3d
       0.3644368 0.1951851 0.09484066 0.044923563
0000f0 32 84 ea 3d c6 ea e3 bd 90 0a cc bd 1d 68 ef 3d
       0.114509955 -0.11128764 -0.09962952 0.1168978
000100 c7 57 94 bd 56 6e a1 bc ee ad 5e 3d 27 7a 1e 3c
       -0.07243305 -0.019705933 0.05436509 0.009672678
000110 6e e5 bb 3d ab 7b b0 3e 23 14 f3 bb bb 06 0a be
       0.091746196 0.3446935 -0.007418172 -0.1347913
000120 f9 2d 81 3d 75 de cc 3d 4a d5 25 3e f2 76 b5 3b
       0.06307597 0.10003368 0.16194645 0.005537861
000130 f3 c6 bb bd 36 a4 f1 3c d9 1d 41 bd 02 21 b9 3c
       -0.09168806 0.029497247 -0.047147606 0.022598747
000140 29 83 af 3d 65 4e 30 3e fe 1f 30 be dd 9a b5 3d
       0.08569939 0.17217405 -0.17199704 0.088674285
000150 6b aa 84 be 7e 6c 7b be 05 5e 5f bd 60 ea 9c 3d
       -0.2591127 -0.24553105 -0.054533023 0.07661891
000160 1d c3 80 bc b5 63 22 be f5 4e 89 3e c6 58 5c 3d
       -0.015718037 -0.15858348 0.26818052 0.0537956
000170 f2 30 4a 3e 31 96 1e be b5 1b 1b be ab 48 64 be
       0.19745234 -0.15486981 -0.15147288 -0.22293346
000180 40 2f 95 3d 38 7d e0 bd 9c 53 0a 3e 8a be 7a bb
       0.07284403 -0.109613836 0.13508457 -0.0038260543
000190 56 7d 2c be fd 03 b8 bc e6 c4 93 be 0b c2 09 be
       -0.16844687 -0.02246284 -0.2886116 -0.13452928
0001a0 23 f9 17 bc 2a 13 1c 3e 1e 09 76 bd df b7 13 bd
       -0.009275707 0.15241686 -0.06006729 -0.036064025
0001b0 8f 70 30 3d 1b 9f 95 bd ac 53 b7 3d e5 be ff 3d
       0.043076094 -0.073057376 0.08951506 0.12487582
0001c0 58 1b 86 3e 4b db 30 3e 30 fe 17 3e 9a 56 85 3d
       0.26192737 0.17271154 0.14843059 0.065106586
0001d0 db c4 05 3e 6d 4f 58 bc e2 6f a8 bd 4b 70 0a be
       0.13063376 -0.01320253 -0.08224465 -0.13519399
0001e0 c6 f6 d7 bd f8 a8 81 be 28 f8 7c 3e c7 0d 38 3e
       -0.10545115 -0.25324225 0.24704039 0.17974006
0001f0 b0 7c de bd 42 ee a6 bd e6 7c 40 be e4 c0 01 bf
       -0.10863626 -0.08150913 -0.18797645 -0.5068495
000200 65 69 4b bd 03 05 9e bd 8d e5 8a 3e be 7e 65 bd
       -0.04966106 -0.077158 0.27128258 -0.056029074
000210 da 2f 7f 3e 6f 54 3e 3e d9 dd a5 3c 16 97 0b be
       0.24920598 0.18586896 0.020247387 -0.13631853
000220 93 fa 08 3e 55 d4 19 3d 96 df 25 be 4e c8 a0 bd
       0.13376836 0.03755601 -0.16198573 -0.07850705
000230 4a b1 9d be ea 7a ee bd e9 54 1d be ed 6f 34 be
       -0.30799323 -0.11644538 -0.15364422 -0.17620821
000240 1d f9 56 3d 60 59 71 be 95 f3 e7 3d c6 94 7d be
       0.052483667 -0.2356925 0.113257565 -0.24763784
000250 12 68 a5 be 5e d8 9b bd 4a e1 94 be b3 4b f7 bd
       -0.32305962 -0.07609628 -0.29078132 -0.12074985
000260 92 2c a5 bc 03 c7 7d be a0 68 1e 3e bd 08 97 3e
       -0.020162854 -0.24782948 0.15469599 0.29498854
000270 95 69 e0 3d f5 78 1e be cb 18 e4 bd 03 79 c8 be
       0.10957638 -0.15475829 -0.111375414 -0.39154825
000280 4e 47 36 3d 02 17 1d 3e 18 25 c2 bd c2 34 c6 be
       0.044501595 0.15340808 -0.09479731 -0.38712126
000290 ab 53 5f be ce 8d c6 3e 93 35 9d 3e 5d 60 f3 3d
       -0.2180926 0.38780063 0.30704936 0.11883614
0002a0 06 9e ba 3e d0 73 82 3e a3 4d f6 bb a5 0e 32 3e
       0.36448687 0.25478983 -0.0075165792 0.17388399
0002b0 9d ce 33 3e a0 d2 36 be bc ae 3a be d2 c8 ae 3d
       0.17559285 -0.17853785 -0.18230718 0.08534397
0002c0 86 59 92 3e dd 14 b1 3e ef 64 b4 bc 02 d9 fc bb
       0.28583926 0.3458623 -0.022020785 -0.007716299
0002d0 82 b2 86 bd e2 ed 55 be 72 aa 54 be cb bd 3e 3d
       -0.065770164 -0.20891526 -0.20768145 0.04656772
0002e0 a7 9a 96 3e 54 e7 9b 3e 98 5d 08 bd a2 df 47 be
       0.29414865 0.30449927 -0.033292383 -0.19518903
0002f0 e0 20 93 be 6b 17 54 3e e2 3f 0b be f5 2a 99 3d
       -0.2873602 0.20712058 -0.13598588 0.074788965
000300 40 47 33 bd 3d d2 da be cc 10 a4 3e b4 b9 46 3d
       -0.04376912 -0.42738524 0.32044065 0.048516944
000310 2a c3 c4 bd c4 76 c2 bd 1f 99 a4 be 5f f4 06 bf
       -0.09607537 -0.09495309 -0.32148072 -0.5271663
000320 70 cd d4 3d 63 2d 3f 3e 20 d0 3c bd b3 2e f9 bd
       0.103907466 0.18669657 -0.04609692 -0.1216711
000330 a2 52 8f be ba e3 98 3d 1e d1 07 3e 3e dc fa 3d
       -0.2799273 0.074653104 0.13263366 0.12249039
000340 c6 22 35 3d a2 c6 99 bd 90 1d 0b 3e 9c 97 43 be
       0.044222616 -0.07508589 0.13585496 -0.19100803
000350 05 54 80 bd ad 1b 03 3e 51 70 08 be b5 bc c8 3c
       -0.062660255 0.12803526 -0.13324095 0.024504045
000360 ce d5 7d bd ea c7 36 be a3 ba 8f 3d 5d 7b 90 bd
       -0.06197148 -0.17849699 0.0701802 -0.0705478
000370 a8 30 62 be 33 44 f6 bd 73 2d 73 be 62 59 a7 be
       -0.22088873 -0.12024727 -0.23747806 -0.3268538
000380 f3 0e 3b 3e 5e 72 a4 bc da 49 0a be 90 2c 01 bd
       0.18267421 -0.020074066 -0.13504735 -0.03153664
000390 36 b5 07 bf b6 be 82 be 38 8f 54 be 85 e6 94 3d
       -0.5301088 -0.25536126 -0.20757759 0.072705306
0003a0 ad 8d 12 3e 43 4b 96 bd 6f 1a 07 3e 20 77 5c 3d
       0.14311858 -0.07338574 0.13193677 0.053824544
0003b0 c0 6a 10 bd 4f 6b a2 be b3 e3 ba bd 10 f6 51 be
       -0.035258055 -0.31722495 -0.091254614 -0.20504022
0003c0 9a d9 62 3e f0 52 57 3e de 8b 62 3c f6 d0 50 bc
       0.22153321 0.21027732 0.013827292 -0.012745133
0003d0 42 55 87 be 9e 49 85 bd 6f 7c cb bd fa 5a b3 3e
       -0.26432234 -0.06508182 -0.09935843 0.35030347
0003e0 6a f3 d3 3e 0b 53 84 3e b6 bf 01 3e 6e 02 bb 3e
       0.41396648 0.25844607 0.12670788 0.3652529
0003f0 4e 6b 08 3e 3e 8d 06 bf ab 4b b9 be 2d c5 5b 3d
       0.13322183 -0.5255927 -0.36190543 0.05365484

VanillaLSTM.rnn.weight_hh_l0 f4 [256, 64]
000000 46 c1 9c 3d 0b d1 61 3d c0 9d 75 3c ec 83 3f 3e
       0.076540515 0.055131 0.014991224 0.18702668
000010 1a 24 7a bd 02 5d c4 3d 88 55 ad bb 7e 79 9d 3b
       -0.061069585 0.09588052 -0.005289737 0.0048057428
000020 9d e0 d3 3c 1e bc 29 3e e8 ad 74 bd 55 43 52 3a
       0.02586394 0.16575667 -0.059736162 0.00080208975
000030 0d 4a d1 3d 54 8a 80 3e 1f fe 48 bd 9a f1 b6 bd
       0.10219202 0.25105536 -0.049070474 -0.089328006
000040 d4 af 94 bd de 16 2e bc df 21 c6 bd 52 53 b2 bd
       -0.07260099 -0.010625569 -0.09674429 -0.08707298
000050 4e c1 e9 3c eb 68 72 bd 5a b7 b7 3b 70 48 94 3d
       0.028534558 -0.05918209 0.005606574 0.07240379
000060 73 04 53 3e 76 24 03 be c0 a6 79 3d 42 11 7e bd
       0.20607166 -0.12806877 0.06095004 -0.062028177
000070 73 51 0b 3d 75 b3 cc bd 93 5b 85 3d d9 ad ad 3d
       0.034013223 -0.09995166 0.06511607 0.084804244
000080 61 41 97 3c fd 59 09 3d ea c7 07 bd 7a a8 57 3d
       0.018463792 0.033533085 -0.033149637 0.052650906
000090 b6 63 e6 bd 40 a2 50 3e 5d 90 b5 bc 3d c1 37 3e
       -0.11249487 0.20374393 -0.022163564 0.17944808
0000a0 e8 c5 da 3d 46 e2 ff 3d c5 28 f3 bd dd bf e5 bd
       0.10682279 0.1249433 -0.118730105 -0.11218236
0000b0 6d 0f da bc 3d 46 88 bd a5 5f e7 bd f8 aa 16 3e
       -0.026618684 -0.06654022 -0.112975396 0.14713657
0000c0 0a ab 44 3d e2 60 e1 3c 0a 70 cd 3d 33 ce e3 bb
       0.048014678 0.027512018 0.100311354 -0.006952071
0000d0 b1 82 20 3d 14 ff 11 bd 38 10 da bd 12 dd a5 3c
       0.039187137 -0.035643652 -0.10647625 0.020247016
0000e0 65 ac 7d bd 80 9a 2d be e9 29 bf bd 42 70 f8 3c
       -0.061931986 -0.16953468 -0.093341656 0.030326966
0000f0 d2 c6 52 bd 3b c8 e9 3d df f0 01 3e 19 18 a8 3d
       -0.05145914 0.11415144 0.12689541 0.08207721
000100 87 ef 29 be 1e 3f 58 bd 22 66 d8 3c 76 10 43 3d
       -0.16595279 -0.05279457 0.026415888 0.04762312
000110 85 57 12 3e df ab be bd 7e a4 41 be f6 52 49 3d
       0.14291199 -0.093101256 -0.18910405 0.049151383
000120 0d e1 da 3e 78 5d 33 be 3d e3 f3 3b 3c a1 93 3e
       0.42749825 -0.17516124 0.0074428604 0.2883395
000130 0e 91 0e 3e 0e 18 e0 bd 22 c1 09 3e 5c 2d 87 3d
       0.13922521 -0.10942088 0.1345258 0.066004485
000140 8e 99 82 3e fd 03 88 be 00 41 53 bd 78 e3 7e bc
       0.25507778 -0.26565543 -0.05157566 -0.015557162
000150 ea 6e 7f bb 2d af 87 be 5e f2 87 3c 26 fe 7a bd
       -0.0038976022 -0.26500836 0.016595062 -0.06127753
000160 0c 55 35 be 35 f0 e8 bc 3b ff 41 be 92 dd 03 be
       -0.17708224 -0.028434852 -0.18945019 -0.12877491
000170 a0 19 2a 3d 97 5d 17 3e 4a 8d 3c bd 23 c3 8c 3d
       0.041528344 0.14781795 -0.04603318 0.06873157
000180 f6 6c 11 be 4a 13 ac be 8a 71 cd bd d2 b3 d7 3d
       -0.14201722 -0.33608466 -0.100314215 0.10532345
000190 ee 47 b2 3d 18 93 f9 bd 73 5e d3 bc aa 22 0d 3e
       0.08705126 -0.12186259 -0.025801873 0.13782755
0001a0 5e 4e 50 3e 26 cf f5 bd f4 61 40 bd cd 73 be bd
       0.20342395 -0.12002401 -0.046968415 -0.09299431
0001b0 7e 70 47 be f2 61 90 3e 32 da 97 3e 1f 9e b4 bd
       -0.19476506 0.28199726 0.29658657 -0.08819222
0001c0 16 50 c3 bd a6 ba 0a 3e 6e 2c 3c 3e 4d be e0 3c
       -0.095367596 0.13547763 0.18376324 0.027434492
0001d0 72 ea 7a 3e 96 cd b9 bd 31 99 38 3d 4e b2 31 be
       0.24503496 -0.090724155 0.04506797 -0.17353174
0001e0 3e b8 1c 3e 2a 14 11 3e c1 51 07 3e 0e 3b 1a 3e
       0.15304658 0.14167848 0.1321478 0.1506159
0001f0 3c 3e 15 3e 68 d2 07 be 96 f0 8b bd 36 8f 86 3d
       0.14574522 -0.13263857 -0.068329975 0.06570284
000200 b2 43 6f be 68 7a c8 bb 26 6e 18 3d 33 07 63 be
       -0.23365667 -0.0061181076 0.03721442 -0.22170715
000210 80 65 54 be f2 f5 7c bd 6e 8d 90 be d1 7a af 3d
       -0.20741844 -0.06175799 -0.28232902 0.08568347
000220 ae e0 77 bd c6 d4 0c 3e 40 f6 dd 3d 7e cf b6 3d
       -0.060517006 0.13753042 0.10837984 0.08926295
000230 8a 64 dc bd cf 77 2b bd d1 3a 46 3e 7a bf 58 3e
       -0.10761364 -0.041862305 0.19358374 0.21166793
000240 da 15 02 3e 6e e6 0e be e4 5e 93 bd c7 f1 c4 bc
       0.12703648 -0.1395509 -0.07195833 -0.02404107
000250 ee a7 2f 3e f2 29 c3 3c 0a 7d ca 3d 0c 1a 92 3d
       0.17153904 0.023823712 0.098871306 0.07133874
000260 90 8d 39 bd b8 d2 c1 3d d9 bf 00 be 46 fb 6e bc
       -0.04530102 0.094640195 -0.12573184 -0.014586275
000270 e8 eb 98 bd 53 c4 d7 3d 46 7b 2f be 3b 32 71 be
       -0.074668705 0.10535493 -0.17136869 -0.23554318
000280 b7 61 ae bd cd 4b 0e be cb ee a1 3d ba 9c 44 3e
       -0.085147314 -0.13896103 0.07906874 0.19200411
000290 3a 9f 1b 3d 9e 5a 48 3d 21 1b 93 bc 13 51 68 bd
       0.037993647 0.048914544 -0.017957272 -0.056717943
0002a0 14 88 38 3e d6 fc 75 bd 5e 57 91 bd 0e af 3d 3e
       0.1802066 -0.060055576 -0.07096742 0.1852381
0002b0 f0 5f 68 bc 0d c7 ba bd 68 bc cd bc cb c4 a3 be
       -0.0141830295 -0.09119997 -0.025114253 -0.3198608
0002c0 be 7b 25 bd 66 ea 7f 3d 13 66 d1 3c 93 0f 08 bd
       -0.040401213 0.0624794 0.025561368 -0.033217978
0002d0 d6 eb 22 3d a7 19 bb 3d 6b b5 a2 bb 4a fd b6 3e
       0.039775692 0.09135752 -0.0049654744 0.3574012
0002e0 fe 5f 95 3e 7e c0 67 3e 27 20 98 be 99 f2 bc 3d
       0.291748 0.22632024 -0.2971203 0.09225959
0002f0 d6 b3 de 3d 66 2e cf 3b 93 52 a5 be 18 68 96 be
       0.10874145 0.00632267 -0.32289562 -0.29376292
000300 47 b7 b2 bd 86 7a 6d 3c 7a 49 f8 bd 7e 79 38 3c
       -0.08726364 0.014494544 -0.121233895 0.011259435
000310 07 87 1a 3d a6 57 74 bd 0a 70 34 bd e8 aa d1 bd
       0.03772643 -0.0596539 -0.04405216 -0.10237676
000320 2d 3c 40 3e bb f8 24 be 4e a3 a2 bd 61 b9 43 bd
       0.18772955 -0.16110508 -0.07941304 -0.047784213
000330 72 0d c0 bc 28 38 fd bd a5 59 f4 3d ca 2e e8 3d
       -0.023443911 -0.123642266 0.11931161 0.11337049
000340 05 06 d2 3c 05 14 ae 3d 4a 2b 41 3d f8 fe 75 3d
       0.025637636 0.08499912 0.047160424 0.06005761
000350 fa 7b 8c 3d 33 e8 91 3e b7 5a 17 3d ca d0 19 bd
       0.06859584 0.28497466 0.036951747 -0.037552632
000360 65 e4 24 3d 25 ea b3 ba 70 3f ed bd 9a 31 ea 3d
       0.040256876 -0.0013726397 -0.11584365 0.11435242
000370 60 50 0c be 85 cf 02 be 36 83 5c 3c 05 f0 1e bd
       -0.13702536 -0.12774475 0.0134590175 -0.03880312
000380 d6 76 1e bd c0 ca 6a bd 55 a8 7b bd 2d 85 93 bb
       -0.03868755 -0.057322264 -0.06143983 -0.00450196
000390 62 c2 be bd 65 02 14 be 40 a8 45 be 16 f9 ff 3d
       -0.09314419 -0.14454038 -0.19302464 0.12498681
0003a0 31 77 14 3c fb 4b 0b 3c f9 2e 0c be 2d 74 fb bc
       0.009061621 0.008502002 -0.13689794 -0.030695045
0003b0 eb d5 5a be b2 c9 f7 3b a3 4c c9 bd 1c 40 03 be
       -0.21370666 0.0075618858 -0.098290704 -0.12817425
0003c0 ee 3f b8 3c d1 f0 bc 3d a2 6d b3 3b 56 55 25 3d
       0.022491422 0.092256196 0.0054757157 0.040364586
0003d0 9b af 9c 3d 44 e5 89 bd 8d 9e 86 3e 28 c1 5c 3d
       0.076506816 -0.06733182 0.2629284 0.053895146
0003e0 90 f7 63 bd 1a a7 bf 3c cd 89 f6 3e 4b 1a 07 3e
       -0.055656016 0.02339511 0.4815201 0.13193624
0003f0 ed 36 2d 3e a3 87 2b 3e 4d 3d 7c be 6a 1f 1f bd
       0.16915484 0.1675096 -0.2463276 -0.03884832

VanillaLSTM.rnn.bias_ih_l0 f4 [256]
000000 65 8d 39 3d 86 43 13 3e 90 2d b9 bd 97 fb be 3d
       0.04530086 0.14381227 -0.090418935 0.09325331
000010 e3 a9 c2 ba b8 66 82 3d 8e 70 0c 3d 5a 0f 16 3c
       -0.0014851656 0.06367248 0.034287028 0.009158934
000020 a8 46 e2 3d 4c 27 c6 3d 8a 64 f2 bd 8a bf 6d 3c
       0.11048633 0.09675464 -0.118355826 0.0145109985
000030 93 2c 56 3d 3a a2 b6 bb fc 97 1b 3d de 07 89 3e
       0.052288603 -0.005573538 0.03798674 0.26763815
000040 c6 ec 4d 3d 35 33 67 3e 6e 66 09 3e 2a aa 46 3e
       0.050274633 0.22578128 0.1341798 0.1940085
000050 29 52 9d 3c 45 4a ec bd 48 10 72 3d 2f 56 47 3e
       0.019204216 -0.11537603 0.05909756 0.1946647
000060 7d 0c 79 3d 86 bc 81 bc 7e e0 8a bd e6 91 a9 bd
       0.060802925 -0.015836965 -0.067811 -0.08279781
000070 98 bf f0 3c 75 ab 80 3d 63 ed 52 3e 6e 5b db 3d
       0.029388234 0.06282703 0.20598368 0.10710798
000080 88 50 c1 3e 92 90 94 3e 2d 15 59 bc 76 da 65 3e
       0.37756753 0.29016548 -0.013249678 0.22446617
000090 2d ca 1e 3e 24 ea 4a 3e 98 a7 1f 3e 5d 9e e3 bc
       0.15506811 0.1981588 0.15591276 -0.027785474
0000a0 57 48 2e 3e ea d6 61 3e 0a 3c 0e 3e 9e cd 4e 3e
       0.17019783 0.2205464 0.1389009 0.20195624
0000b0 ac 83 be 3d 89 80 45 3d 4b 5e 00 3e 83 fe e2 3d
       0.09302458 0.048218284 0.1253597 0.110837005
0000c0 93 6f 29 3e 1c 0c b1 3d 78 2d eb bc 26 97 ed 3d
       0.16546468 0.08644888 -0.028708205 0.11601095
0000d0 9d 8e d7 bd 96 e4 23 3e 76 2d b5 3d d6 a6 ae 3d
       -0.10525248 0.16005167 0.088465616 0.08527915
0000e0 bd 9a 04 3e a6 6b aa bd 72 fd 00 3e e2 c7 0b 3c
       0.12949653 -0.083213136 0.12596682 0.0085315425
0000f0 1e c9 94 bd ed b3 b6 3d 12 2a 69 3e 5b 7e db 3d
       -0.072649226 0.08921037 0.22769955 0.1071746
000100 02 4d 51 3d 85 36 24 3e 8b 29 35 3e ca 17 13 3d
       0.05109883 0.16036423 0.17691629 0.03591136
000110 50 ad 80 3d d2 91 80 3c b6 f0 04 3d 80 18 44 bd
       0.06283057 0.015694533 0.032456122 -0.047874928
000120 3a 4e d0 bd 7d 84 06 bd 5f be 37 3e dd d7 72 bd
       -0.101711705 -0.032841194 0.17943715 -0.059287895
000130 c7 84 ad 3d 50 99 05 3e 3a ad be 3d 36 bb a4 3d
       0.08472591 0.13046765 0.09310384 0.0804352
000140 ff 5e ab 3d 7e 06 c7 3d 2a b2 e2 3b 2e b6 14 3e
       0.083677284 0.09718035 0.0069182115 0.14522621
000150 cd c9 12 3e 65 f9 f2 3d 0f f3 89 3d c6 65 ee 3d
       0.14334793 0.118639745 0.06735813 0.116405055
000160 94 ac 97 3c 30 3f f4 bc a3 9c 54 3e d8 63 a6 3c
       0.018514909 -0.029815286 0.20762877 0.020311281
000170 96 71 e9 3d 9a 6d 99 3c 4a ea 0f 3e fe b7 0b 3e
       0.11398618 0.01872902 0.14054218 0.13644406
000180 38 fd 2c bc 0b 30 09 be 3e b2 19 3d fb cd 5e 3d
       -0.010558419 -0.13397233 0.0375235 0.054395657
000190 96 f9 e2 3d c1 06 27 bd 00 85 fa 3c 4e 9f 21 3d
       0.11082761 -0.040777925 0.030580997 0.039458565
0001a0 3a ab c9 3c 26 8f c7 3c 42 be 13 3e 61 1e 3a 3e
       0.02461778 0.02436025 0.14428046 0.18175651
0001b0 08 23 b5 3d 40 b0 78 3d d3 4a 76 3e 96 cf 36 bd
       0.08844572 0.06071496 0.2405198 -0.044631563
0001c0 e9 db a1 ba 12 eb fb 3d 20 ef 7b 3e 95 f0 f1 3d
       -0.0012348864 0.123006955 0.24602938 0.118134655
0001d0 33 26 4e bc 88 6e ad 3d 7c 20 95 bd f5 6a a3 3d
       -0.01258235 0.08468348 -0.072815865 0.07979385
0001e0 86 dd b9 bd ec 5a 0e bd c6 9c 19 3e 65 79 6f bd
       -0.09075455 -0.03475468 0.1500121 -0.05846538
0001f0 7a ac 4e 3d f4 11 88 3d 5a 6a 28 3e aa 16 10 3e
       0.050457455 0.06644049 0.1644682 0.14071146
000200 92 ea c2 3b b6 9b a7 3d a8 1a 86 bc 0d 55 c5 3d
       0.005948373 0.081839964 -0.016370133 0.09635363
000210 3e b6 ea bb 3a 35 c3 bd 60 e1 f0 bd d8 80 eb bd
       -0.0071628382 -0.095316365 -0.11761737 -0.11499184
000220 72 e4 e8 3d cd a3 4a 3d ca 10 63 3d 52 38 8c bc
       0.113716975 0.04947262 0.055435933 -0.0171167
000230 1e 49 55 bb 3a 50 77 3d 25 2a 97 3d 4a bf 95 3d
       -0.0032544802 0.060379244 0.07381085 0.07311876
000240 c4 b6 92 ba 46 1b b6 bd e6 22 24 3d da 11 26 3d
       -0.0011193384 -0.08891921 0.040072344 0.04054437
000250 e2 d3 66 bd de 16 e2 bd 18 d9 f5 3d d5 19 7a 3d
       -0.05635441 -0.11039518 0.12004298 0.06105979
000260 22 b6 10 bc 8e db 5d bd a2 4d 09 be 68 e7 aa 3d
       -0.008832486 -0.05416446 -0.13408521 0.083449185
000270 f0 86 4f bd 9e d0 23 3d f4 10 a9 3c 98 37 45 3d
       -0.050665796 0.039993875 0.020637967 0.04814872
000280 b3 45 4f bd 6c d0 09 be de c5 83 bc cd 94 ce 3d
       -0.05060358 -0.13458413 -0.016085561 0.10086975
000290 c4 74 b8 3d dd d1 ad bd 20 2c 3c bd b0 dd 61 3d
       0.09006646 -0.08487294 -0.04594052 0.05514306
0002a0 67 90 a5 3d d5 00 4c bd 53 f9 b3 bd 5a fa 94 bc
       0.08084183 -0.04980548 -0.08787789 -0.018185783
0002b0 32 bb 3c bd c2 0e 4e bc 0a a4 43 3d 96 81 05 bd
       -0.04607696 -0.012576761 0.04776386 -0.032594286
0002c0 8a f1 ea 3c c2 85 3e 3d 1b 31 fd 3d a0 20 d6 3d
       0.028679628 0.04651428 0.12362882 0.104554415
0002d0 c6 a2 47 bd 45 1c 81 bd 55 bc 01 3d f6 0a 58 3d
       -0.048739217 -0.0630422 0.031673748 0.05274483
0002e0 5c 6e 91 bd 3c c1 2e 3b 33 0d 68 3d 6a bb af 3d
       -0.071011275 0.002666547 0.056653213 0.08580668
0002f0 b5 3e fe 3d fa 5e c9 bd 35 c7 9a bd ca 04 38 3c
       0.12414304 -0.098325685 -0.07557527 0.011231611
000300 88 a8 6d bd 51 98 8f 3c e5 2d d8 3d 6a 97 64 bd
       -0.058022052 0.017528685 0.10555629 -0.055808462
000310 07 bd 27 3e 0e 67 21 3e e7 ee 8f 3e 5e 51 fb ba
       0.16380702 0.15761968 0.28111956 -0.001917403
000320 e2 ab 81 3e 18 c4 0d 3e f0 30 84 3e a0 6d 6e 3d
       0.2532645 0.13844335 0.25818586 0.058210015
000330 22 f5 3d 3e e8 a6 5f 3e 9b 94 5e 3d be 24 7a 3e
       0.18550542 0.21841013 0.05434094 0.24428079
000340 ed 67 2b bd 25 dc ee 3d 5c 3c 01 bd 8e 18 1e bd
       -0.04184716 0.11663083 -0.031551704 -0.038597636
000350 8d a9 f7 3d e3 29 89 3d e2 1d 55 bb 0a 16 45 3e
       0.12092886 0.066974424 -0.0032519032 0.19246688
000360 ca e3 17 3e f9 77 2c bd 39 e3 05 bd fe b2 dd 3d
       0.14832988 -0.042106602 -0.0326874 0.10825156
000370 16 5f 10 3e 75 99 cf 3d a4 7a 85 3e 0e 49 00 3e
       0.14098772 0.101366915 0.2607013 0.12527868
000380 7d b8 f0 3d ba 74 2a 3e 49 2f 16 3e 36 20 ed 3d
       0.11753938 0.1664609 0.14666475 0.115784094
000390 5a 2a a0 3d 63 c9 05 3e 31 0c 19 3e 72 91 34 3e
       0.07820578 0.13065104 0.14946057 0.17633608
0003a0 fa bf 0b 3e 5d f2 ad 3d 30 f3 d7 3d 46 29 00 3e
       0.13647452 0.08493493 0.10544431 0.12515745
0003b0 d9 86 09 3e aa e6 42 3e 94 d8 13 3e 23 dc f5 3d
       0.13430347 0.19033304 0.14438087 0.12004878
0003c0 88 79 0a 3d 46 b6 9e bb 09 92 84 3d 56 bc af 3d
       0.033807307 -0.004843506 0.064731665 0.08580844
0003d0 d2 f4 01 bd 59 76 1e 3e e2 b2 2e 3c cd 99 29 3d
       -0.03172762 0.15474834 0.010662766 0.04140644
0003e0 7e 3a f5 3d 9a fe 76 3d 9e 80 b0 3e 6b 59 01 3e
       0.11974047 0.0603014 0.34473127 0.12631766
0003f0 dc 2a 29 3e 70 1b 09 3e 63 2d 7f 3e 01 85 19 3e
       0.16520256 0.13389373 0.24919657 0.14992143

VanillaLSTM.rnn.bias_hh_l0 f4 [256]
000000 5c e0 05 bb 10 50 0c 3e b7 76 12 be 1b 12 84 bc
       -0.0020427918 0.13702416 -0.14303099 -0.016121915
000010 33 96 f5 3d 06 2a 15 3e be be 27 3e de 39 81 3d
       0.11991539 0.14566812 0.16381356 0.063098654
000020 50 ee 52 3d 67 bb 3f 3c a2 9c aa bc b0 3b 05 3e
       0.051496804 0.011702395 -0.020826641 0.1301105
000030 8d 54 2c bc 8b c6 b8 bc 0d cc 4f 3e 43 49 67 3e
       -0.010518205 -0.02255561 0.20292683 0.22586541
000040 30 d2 29 3e d6 2f d0 3d e6 b2 a7 3d 06 39 54 bd
       0.16584086 0.10165374 0.08188419 -0.051812194
000050 ea 8d 2d 3e e0 d3 3c 3d 02 6f 88 bc 5e 95 dd 3d
       0.16948667 0.046100497 -0.016654495 0.10819505
000060 93 b6 58 3e 45 0d a0 3d 4b 81 35 bb 02 c4 e4 3d
       0.21163397 0.07815031 -0.0027695473 0.11170198
000070 de 15 83 3c a6 43 16 3e 15 b9 2f 3d 4e cc 74 3d
       0.016001638 0.14674243 0.042901117 0.059765153
000080 9a ba 58 3e 6e 0e d7 3d 8b e9 13 3d 46 b1 e2 3d
       0.21164933 0.10500799 0.036111396 0.110689685
000090 e8 dc c5 3d ba e0 de 3d ab 7b 38 3d be fd 86 3d
       0.09661275 0.10882707 0.045039814 0.06591366
0000a0 bd a1 b6 3d 1a 06 2d 3e 52 b8 5f 3d a6 37 5c 3d
       0.08917568 0.16896859 0.05461914 0.053764008
0000b0 a8 24 cf bd 56 41 23 bc 78 2d 75 3e c8 03 3b 3d
       -0.101144135 -0.009964308 0.23943126 0.045657903
0000c0 e3 00 e0 3c cd 9d 0b bd 9c ed b7 bc 6d f8 57 3e
       0.027344173 -0.034086037 -0.022452168 0.2109086
0000d0 3d 2e eb bd 58 61 7c 3d f2 04 6c bd a1 a7 1c 3d
       -0.114834286 0.06161627 -0.057621904 0.0382458
0000e0 02 61 06 3e 72 09 d8 bd 4d 95 b4 3d 03 de cc bc
       0.13122943 -0.105486766 0.08817539 -0.025008207
0000f0 d7 86 34 3d 0a bc 10 3e e5 07 24 3e 33 ba f2 3d
       0.044073906 0.14134231 0.16018637 0.11851921
000100 98 11 31 bd c5 96 02 3c a3 0f 6a 3e 12 78 b9 3d
       -0.04322967 0.007970517 0.22857527 0.09056105
000110 b5 26 34 3e 06 d0 fa 3d ea ab 10 3e dd b3 e8 3d
       0.1759289 0.122467086 0.1412808 0.11362431
000120 ca b2 fb bb 06 b7 9f bd f2 39 1f 3c 2d 51 2a 3e
       -0.0076812254 -0.07798581 0.009718405 0.16632529
000130 6b 9a 66 bd 1d 1e fc 3d 1d d7 74 3e ee ea 96 3e
       -0.05629961 0.12310431 0.23910184 0.29476112
000140 4e 93 a7 3c 8b 30 a9 3d ab 9a 73 bc 81 2c b6 3c
       0.020455983 0.08261212 -0.014868419 0.022238018
000150 a4 e7 4a 3d 27 d8 23 3e c9 b6 20 3e aa 29 73 3e
       0.049537316 0.16000424 0.15694727 0.23746362
000160 a6 bf ff 3c 06 55 09 be 96 e6 bf 3d f8 4b e7 3d
       0.031219315 -0.1341134 0.09370153 0.11293787
000170 27 1d 37 bd 7c e3 19 bd 8e c5 95 3d 5d 25 5d bd
       -0.044705536 -0.03757046 0.07313071 -0.05399071
000180 e3 91 72 3d dd 1c fd 3c e0 42 8d 3c b4 3e c9 3b
       0.05922116 0.030897552 0.017243803 0.006141508
000190 8a dd 7d 3e 86 e4 c1 3d 01 a1 c3 3d 46 5d 0e 3d
       0.24791542 0.094674155 0.095521934 0.03475692
0001a0 ee 8b 42 3e 9a 07 4a 3e 2c d6 0f 3e cc 01 29 3e
       0.18998691 0.19729462 0.14046544 0.16504592
0001b0 86 18 e9 3d 10 a1 0d 3c 18 7b 5c 3e 58 8b 2a 3e
       0.113816306 0.008644357 0.21531332 0.16654718
0001c0 4a 39 18 3e 12 fc 13 3c c8 c0 57 3e be 2f f9 3d
       0.14865604 0.009032266 0.21069634 0.12167309
0001d0 12 b1 f9 3c 91 07 42 3e 64 f9 81 3c b8 9c 63 3d
       0.030479942 0.18948199 0.015865989 0.05556938
0001e0 15 c5 73 39 07 64 8e 3d 31 16 91 3d 32 77 15 3e
       0.00023247705 0.069526725 0.07084311 0.1459625
0001f0 ed 0c 35 bd 2a 29 dd 3d 29 c9 30 bd fb 9f 8a 3d
       -0.04420178 0.10798867 -0.04316059 0.06768795
000200 93 d5 ec bc 3e aa 3f bd ee af 17 bc a8 d1 b6 3d
       -0.028910434 -0.046793215 -0.0092582535 0.089267075
000210 ca a1 17 3e e6 86 29 bd 53 9f 01 bd 42 d3 00 be
       0.14807811 -0.041388415 -0.031646084 -0.12580588
000220 62 46 2a 3d de 7f 01 be 36 c8 47 3d 72 80 a6 bd
       0.04157103 -0.12646434 0.04877492 -0.08129968
000230 5a fc 8a bd 0e 34 15 ba 64 ce 20 3d 22 cb 39 3d
       -0.067864135 -0.00056916557 0.03925933 0.04535974
000240 f2 1b 71 3d da 9f d2 bd c5 82 05 3e 52 b6 17 3c
       0.05886454 -0.102843955 0.13038166 0.009259777
000250 4d 6d 58 bd 2a aa e0 bd db 09 1d bd cb ea 96 3d
       -0.052838612 -0.10969956 -0.038339477 0.07369002
000260 ba 62 16 bb 3d b4 7d 3d f2 56 92 bd 3a 9c 4a bd
       -0.002294703 0.061939467 -0.0714549 -0.049465396
000270 42 b8 1a be 35 59 fd bc ad 99 3e bd aa e6 82 bd
       -0.15109351 -0.030926326 -0.046533275 -0.06391652
000280 52 22 9d 3d 53 b0 a8 bd b5 5a 2a bd 2e 2b cb bc
       0.07672562 -0.08236756 -0.04159041 -0.024800863
000290 0b ce a2 bd 34 f1 89 bd 9e 14 82 3c 37 4f be 3d
       -0.07949456 -0.06735459 0.015878972 0.09292453
0002a0 b3 9a df 3d 63 98 9b bd 87 59 38 3d 06 cb 79 bd
       0.109181784 -0.07597425 0.045007255 -0.060984634
0002b0 e2 d7 61 bd 43 1d eb 3d 2a 62 5e 3d 2d 57 eb 3c
       -0.055137523 0.114801906 0.054292835 0.028728092
0002c0 c6 fe 45 3c 16 63 c9 3d b7 e2 3a bd 51 2a c0 bd
       0.0120846685 0.09833352 -0.04562637 -0.09383071
0002d0 be ea ed 3d 0d 3a 9f bc 4f 1c 37 3e d9 30 b8 bd
       0.11617039 -0.01943686 0.17881893 -0.08993692
0002e0 d2 56 24 be 78 62 36 bd 52 92 91 3d bd 2f d3 3d
       -0.16048744 -0.0445275 0.071079865 0.1031184
0002f0 ed 6f bd 3d c5 d7 ab bc 1a 34 17 be 0a 3e 29 bd
       0.09249864 -0.02097691 -0.14765969 -0.04131893
000300 96 bd 16 bd e0 ec 85 bd cc ad 09 3e 3a 2b 12 3e
       -0.036801897 -0.06539321 0.13445204 0.14274302
000310 3e 8c 56 3c 4c 2e 42 3e 48 c9 15 3e 39 58 ca 3d
       0.01309496 0.18962973 0.14627564 0.098801084
000320 8b 8c 3e 3e 83 e2 78 3b 89 ab 26 3e 42 4b 46 3d
       0.186083 0.0037976808 0.16276373 0.048411615
000330 5f f9 a3 3d 16 c2 2c 3e 2b ae df b9 db 94 58 3e
       0.08006548 0.16870913 -0.0004266364 0.21150534
000340 47 0f 45 3e 8d 6c f3 3d d2 df 94 3d 4b 3b 9c bc
       0.19244109 0.11885939 0.07269253 -0.019071242
000350 09 9c bc 3d 8d 7f 74 3c a3 a4 8b 3d 4e c7 8d 3c
       0.09209449 0.014922989 0.06818511 0.01730695
000360 7a cc 28 3e 70 6d fd 3d db df e2 bc 38 8c 39 3e
       0.16484252 0.12374389 -0.027694633 0.18119895
000370 4e 75 2d 3e 91 fa 10 bd 3a 1c 9d 3e d3 96 53 3e
       0.1693928 -0.03539521 0.30685598 0.20663004
000380 0b 82 89 3e 7a 2a dd 3d 2e 5c 1b 3e b6 f0 4e 3d
       0.26857027 0.107991174 0.15171883 0.05052253
000390 d0 e9 95 3e 90 92 68 3e de ae 8f 3e 06 2d 16 3e
       0.29279947 0.22712159 0.280631 0.14665613
0003a0 c6 a0 c9 3d 53 30 53 3e a8 61 86 3c 76 45 d7 3d
       0.09845118 0.20623903 0.016403988 0.105112955
0003b0 cb ce a4 bd f2 dc 03 3e 98 70 61 3c 12 3e 92 3e
       -0.08047255 0.12877253 0.013759755 0.2856298
0003c0 1d 7e 98 3d 12 59 d2 3d f5 64 2f 3e 6c d6 95 3d
       0.07445929 0.10270895 0.17128356 0.07316288
0003d0 65 39 82 bd 42 9a 59 bd 90 07 ce 3d a2 37 5a bd
       -0.063586034 -0.053125627 0.10060036 -0.05327571
0003e0 6b b7 d0 3a 8e 88 92 3c 6d 07 5b 3e 00 bf e0 3c
       0.0015923803 0.01788738 0.21389551 0.027434826
0003f0 ac 82 0e bd bd ed 6f 3d 03 a1 b2 3e 5d b0 8c 3e
       -0.034792587 0.058576334 0.34888467 0.27478305

dense_module.fc_out.w.weight f4 [4, 64]
000000 7b 79 8c bd 19 2d 9e be fa b1 1c 3e 2c e1 9a 3e
       -0.06859108 -0.30893782 0.15302268 0.30249918
000010 0d 8a 08 3e 6f 06 c3 3c 1e 45 b9 3e c6 02 b1 bd
       0.13333912 0.023806779 0.36185545 -0.08643107
000020 0e c8 0d 3e 85 80 1f 3d 51 13 c1 bd 3a f8 0c 3e
       0.13845846 0.038940925 -0.094275124 0.13766566
000030 6f 36 89 3e c2 24 9d 3d 85 f5 7c 3e 42 d7 0a 3e
       0.26799342 0.076730266 0.24703033 0.13558677
000040 aa 5b e2 bc 54 16 89 3d 40 2a b3 bc 91 c3 8a bd
       -0.0276316 0.06693712 -0.021870732 -0.067755826
000050 46 41 d5 bd f0 22 c1 3d cd 3c 87 bd 6c 3e 96 3d
       -0.104128405 0.09430492 -0.06603394 0.07336125
000060 92 16 00 3f 0e e0 43 3e a6 4d ec 3c 96 64 bc bd
       0.5003444 0.19128439 0.02884562 -0.09198873
000070 4e 31 f4 bd da 23 68 bd d8 1c 67 3a 66 fe cd bc
       -0.119234666 -0.056674816 0.0008816249 -0.02514572
000080 78 95 24 bc da 02 ae be 46 9c 7e 3d 5a c0 95 3d
       -0.010045402 -0.3398655 0.062160753 0.07312079
000090 05 db 7d be 03 a6 ea bd f9 59 00 be 32 f4 90 3d
       -0.2479058 -0.114574455 -0.12534322 0.070778266
0000a0 bb 7b 00 3e d7 2d a9 bc b8 a1 18 3e d5 de 97 be
       0.125472 -0.020651741 0.14905441 -0.29662195
0000b0 30 e9 dd 3d d6 5d 1e be 9e a9 8b be a4 5d 33 bd
       0.108354926 -0.15465483 -0.27277845 -0.043790475
0000c0 54 f4 be bd ab 0b a3 3d 3e 75 3e 3e 3e 79 69 bd
       -0.09323946 0.0796121 0.18599412 -0.05700039
0000d0 f0 6f 67 3d 6a 42 3c be da d1 56 bd 8e a2 1e bd
       0.056503236 -0.1838471 -0.052446224 -0.038729243
0000e0 16 b9 19 be d0 57 fb 3c 32 ee e6 bc a2 58 eb 3c
       -0.15012011 0.03068152 -0.028189752 0.028728787
0000f0 ed ac c6 bc 5b 5f 07 bd a3 7a 63 be 08 c8 99 3d
       -0.02425238 -0.033049922 -0.22214751 0.07508856
000100 52 21 c7 bd 6a 02 aa 3c d8 15 0c 3e 4a 4d 4e 3e
       -0.09723152 0.020753104 0.13680208 0.20146671
000110 36 49 a8 bd 92 9e 39 be af 07 93 be 53 7c c9 3b
       -0.08217089 -0.18126896 -0.287168 0.006148854
000120 ae 26 78 3d 0c b3 35 3e 15 c4 df 3c ea 9a 35 be
       0.060583763 0.17744082 0.027315179 -0.17734876
000130 f1 5e 93 bd 06 a0 92 bd 13 11 00 be 60 67 a3 bd
       -0.07195843 -0.07159428 -0.12506513 -0.079787016
000140 08 25 43 be 86 f9 24 3e bc 27 b4 bc 06 56 82 3d
       -0.19057095 0.1611081 -0.021991603 0.06364064
000150 86 e5 a2 3e 85 74 62 3d 05 3a c7 3d c8 62 52 bc
       0.31815737 0.055286903 0.09727863 -0.012840934
000160 d6 02 85 3d f1 0e 82 3e 41 08 af 3d 06 13 f7 bb
       0.064946815 0.25402024 0.08546496 -0.0075401096
000170 30 4d 83 bb 10 8e de bb b2 bc 72 bd 49 15 c0 bc
       -0.004007004 -0.0067918375 -0.059261985 -0.02344765
000180 4a 22 05 3f 5d f5 c0 bd ba 72 0b 3e 2a b9 da 3d
       0.52005446 -0.09421799 0.13617983 0.106798485
000190 75 22 4e bd c2 06 7c 3e 0a 36 25 3e 42 a1 7e 3d
       -0.05032583 0.24611953 0.16133896 0.062165506
0001a0 83 89 d0 bd fd 57 07 be 56 23 73 be de 34 88 3e
       -0.10182478 -0.13217159 -0.23743948 0.26602834
0001b0 87 8d 9d 3c 55 89 13 be 86 54 0a 3e b5 db 5b bd
       0.019232525 -0.14407857 0.13508806 -0.053676326
0001c0 76 aa 8a be 7b eb 67 3d c0 1c 5a 3c 56 03 db bc
       -0.27083176 0.056621056 0.013312519 -0.02673499
0001d0 d6 7c 76 3c d3 9d b3 bc 79 68 80 bd 58 10 66 3c
       0.015044412 -0.021925842 -0.062699266 0.014041983
0001e0 36 13 93 3d 95 49 1f 3e 10 c4 5d be 26 ca 69 be
       0.071813986 0.15555413 -0.21656823 -0.2283102
0001f0 4a 29 99 bb f5 83 10 be 46 0d 09 be 55 7f 7d bd
       -0.0046741115 -0.14112838 -0.1338397 -0.06188901
000200 c0 bd 2b 3d fb 88 7d 3e cd 9e 1e bd 25 66 4d bd
       0.041929007 0.24759285 -0.038725663 -0.05014624
000210 db 06 0b 3d be f5 b1 3d 6b 3f 50 3c c8 9a f1 bc
       0.033942085 0.0868945 0.0127104325 -0.02949275
000220 ae d2 0b bd b0 99 b5 3d d0 10 68 bd eb 5e 11 bd
       -0.034136467 0.08867204 -0.05665666 -0.03549091
000230 9e 00 20 3e 6d 2f 99 bc 10 0a 9b be 5e 30 64 3c
       0.15625235 -0.018699372 -0.30281115 0.013927547
000240 b6 74 bd bd fd f3 8e bd 30 cf ec 3d 07 bb bb 3c
       -0.092507765 -0.06980131 0.115629554 0.02291633
000250 2b 1e ac be a6 19 15 be f4 c1 31 be 95 f5 55 3d
       -0.33616766 -0.14560565 -0.17359143 0.05223616
000260 d8 1f e3 be 7d 87 9a be 64 26 12 3e 8e af 6f bd
       -0.44360232 -0.30181494 0.14272457 -0.05851703
000270 96 fa 54 3e ee 70 ac bd de 5a 1b bd b1 77 03 bd
       0.20798716 -0.08419977 -0.037928455 -0.03209657
000280 46 26 1e be d2 b2 04 be 21 8c 05 be 5b 73 68 bc
       -0.15444288 -0.1295884 -0.13041736 -0.014187659
000290 6a 6b 58 3e c2 a9 02 3d 18 64 fa bd c6 77 1f be
       0.21134725 0.031900175 -0.122261226 -0.15573034
0002a0 05 13 da 3d 66 c5 9b bd fd 60 cc bc 97 8f 49 be
       0.10648159 -0.0760601 -0.024948591 -0.19683681
0002b0 43 05 4c bd 8a d5 e7 3d 66 6e 15 3e 23 09 28 3e
       -0.049809705 0.11320026 0.14592895 0.16409735
0002c0 35 a1 04 be c2 c3 92 3d 1e 92 83 3c 26 8c 2b be
       -0.1295212 0.07166244 0.016060885 -0.16752681
0002d0 2e 65 48 be fa 2a aa 3c 08 5e 88 bd 25 45 4d bb
       -0.19569847 0.020772446 -0.0665856 -0.003132173
0002e0 57 20 80 bd eb de fe bc b2 e0 32 be 57 ff 0d 3e
       -0.06256168 -0.031112155 -0.17468527 0.13866936
0002f0 2e cf 14 be 39 42 a6 3d 46 19 c3 3e 86 57 e8 3d
       -0.14532158 0.081181 0.3810522 0.11344819
000300 b8 e5 06 3d 6f 43 42 3e c5 73 5d bd d5 a9 6a be
       0.03293392 0.18971036 -0.054065485 -0.22916348
000310 9b b0 5a 3c 79 d4 43 be eb 33 9e 3d 32 01 30 bd
       0.01334777 -0.1912402 0.07724746 -0.04296989
000320 bf c7 8c bd 6b f7 4e 3d b5 d9 9c bd 71 a2 45 bc
       -0.06874036 0.050528925 -0.07658712 -0.012062655
000330 b8 e1 ba be d2 e5 13 3e 4a ee 04 3d 4d 7e cb 3b
       -0.36500335 0.14443138 0.032453813 0.0062101246
000340 58 02 3d 3e 2e 1c d8 3c 5b 06 3b 3e cc c5 cb bd
       0.18457925 0.026380625 0.18264143 -0.09949836
000350 e1 11 bf bd ce 77 bd 3c fe a1 1f 3e d2 29 4c 3e
       -0.09329582 0.023128416 0.15589139 0.19937828
000360 d3 5a d9 3d 3d 15 ee 3d c3 eb 40 bd 9a 1d 51 bd
       0.106130265 0.11625145 -0.04709984 -0.05105362
000370 9d c1 09 be b3 c2 9c bd 02 b0 3b be d2 a9 69 bc
       -0.13452764 -0.076543234 -0.1832886 -0.01426168
000380 3e 4d d1 be ee 46 02 3f 00 a6 ba bd 17 a5 c5 bd
       -0.40879244 0.5088948 -0.09113693 -0.09650629
000390 2a de 0f 3e 1d 92 6b be e6 fb 40 3d 93 3b f2 3d
       0.14049593 -0.23004957 0.04711523 0.11827769
0003a0 16 5b 09 3c ab 07 87 bd ae 2b 14 bd b0 d1 68 3e
       0.008383533 -0.065932594 -0.03617447 0.2273624
0003b0 bb 3b 26 be 6e 6a 22 3d 31 cf cb bd f0 43 fb bc
       -0.16233723 0.03965228 -0.09951628 -0.030672044
0003c0 96 9e 9b 3e 25 74 60 3c ba fe 3f be 83 ca f3 3c
       0.3039443 0.013699566 -0.18749514 0.029759651
0003d0 f6 2c 8b 3c f9 87 12 be 85 35 e8 3d 8c b0 ac bd
       0.016989212 -0.14309682 0.11338333 -0.08432111
0003e0 52 0c 10 bd a6 7f 13 be ae 6b c0 3d 36 f9 f3 3c
       -0.035168 -0.14404163 0.09395538 0.029781919
0003f0 16 7e e7 3d 76 b0 83 3e 2f 31 1b be a5 e5 53 bd
       0.11303346 0.25720567 -0.15155481 -0.051732678

dense_module.fc_out.w.bias f4 [4]
000000 1a 6c f3 bd c8 c1 87 3d 1d e3 ba bd 0a 00 4d 3d
       -0.11885853 0.06628758 -0.0912535 0.050048865
