benchmarks/MOABB/results/MotorImagery/BNCI2014001/NonResidualEEGModel/run2/16938/leave-one-session-out/sub-004/1test/save/CKPT+2024-04-20+20-56-31+00/model.ckpt (torch, 101663 bytes, 29 tensors)

Conv2DType0_Batchnorm.norm.weight f4 [8]
0.9878501 0.9941498 0.9851223 0.9823543 0.99958295 1.0036352 1.007851 1.0171416
00000000: bfe3 7c3f 9a80 7e3f fa30 7c3f 927b 7b3f
00000010: abe4 7f3f 1e77 803f 4301 813f b231 823f

Conv2DType0_Batchnorm.norm.bias f4 [8]
0.03447679 -0.024293402 -0.016466172 -0.04586097 -0.016547827 0.0055597364 0.007956417 0.028465927
00000000: 8937 0d3d f502 c7bc 11e4 86bc b6d8 3bbd
00000010: 4f8f 87bc 732e b63b a25b 023c 6031 e93c

Conv2DType0_Batchnorm.norm.running_mean f4 [8]
7.826013e-12 -3.2357686e-11 -2.2855723e-11 1.9684981e-11 -1.0261433e-10 -6.919959e-11 -2.084198e-11 1.0818471e-11
00000000: 3bad 092d 844f 0eae 830a c9ad a326 ad2d
00000010: bba6 e1ae e82b 98ae f753 b7ad 1052 3e2d

Conv2DType0_Batchnorm.norm.running_var f4 [8]
0.17738943 0.01874624 0.103509046 0.49474502 0.11754786 0.02616004 0.011932208 0.012657282
00000000: 93a5 353e b791 993c 8dfc d33d 384f fd3e
00000010: efbc f03d 954d d63c 4f7f 433c 7d60 4f3c

Conv2DType1_cnn.conv.weight f4 [8, 8, 1, 51]
-4.791008e-12 6.554531e-12 -0.00016490862 7.1456314e-05 -1.3439858e-07 -4.0277926e-05 -4.96074e-40 3.6151087e-05
-6.249361e-08 -0.01595069 -0.03323352 -0.0067253024 -0.0006763337 0.03275479 -0.05158788 -0.0118120825
0.020402553 -0.034090247 0.0014575351 0.011174638 0.044555433 -0.0038749743 0.01782761 0.027583359
-0.025351806 0.02309527 -0.003959167 0.011052494 0.006456682 -0.030257866 -0.037078895 0.009381521
0.035706036 0.013936477 -0.026105268 -0.008956041 0.025705261 -0.01634605 0.03385654 0.04614694
-0.036826607 -0.0018754614 8.8128356e-05 -0.00035952733 4.91287e-40 -3.006127e-19 -4.4304575e-06 1.4243946e-05
5.4096e-40 2.108466e-07 -4.94391e-40 0.0003784705 4.95016e-40 0.00041525142 1.577296e-30 -5.9664935e-06
-7.1860575e-09 -1.0610302e-08 -1.7470313e-32 -3.1333923e-15 0.011894047 0.033935048 -0.025556562 0.025317794
0.059359647 0.026205573 0.06261311 -0.009837429 -0.0065282057 0.015115994 0.038076375 -0.024633067
-0.023479976 0.012211746 -0.03497423 -0.030052105 0.029697357 -0.02191728 -0.041134354 0.04021542
-0.052489985 -0.053753745 0.0126865255 -0.032594588 -0.0313901 0.0004912231 -0.015581588 0.032008376
-0.05803929 0.008290225 0.03767599 0.029060591 -0.03584017 4.0298172e-08 3.8501265e-31 -1.6733468e-06
-1.8777374e-11 -4.9869914e-07 2.7664877e-05 -4.33669e-08 6.0162012e-05 -6.8681634e-06 3.581458e-07 8.5182046e-23
4.91377e-40 0.00021820916 8.893085e-05 -6.4072105e-06 1.4941947e-09 -4.99377e-40 2.4662408e-15 0.0015058976
-0.024370251 -0.015123005 -0.0049247365 -0.030484898 0.0060857544 0.0044551184 0.039667416 -0.0025777675
-0.008002921 0.0010492897 0.0028948465 0.02338008 -0.005763544 0.02314483 0.030457068 -0.006616694
-0.006565397 -0.009354072 0.035620105 0.0053515984 0.048894376 -0.016657833 -0.014878503 -0.0053015905
0.030904269 0.014749129 0.022236262 -0.013992712 -0.031318154 0.01103077 0.019904355 -0.016904589
-8.858451e-05 0.00014554591 -4.98653e-40 -1.6797517e-35 -1.1659812e-34 -1.4792283e-10 -7.4581767e-06 -0.00021669873
8.695514e-25 4.9201e-40 1.6790277e-07 -2.545161e-13 -2.2333363e-05 -2.188867e-06 -3.5749148e-05 4.98013e-40
6.4628345e-08 -3.924492e-07 0.021944499 -0.031391278 0.006981719 -0.030258466 -0.02960951 -0.004328067
-0.022314653 -0.034945488 -0.033925395 0.008263908 0.038305897 -0.03494582 0.030533124 -0.0043911557
-0.05151338 -0.0037294966 -0.02166046 0.036183514 -0.01255723 0.031684738 -0.04324456 0.025164528
-0.027023483 0.018388346 -0.0134828035 0.04119372 0.045279924 0.0053104926 -0.0065098456 -0.0041964566
0.019447684 -0.015475986 -0.053319413 4.96268e-40 -1.0556009e-28 3.2818272e-15 2.9364694e-05 -0.0001463571
-5.2663555e-14 -1.2478078e-19 -0.0001855481 9.809545e-35 -6.0872117e-06 0.0003269017 7.77198e-05 2.9920268e-15
0.000401509 5.3561506e-09 0.00013861478 -3.351068e-13 6.189971e-05 -0.012948043 0.037857696 0.042992868
-0.006756216 -0.03480691 -0.029236337 -0.022164354 -0.03672264 -0.044568833 0.027872244 0.051281672
-0.042622868 0.016057681 0.024370613 0.04624639 -0.014539562 0.04432297 -0.05025394 -0.035743363
-0.023476822 -0.0133188395 -0.025657808 0.025027243 -0.035988417 -0.0007470003 -0.014493579 -0.00462195
-0.032858223 -0.0205667 0.016989343 -0.030572532 -0.0074389367 0.0258411 3.5849877e-07 1.726366e-18
-1.189258e-06 6.436562e-05 -5.5766917e-15 -0.00011219771 1.0120434e-08 -3.907058e-05 -4.618846e-10 1.0074185e-09
00000000: 9091 a8ac f79d e62c 52eb 2cb9 d1da 9538
00000010: 334f 10b4 18f0 28b8 da66 0580 efa0 1738
00000020: 3a34 86b3 05ab 82bc df1f 08bd ed5f dcbb
00000030: fc4b 31ba e329 063d d04d 53bd 7787 41bc
00000040: 4123 a73c 37a2 0bbd c30a bf3a d415 373c
00000050: c27f 363d 48f3 7dbb 350b 923c 7ff6 e13c
00000060: 97ae cfbc 4b32 bd3c e6bb 81bb 8515 353c
00000070: 9392 d33b 58df f7bc 0ae0 17bd f3b4 193c
00000080: 7e40 123d d255 643c b7da d5bc 5cbc 12bc
00000090: d793 d23c 27e8 85bc 28ad 0a3d 9304 3d3d
000000a0: 7fd7 16bd 0bd2 f5ba 8dd1 b838 f17e bcb9
000000b0: 8259 0500 4f73 b1a0 57a9 94b6 48f9 6e37
000000c0: fae3 0500 1265 6234 2962 0580 736d c639
000000d0: e763 0500 1ab6 d939 50ee ff0d ca33 c8b6
000000e0: 3be9 f6b1 9a48 36b2 0f6c b58a e3c8 61a7
000000f0: 40df 423c 7aff 0a3d ff5b d1bc 4367 cf3c
00000100: 1a23 733d 12ad d63c 4d3b 803d 2b2d 21bc
00000110: 8fea d5bb 13a9 773c f9f5 1b3d 49cb c9bc
00000120: 1459 c0bc c613 483c 2341 0fbd d52f f6bc
00000130: df47 f33c de8b b3bc 7f7c 28bd edb8 243d
00000140: bdff 56bd e32c 5cbd 25db 4f3c e781 05bd
00000150: e892 00bd 6dc5 003a eb49 7fbc 371b 033d
00000160: 9bba 6dbd b9d3 073c 2452 1a3d 7a10 ee3c
00000170: 24cd 12bd 4f14 2d33 33e3 f90c c297 e0b5
00000180: e32a a5ad 58de 05b5 df11 e837 6942 3ab3
00000190: 7856 7c38 1375 e6b6 2f47 c034 22f5 cd1a
000001a0: c259 0500 13cf 6439 6380 ba38 85fd d6b6
000001b0: 4d5c cd30 0f70 0580 1db6 3127 8a61 c53a
000001c0: 1fa4 c7bc 7bc6 77bc af5f a1bb 77bb f9bc
000001d0: 026b c73b 3efc 913b 4d7a 223d c3ef 28bb
000001e0: af1e 03bc 5288 893a 77b7 3d3b 9587 bf3c
000001f0: 1cdc bcbb 3a9a bd3c 1a81 f93c dad0 d8bb
00000200: 8b22 d7bb d241 19bc 63e6 113d 765c af3b
00000210: 7845 483d 0276 88bc f7c4 73bc f7b8 adbb
00000220: f32a fd3c 55a6 713c d228 b63c b041 65bc
00000230: 7747 00bd 67ba 343c 750e a33c 7e7b 8abc
00000240: 72c6 b9b8 af9d 1839 0b6e 0580 319f b285
00000250: 49fc 1a87 93a4 22af 4041 fab6 9f39 63b9
00000260: 7b8e 8617 865b 0500 c348 3434 a347 8faa
00000270: 8858 bbb7 73e4 12b6 5bf1 15b8 426c 0500
00000280: cfc9 8a33 cfb1 d2b4 f3c4 b33c 2494 00bd
00000290: e7c6 e43b 9ae0 f7bc a58f f2bc 75d2 8dbb
000002a0: 38cd b6bc 0023 0fbd 5bf5 0abd 5865 073c
000002b0: a5e6 1c3d 5923 0fbd 9a20 fa3c afe3 8fbb
000002c0: b2ff 52bd 926a 74bb 4771 b1bc 2a35 143d
000002d0: d7bc 4dbc dbc7 013d 3521 31bd d725 ce3c
000002e0: 5a60 ddbc 28a3 963c fae6 5cbc bfba 283d
000002f0: 7177 393d a403 ae3b 8b50 d5bb 6e82 89bb
00000300: c050 9f3c fd8e 7dbc 7565 5abd 6567 0500
00000310: 35d0 0591 077b 6c27 3354 f637 6f77 19b9
00000320: f22c 6da9 ad50 13a0 b08f 42b9 2764 0207
00000330: c040 ccb6 0164 ab39 80fd a238 2799 5727
00000340: a081 d239 3309 b831 1f59 1139 fba5 bcaa
00000350: 27d0 8138 0724 54bc ac10 1b3d 4a19 303d
00000360: 3f63 ddbb b191 0ebd 0b81 efbc 0592 b5bc
00000370: 7b6a 16bd cf8d 36bd 5554 e43c bb0c 523d
00000380: 5195 2ebd 668b 833c e1a4 c73c db6c 3d3d
00000390: 5837 6ebc 018c 353d 13d7 4dbd a267 12bd
000003a0: 7752 c0bc 4337 5abc 5330 d2bc ef05 cd3c
000003b0: 9768 13bd 57d2 43ba 7a76 6dbc ba73 97bb
000003c0: 5896 06bd 7f7b a8bc 3c2d 8b3c 3f73 fabc
000003d0: 53c2 f3bb b7b0 d33c b277 c034 43c4 fe21
000003e0: 989e 9fb5 07fc 8638 e7eb c8a7 b04b ebb8
000003f0: 24de 2d32 b7df 23b8 7aec fdaf 6375 8a30

Conv2DType1_Batchnorm.norm.weight f4 [8]
0.9994155 0.9810063 1.0137308 1.006174 0.999306 0.99760467 0.9897792 1.0000104
00000000: b2d9 7f3f 3b23 7b3f eec1 813f 4fca 803f
00000010: 85d2 7f3f 0563 7f3f 2b62 7d3f 5700 803f

Conv2DType1_Batchnorm.norm.bias f4 [8]
0.0066251303 -0.074263684 -0.041000742 -0.06715652 -0.055734396 -0.008622243 -0.009552581 -0.008176782
00000000: 9f17 d93b 8f17 98bd 65f0 27bd 5c89 89bd
00000010: c049 64bd 4f44 0dbc 6e82 1cbc e9f7 05bc

Conv2DType1_Batchnorm.norm.running_mean f4 [8]
0.005847719 0.0020296685 0.00022916903 -0.0024931575 -0.007309249 0.01501177 -0.010191466 -0.0058832266
00000000: 399e bf3b 3004 053b 184d 7039 3e64 23bb
00000010: 6d82 efbb edf3 753c 1bfa 26bc 15c8 c0bb

Conv2DType1_Batchnorm.norm.running_var f4 [8]
0.019443253 0.05260622 0.029651755 0.018528065 0.04209989 0.018397406 0.03884067 0.029519472
00000000: 7547 9f3c 9f79 573d 3de8 f23c 2bc8 973c
00000010: ef70 2c3d 28b6 963c 6517 1f3d d2d2 f13c

Conv2DType2_cnn.conv.weight f4 [16, 8, 63, 1]
0.044711895 0.008437555 0.0029420748 -0.02902841 -0.004684543 0.024795864 0.023337917 -0.009665966
-0.0008375798 -0.03188322 0.028249277 0.008499897 0.022228554 -0.021325063 -0.028640777 -0.017371234
0.00029365477 0.041487377 0.036265153 0.020248763 -0.029061858 0.0030002487 0.006111597 0.015795685
0.039159026 0.024675801 0.0417405 -0.0021375888 0.022365239 -0.007184607 0.05777197 0.02460092
0.015952561 0.015171165 0.032606572 0.015437007 -0.018528149 -0.023403058 0.006445789 -0.008853237
-0.00096027256 -0.0049743215 0.0026311462 0.0041641514 -0.023898203 -0.029000862 0.0324761 -0.013397532
0.037444815 0.0038994306 -0.014975938 0.014937622 -0.0015591619 -0.026655078 -0.0025456832 -0.012692175
-0.00056099746 0.036632128 -0.037824053 0.0019692043 -0.02948044 -0.025299896 0.03427122 0.042832747
-0.050996274 -0.015074943 -0.016743986 0.0081233485 -0.00044912603 -0.018720785 0.0013033547 -0.0052930894
-0.015304257 -0.019398084 0.014440036 0.041850355 -0.008445057 -0.026961688 0.02212214 0.04597954
0.03852028 -0.029330997 0.012317313 0.0403906 0.022667972 -0.009165022 0.04359783 0.049657773
-0.0053180843 -0.003538147 0.012052945 0.0133794965 0.017333155 -0.005046631 -0.020389384 0.02539575
0.02173106 0.0018608187 0.022684492 -0.0038672052 0.012653246 0.028706467 -0.020801306 -0.010186605
0.026877552 0.038245305 0.01527786 -0.01374125 -0.015354961 -0.02651899 0.02897101 -0.025335083
0.026766032 -0.010658053 -0.02518527 -0.0026404466 0.0013657146 0.00086422695 -0.024580691 0.045268904
-0.02470382 0.01816192 -0.01883874 -0.032950997 -0.04382982 -0.022119803 0.0053953268 0.006594144
-0.014559736 -0.037115794 0.03340103 0.02322795 0.015678566 0.004552999 -0.008176165 -0.023039615
-0.022593802 -0.0017078904 0.037422042 0.033761572 -0.03828734 -0.04043668 -0.0024191958 -0.017394396
-0.0342174 0.010170244 -0.022916442 0.0007806464 0.035513964 0.0010300585 -0.021991748 0.0107419705
0.012625619 0.018284222 0.007728538 -0.04724125 0.016608566 0.008934419 0.01781122 0.014985708
0.0047424017 -0.03233164 0.009142753 0.0015999988 -0.014802115 -0.029284284 0.034868337 -0.0021349674
0.007082651 -0.011839955 -0.023898782 0.029587245 0.04492875 0.015127942 -0.024074417 0.034768894
0.047077786 0.0583874 -0.0021317648 0.022928476 -0.008007355 0.058544975 0.025753452 0.039227996
0.02023315 -0.010372267 0.02939823 -0.026083216 0.048073094 0.008930652 0.027454907 0.029651364
-0.038472205 0.045914628 0.023350613 0.008500139 -0.016698187 -0.03176377 0.01760639 -0.019920992
-0.0007731532 -0.01889709 0.0030554398 -0.03848664 -0.001436465 -0.042284094 0.019619372 0.030623246
-0.009124285 0.02501072 -0.01436342 0.014200769 -0.018457796 -0.030230075 -0.011446609 0.008752275
-0.0075287074 -0.008742274 0.01338453 -0.01746173 -0.019308796 -0.0005758907 0.012038365 -0.037248712
0.02756694 0.009325706 -0.0157612 -0.021900758 -0.028043449 -0.030513141 -0.030413186 0.008491735
-0.007592223 -0.033825886 0.005666915 -0.04506799 -0.01790679 0.0008762507 -0.018513804 -0.04864941
-0.03172011 -0.036391176 0.020262219 -0.013158403 -0.011107716 -0.008931543 0.036559045 -0.017863452
-0.013478394 0.010457714 0.058377713 -0.03257255 -0.0119195245 0.037149187 -0.012439604 -0.019603549
00000000: d223 373d ac3d 0a3c d3cf 403b fdcc edbc
00000010: cb80 99bb b220 cb3c 292f bf3c 005e 1ebc
00000020: 0791 5bba fb97 02bd 076b e73c 2743 0b3c
00000030: a818 b63c e6b1 aebc 10a0 eabc 1e4e 8ebc
00000040: adf5 9939 abee 293d c58a 143d bce0 a53c
00000050: 2213 eebc d29f 443b cb43 c83b f465 813c
00000060: 3765 203d e824 ca3c 16f8 2a3d ca16 0cbb
00000070: 4e37 b73c da6c ebbb 4da2 6c3d de87 c93c
00000080: f2ae 823c 7a90 783c 788e 053d 80eb 7c3c
00000090: 58c8 97bc c5b7 bfbc 3237 d33b 2b0d 11bc
000000a0: cdba 7bba a2ff a2bb 4f6f 2c3b 6f73 883b
000000b0: 2ac6 c3bc 3793 edbc a905 053d 5281 5bbc
000000c0: bc5f 193d 978d 7f3b a35d 75bc edbc 743c
000000d0: cb5c ccba c05b dabc 7ad5 26bb d7f2 4fbc
000000e0: e70f 13ba 920b 163d 65ed 1abd c40d 013b
000000f0: f780 f1bc ba41 cfbc fb5f 0c3d 6471 2f3d
00000100: 78e1 50bd e5fc 76bc af2a 89bc cb17 053c
00000110: ad78 ebb9 555c 99bc 54d5 aa3a a771 adbb
00000120: b5be 7abc bbe8 9ebc e795 6c3c 476b 2b3d
00000130: 235d 0abc c2de dcbc 7d39 b53c 0b55 3c3d
00000140: 71c7 1d3d 8f47 f0bc 8ece 493c 9d70 253d
00000150: 2fb2 b93c e328 16bc a393 323d f365 4b3d
00000160: 5343 aebb 42e0 67bb b779 453c ad35 5b3c
00000170: 43fe 8d3c 365e a5bb a307 a7bc bf0a d03c
00000180: 5605 b23c b7e6 f33a d4d4 b93c f070 7dbb
00000190: 8f4f 4f3c d329 eb3c 8067 aabc b8e5 26bc
000001a0: 502e dc3c 1ca7 1c3d fd4f 7a3c fb22 61bc
000001b0: 6093 7bbc 5a3e d9bc 9d54 ed3c 858b cfbc
000001c0: 7044 db3c 1d9f 2ebc 5751 cebc 580b 2dbb
000001d0: c701 b33a 4a8d 623a 725d c9bc e36b 393d
000001e0: aa5f cabc 4fc8 943c b453 9abc a0f7 06bd
000001f0: e686 33bd 9734 b5bc 48cb b03b b013 d83b
00000200: f58b 6ebc bb06 18bd 85cf 083d 8b48 be3c
00000210: 5670 803c 5331 953b 52f5 05bc 93bd bcbc
00000220: a316 b9bc 4bdb dfba db47 193d 9349 0a3d
00000230: 30d3 1cbd efa0 25bd 5f8b 1ebb b17e 8ebc
00000240: 8b27 0cbd 18a1 263c 43bb bbbc 4ba4 4c3a
00000250: 1777 113d 0703 873a 0a28 b4bc 17ff 2f3c
00000260: afdb 4e3c cbc8 953c ad3f fd3b 0a80 41bd
00000270: b00e 883c ab61 123c d6e8 913c 9d86 753c
00000280: 2666 9b3b 2f6e 04bd 7ccb 153c 0db7 d13a
00000290: 9284 72bc 98e5 efbc 1ad2 0e3d cfea 0bbb
000002a0: 9515 e83b 5ffc 41bc 61c7 c3bc f360 f23c
000002b0: 3507 383d 30db 773c b637 c5bc d469 0e3d
000002c0: a3d4 403d a027 6f3d 14b5 0bbb 80d4 bb3c
000002d0: 4831 03bc dbcc 6f3d e7f8 d23c 89ad 203d
000002e0: febf a53c 71f0 29bc 8fd4 f03c 78ac d5bc
000002f0: 4be8 443d df51 123c 1de9 e03c 6be7 f23c
00000300: 0895 1dbd fa10 3c3d c949 bf3c 2b44 0b3c
00000310: a3ca 88bc ba1a 02bd 473b 903c 5931 a3bc
00000320: 6fad 4aba 12ce 9abc c63d 483b 2ba4 1dbd
00000330: c447 bcba 1632 2dbd ceb8 a03c 9add fa3c
00000340: 067e 15bc 48e3 cc3c 8d54 6bbc 58aa 683c
00000350: ce34 97bc 10a5 f7bc 8f8a 3bbc b465 0f3c
00000360: 60b3 f6bb c13b 0fbc ca4a 5b3c e70b 8fbc
00000370: 7b2d 9ebc 5ff7 16ba 903c 453c 1b92 18bd
00000380: 10d4 e13c d9ca 183c a21d 81bc 3869 b3bc
00000390: 60bb e5bc b2f6 f9bc 1325 f9bc eb20 0b3c
000003a0: 2fc8 f8bb 038d 0abd 87b1 b93b 3699 38bd
000003b0: 43b1 92bc 30b4 653a 43aa 97bc 9b44 47bd
000003c0: f2ec 01bd ea0e 15bd f4fc a53c 5896 57bc
000003d0: 23fd 35bc 9b55 12bc f0be 153d 6056 92bc
000003e0: 7bd4 5cbc d556 2b3c 781d 6f3d cb6a 05bd
000003f0: 1c4a 43bc bf29 183d 7bcf 4bbc 9f97 a0bc

Conv2DType2_Batchnorm.norm.weight f4 [16]
1.0567425 1.0659112 1.0641469 1.063933 1.0813584 1.0283495 1.0475942 1.0595573
1.0487102 1.0270464 1.0529311 1.0484617 1.0659425 1.0450308 1.0317096 1.0554384
00000000: 5743 873f c76f 883f f735 883f f52e 883f
00000010: f469 8a3f f5a0 833f 9117 863f 939f 873f
00000020: 233c 863f 4276 833f 72c6 863f fe33 863f
00000030: ce70 883f 92c3 853f 0f0f 843f 9b18 873f

Conv2DType2_Batchnorm.norm.bias f4 [16]
-0.12961966 -0.13271077 -0.12900202 -0.1269406 -0.13028063 -0.10908085 -0.11872947 -0.12470118
-0.12601234 -0.12564497 -0.11930734 -0.12617102 -0.13611399 -0.11549478 -0.110600345 -0.11507312
00000000: 04bb 04be 55e5 07be 1b19 04be b7fc 01be
00000010: 4968 05be c865 dfbd 7028 f3bd 5563 ffbd
00000020: 6109 01be 13a9 00be 6857 f4bd fa32 01be
00000030: 7761 0bbe 8788 ecbd 6f82 e2bd 75ab ebbd

Conv2DType2_Batchnorm.norm.running_mean f4 [16]
-0.005571608 -0.016225396 -0.010738962 -0.09327113 -0.10975605 -0.01738893 -0.05641238 -0.060902756
0.07275216 0.11405865 0.016966054 -0.012275464 -0.060418505 0.035095047 -0.004178 0.0105287535
00000000: 0992 b6bb 1feb 84bc 79f2 2fbc ef04 bfbd
00000010: c8c7 e0bd 3b73 8ebc ab10 67bd 2b75 79bd
00000020: 16ff 943d 9597 e93d 65fc 8a3c 071f 49bc
00000030: 6579 77bd d3bf 0f3d 9be7 88bb cb80 2c3c

Conv2DType2_Batchnorm.norm.running_var f4 [16]
0.4365625 0.3231996 0.48099604 0.7594924 0.50568527 0.42470995 0.52747214 0.5883278
0.46067163 0.5850522 0.30750296 0.2709742 0.5047406 0.45654246 0.421901 0.48308763
00000000: 1f85 df3e 6b7a a53e 1d45 f63e 186e 423f
00000010: 9774 013f 9573 d93e 6a08 073f a79c 163f
00000020: 27dd eb3e fbc5 153f 0771 9d3e 21bd 8a3e
00000030: ae36 013f efbf e93e 6803 d83e 4357 f73e

Conv2DType3_depthwise.conv.weight f4 [16, 16, 1, 17]
-0.00015571222 0.04227695 -0.0039336714 -0.034545995 -0.015850237 0.04528757 -0.033315085 -0.012529201
-0.05509893 -0.01562678 -0.0015613976 0.030025734 -0.03370803 0.045075145 0.053349484 0.00695202
0.023417953 -0.051082265 0.026716208 -0.0063892044 -0.024566453 -0.0075755785 -0.03138031 -0.04067985
-0.0003191396 0.025993278 0.004420131 -0.03269945 0.008622568 0.04402432 -0.047498394 -0.024378937
0.033070963 -0.027199715 -0.06319088 0.036107134 0.031394478 0.010036782 -0.023150077 0.022012668
0.00920881 0.004556093 0.025874704 -0.005727002 -0.074362926 0.031658415 0.017804839 0.028328938
0.040582586 0.04171179 -0.021270035 -0.01995827 0.021381233 -6.706954e-05 0.0127313575 -0.022774957
-0.0637876 0.014843426 -0.0036647355 0.058609873 0.0071063014 -0.029260224 0.03136392 0.048439812
-0.0501945 0.013644524 -0.054938328 -0.05925521 0.030848715 0.0079826405 -0.036486134 0.062662564
0.05047228 -0.037344698 -0.010996008 0.042350926 0.05034727 -0.009245198 -0.0061443145 -0.016887665
0.015934443 0.02825833 -0.037197452 0.047698967 -0.046731107 0.02818478 -0.018186584 -0.058187943
-0.025032738 0.032859605 -0.045409124 0.026458198 0.0016600773 -0.03612925 0.0065492257 -0.02877239
0.004626453 -0.048203707 0.031649385 -0.037000865 0.030285347 -0.035167344 -0.06024946 0.016629033
-0.03993219 0.029156744 0.03876933 -0.018963533 -0.026558477 -0.04056029 0.03740222 -0.014379009
-0.043782026 -0.021385117 -0.051436108 -0.030746311 0.054016102 0.016626451 0.034898035 -0.033745583
0.05988828 0.035943497 0.025753794 -0.015493333 0.016493348 0.038244493 0.005630725 -0.015846867
0.059241552 -0.023454413 0.008792955 0.015103603 0.02859141 -0.010091156 0.012261268 -0.0013569624
-0.028070172 0.011485928 -0.023825163 -0.03090856 0.044338822 -0.032505896 -0.00806564 0.02536912
0.023019668 -0.045926455 0.057356924 0.013901389 0.042402346 0.067917995 0.05021118 -0.0035166417
0.02002864 0.009689922 0.001189644 0.047210407 0.019067815 0.041555595 -0.038462978 0.014926267
-0.029475538 0.008847917 0.0010216845 -0.0094992025 0.041736662 -0.014410806 -0.033597827 0.01777798
0.046654552 0.030264873 -0.042447515 -0.01642711 0.037089076 -0.01378673 -0.00053829094 0.04158164
0.01978597 -0.008417285 -0.04467653 0.048616588 -0.025155663 0.047587115 -0.024223814 -0.00532164
-0.030317778 -0.019875688 -0.013398861 -0.03673289 0.02173491 -0.05460429 -0.00089211354 0.013445576
-0.05570323 -0.003989548 0.029977797 -0.027546262 -0.059621215 0.009048991 -0.050448623 -0.027182622
-0.014360069 0.02968438 0.014148011 0.003369793 0.06230516 -0.05748194 -0.06052172 -0.005793744
-0.015933586 -0.047688928 -0.05541819 0.0028971757 0.028588409 -0.00656883 0.010379377 -0.061384242
-0.044469334 0.02650111 -0.058199376 0.034693904 0.041930772 -0.040406033 0.0005236841 0.0032530003
0.040437855 -0.0033777624 -0.0053316806 -0.049424704 0.045784697 -0.047030628 -0.013039281 0.05052484
0.018068137 0.0378406 0.038609874 0.023433344 -0.027398601 -0.066368885 -0.034428727 -0.020735418
-0.00224424 0.0062669488 -0.06890278 -0.07224712 0.029949537 0.007108344 -0.04432667 0.053394098
0.06259244 -0.03752137 -0.03976507 0.026847586 -0.009285677 -0.014539366 0.019848082 0.023313774
00000000: ae46 23b9 982a 2d3d 07e6 80bb 1a80 0dbd
00000010: 5bd8 81bc 767f 393d 6675 08bd 4747 4dbc
00000020: 6aaf 61bd bc03 80bc cfa7 ccba 87f8 f53c
00000030: 6e11 0abd b7a0 383d fd84 5a3d c5cd e33b
00000040: 02d7 bf3c a33b 51bd f3db da3c 885c d1bb
00000050: 963f c9bc 8f3c f8bb a488 00bd ea9f 26bd
00000060: 3152 a7b9 dbef d43c bfd6 903b dcef 05bd
00000070: ac45 0d3c d852 343d ad8d 42bd 56b6 c7bc
00000080: 6b75 073d f0d1 debc 386a 81bd 13e5 133d
00000090: 7f97 003d 5171 243c 3ba5 bdbc e953 b43c
000000a0: 8ce0 163c 474b 953b 30f7 d33c 93a9 bbbb
000000b0: 974b 98bd 41ac 013d 74db 913c 1712 e83c
000000c0: ed39 263d fbd9 2a3d 7f3e aebc 877f a3bc
000000d0: b227 af3c afa7 8cb8 2f97 503c 8c92 babc
000000e0: 13a3 82bd d731 733c 0f2c 70bb e810 703d
000000f0: fadb e83b 23b3 efbc 7477 003d d368 463d
00000100: bf98 4dbd 488d 5f3c 0307 61bd 97b5 72bd
00000110: 72b6 fc3c 9fc9 023c 7c72 15bd 3b55 803d
00000120: 05bc 4e3d c1f6 18bd 9a28 34bc 2a78 2d3d
00000130: f038 4e3d 2c79 17bc 3f56 c9bb 0058 8abc
00000140: f388 823c 037e e73c 5b5c 18bd fe5f 433d
00000150: 1e69 3fbd c5e3 e63c 08fc 94bc 7b56 6ebd
00000160: 7511 cdbc cb97 063d ebfe 39bd ddbe d83c
00000170: f396 d93a 44fc 13bd e39a d63b 13b4 ebbc
00000180: 8099 973b 4071 45bd c9a2 013d 388e 17bd
00000190: fa18 f83c a20b 10bd 23c8 76bd 9c39 883c
000001a0: f08f 23bd 20da ee3c 97cc 1e3d 6959 9bbc
000001b0: 2a91 d9bc 8c22 26bd 1233 193d ef95 6bbc
000001c0: c854 33bd d72f afbc abae 52bd b0df fbbc
000001d0: fd3f 5d3d 3234 883c 3ef1 0e3d cf38 0abd
000001e0: 6a4d 753d 7d39 133d 9ff9 d23c c0d7 7dbc
000001f0: 0f1d 873c 42a6 1c3d f281 b83b 4ad1 81bc
00000200: 45a7 723d 7823 c0bc 5410 103c 1a75 773c
00000210: 8838 ea3c 6055 25bc 7ce3 483c 1adc b1ba
00000220: 6bf3 e5bc 792f 3c3c fd2c c3bc f333 fdbc
00000230: a09c 353d e724 05bd bf25 04bc e7d2 cf3c
00000240: be93 bc3c 611d 3cbd 18ef 6a3d a7c2 633c
00000250: 15ae 2d3d 9718 8b3d 3daa 4d3d 7577 66bb
00000260: 1a13 a43c 7bc2 1e3c d4ed 9b3a b35f 413d
00000270: 1b34 9c3c 3336 2a3d 5b8b 1dbd 4d8d 743c
00000280: af76 f1bc dbf6 103c 0bea 853a 8ba2 1bbc
00000290: 10f4 2a3d 4d1b 6cbc e09d 09bd 20a3 913c
000002a0: d818 3f3d 0aee f73c 72dd 2dbd 2692 86bc
000002b0: b7ea 173d bde1 61bc 181c 0dba 8251 2a3d
000002c0: 3016 a23c a7e8 09bc bdfe 36bd 3022 473d
000002d0: 4013 cebc b5ea 423d 0571 c6bc 2761 aebb
000002e0: fd5c f8bc 57d2 a2bc e586 5bbc 3a75 16bd
000002f0: 690d b23c bfa8 5fbd badc 69ba d54a 5c3c
00000300: 1229 64bd c1ba 82bb ff93 f53c b3a8 e1bc
00000310: 6035 74bd 3842 143c 37a3 4ebd 17ae debc
00000320: 7f46 6bbc a82c f33c 0fcd 673c bfd7 5c3b
00000330: b233 7f3d 2f72 6bbd a0e5 77bd 73d9 bdbb
00000340: 2787 82bc 7755 43bd 2ffe 62bd 8bde 3d3b
00000350: 3d32 ea3c 573f d7bb 430e 2a3c 0b6e 7bbd
00000360: 7a25 36bd db18 d93c 7862 6ebd 321b 0e3d
00000370: 9abf 2b3d cc80 25bd d847 093a 4a30 553b
00000380: 2aa2 253d 735d 5dbb 61b5 aebb 8f71 4abd
00000390: bc88 3b3d 30a3 40bd b5a2 55bc 22f3 4e3d
000003a0: a103 943c bffe 1a3d 6325 1e3d 49f7 bf3c
000003b0: 0873 e0bc 69ec 87bd 2305 0dbd 53dd a9bc
000003c0: 1914 13bb fa5a cd3b e71c 8dbd 4cf6 93bd
000003d0: bb58 f53c 1ded e83b e28f 35bd c5b3 5a3d
000003e0: 7730 803d 02b0 19bd b3e0 22bd 78ef db3c
000003f0: f422 18bc 8536 6ebc 7298 a23c 87fc be3c

Conv2DType3_pointwise.conv.weight f4 [16, 16, 1, 1]
0.036240723 0.036743388 0.0072317757 0.11485912 0.0874198 0.23340331 0.20759642 0.18346934
-0.015819134 0.041714262 0.07051637 -0.07298305 0.046814706 -0.15023945 0.12833004 0.22349668
0.15653282 -0.03050007 -0.041175514 0.21527071 0.10737254 0.18684177 0.16924405 0.14181308
-0.21008515 -0.23415747 0.059765365 0.15617765 -0.23232901 0.23949383 0.0065803416 -0.17863774
0.21421145 -0.018343328 -0.14011204 -0.20823954 -0.109203056 -0.13605677 0.040013652 0.0007941549
-0.15151648 0.13641098 0.17502072 -0.053061165 -0.041982595 0.16130073 -0.13429308 0.061753284
-0.05623731 -0.15954378 0.034227107 0.21368018 -0.07355207 -0.14821993 0.091703735 0.07942524
0.07177078 -0.12391537 0.170892 -0.036457974 -0.28019282 0.08689932 0.1611091 0.20502439
-0.15704606 0.041259874 0.2060852 0.09992587 0.11826699 -0.22642338 -0.09994321 -0.13301693
-0.053843614 -0.1615149 0.14045528 0.046629995 -0.25129136 0.18391459 0.104225114 -0.24368258
-0.048775386 0.1203114 -0.1409725 0.012605721 0.08242839 -0.058944847 -0.26254302 -0.12508596
0.014619908 -0.24048796 0.22868566 -0.09511317 0.14240019 -0.22888294 0.037400883 0.20723365
0.21916123 0.10809131 -0.16486894 -0.014379364 0.013668855 0.2052753 -0.1628748 0.017561298
-0.07480817 0.17046365 0.13208865 -0.054134097 -0.15476999 -0.2003781 -0.23034067 0.08731223
-0.03773084 0.122433655 0.0023681624 -0.15757324 0.05095899 -0.1701119 -0.03024221 0.18485038
-0.045812316 -0.20109728 0.15438877 -0.06344152 -0.12642196 -0.1533262 -0.028594939 0.2791622
0.15151136 0.22670491 0.09462154 0.17786697 -0.06054377 0.09388105 -0.16051987 0.027238542
-0.13978215 -0.18957433 0.083344355 0.19696075 -0.16549356 -0.122577325 -0.20102564 -0.10433064
-0.025297526 0.065951146 -0.23819576 -0.082805716 -0.08983173 0.059802365 0.10666682 -0.0060980865
-0.07729471 -0.20732489 -0.03796708 0.035562903 0.1042935 0.24555568 0.14620234 -0.083546065
0.109983794 -0.018434247 -0.20634852 0.20561579 0.13845581 -0.18378876 0.1589364 0.007389358
-0.22680973 -0.18094268 0.000924149 0.10850781 0.052077033 0.2456743 -0.20963363 0.2065816
0.041163098 0.22225337 -0.12580563 -0.18679957 -0.14134318 0.06675037 -0.12184613 0.040608495
0.07991903 -0.10089671 0.11566474 -0.24426632 0.10965147 0.011931217 0.13089098 0.1155071
0.09509964 -0.037380606 0.22789584 -0.14366758 -0.07773152 -0.07687234 0.21205433 -0.061873537
0.1356952 0.043399382 0.13220786 -0.27594504 0.23229317 0.008031791 -0.060455896 -0.0139102405
0.23272501 0.016869336 -0.19376384 -0.021965768 -0.049019434 0.061168462 -0.03557701 -0.16067915
-0.16278513 -0.2194703 0.029749567 -0.15649454 0.19751295 0.11275168 -0.21381827 0.104718745
0.16358207 -0.002573802 -0.048316468 -0.1831916 -0.19335628 0.18199803 -0.006747693 0.109998025
0.10708696 -0.22900279 0.039281577 -0.16325533 -0.20594278 -0.09700526 -0.16498588 0.09539868
-0.040505074 -0.07223818 0.15298127 -0.24747638 -0.101001024 0.18521751 0.16443181 -0.03794407
-0.007306648 -0.04207262 -0.06493325 -0.2688664 0.10989907 0.016396822 -0.09355257 0.031396907
00000000: 2771 143d 3c80 163d 88f8 ec3b 423b eb3d
00000010: 2709 b33d 4701 6f3e 2894 543e 63df 3b3e
00000020: 2197 81bc 93dc 2a3d e36a 903d 2378 95bd
00000030: c7c0 3f3d 5fd8 19be f368 033e 50dc 643e
00000040: 244a 203e 48db f9bc a8a7 28bd ed6f 5c3e
00000050: 22e6 db3d 7353 3f3e 504e 2d3e 7337 113e
00000060: 9020 57be fac6 6fbe 87cc 743d 09ed 1f3e
00000070: a8e7 6dbe df3d 753e e89f d73b d0ec 36be
00000080: 3f5a 5b3e bf44 96bc 8879 0fbe bf3c 55be
00000090: daa5 dfbd 7752 0bbe 5be5 233d d52e 503a
000000a0: 2327 1bbe 52af 0b3e a238 333e aa56 59bd
000000b0: f1f5 2bbd 052c 253e 2084 09be 03f1 7c3d
000000c0: 1859 66bd 725f 23be b931 0c3d face 5a3e
000000d0: 78a2 96bd f7c6 17be 2bcf bb3d b3a9 a23d
000000e0: 8ffc 923d 57c7 fdbd 50fe 2e3e f554 15bd
000000f0: 6f75 8fbe 45f8 b13d c9f9 243e eaf1 513e
00000100: afd0 20be 1d00 293d 0008 533e efa5 cc3d
00000110: f735 f23d 88db 67be 07af ccbd 9735 08be
00000120: 1f8b 5cbd 2964 25be 82d3 0f3e 18ff 3e3d
00000130: 43a9 80be 1b54 3c3e fa73 d53d ed87 79be
00000140: b3c8 47bd d365 f63d 185b 10be 3a88 4e3c
00000150: 37d0 a83d 2770 71bd 0a6c 86be 8916 00be
00000160: 5788 6f3c 7a42 76be 932c 6a3e b2ca c2bd
00000170: 5bd1 113e 4a60 6abe ab31 193d 0f35 543e
00000180: cd6b 603e fa5e dd3d 67d3 28be 6d97 6bbc
00000190: 55f3 5f3c b033 523e a7c8 26be b6dc 8f3c
000001a0: 0735 99bd 068e 2e3e 3f42 073e b7bb 5dbd
000001b0: 067c 1ebe eb2f 4dbe 6dde 6bbe c1d0 b23d
000001c0: a78b 1abd 7fbe fa3d 2c33 1b3b e15a 21be
000001d0: 60ba 503d d031 2ebe 83be f7bc 6b49 3d3e
000001e0: b2a5 3bbd 72ec 4dbe 1718 1e3e a1ed 81bd
000001f0: c274 01be 8b01 1dbe ef3f eabc 59ee 8e3e
00000200: cb25 1b3e 5525 683e f0c8 c13d c222 363e
00000210: bffc 77bd b544 c03d 525f 24be 5d23 df3c
00000220: 0d23 0fbe c61f 42be 72b0 aa3d 14b0 493e
00000230: 2577 29be d209 fbbd aad9 4dbe 4dab d5bd
00000240: c23c cfbc 6511 873d 97e9 73be 0b96 a9bd
00000250: b3f9 b7bd 53f3 743d 2274 da3d 75d2 c7bb
00000260: b04c 9ebd fa4c 54be 5e83 1bbd 68aa 113d
00000270: d597 d53d f372 7b3e 11b6 153e 331a abbd
00000280: 2f3f e13d 6b03 97bc 074d 53be f28c 523e
00000290: 5cc7 0d3e 1f33 3cbe 39c0 223e 6d22 f23b
000002a0: cf40 68be 0a49 39be 9742 723a 5839 de3d
000002b0: ba4e 553d 0b92 7b3e 33aa 56be 208a 533e
000002c0: a39a 283d 6396 633e 31d3 00be 6348 3fbe
000002d0: 44bc 10be 6bb4 883d 778a f9bd 1855 263d
000002e0: 97ac a33d efa2 cebd a3e1 ec3d f320 7abe
000002f0: f390 e03d 277b 433c 4908 063e fd8e ec3d
00000300: 9ac3 c23d 681c 19bd 875d 693e 981d 13be
00000310: b431 9fbd 3f6f 9dbd c524 593e 1b6f 7dbd
00000320: aff3 0a3e 8dc3 313d 7f61 073e ab48 8dbe
00000330: 43de 6d3e c697 033c 9aa0 77bd c7e7 63bc
00000340: 774f 6e3e 9031 8a3c 076a 46be 8ef1 b3bc
00000350: 9ac8 48bd c88b 7a3d 33b9 11bd 1389 24be
00000360: 25b1 26be d3bc 60be 5db5 f33c 1b40 20be
00000370: d640 4a3e 5aea e63d 2df3 5abe c876 d63d
00000380: 0f82 273e 3bad 28bb 7de7 45bd 9496 3bbe
00000390: 30ff 45be b15d 3a3e c01b ddbb a546 e13d
000003a0: 6850 db3d b57f 6abe b8e5 203d 682c 27be
000003b0: aae2 52be b2aa c6bd 0ff2 28be 6260 c33d
000003c0: a6e8 25bd 9cf1 93bd 1fa7 1c3e 736a 7dbe
000003d0: a0d9 cebd a9a9 3d3e d060 283e 3e6b 1bbd
000003e0: 9b6c efbb 5754 2cbd b9fb 84bd dba8 89be
000003f0: c312 e13d a152 863c 7d98 bfbd 0b9a 003d

Conv2DType3_Batchnorm.norm.weight f4 [16]
0.988207 1.0120672 1.008723 0.96183646 0.985668 0.969515 0.9669514 1.0056146
1.0077213 1.0398117 0.9916474 1.0003759 0.9707363 1.0279847 1.0211781 0.97284853
00000000: 22fb 7c3f 6b8b 813f d61d 813f ea3a 763f
00000010: bd54 7c3f 2332 783f 208a 773f fbb7 803f
00000020: 03fd 803f 8d18 853f 9bdc 7d3f 510c 803f
00000030: 2d82 783f 0195 833f f7b5 823f 9a0c 793f

Conv2DType3_Batchnorm.norm.bias f4 [16]
9.551221e-06 9.816065e-06 -1.7631302e-05 -9.690358e-07 -2.6709933e-05 1.383791e-07 -8.739055e-06 5.079046e-06
-4.9135106e-06 -1.1913732e-05 9.4771995e-06 8.7854705e-06 -1.6372644e-06 -1.9830679e-05 -1.7689037e-05 -1.3650726e-06
00000000: 2f3e 2037 aeaf 2437 efe6 93b7 d10f 82b5
00000010: 250f e0b7 5b95 1434 f59d 12b7 ac6c aa36
00000020: bcde a4b6 17e1 47b7 4300 1f37 4f65 1337
00000030: fabf dbb5 0f5a a6b7 eb62 94b7 8a37 b7b5

Conv2DType3_Batchnorm.norm.running_mean f4 [16]
0.05928756 0.0024028048 -0.012412383 0.15123133 0.026186181 0.020920575 -0.026526943 0.13770886
0.0035127252 -0.05642262 0.05158205 -0.02434255 -0.100493334 -0.12781273 -0.03542919 -0.12279985
00000000: 83d7 723d 6078 1d3b 4f5d 4bbc 63dc 1a3e
00000010: 6784 d63c a061 ab3c 084f d9bc 8d03 0d3e
00000020: c035 663b 681b 67bd b347 533d 076a c7bc
00000030: 73cf cdbd 57e1 02be 331e 11bd 7d7e fbbd

Conv2DType3_Batchnorm.norm.running_var f4 [16]
0.056377243 0.095361464 0.05220607 0.06999227 0.10437967 0.09747071 0.09060082 0.055200156
0.14187625 0.037242856 0.07229868 0.059533156 0.12855707 0.072029136 0.052778434 0.13001226
00000000: d3eb 663d df4c c33d 08d6 553d 1b58 8f3d
00000010: 02c5 d53d b99e c73d ec8c b93d 8f19 623d
00000020: 0248 113e f78b 183d 5511 943d 0ad9 733d
00000030: 77a4 033e 0384 933d 332e 583d ef21 053e

Conv2DType4_depthwise.conv.weight f4 [16, 16, 1, 15]
-2.4481175e-38 -7.726584e-34 2.4687907e-08 -0.0003866318 8.9420115e-05 -7.294954e-10 -2.6869999e-05 -0.037067678
-0.000109507346 -6.716669e-13 -1.2156671e-36 0.0015973746 -0.0030449915 -5.3581606e-19 0.00041896242 -0.00027137145
0.000702206 2.4121837e-06 -3.9135466e-05 -0.0012869544 -4.1218445e-05 -0.001020978 0.057867754 4.4322914e-18
-0.0018726563 -4.9712955e-12 -0.0017324698 -6.4286855e-06 0.0002382566 -0.0030415852 -4.4232565e-06 2.307366e-21
-3.326495e-05 2.6703253e-06 3.2954568e-07 -5.2745586e-06 -0.0011746315 0.019801535 -0.00043285103 0.0003754323
4.962652e-09 1.9553334e-05 0.0009029107 9.727625e-06 9.378867e-07 0.00058999564 -1.6729957e-06 5.8814738e-05
-0.00046516955 1.462075e-05 1.5774738e-10 -4.448113e-11 -0.007891488 5.0314e-40 6.833216e-09 -1.5576758e-05
8.0193885e-08 -7.54859e-07 0.00017097114 -0.00065171433 4.93061e-40 5.888498e-13 -0.00059204287 -6.1673522e-12
-0.002247785 4.9783e-40 -2.5204115e-06 0.033317227 2.7119823e-08 -4.8806415e-12 -0.0023857576 -1.4447172e-06
3.1852849e-06 -0.0003111763 -7.2552184e-06 -6.049088e-29 -4.53406e-23 -1.7523479e-06 6.24733e-14 -3.1424107e-24
-6.020381e-11 0.0013274559 0.045068093 0.000116109 -0.00020570797 0.00033477857 -0.0009033965 0.0015996111
-9.42285e-10 6.2429485e-06 -3.5906454e-05 0.0011791193 -4.92174e-40 -4.90523e-40 2.3545036e-07 -4.91065e-40
-0.0011921813 0.017715188 -1.3416387e-05 1.0282316e-06 -4.0950672e-05 4.8165997e-08 0.0019106496 0.0017044105
0.002654434 3.6355443e-05 4.91271e-40 -7.244687e-29 -0.00035644035 1.2344748e-32 -2.5303412e-05 4.9307e-40
0.037399124 1.9615667e-08 0.001818099 -0.00013085353 2.610446e-11 1.4118583e-09 -4.80514e-40 0.0011737485
0.002279725 -1.5324227e-05 1.2235324e-07 -1.8445224e-05 -9.144038e-05 1.5823041e-05 -0.0015876703 0.03637062
-7.702542e-19 -4.2092992e-07 9.065147e-06 -2.4508455e-07 -0.0018689985 -5.3837257e-10 -8.962313e-16 2.2413625e-13
9.592319e-06 0.00053291366 0.0016041686 2.534002e-24 -0.0002779023 3.8314506e-15 0.06776897 8.1376946e-13
0.0004949507 -2.7959697e-30 2.0661199e-07 1.0734471e-05 0.000370912 -0.0025873436 -4.94145e-40 0.00010301425
9.415139e-05 4.91071e-40 -1.0205835e-11 -0.00024157336 -4.95383e-40 0.038629342 0.0022778907 -2.6350637e-18
-4.94971e-40 -0.0020006157 -2.7493966e-19 -0.0016842056 0.000559725 -0.0016021548 -1.6278667e-13 7.021173e-05
-0.00015324554 1.5955092e-06 0.00047107926 6.5636115e-05 0.052740026 7.392804e-09 2.1011914e-08 -0.0005232352
4.98526e-40 2.0471519e-11 -4.6563615e-05 -0.0008327567 8.5615194e-19 -5.577182e-07 -5.4407243e-05 0.0013787753
-0.0007594467 -6.647305e-05 -0.00040461743 0.030918494 1.0430458e-25 1.3988741e-06 5.4693345e-07 -4.6660315e-08
-2.3644642e-14 -6.378225e-07 2.4917488e-11 7.709022e-09 -4.157483e-07 0.00029082719 0.00011322445 0.00076685933
-4.7423416e-36 -0.001973077 0.048673224 1.0294698e-18 -2.1036942e-05 -0.0023280492 -4.92037e-40 2.4419862e-07
-3.9842755e-05 -0.00045927972 0.000114919785 0.0025079555 -0.0006791448 0.0027808587 4.4713288e-35 0.0004581281
-1.2823179e-08 0.06836676 0.00012783865 4.9385e-40 -1.581952e-26 -0.0005985819 -7.868783e-07 -8.475307e-09
-0.002399554 3.1200075e-06 4.7453136e-06 -0.00053779484 7.6324044e-29 4.91915e-40 -1.9378551e-06 -3.6876226e-19
-0.031348977 4.95125e-40 -0.0013032405 -0.0009115613 0.0006818378 1.0473388e-12 2.791682e-05 6.827102e-11
-8.528609e-10 -1.4443885e-06 0.00058424997 -8.6757694e-17 -1.7828155e-33 -9.228064e-08 0.0019623036 -0.042052362
-9.439495e-07 -0.00022160237 2.4437618e-34 3.9074432e-16 5.996227e-07 -2.0728117e-24 9.950287e-08 -0.00013697094
00000000: c749 0581 4161 8088 4811 d432 d7b4 cab9
00000010: 0f87 bb38 ad85 48b0 e266 e1b7 47d4 17bd
00000020: 4fa7 e5b8 b30e 3dab c5d5 ce83 ff5e d13a
00000030: 7b8e 47bb 1e25 1ea1 2fa8 db39 dc46 8eb9
00000040: 3f14 383a 00e1 2136 6325 24b8 06af a8ba
00000050: f8e1 2cb8 56d2 85ba bd06 6d3d cf85 a322
00000060: eb73 f5ba 73e9 aeac 0a14 e3ba fdb5 d7b6
00000070: 85d4 7939 5555 47bb 7c6b 94b6 f356 2e1d
00000080: f885 0bb8 d733 3336 6aec b034 1dfc b0b6
00000090: 18f6 99ba d436 a23c 48f0 e2b9 acd5 c439
000000a0: f383 aa31 7706 a437 50b1 6c3a d533 2337
000000b0: 15c3 7b35 f0a9 1a3a b28b e0b5 d8af 7638
000000c0: 00e2 f3b9 a54b 7537 f171 2d2f 4da1 43ae
000000d0: 4d4b 01bc 8d7a 0500 9bc9 ea31 d5aa 82b7
000000e0: 0e37 ac33 84a1 4ab5 b746 3339 cfd7 2aba
000000f0: 745e 0500 1abf 252b 5333 1bba 92fe d8ac
00000100: 934f 13bb bf6b 0500 5724 29b6 a577 083d
00000110: 1ff5 e832 e9b8 abac 5f5a 1cbb 1be8 c1b5
00000120: c7c2 5536 6025 a3b9 da71 f3b6 d35c 9990
00000130: f240 5b9a 3732 ebb5 68ad 8c29 db21 7398
00000140: bb63 84ae 07fe ad3a 5299 383d 8b7f f338
00000150: 50b3 57b9 3885 af39 ead1 6cba 0baa d13a
00000160: b581 81b0 857a d136 439a 16b8 ae8c 9a3a
00000170: fb5b 0580 6157 0580 1ad0 7c34 e458 0580
00000180: f742 9cba 711f 913c f216 61b7 c501 8a35
00000190: 73c2 2bb8 13df 4e33 c36e fa3a 8766 df3a
000001a0: 03f6 2d3b 5c7c 1838 7759 0500 b5ac b790
000001b0: 9de0 bab9 f831 800a aa42 d4b7 7b5e 0500
000001c0: d32f 193d 4f7f a832 474d ee3a ba35 09b9
000001d0: 059e e52d 590b c230 7a3b 0580 77d8 993a
000001e0: 7067 153b 878c 80b7 3460 0334 d1ba 9ab7
000001f0: aec3 bfb8 b9bb 8437 6019 d0ba 5cf9 143d
00000200: c356 63a1 2bfc e1b4 8316 1837 2a94 83b4
00000210: 2ff9 f4ba 9afc 13b0 1929 81a6 e05a 7c2a
00000220: b2ee 2037 3bb3 0b3a f742 d23a 150f 4418
00000230: 6ab3 91b9 e50a 8a27 75ca 8a3d 450e 652b
00000240: 94bf 013a 05d6 628e 12d9 5d34 3418 3437
00000250: f776 c239 6c90 29bb 7a61 0580 5b09 d838
00000260: 2573 c538 e858 0500 ff8a 33ad db4e 7db9
00000270: ed64 0580 cd39 1e3d aa48 153b f26e 42a2
00000280: c763 0580 c31c 03bb b54b a2a0 90c0 dcba
00000290: 82ba 123a 65ff d1ba 1048 37aa a33e 9338
000002a0: 89b0 20b9 4725 d635 30fb f639 1fa6 8938
000002b0: ed05 583d cb03 fe31 b07d b432 b829 09ba
000002c0: b06d 0500 c311 b42d 4d4d 43b8 5b4d 5aba
000002d0: 03b1 7c21 1ab6 15b5 5533 64b8 06b8 b43a
000002e0: 9b15 47ba 7267 8bb8 d522 d4b9 c848 fd3c
000002f0: 711f 0116 f3c0 bb35 fbd0 1235 8f67 48b3
00000300: d5f8 d4a8 d436 2bb5 322d db2d a370 0432
00000310: 0334 dfb4 2a7a 9839 ea72 ed38 0f07 493a
00000320: 87b7 c984 bd4e 01bb 935d 473d 45ec 9721
00000330: 7d78 b0b7 2f92 18bb 995b 0580 671a 8334
00000340: d51c 27b8 7bcb f0b9 1701 f138 835c 243b
00000350: a308 32ba 113f 363b 93bc 6d06 ea30 f039
00000360: f04c 5cb2 df03 8c3d 6d0c 0639 a760 0500
00000370: 3fab 9c94 27ea 1cba dd39 53b5 cb9a 11b2
00000380: d641 1dbb 5261 5136 ef39 9f36 cdfa 0cba
00000390: 2381 c110 425b 0500 190c 02b6 c7ad d9a0
000003a0: c967 00bd 3564 0500 7fd1 aaba d8f5 6eba
000003b0: 5cbd 323a 5b66 932b ea2e ea37 2b21 962e
000003c0: c06e 6ab0 d0dc c1b5 5a28 193a b40c c8a4
000003d0: 4b1c 1489 d12b c6b3 fe99 003b 193f 2cbd
000003e0: b763 7db5 ef5d 68b9 746a a207 af3f e125
000003f0: c2f5 2035 4460 2098 48ae d533 db9f 0fb9

Conv2DType4_pointwise.conv.weight f4 [16, 16, 1, 1]
-0.103194274 0.019594682 -0.18956292 -0.051323082 0.1202554 -0.23609658 -0.0144502325 0.072980665
0.21277447 -0.23218976 0.16961917 0.051324636 0.08047523 -0.1703829 0.22740369 0.08605548
0.06488842 0.14165124 -0.0882398 0.2223926 0.009871241 -0.029869828 0.01388331 0.20265059
-0.13204579 -0.019304726 -0.073534906 -0.12060046 -0.12027242 0.07017398 0.09350725 0.005154367
0.107802704 -0.06771422 -0.18126738 -0.2066038 -0.0055697598 -0.22081964 0.21065386 0.115716495
-0.13506597 0.14975022 -0.127174 0.29212022 -0.16487889 0.026167253 -0.25324938 0.16400886
0.15974744 0.21954446 -0.22964714 0.2196574 0.2309253 0.010663548 -0.16870664 0.08807405
-0.008518501 0.2411712 -0.019830158 0.070623524 0.108549714 0.09577481 0.1295366 -0.22343424
0.14490011 -0.04240944 0.11850426 0.21064894 -0.12216967 -0.021954862 0.23783858 0.22932394
-0.1587863 0.084756844 -0.016041586 -0.21472362 0.072373904 0.006331758 -0.006219336 0.17473955
0.08297662 -0.057547312 0.14918758 -0.052433528 -0.16915973 0.12676863 -0.09121049 0.26053375
0.048970114 0.08824393 -0.07611316 -0.040409576 0.14612983 0.015269584 -0.15520029 -0.08722597
0.035357933 0.084391356 0.14247404 0.22511414 0.108121894 -0.14256786 0.15892921 0.058840413
0.20209916 0.021933755 0.22376311 0.2750686 0.02734693 -0.19113897 -0.16954616 0.10502887
0.16636956 0.23720573 0.21659295 -0.05834284 -0.048345484 -0.11700513 0.2561804 0.10027466
0.22944358 -0.1400086 -0.14721762 0.026692554 0.14255664 0.12486688 0.050867964 -0.18413995
-0.017291078 -0.12217996 -0.06613316 0.19828504 0.059532482 0.1443686 0.06118086 0.029762274
0.052613463 0.080393784 -0.14200453 0.115794115 -0.110777974 -0.00019510624 -0.22469293 0.05421984
-0.22562806 0.10530313 -0.08139499 0.17853978 0.023445457 -0.14163728 0.018759087 -0.22629347
0.22248054 0.034461632 -0.009071477 0.025015742 -0.25036797 0.03278215 0.06328579 0.15806912
0.29496083 0.2596044 -0.11933809 -0.11597847 -0.19951063 -0.046781298 0.15203278 -0.13724156
-0.08129507 0.23082855 0.0076705487 0.12401471 0.0037388005 0.03245798 0.085830964 -0.21519943
-0.015691748 -0.12801504 0.016063476 -0.12978707 -0.0034753382 -0.2249393 0.1882959 0.051768165
-0.018886292 -0.004017437 -0.1901598 -0.2559781 0.2036045 -0.09964313 -0.04431981 0.042550594
-0.0823969 -0.052699514 -0.19041261 0.17785546 -0.23319867 0.1834742 -0.108510695 -0.15590276
-0.2002031 0.12762912 -0.20686702 -0.07290405 -0.25472113 -0.054296415 -0.1744857 0.013600911
0.10623391 -0.074615054 -0.22832923 0.043143515 -0.19383757 -0.16061918 0.1475938 0.11787534
-0.04860876 -0.24950087 -0.034686662 -0.15431385 0.22952199 -0.1990637 0.1454034 0.1303489
0.08052371 0.20474198 -0.1975518 0.23373654 -0.06265165 -0.16033326 0.03972652 0.23471045
-0.043016672 -0.08791655 -0.13606526 -0.25722882 -0.0016384488 -0.18095978 -0.18049017 -0.20641373
0.22095099 0.07657421 -0.13006115 0.046702847 0.18739226 -0.15418556 -0.08821527 0.24461213
0.047505315 0.16968869 0.09797479 0.03287855 0.13998684 0.06995799 -0.06009028 -0.09275747
00000000: 8557 d3bd 0785 a03c c81c 42be 2738 52bd
00000010: 7748 f63d 4dc3 71be abc0 6cbc e376 953d
00000020: 8de1 593e 27c3 6dbe a6b0 2d3e c839 523d
00000030: 33d0 a43d db78 2ebe 83dc 683e db3d b03d
00000040: 38e4 843d 060d 113e 11b7 b4bd e3ba 633e
00000050: fcba 213c 92b1 f4bc d376 633c a383 4f3e
00000060: 0337 07be f224 9ebc 7899 96bd 60fd f6bd
00000070: 6351 f6bd 60b7 8f3d bb80 bf3d f7e5 a83b
00000080: aac7 dc3d c1ad 8abd 289e 39be f28f 53be
00000090: 8882 b6bb 8b1e 62be a5b5 573e c5fc ec3d
000000a0: bc4e 0abe 1f58 193e e739 02be c890 953e
000000b0: 03d6 28be b55c d63c e7a9 81be f0f1 273e
000000c0: d594 233e 43d0 603e 9f28 6bbe dfed 603e
000000d0: af77 6c3e 29b6 2e3c 6fc1 2cbe 2b60 b43d
000000e0: 2f91 0bbc 95f5 763e db72 a2bc 11a3 903d
000000f0: 504f de3d 9525 c43d 3ea5 043e f2cb 64be
00000100: b260 143e 85b5 2dbd 5db2 f23d 5bb4 573e
00000110: 1834 fabd afda b3bc f58b 733e e5d3 6a3e
00000120: e098 22be ff94 ad3d a569 83bc 82e0 5bbe
00000130: c538 943d a37a cf3b 92cb cbbb edee 323e
00000140: a5ef a93d bbb6 6bbd a1c4 183e 8ac4 56bd
00000150: 3538 2dbe a3cf 013e 91cc babd ae64 853e
00000160: e394 483d 3cb9 b43d 37e1 9bbd 8384 25bd
00000170: 0fa3 153e 472d 7a3c d3ec 1ebe 88a3 b2bd
00000180: 7bd3 103d 60d5 ac3d b7e4 113e 5284 663e
00000190: 036f dd3d 4ffd 11be 57be 223e a502 713d
000001a0: 15f3 4e3e 6bae b33c 2822 653e cbd5 8c3e
000001b0: ab06 e03c efb9 43be 829d 2dbe 6019 d73d
000001c0: c85c 2a3e 0fe6 723e 8bca 5d3e e7f8 6ebd
000001d0: ea05 46bd 63a0 efbd 142a 833e cd5c cd3d
000001e0: 42f3 6a3e 6a5e 0fbe 37c0 16be 58aa da3c
000001f0: 5efa 113e 35ba ff3d ed5a 503d 2f8f 3cbe
00000200: 05a6 8dbc 7d39 fabd d270 87bd 3c0b 4b3e
00000210: 55d8 733d 5dd5 133e c898 7a3d 03d0 f33c
00000220: 3781 573d 7fa5 a43d a369 11be 7725 ed3d
00000230: 90df e2bd 6f95 4cb9 e715 66be 9f15 5e3d
00000240: 0b0b 67be 2ba9 d73d 6bb2 a6bd 22d3 363e
00000250: b010 c03c 5d09 11be a8ac 993c 7ab9 67be
00000260: f0d1 633e a427 0d3d 88a0 14bc d0ed cc3c
00000270: 3b30 80be 9346 063d fb9b 813d dfdc 213e
00000280: 1b05 973e deea 843e 8767 f4bd 1f86 edbd
00000290: 844c 4cbe bf9d 3fbd 7bae 1b3e 0d89 0cbe
000002a0: 087e a6bd 525e 6c3e 3a59 fb3b 6dfb fd3d
000002b0: aa06 753b a9f2 043d 25c8 af3d 3d5d 5cbe
000002c0: fb8b 80bc 6016 03be 8d97 833c e7e6 04be
000002d0: 80c2 63bb 7d56 66be a4d0 403e db0a 543d
000002e0: 6db7 9abc b4a4 83bb 40b9 42be 900f 83be
000002f0: b37d 503e b311 ccbd b088 35bd 8849 2e3d
00000300: b5bf a8bd 72db 57bd 86fb 42be be1f 363e
00000310: a2cb 6ebe a9e0 3b3e db3a debd f9a4 1fbe
00000320: 0b02 4dbe 35b1 023e f3d4 53be b84e 95bd
00000330: cf6a 82be eb65 5ebd 61ac 32be 5bd6 5e3c
00000340: 2a91 d93d c7cf 98bd 23cf 69be 41b7 303d
00000350: 5b7d 46be 5b79 24be d422 173e a068 f13d
00000360: fb19 47bd 287d 7fbe 9a13 0ebd 7304 1ebe
00000370: d007 6b3e 5bd7 4bbe a1e4 143e 2f7a 053e
00000380: 9de9 a43d e2a7 513e 054b 4abe a258 6f3e
00000390: 824f 80bd 672e 24be 47b8 223d f057 703e
000003a0: 4032 30bd 980d b4bd b154 0bbe 7fb3 83be
000003b0: 38c1 d6ba 854d 39be 6ad2 38be 1f5e 53be
000003c0: fa40 623e f0d2 9c3d c02e 05be 7c4b 3f3d
000003d0: c2e3 3f3e d2e2 1dbe 35aa b4bd 9a7b 7a3e
000003e0: ef94 423d dfc2 2d3e 02a7 c83d a9ab 063d
000003f0: b658 0f3e 2246 8f3d 3a21 76bd a1f7 bdbd

Conv2DType4_Batchnorm.norm.weight f4 [16]
1.1565654 1.1580158 1.1625108 1.1514977 1.1553051 1.1561415 1.1566482 1.1528907
1.1564273 1.1677979 1.157472 1.1558412 1.1537188 1.1591076 1.1534904 1.1501131
00000000: 560a 943f dd39 943f 27cd 943f 4764 933f
00000010: 0ae1 933f 72fc 933f 0c0d 943f ec91 933f
00000020: cf05 943f 677a 953f 0b28 943f 9bf2 933f
00000030: 0fad 933f a35d 943f 93a5 933f e836 933f

Conv2DType4_Batchnorm.norm.bias f4 [16]
0.13353759 0.1317992 0.1379215 0.12240062 0.11961279 0.12468707 0.14502531 0.12153381
0.12966605 0.14950852 0.12422838 0.11577745 0.13382678 0.12485593 0.12127649 0.12328118
00000000: 14be 083e 5ff6 063e 4b3b 0d3e 2dad fa3d
00000010: 8df7 f43d ef5b ff3d 8481 143e b8e6 f83d
00000020: 2dc7 043e c318 193e 736b fe3d ba1c ed3d
00000030: e309 093e 77b4 ff3d cf5f f83d d87a fc3d

Conv2DType4_Batchnorm.norm.running_mean f4 [16]
1.1814312e-06 -1.4220767e-06 1.7578805e-06 -1.526555e-06 -2.9032703e-06 -1.6005715e-06 1.0157504e-06 -1.7003482e-06
1.310499e-06 1.8760813e-06 -1.6728978e-06 -1.5187369e-06 5.261879e-07 -1.5939713e-06 -2.0859932e-06 -1.3069903e-06
00000000: ab91 9e35 2fde beb5 50f0 eb35 08e4 ccb5
00000010: ced5 42b6 38d3 d6b5 eb54 8835 8537 e4b5
00000020: 67e4 af35 aacd fb35 5588 e0b5 67d7 cbb5
00000030: 5b3f 0d35 70f0 d5b5 17fd 0bb6 d86b afb5

Conv2DType4_Batchnorm.norm.running_var f4 [16]
0.0046386058 0.02197721 0.013541703 0.01647666 0.042037867 0.023453027 0.024098663 0.03915774
0.011871086 0.02792418 0.018778643 0.016646912 0.0028884192 0.023468738 0.04618169 0.014736782
00000000: 72ff 973b 8d09 b43c 05de 5d3c 0ffa 863c
00000010: e62f 2c3d 9020 c03c 8f6a c53c de63 203d
00000020: f27e 423c 40c1 e43c abd5 993c 1b5f 883c
00000030: a24b 3d3b 8341 c03c 0329 3d3d 8b72 713c
