benchmarks/MOABB/results/MotorImagery/BNCI2014001/NonResidualEEGModel/run3/16939/leave-one-session-out/sub-002/0train/save/CKPT+2024-04-20+22-23-23+00/model.ckpt (torch, 101663 bytes, 29 tensors)

Conv2DType0_Batchnorm.norm.weight f4 [8]
0	0x3f7f6572	0.9976417
1	0x3f7fb208	0.9988103
2	0x3f7fa5b0	0.99862194
3	0x3f805361	1.0025445
4	0x3f80d34e	1.0064485
5	0x3f807690	1.0036182
6	0x3f7fb8d0	0.99891376
7	0x3f7ea03a	0.99463236

Conv2DType0_Batchnorm.norm.bias f4 [8]
0	0xbc24decf	-0.010062887
1	0x3d220c76	0.039562665
2	0x3c9388a7	0.018009497
3	0xbafc9a03	-0.0019271973
4	0xbd0467af	-0.032325443
5	0x3d1a3862	0.037651427
6	0x3d88039a	0.06641312
7	0xbc93fe37	-0.018065555

Conv2DType0_Batchnorm.norm.running_mean f4 [8]
0	0xadd99562	-2.4736383e-11
1	0xaca54727	-4.6974816e-12
2	0x2d089b67	7.765211e-12
3	0xae3b8f75	-4.2646293e-11
4	0xadb71204	-2.0812692e-11
5	0x2ba96507	1.2036213e-12
6	0xaee616c7	-1.0463235e-10
7	0x2e1cd3f8	3.565856e-11

Conv2DType0_Batchnorm.norm.running_var f4 [8]
0	0x3c7762a5	0.015099202
1	0x3cb501b3	0.022095537
2	0x3c872594	0.01649741
3	0x3db7aa86	0.08968072
4	0x3c1eadd6	0.009685
5	0x3d2948bb	0.041329127
6	0x3e84f8b3	0.25970992
7	0x3d88d83f	0.06681871

Conv2DType1_cnn.conv.weight f4 [8, 8, 1, 51]
0	0xb9d34a33	-0.0004030034
1	0x80061410	-5.5821e-40
2	0xb64eaaff	-3.0795925e-06
3	0xb9e3a8a5	-0.00043422464
4	0xb4c70cde	-3.7076e-07
5	0x84c3bf71	-4.602009e-36
6	0x000f55f7	1.408371e-39
7	0xb83364cf	-4.277081e-05
8	0x396434c8	0.00021763437
9	0xbc5a80d7	-0.013336382
10	0x3be325a2	0.0069319764
11	0x3d33fa87	0.043940093
12	0xba8924ab	-0.0010463198
13	0xba06cbcc	-0.00051420624
14	0xbd39b3f1	-0.04533762
15	0xbbea5338	-0.0071510337
16	0x3ca4be13	0.020110166
17	0xba835718	-0.0010020463
18	0x3b35ae25	0.0027722206
19	0xbc459b7b	-0.012060995
20	0x3d06fa0b	0.032953303
21	0xbcc8d134	-0.024513818
22	0x3ba8a174	0.0051462
23	0x3c86e926	0.016468596
24	0x3bf35ed7	0.0074270773
25	0x3c2bb5c4	0.010480348
26	0x3c93896e	0.018009868
27	0x3cb05c75	0.021528462
28	0xbb94a6ad	-0.004536471
29	0xb842ca98	-4.6441884e-05
30	0x3d2832fc	0.041064247
31	0xbd28fa6b	-0.041254442
32	0x3ca2ed40	0.01988852
33	0xbc9f8967	-0.019474698
34	0xbd304a2b	-0.043039482
35	0x3d3ba140	0.045808077
36	0xbb520d5a	-0.0032051415
37	0xbcadf2ec	-0.021233998
38	0xbb2db1ec	-0.0026503755
39	0x3b21a55d	0.0024665215
40	0xbc75881b	-0.014986063
41	0x3cf690e7	0.030098392
42	0xba021bc5	-0.00049632444
43	0x8005598f	-4.91305e-40
44	0x9e789177	-1.3159092e-20
45	0x3965e36a	0.0002192386
46	0xba02188d	-0.0004962765
47	0xa4f66ead	-1.06872986e-16
48	0x38989717	7.2760675e-05
49	0xb9a4270b	-0.00031309607
50	0x39829e6b	0.00024913563
51	0x390af94f	0.0001325358
52	0xb6973e6b	-4.507417e-06
53	0x3780801f	1.531845e-05
54	0x24f21ce7	1.0499973e-16
55	0x9fa320cb	-6.9087437e-20
56	0xb60047d1	-1.911529e-06
57	0xb9fec480	-0.0004859306
58	0x211183fb	4.9302586e-19
59	0x389357f5	7.0258895e-05
60	0xbb17ce76	-0.0023163832
61	0x3cedb065	0.029014776
62	0xbd2edb05	-0.042689342
63	0xbcf70da7	-0.030157877
64	0xbc15cfbf	-0.009143769
65	0x3cdb827a	0.026795615
66	0x3c5a83bb	0.013337071
67	0xbd0818e6	-0.03322687
68	0x3d1e4304	0.03863813
69	0xbc993957	-0.0187041
70	0x3c483e3f	0.012221872
71	0x3c386d87	0.011256582
72	0x3d04b680	0.032400608
73	0x3d41e7b4	0.04734011
74	0xbd02fa83	-0.031977188
75	0x3d259030	0.04042071
76	0xbd36b2ea	-0.04460422
77	0x3cf4c7cb	0.029880425
78	0xbcb5097c	-0.022099249
79	0xbca0514e	-0.01957002
80	0x3d0d4884	0.034492984
81	0xbd42f470	-0.047596395
82	0x3c68daf2	0.014212357
83	0x3cd0bb9d	0.025480086
84	0xbc29fe03	-0.0103755025
85	0xbd2ff9a3	-0.04296268
86	0x3d217905	0.039422054
87	0x3cf0e213	0.029404676
88	0xbd03ed13	-0.032208513
89	0xbd1746c2	-0.036932714
90	0xbcd9a375	-0.0265672
91	0xbc91bf83	-0.017791515
92	0x3be5a6f7	0.007008429
93	0xb8991c7a	-7.300913e-05
94	0x80055af7	-4.9181e-40
95	0x36e48a77	6.811049e-06
96	0xb561a587	-8.4059906e-07
97	0xb07d797b	-9.22135e-10
98	0x9def3872	-6.3321136e-21
99	0x2d6028b2	1.2741962e-11
100	0xa406870f	-2.9171017e-17
101	0xaca0c17f	-4.568956e-12
102	0x33e186cf	1.05019005e-07
103	0x800562f9	-4.94682e-40
104	0x2d5c201d	1.2512683e-11
105	0xb6a3cc6f	-4.8815778e-06
106	0x909e1faa	-6.23688e-29
107	0x00055d7b	4.92712e-40
108	0x38f8a282	0.00011855831
109	0xb81c3d93	-3.7250644e-05
110	0x000c2840	1.116465e-39
111	0x3cffc14f	0.031220106
112	0x3ca23789	0.019801872
113	0x3d2df1fb	0.0424671
114	0xbb90f1c5	-0.0044233524
115	0x3d0a9c5b	0.03384052
116	0xbc566d07	-0.013087518
117	0x3cbaaa7d	0.022786373
118	0xbcfd2e18	-0.030905768
119	0x3be8d72d	0.007105729
120	0x3d2cee87	0.042219665
121	0xbc31106b	-0.010807137
122	0xbcf4143a	-0.029794801
123	0x3c5834b3	0.013196158
124	0x3b543460	0.003237985
125	0xbc36e2d3	-0.011162478
126	0xbd2aaaed	-0.041666914
127	0x3d49994e	0.04921847
128	0x3cb2d252	0.021828804
129	0xbc5a0333	-0.013306427
130	0x3c85ea4d	0.016347075
131	0xbcbe2eb5	-0.023215631
132	0xbcd98b12	-0.026555572
133	0x3cf05670	0.029338092
134	0xbcd12102	-0.025528435
135	0xbca769ca	-0.020436186
136	0x3d645d0a	0.05575279
137	0xbd22a48d	-0.03970771
138	0x3cb33aaa	0.02187856
139	0xbceaf6cb	-0.028682133
140	0x3d40bdba	0.047055937
141	0xbcf034b0	-0.029321998
142	0xbd3fcd8c	-0.046826884
143	0x3c3f3237	0.011669687
144	0x3987385e	0.00025791203
145	0xb79c5300	-1.8635299e-05
146	0x352ca6c2	6.431766e-07
147	0x39fcc137	0.00048209142
148	0x370e0e27	8.467155e-06
149	0xb655705b	-3.1804873e-06
150	0xb9e8fca3	-0.00044438717
151	0xb78911e2	-1.634e-05
152	0x213c5757	6.381247e-19
153	0x3846f7c8	4.7437643e-05
154	0x800565a5	-4.9564e-40
155	0x3796b87a	1.7967297e-05
156	0xac3dd66a	-2.697754e-12
157	0xb7fa313a	-2.9825245e-05
158	0x00055878	4.90914e-40
159	0x38d2c59d	0.00010050389
160	0x929ec3c4	-1.0019462e-27
161	0x395cc43f	0.00021053942
162	0x3c67d987	0.014150984
163	0xbd64d643	-0.0558684
164	0x3d0bab1f	0.03409874
165	0x3c82d1cf	0.015969185
166	0xba45863e	-0.0007534957
167	0x3d02ccdc	0.03193365
168	0xbc11277f	-0.008859514
169	0x3d4121c5	0.047151346
170	0xbd0513a2	-0.032489426
171	0xbd355c33	-0.04427738
172	0x3cfccc02	0.030858997
173	0x3d228b4e	0.039683633
174	0xbca815f0	-0.020518273
175	0xbc9f645f	-0.01945704
176	0x3cbfc467	0.023409082
177	0x3cc4c060	0.024017513
178	0xbba83400	-0.005133152
179	0xbc1e79ff	-0.009672641
180	0x3cfeb42b	0.03109177
181	0xbcade1ab	-0.021225771
182	0x3cdda052	0.027053986
183	0xba84894c	-0.0010111718
184	0x3d1ac343	0.037783872
185	0xbd30e697	-0.043188658
186	0xbc727d22	-0.014800342
187	0xbd4436fe	-0.047904007
188	0x3c48e63d	0.012261924
189	0x3c8930c3	0.016746884
190	0x3d187393	0.037219595
191	0x3d450ee1	0.048109893
192	0x3d07328b	0.033007186
193	0x3d3ded45	0.046368856
194	0xbd3db4fb	-0.046315175
195	0xb980b09c	-0.00024545647
196	0xb58d1d03	-1.0513762e-06
197	0xb9ab2258	-0.0003264125
198	0x00063b1e	5.7222e-40
199	0x27803651	3.5586027e-15
200	0x31c374ea	5.6885385e-09
201	0x3a07f565	0.0005186408
202	0x1683b909	2.1280965e-25
203	0x339894d7	7.1051254e-08
204	0x37b82b80	2.1954766e-05
205	0xb9b5f723	-0.00034707141
206	0x21ad50cb	1.1744322e-18
207	0x80055c6c	-4.92332e-40
208	0xb7091923	-8.171689e-06
209	0x36153aab	2.223688e-06
210	0xb98db392	-0.00027027406
211	0xb9a73b82	-0.0003189706
212	0x373c1f40	1.1212949e-05
213	0x3cc921c6	0.024552237
214	0x3c8f5431	0.0174962
215	0x3c9cdf63	0.019149488
216	0x3d1e1047	0.038589742
217	0xbcc2ac4e	-0.023763802
218	0x3d1df911	0.038567606
219	0xbd0e0e30	-0.0346815
220	0xbbfcf022	-0.0077190557
221	0xbc986ed6	-0.018607538
222	0xbc628edb	-0.013828005
223	0x3c18539b	0.009297277
224	0xbcbb7b67	-0.022885991
225	0xbc6fc46f	-0.014634236
226	0xbc9563e9	-0.018236117
227	0xbbb5a8ea	-0.0055438178
228	0xbc9d53ce	-0.019205
229	0x3d6ea2eb	0.05826084
230	0xbd2166cb	-0.03940467
231	0x3d26fa60	0.04076612
232	0xbc89abea	-0.016805608
233	0x3c40b48b	0.011761795
234	0xbd1c4f57	-0.038161602
235	0xba45eeab	-0.0007550518
236	0x3c542e8f	0.012950554
237	0xbc5b73e0	-0.013394326
238	0x3d1cdd59	0.03829703
239	0xbcd9a60d	-0.026568437
240	0x3ce2652f	0.027636139
241	0xbcce174f	-0.025157599
242	0x3d2c09db	0.042001586
243	0x3c10ddfc	0.008841988
244	0xbc2090d2	-0.009800153
245	0x3af3746a	0.0018574123
246	0x32d7becd	2.511606e-08
247	0x800770b8	-6.83284e-40
248	0x3970670d	0.00022926573
249	0xb286fa39	-1.5713441e-08
250	0xb1feaddf	-7.41214e-09
251	0x39a1f3bf	0.00030889918
252	0x33b0d518	8.2344e-08
253	0x00055d88	4.9273e-40
254	0x39980520	0.00028995518
255	0x13dffff2	5.6545496e-27

Conv2DType1_Batchnorm.norm.weight f4 [8]
0	0x3f806209	1.0029918
1	0x3f821beb	1.016477
2	0x3f803e91	1.0019094
3	0x3f811bf3	1.0086654
4	0x3f7c9962	0.98671544
5	0x3f81831c	1.0118136
6	0x3f7b547b	0.9817578
7	0x3f7e2cc7	0.99287075

Conv2DType1_Batchnorm.norm.bias f4 [8]
0	0x3c682328	0.014168538
1	0x3b3dea2f	0.0028978696
2	0x3b71aeda	0.0036877901
3	0xbd29afcf	-0.04142743
4	0xbc06b6f7	-0.008222333
5	0xbd44abf0	-0.048015535
6	0xbb099841	-0.0020995291
7	0xbc6a7ad5	-0.014311512

Conv2DType1_Batchnorm.norm.running_mean f4 [8]
0	0x3c226cf1	0.009913669
1	0xba108506	-0.0005512986
2	0xbaaeef03	-0.0013346378
3	0xbc2accfb	-0.010424848
4	0xbb83993c	-0.0040160697
5	0xbae8b8da	-0.0017755285
6	0xbc3f9002	-0.011692049
7	0xbaf185c5	-0.0018426707

Conv2DType1_Batchnorm.norm.running_var f4 [8]
0	0x3c4dc1e8	0.012558438
1	0x3d5a748d	0.053333808
2	0x3c84c687	0.016207946
3	0x3d015753	0.03157742
4	0x3d61e767	0.055152323
5	0x3c2af664	0.010434721
6	0x3d108d1f	0.035290834
7	0x3d27f99b	0.041009527

Conv2DType2_cnn.conv.weight f4 [16, 8, 63, 1]
0	0xbbf1a697	-0.0073745954
1	0x3cc6b422	0.024255816
2	0xbcb7aaa8	-0.022420242
3	0x3d1fe8bd	0.039040316
4	0xbd01654e	-0.031590752
5	0xbc7debc8	-0.015498109
6	0xbbfc35d2	-0.0076968456
7	0xbb3e48dd	-0.002903513
8	0xbc7016a2	-0.014653834
9	0xbd22b788	-0.03972581
10	0x3c568677	0.013093582
11	0xbb5e9a6f	-0.0033966561
12	0x3af81e72	0.0018929972
13	0x3c8dfa99	0.017331408
14	0x3cf4d9eb	0.029889068
15	0x3cc55fa0	0.02409345
16	0xbc875005	-0.016517648
17	0xbce965d8	-0.028490946
18	0xba495726	-0.00076805276
19	0x3ceb0e40	0.028693318
20	0x3d098153	0.0335706
21	0xbca73b3a	-0.020413984
22	0x3d346538	0.044041842
23	0x3bee2470	0.0072675273
24	0xbd1c7db4	-0.038205817
25	0xbd11402b	-0.035461586
26	0xbce967b2	-0.028491829
27	0x3c2cdf88	0.010551341
28	0x3c3a1d65	0.011359547
29	0x3c128f7f	0.008945345
30	0x3cd55023	0.026039189
31	0xbc820951	-0.015873583
32	0xbc716ed0	-0.014735892
33	0x3ae32daa	0.0017332335
34	0xbcaa626e	-0.020798888
35	0x3c50c93d	0.012743291
36	0xbbf02f1f	-0.007329836
37	0xba65d43a	-0.0008767281
38	0xbd1ef495	-0.03880747
39	0x3d3e7697	0.046499815
40	0xbcbc0d89	-0.022955673
41	0xbd384d01	-0.04499531
42	0x3c9ec3fc	0.019380562
43	0x385f4363	5.3230102e-05
44	0xbc57fe78	-0.013183229
45	0xbc9101ff	-0.017701147
46	0xbc84de07	-0.016219152
47	0xbbd6e44d	-0.0065579773
48	0x3c228881	0.00992024
49	0xbc82aa5b	-0.015950372
50	0x3bacf377	0.0052780467
51	0xbc7716b7	-0.015081099
52	0xbc4489fa	-0.011995787
53	0xbb9d2cbf	-0.004796594
54	0x3c805343	0.015664702
55	0x3c890ac7	0.016728772
56	0x3c80ec12	0.015737567
57	0xbd490371	-0.049075548
58	0x3bbab5e2	0.0056979517
59	0xbd3c69f2	-0.045999475
60	0xbc425bc4	-0.011862699
61	0xbd39e070	-0.045380056
62	0x3d069687	0.032858398
63	0x3ce57380	0.028009176
64	0x39f9f910	0.00047678547
65	0xb9fddf75	-0.0004842241
66	0x3d2237e1	0.03960407
67	0x3c74387d	0.014906046
68	0xbc0d4e17	-0.008624575
69	0x3bbc8a6b	0.0057538054
70	0x3c2fdd6c	0.010733943
71	0x3cd29e27	0.025710179
72	0x3ce245d0	0.02762118
73	0xbd1ca117	-0.038239565
74	0xbd2281b8	-0.03967449
75	0xbad01f05	-0.0015878385
76	0x3cc1d5a0	0.023661435
77	0x3b533698	0.0032228585
78	0x3d2a3d21	0.041562203
79	0x3b4a3910	0.0030856766
80	0xbce140ff	-0.027496813
81	0x3cff8ecf	0.031196026
82	0x3c8fe027	0.017562939
83	0xbcc39d27	-0.023878647
84	0x3b1076cd	0.0022043467
85	0xbc89c3a0	-0.016816914
86	0xbb8441dc	-0.0040361714
87	0xbc3fb0da	-0.01169988
88	0xbc007d6e	-0.007842405
89	0xbcb09143	-0.021553641
90	0xbc8f0fb4	-0.017463543
91	0x3d32bb51	0.04363567
92	0x3cb122db	0.021623066
93	0xbcaaa96d	-0.020832742
94	0x3d44e6c5	0.04807164
95	0xbc6f6267	-0.014610863
96	0xbcab7997	-0.020932002
97	0xbcd6f1af	-0.02623829
98	0x3bf0068b	0.0073249987
99	0xbcb3cf5b	-0.02194946
100	0x3b660042	0.0035095369
101	0xbc5e142a	-0.013554612
102	0x3ce6e22f	0.028184025
103	0xbd0178c8	-0.031609327
104	0xbcb2da27	-0.021832539
105	0xbcc03c9d	-0.023466403
106	0x3c7dc7b8	0.015489511
107	0x3c7fecbf	0.0156204095
108	0x3d097a49	0.033563886
109	0x3d4b62a3	0.049654614
110	0x3b3a8d17	0.0028465444
111	0x3c6f7f7a	0.014617795
112	0x3c65b28a	0.014019618
113	0x3d1cb3e0	0.03825748
114	0x3d2b2607	0.041784313
115	0x3ca7be97	0.020476623
116	0x3c1ee00e	0.0096969735
117	0x3c29bb5e	0.010359613
118	0x3b7aaee3	0.0038251213
119	0xbb29da23	-0.0025917373
120	0x3bbc6a7a	0.0057499977
121	0x3c40e256	0.011772713
122	0x3ceda3c7	0.02900876
123	0x3c0de010	0.008659378
124	0x3aae8a13	0.0013316296
125	0x3d41d634	0.04732342
126	0xbc5edd67	-0.013602591
127	0xbcd062f8	-0.025437817
128	0xbd31222f	-0.04324549
129	0xbb8473b3	-0.0040421127
130	0xbc9e3665	-0.019313047
131	0xbc781aba	-0.015143091
132	0x3cf297ff	0.029613493
133	0x3c93bf08	0.018035427
134	0xbcb09406	-0.021554958
135	0x3c6c7f8f	0.014434709
136	0x3cb5ba2d	0.022183502
137	0xbcfd2f08	-0.030906215
138	0x3d134013	0.035949778
139	0xbc89f79d	-0.016841704
140	0x3d3e4d33	0.04646034
141	0x3ceffd07	0.029295458
142	0xbcbf7f88	-0.023376241
143	0x3ceaef22	0.02867848
144	0xbd485860	-0.048912406
145	0x3c0506af	0.008119269
146	0xbcbe7c53	-0.023252642
147	0x3c0b3bbf	0.008498131
148	0xbc8549a8	-0.016270474
149	0x3c611478	0.01373779
150	0xbc4a5260	-0.012348741
151	0x39805773	0.00024479217
152	0x396c8c9d	0.00022559096
153	0xbca9d40d	-0.020730997
154	0xbc5ec847	-0.0135975545
155	0x3c2f91d2	0.010715919
156	0xbc63ee45	-0.013911788
157	0x3d02f66f	0.0319733
158	0x3d314d69	0.043286715
159	0xbd3657ff	-0.044517513
160	0x3ca05148	0.019570008
161	0x3c9d9fee	0.0192413
162	0xbb73daa2	-0.0037209173
163	0xbd3240f1	-0.043518964
164	0x3cc28732	0.023746107
165	0x3ab9d1f3	0.001417695
166	0xbce7ae4d	-0.028281355
167	0x3b893993	0.0041877716
168	0xbc56286b	-0.01307116
169	0xbc982845	-0.01857389
170	0x3cdac3c0	0.026704669
171	0xbcaf1243	-0.021371013
172	0xbbbc191c	-0.005740298
173	0xbc2f4c84	-0.010699395
174	0x3bac1dd4	0.005252579
175	0x3d0c2263	0.03421248
176	0x3c8d7ba5	0.017270872
177	0x3cfc061a	0.030764628
178	0xbc945d17	-0.018110795
179	0x3c05f92e	0.008177085
180	0xbc4ac4a0	-0.012375981
181	0xbc0c9eda	-0.008582795
182	0xbaa7e357	-0.0012808841
183	0x3a93e9f0	0.0011284929
184	0xbd2689e4	-0.040658846
185	0xbd45aa5b	-0.048258167
186	0x3ca4a5ed	0.02009865
187	0xbcac1b19	-0.021009015
188	0xbc1a178f	-0.009405031
189	0xbd0e5d18	-0.03475675
190	0x3c5351ba	0.012897903
191	0x3c6bd205	0.014393334
192	0xbcc3841c	-0.023866706
193	0x3cc6b43e	0.024255868
194	0x3c6faf30	0.01462917
195	0xbc61dfc2	-0.013786258
196	0xbc8a65e8	-0.016894296
197	0x3ce00add	0.02734893
198	0xbc28ce51	-0.010303096
199	0xbce11230	-0.027474493
200	0xbd60a990	-0.054849207
201	0xbcc18fbd	-0.02362811
202	0x3c8756b3	0.016520834
203	0x3d002cca	0.031292714
204	0x3d4a9650	0.049459755
205	0x3d1752f8	0.03694436
206	0xbb46e503	-0.0030348904
207	0xbcb699e4	-0.022290178
208	0x3ced35bb	0.028956285
209	0xbc80a020	-0.015701354
210	0x3bccaea7	0.006246406
211	0x3c9750ed	0.018471206
212	0x3d46bd67	0.048520472
213	0x3c57bf33	0.013168144
214	0xbca96847	-0.020679606
215	0xbcccc9bd	-0.02499854
216	0x3d14b4f3	0.03630538
217	0xbc62b7ab	-0.013837735
218	0xbcffa2d8	-0.03120558
219	0x3cd27dc3	0.025694733
220	0x3d460b56	0.048350655
221	0xbd1f63fd	-0.038913716
222	0xbcb35742	-0.021892194
223	0xbb010864	-0.001968884
224	0x3cd5b967	0.026089383
225	0xbc359f82	-0.011085393
226	0xbc72f9fa	-0.014830107
227	0x3c717b3b	0.014738853
228	0x3d1537ca	0.036430158
229	0x3baafd5b	0.0052181906
230	0xb9c805e7	-0.0003815137
231	0x3d37db7b	0.044887047
232	0x3d26f06d	0.04075663
233	0xbd25fc7f	-0.040524002
234	0xbd57f3df	-0.052722808
235	0x3d081f7b	0.033233147
236	0xbccbd6a4	-0.024882622
237	0xbd1cd8e2	-0.038292773
238	0xbd3e8a9e	-0.046518914
239	0x3b9eae32	0.004842543
240	0x3ce675d3	0.028132355
241	0xbd560b07	-0.05225661
242	0x3beb4bad	0.007180652
243	0x3d03d515	0.032185633
244	0xbd2b72f0	-0.04185766
245	0xbd22471a	-0.03961859
246	0x3d0c430b	0.034243625
247	0xbd005420	-0.031330228
248	0xbb727aaa	-0.0036999383
249	0x3c8d660e	0.017260578
250	0x3bfe9808	0.0077695884
251	0xbcb10b24	-0.021611758
252	0x3c7ed28a	0.015553126
253	0x3d2b3be3	0.04180516
254	0x3c29b95a	0.010359133
255	0x3c13557b	0.008992548

Conv2DType2_Batchnorm.norm.weight f4 [16]
0	0x3f875c03	1.0574955
1	0x3f844bc9	1.0335628
2	0x3f83aa22	1.0286295
3	0x3f864e03	1.0492557
4	0x3f82c69d	1.0216862
5	0x3f885763	1.0651668
6	0x3f83dc7a	1.0301659
7	0x3f865659	1.0495101
8	0x3f872998	1.0559568
9	0x3f845482	1.033829
10	0x3f87aebc	1.06002
11	0x3f8791d2	1.0591376
12	0x3f87e73c	1.0617442
13	0x3f87599f	1.0574225
14	0x3f82483a	1.0178292
15	0x3f837c8a	1.0272381

Conv2DType2_Batchnorm.norm.bias f4 [16]
0	0xbde4d0b8	-0.111726224
1	0xbde2ba1a	-0.11070652
2	0xbde48347	-0.11157852
3	0xbdea974f	-0.11454641
4	0xbdbf4d82	-0.09340955
5	0xbdffe54a	-0.12494905
6	0xbdc340fa	-0.09533878
7	0xbdd0d78a	-0.10197361
8	0xbe02777a	-0.12740889
9	0xbddbdd12	-0.10735525
10	0xbdf12787	-0.11775117
11	0xbde8184d	-0.1133276
12	0xbdf082a3	-0.11743667
13	0xbddebe90	-0.10876191
14	0xbdce30a2	-0.1006787
15	0xbdbca11c	-0.09210417

Conv2DType2_Batchnorm.norm.running_mean f4 [16]
0	0x3b154607	0.0022777335
1	0x3c04edc0	0.008113325
2	0xbad8b758	-0.0016534133
3	0x3d26c1da	0.040712215
4	0xbc291913	-0.01032092
5	0x3c6d228f	0.014473571
6	0x3c8e463d	0.017367477
7	0x3d383a05	0.044977207
8	0x3d3aa579	0.045567963
9	0x3cc3d735	0.02390633
10	0x3bad3a7c	0.005286513
11	0xbc1f67aa	-0.009729305
12	0x3cfce723	0.030871933
13	0x3b99cf5b	0.004693908
14	0xbbc143cd	-0.005897975
15	0x3bbb60a5	0.005718308

Conv2DType2_Batchnorm.norm.running_var f4 [16]
0	0x3eac85bd	0.33695784
1	0x3edbbb58	0.4291637
2	0x3e88ac63	0.2669402
3	0x3eea5de8	0.4577477
4	0x3ed1cc80	0.40976334
5	0x3f0500a8	0.51954126
6	0x3f1e0256	0.61722314
7	0x3f0570a5	0.52125007
8	0x3f065e77	0.5248789
9	0x3ed5bc17	0.41745064
10	0x3f002b2d	0.5006588
11	0x3ef6339a	0.48086244
12	0x3ee8d2c2	0.45473295
13	0x3ee10f50	0.43956995
14	0x3ed09e40	0.40745735
15	0x3eb46c9b	0.3523911

Conv2DType3_depthwise.conv.weight f4 [16, 16, 1, 17]
0	0x3d8602b9	0.06543488
1	0x3d37d1bf	0.044877764
2	0xbc8f23b8	-0.017473087
3	0xbb4d453a	-0.003132178
4	0xbd3a3128	-0.045457035
5	0xbd0c9672	-0.034323163
6	0xbcf41460	-0.029794872
7	0x3d09a7bc	0.03360723
8	0x3ce82c9d	0.028341586
9	0x3d11554b	0.035481732
10	0x3d2f376d	0.042777468
11	0xb9cdeddf	-0.00039277875
12	0x3d98c320	0.07459092
13	0x3d83bed6	0.064328834
14	0xbd5c708b	-0.053818267
15	0xbd34239e	-0.04397928
16	0x3d3b8c3a	0.045788027
17	0x3d3f6fbb	0.046737414
18	0xbc84ce0e	-0.016211536
19	0x3ced9183	0.02900005
20	0xbc9811a5	-0.018563101
21	0x3cda95e2	0.026682798
22	0xbd2781b4	-0.04089518
23	0x3ba12daa	0.0049187737
24	0xbc9cfff1	-0.019165011
25	0x3c75f24d	0.015011382
26	0x3cef7e03	0.029234892
27	0xbd57134f	-0.05250865
28	0xbca98eab	-0.020697912
29	0x3cfc9412	0.030832324
30	0x3c152f90	0.009105578
31	0xbcaa764b	-0.02080836
32	0xbd423767	-0.047416117
33	0xbd255592	-0.04036481
34	0xbb86441b	-0.0040974743
35	0xbcb71bd5	-0.022352139
36	0x3d2f49eb	0.042795103
37	0x3d4cd0c7	0.050003793
38	0x3b36e023	0.0027904592
39	0x3cad6d42	0.021170262
40	0x3d5bd402	0.053668983
41	0xbc7b49d0	-0.0153374225
42	0xbd4ab5d5	-0.049489815
43	0x3c40a67f	0.011758446
44	0xbd4e2723	-0.050330292
45	0x3c14ad17	0.009074471
46	0x3d523d5d	0.05132805
47	0x3c9dd92e	0.019268598
48	0xbd0077e8	-0.03136435
49	0xbc8e0913	-0.017338311
50	0xbc8cf9c5	-0.017208943
51	0x3c468667	0.012117005
52	0xbd4a79e3	-0.049432646
53	0x3b6b8fba	0.0035943822
54	0x3d3d064b	0.04614858
55	0x3d463a5b	0.048395496
56	0x3d78b7fd	0.06072234
57	0x3d4e9e95	0.050444204
58	0x3c8b763b	0.01702415
59	0xbcf8e137	-0.030380828
60	0x3c4b340f	0.012402548
61	0x3d2df56c	0.04247038
62	0xbcebdfe8	-0.02879329
63	0x3c1c83db	0.009552921
64	0xbd2c394d	-0.042046834
65	0xbb2c097a	-0.0026250766
66	0xbc9d46c5	-0.019198785
67	0xbc8a55dc	-0.016886644
68	0xbd828a49	-0.06374032
69	0x3b467c6a	0.003028656
70	0xbc8aa2ae	-0.016923275
71	0x3d833e32	0.06408347
72	0xbc7f05c2	-0.015565338
73	0xbce1d648	-0.027567998
74	0xbbcdb95a	-0.006278199
75	0x3ced79cb	0.02898874
76	0xbcca071d	-0.024661595
77	0x3b364041	0.0027809294
78	0xbd0e8e15	-0.03480347
79	0xbc8be3d3	-0.017076408
80	0x3d3eeb35	0.04661103
81	0x3d7b44c0	0.061344862
82	0x3d871812	0.06596388
83	0x3c2cdb7b	0.010550375
84	0x3cd4e92a	0.025990088
85	0x3cb2da75	0.021832684
86	0xbd0c4387	-0.034244087
87	0x3ceda345	0.029008517
88	0x3ccfe9df	0.025380073
89	0xbd611ed7	-0.05496105
90	0x3d76afc2	0.06022621
91	0x3d2b42c3	0.041811716
92	0x3c934085	0.017975101
93	0x3c5b2312	0.013375061
94	0x3d4c7bdf	0.04992282
95	0x3ce0569a	0.027385045
96	0xbccc904b	-0.024971148
97	0xbd3bfdd2	-0.04589636
98	0x3d1dc8c1	0.038521532
99	0xbc1ca8b3	-0.009561705
100	0xbc8ad403	-0.016946798
101	0x3d22a6d1	0.03970987
102	0xbcc01aa7	-0.023450209
103	0xb9a36ae6	-0.00031169428
104	0x3bbddc8d	0.005794114
105	0x3c00c2d8	0.007858954
106	0x3cef6325	0.02922208
107	0x3b52bef5	0.0032157276
108	0xbc9032e7	-0.017602397
109	0xb923052d	-0.0001554682
110	0xbd012cce	-0.03153687
111	0x3cd261fa	0.025681484
112	0x3cc19ec1	0.02363527
113	0xbc2e9b78	-0.010657184
114	0xbd652a17	-0.055948343
115	0x3c62b47d	0.013836977
116	0xbd42b06f	-0.04753154
117	0x3d38408e	0.04498344
118	0xbd5fe2ca	-0.054659642
119	0x3cdf06d8	0.027224943
120	0x3ccf28b2	0.02528796
121	0xbd091c8f	-0.0334745
122	0x3bbe936d	0.0058159144
123	0x3d3f72bb	0.046740275
124	0xbaf2118a	-0.0018468362
125	0x3bab35a1	0.005224899
126	0x3d14e070	0.036346853
127	0xbc94a877	-0.018146737
128	0x3d5c2f38	0.05375597
129	0x3d682c98	0.056683153
130	0xbc8be8ad	-0.017078722
131	0xbd500013	-0.05078132
132	0xbc963c38	-0.018339261
133	0x3d2f27da	0.042762615
134	0xbc9cb31a	-0.019128371
135	0xbb352d47	-0.0027645396
136	0xbd465005	-0.048416156
137	0x3b23ee87	0.0025014
138	0x3af1351a	0.0018402666
139	0xbd46f677	-0.04857489
140	0x3cd03d4d	0.025419855
141	0xbcebc86f	-0.028782098
142	0x3bc10bf3	0.005891317
143	0xbcc70b5b	-0.024297407
144	0x3d03583f	0.03206658
145	0xbd180171	-0.03711075
146	0xbc0f8d64	-0.0087617375
147	0x3d2d6909	0.042336497
148	0xbc638ca0	-0.013888508
149	0x3d065e7c	0.03280495
150	0xb96fd6c7	-0.00022872827
151	0x3c77c97d	0.015123722
152	0xbd7048e0	-0.05866325
153	0x3c9b976b	0.0189931
154	0xbd41696a	-0.04721967
155	0xbc3c6852	-0.011499481
156	0xbd8649cd	-0.06557045
157	0xbc9412d9	-0.018075394
158	0xbc7b76eb	-0.0153481765
159	0xbccd1805	-0.025035867
160	0x3b261275	0.002534059
161	0xbd006dfa	-0.03135488
162	0xbd857542	-0.06516506
163	0x3cf07295	0.029351512
164	0x3ca74e7f	0.020423172
165	0xbcc3cb16	-0.02390055
166	0x3d12d4d0	0.035847485
167	0x3cb1a41e	0.021684702
168	0xb8c4ae26	-9.378446e-05
169	0x3cacd642	0.02109826
170	0xbd94198a	-0.07231434
171	0xbc82c1d6	-0.015961569
172	0x3d5606a8	0.05225244
173	0xbb9f7b2f	-0.0048669796
174	0xbc50f658	-0.012754045
175	0x3cdd7880	0.027034998
176	0xbcd968f8	-0.02653931
177	0xbd4051f9	-0.046953175
178	0xbceb8162	-0.028748218
179	0x3d267043	0.040634405
180	0x3d484508	0.04889396
181	0x3d455066	0.048172377
182	0xbc37e3b9	-0.011223727
183	0x3a74864b	0.00093278725
184	0x3d3419ae	0.043969803
185	0x3d02a4f1	0.03189558
186	0xbc36ca6f	-0.011156662
187	0xbab3e373	-0.0013724401
188	0x3d7ab448	0.061207086
189	0x3d3054b3	0.043049525
190	0xbcb94d15	-0.022619763
191	0xbc7001ef	-0.0146488985
192	0x3ca0dfaf	0.01963791
193	0xbd9214b4	-0.07132855
194	0x3ce7286f	0.028217522
195	0x3d21935b	0.03944717
196	0xbd637005	-0.055526752
197	0xbd16c58f	-0.0368095
198	0x3d36b700	0.044608116
199	0xbbbbf64b	-0.0057361475
200	0x3c163765	0.0091684805
201	0xb91f50ad	-0.00015193476
202	0x3d2ca1d5	0.042146523
203	0x3d5a1d63	0.05325068
204	0xbd302891	-0.043007437
205	0x3c2dd018	0.010608695
206	0xbbc577e3	-0.0060262545
207	0xbcdbc84a	-0.026828904
208	0xbd1bc3b5	-0.038028438
209	0xbd3f809b	-0.046753507
210	0x3d454e7d	0.048170555
211	0xbb4c322a	-0.003115783
212	0x3d612f75	0.0549769
213	0xbc3f7d4a	-0.011687586
214	0xbd32fd8a	-0.043698825
215	0xbb24f9bd	-0.002517327
216	0xbbdeb9ea	-0.006797065
217	0xbce07ff0	-0.027404755
218	0x3aeeeddd	0.0018228848
219	0xbb7a9d65	-0.0038240787
220	0x3c8a39e3	0.016873306
221	0xbd2652a0	-0.04060614
222	0xbd7eda7a	-0.062220074
223	0xbd685e5b	-0.05673061
224	0x3b54820f	0.0032426154
225	0xbce1108d	-0.027473712
226	0x3cb2cc8d	0.021826053
227	0x3c828cf6	0.015936356
228	0x3d592d27	0.053021576
229	0xbc3b9b54	-0.011450607
230	0x3d23f88d	0.04003196
231	0x3ba21303	0.004946114
232	0xbcf3a01d	-0.029739434
233	0x3bf43f68	0.0074538477
234	0x3c2697b8	0.0101680085
235	0xbd38b47d	-0.045094002
236	0x3d4c2c99	0.04984722
237	0x3aa8eff5	0.0012888896
238	0x3cf0d4d5	0.029398361
239	0xb74102a9	-1.1504316e-05
240	0x3d04a673	0.0323853
241	0xbd0188ad	-0.031624485
242	0x3c666d7a	0.014064187
243	0x3c872660	0.01649779
244	0xbd2bda18	-0.041956037
245	0x3d366ed7	0.0445393
246	0xbbec087d	-0.0072031603
247	0x3ceb06cd	0.028689766
248	0xbd56a775	-0.052405793
249	0xbd468318	-0.048464864
250	0x3bb8345b	0.0056214756
251	0xbd15e1bc	-0.03659223
252	0xbc2e3556	-0.0106328335
253	0xbce801ea	-0.028321225
254	0xbd4db980	-0.050225735
255	0x3bc9941b	0.0061516888

Conv2DType3_pointwise.conv.weight f4 [16, 16, 1, 1]
0	0x3ca6eedd	0.02037757
1	0x3e241053	0.16021852
2	0x3d764388	0.060122997
3	0x3e09f1ee	0.13471195
4	0x3e7a3728	0.24435103
5	0x3e501378	0.20319927
6	0x3d096039	0.03353903
7	0x3d9f317a	0.07773109
8	0x3d44a7cc	0.048011586
9	0x3d8e428f	0.06946289
10	0x3d9f0d34	0.0776619
11	0xbe41733f	-0.18891619
12	0x3e2f9627	0.17147122
13	0x3e10981d	0.14120527
14	0xbe70893f	-0.23489855
15	0x3e39f730	0.18160701
16	0x3d856a36	0.06514399
17	0xbd3c6830	-0.0459978
18	0xb858a995	-5.165635e-05
19	0x3e6f2712	0.23354748
20	0x3e30b436	0.17256245
21	0x3e504075	0.20337088
22	0xbd663c32	-0.05620975
23	0xbe099789	-0.13436712
24	0x3e3fafd6	0.1871942
25	0xbdd5822f	-0.10425221
26	0x3bcfcfdd	0.006341918
27	0x3deabe1a	0.1146204
28	0xbdb16a69	-0.08662874
29	0xbd483be7	-0.048885252
30	0xbda1df9b	-0.079039775
31	0x3da5b1bf	0.08090543
32	0xbda1b967	-0.07896691
33	0x3c9c94dc	0.01911395
34	0xbe795a87	-0.2435094
35	0x3e6d7792	0.23190144
36	0x3dd7b4df	0.10532545
37	0xbe4022c7	-0.18763267
38	0x3e2dc382	0.16969112
39	0xbd87b17f	-0.066256516
40	0x3d9842c2	0.07434608
41	0xbd4f2b07	-0.050578143
42	0xbcce7595	-0.025202552
43	0x3c2d6e98	0.01058545
44	0xbdd1c2a8	-0.10242206
45	0xbdede7eb	-0.116165005
46	0xbc2c5b3f	-0.010519802
47	0x3c004e9b	0.007831241
48	0x3ddcf193	0.10788264
49	0xbe3cd326	-0.18439922
50	0xbe0c74d6	-0.13716444
51	0xbd5bacb2	-0.053631492
52	0x3d201b27	0.039088394
53	0x3d1018ba	0.03517983
54	0xbdb42f17	-0.08798044
55	0xbdbb8bb7	-0.09157508
56	0x3e2c10b3	0.16803245
57	0xbcc9094f	-0.024540571
58	0xbde69bfb	-0.1126022
59	0xbe338c21	-0.17533924
60	0x3d4335e3	0.047658812
61	0xbdd1efba	-0.10250802
62	0x3e70ced7	0.23516403
63	0x3e881f53	0.26586398
64	0x3c6c27b2	0.014413761
65	0x3e7607a3	0.2402635
66	0xbe4a88a6	-0.1977869
67	0xbe5cbbe2	-0.21556047
68	0x3dae1f4c	0.08502063
69	0xbc90eaa0	-0.017690003
70	0x3e0293df	0.12751721
71	0x3d822c17	0.06356066
72	0x3e72602b	0.23669498
73	0xbd97f6f3	-0.07420149
74	0x3e315150	0.17316175
75	0xbe05a54f	-0.13051341
76	0x3e55b32b	0.20869128
77	0xbe147e75	-0.14501365
78	0x3e1c3f30	0.15258479
79	0x3e348cec	0.17631882
80	0xbcbfbddb	-0.02340596
81	0x3e61466b	0.21999519
82	0xbdd933ad	-0.106055595
83	0xbe28785c	-0.16452163
84	0xbe3a2dbe	-0.18181512
85	0x3dd302ad	0.10303245
86	0xbdd27360	-0.10275912
87	0xbe56d563	-0.20979838
88	0x3e50ec38	0.2040261
89	0xbe2fe8ff	-0.17178725
90	0x3d9e2d81	0.07723523
91	0xbe22c4f9	-0.15895452
92	0x3da4dbd5	0.08049742
93	0xbda87e40	-0.08227205
94	0x3e69ce4f	0.22832607
95	0xbe236695	-0.159571
96	0xbe502083	-0.20324902
97	0xbe0e1aa3	-0.13877349
98	0x3da2b1fc	0.07944104
99	0xbe662ebb	-0.22478764
100	0xbda32bb7	-0.07967322
101	0x3e7ad15f	0.24493931
102	0xbe002287	-0.12513171
103	0x3df8858f	0.12134849
104	0xbda16267	-0.07880097
105	0xbdc52c37	-0.09627574
106	0x3e1f8d2d	0.15581198
107	0x3becef95	0.007230709
108	0xbd8ba47f	-0.068184845
109	0xbe687ee3	-0.22704653
110	0xbd75d65a	-0.060018875
111	0xbe2fb4ff	-0.17158888
112	0x3e1bacad	0.1520259
113	0x3df9b668	0.12192994
114	0xbda738de	-0.081651434
115	0xbd1dee9a	-0.038557626
116	0xbe6ca4c5	-0.2310973
117	0x3dbf42c2	0.09338905
118	0xbccb32b5	-0.024804452
119	0x3cc792a7	0.024361921
120	0xb91bc567	-0.0001485549
121	0xbd22d249	-0.039751325
122	0x3e21198b	0.157324
123	0x3e3b1fdf	0.18273877
124	0xbc0e4679	-0.008683794
125	0x3d1cf399	0.03831825
126	0xbd6f93db	-0.058490615
127	0xbe71d7b8	-0.23617446
128	0xbdd5b463	-0.10434797
129	0xbe345971	-0.17612244
130	0x3d001fa7	0.031280186
131	0xbe4be616	-0.1991199
132	0xbe2c72f5	-0.16840728
133	0xbe439fb0	-0.19103885
134	0xbdfc3322	-0.1231444
135	0x3e62cbab	0.22148006
136	0x3de1f6c7	0.11033397
137	0xbd5e00d2	-0.0542
138	0xbe00125f	-0.12507008
139	0x3df401a2	0.11914374
140	0x3e10a71c	0.14126247
141	0xbe7a0660	-0.24416494
142	0x3e486f6e	0.19573757
143	0xbbc3b117	-0.0059720385
144	0xbe723a3a	-0.23655024
145	0xbc9cf2a2	-0.019158665
146	0xbe778a20	-0.24173784
147	0xbe0d7548	-0.1381427
148	0x3cd61357	0.026132269
149	0x3df5dbe0	0.120048285
150	0xbe24bbe3	-0.16087298
151	0xbe2ee903	-0.17081074
152	0x3e79e0ca	0.24402156
153	0xbd954cbc	-0.072900265
154	0x3e4cbb2b	0.19993274
155	0x3e55ffc7	0.20898353
156	0xbe29245f	-0.1651778
157	0x3c62fccf	0.01385422
158	0x3be736b5	0.007056082
159	0x3d54eced	0.051983763
160	0xbe2a6961	-0.16641761
161	0xbd1201f8	-0.03564641
162	0x3db993b7	0.090613775
163	0x3e09decb	0.13463895
164	0x3cdf8b15	0.027288
165	0xbccfbebd	-0.025359506
166	0xbcbd5c77	-0.02311538
167	0x3e7d4f8d	0.24737377
168	0xbe1b3cb5	-0.15159877
169	0xbe54b95b	-0.20773832
170	0x3d2bba21	0.041925553
171	0x3ca5a37b	0.020219555
172	0x3e7017ed	0.23446627
173	0xbd4c77db	-0.04991899
174	0x3df3f0c0	0.11911154
175	0x3e82fd80	0.2558403
176	0x3e763445	0.24043377
177	0xbe8bffa2	-0.2734347
178	0xbdea8c38	-0.11452526
179	0x3dfabdb7	0.122432165
180	0xbe60b260	-0.21943045
181	0x3e50ad97	0.2037872
182	0xbd44d6a7	-0.04805627
183	0x3d3184a4	0.043339387
184	0xbdb9b517	-0.09067743
185	0x3e0b4aab	0.13602702
186	0xbe55cf72	-0.20879915
187	0xbe135b0e	-0.14390203
188	0xbe22ea9b	-0.15909807
189	0xbe3fa004	-0.18713385
190	0xbd9c73d3	-0.07639279
191	0x3c0ee71d	0.008722094
192	0xbe7c41ed	-0.24634524
193	0xbd284c55	-0.04108842
194	0x3e3dcbff	0.1853485
195	0xbe6f1a67	-0.23349915
196	0xbe471563	-0.19441752
197	0x3e3c701b	0.1840214
198	0xbd8eb02c	-0.06967196
199	0x3cc00c66	0.023443412
200	0xbd2a31c7	-0.041551378
201	0x3e1f5eaa	0.15563455
202	0x3e7338da	0.23752156
203	0x3e2d6162	0.1693168
204	0xbe03c932	-0.12869719
205	0xbb820f7e	-0.003969132
206	0x3e02e5b4	0.12782937
207	0xbe5ed7af	-0.21761964
208	0xbe4a3a78	-0.19748867
209	0x3d8352e6	0.06412296
210	0x3e15c7db	0.1462702
211	0x3e3ab0f7	0.18231569
212	0x3d1f8e4b	0.03895406
213	0x3e722fca	0.23651043
214	0xbb2b05dc	-0.0026096022
215	0x3dfeaabb	0.12434908
216	0x3e2f64bd	0.17128272
217	0x3d023abf	0.031794306
218	0x3d20b302	0.039233215
219	0x3d8a29d7	0.067462616
220	0xbc9561fe	-0.018235203
221	0xbe3702d1	-0.17872168
222	0x3d3ff398	0.04686317
223	0x3e50c040	0.20385838
224	0xbcea13f7	-0.028573973
225	0xbe6b49bd	-0.22977348
226	0x3e75fe83	0.2402287
227	0x3e3be905	0.18350609
228	0xbe01e89f	-0.12686394
229	0x3e2d2a26	0.1691061
230	0xbd62f73b	-0.05541156
231	0xbdd2419b	-0.102664195
232	0x3e514425	0.20436151
233	0xbdc77aeb	-0.097402416
234	0x3e18aca0	0.14909601
235	0x3de58d3b	0.11208578
236	0x3da6e898	0.081498325
237	0xbd510107	-0.05102637
238	0x3d9b7877	0.07591336
239	0x3d1c6785	0.03818466
240	0x3d92bedc	0.0716531
241	0xbd53b7f8	-0.05168912
242	0x3e3802a9	0.17969765
243	0xbde34a4d	-0.11098156
244	0x3d94ab77	0.07259267
245	0xbe097999	-0.13425292
246	0xbe404be4	-0.1877895
247	0x3c5f1500	0.013615847
248	0xbe02c80f	-0.12771629
249	0xbc28aa4e	-0.01029451
250	0x3d0c5535	0.034260947
251	0x3d9d57b6	0.07682745
252	0x3e52c495	0.20582803
253	0x3e3cbadc	0.18430656
254	0xbe2e3117	-0.17010914
255	0xbc272cd8	-0.010203563

Conv2DType3_Batchnorm.norm.weight f4 [16]
0	0x3f7cf57f	0.988121
1	0x3f808627	1.004094
2	0x3f77ce17	0.96798843
3	0x3f81177c	1.0085292
4	0x3f769078	0.9631419
5	0x3f7bccb7	0.98359245
6	0x3f863322	1.0484354
7	0x3f7bbb97	0.98333114
8	0x3f7a6032	0.9780303
9	0x3f7422d2	0.9536563
10	0x3f77d7f7	0.9681391
11	0x3f789bad	0.9711254
12	0x3f837ddc	1.0272784
13	0x3f76dfb8	0.9643512
14	0x3f7e8e50	0.994359
15	0x3f841b19	1.032077

Conv2DType3_Batchnorm.norm.bias f4 [16]
0	0x37ac8a5e	2.056843e-05
1	0x36ce30a2	6.14494e-06
2	0x37340c8f	1.073176e-05
3	0xb6cfdc4f	-6.194728e-06
4	0x370ae0e1	8.2778e-06
5	0x377d27a3	1.5089204e-05
6	0x3805969a	3.184993e-05
7	0xb6558c7d	-3.1821248e-06
8	0x37afefb3	2.0973244e-05
9	0xb699583f	-4.5700285e-06
10	0x365306ad	3.1445336e-06
11	0x37b7055f	2.1817801e-05
12	0x37b4725b	2.1510923e-05
13	0xb752137a	-1.252151e-05
14	0xb63343c1	-2.6712517e-06
15	0x3794df6f	1.774702e-05

Conv2DType3_Batchnorm.norm.running_mean f4 [16]
0	0x3cb643ba	0.022249091
1	0x3dc2dbdf	0.09514593
2	0x3d0be60b	0.034154933
3	0x3da3a148	0.07989746
4	0x3df758fd	0.1207752
5	0x3d807923	0.06273105
6	0xbcb897cf	-0.022533325
7	0xbc8d3bd6	-0.017240446
8	0xbc2a5a83	-0.010397556
9	0x3db6b500	0.08921242
10	0xbaa11e4f	-0.0012292358
11	0xbd8b3753	-0.06797662
12	0xbd39e375	-0.045382936
13	0x3d5f7790	0.054557383
14	0x3d8f4703	0.06995966
15	0xbd27fe8a	-0.04101423

Conv2DType3_Batchnorm.norm.running_var f4 [16]
0	0x3de2a73d	0.110670544
1	0x3d9a0f6e	0.07522474
2	0x3d468907	0.048470523
3	0x3da1a17a	0.07892127
4	0x3e8725b1	0.26395944
5	0x3e232f39	0.15935983
6	0x3d1533ab	0.036426228
7	0x3d78a487	0.06070378
8	0x3e34c248	0.17652237
9	0x3ddb584d	0.107102014
10	0x3de3b702	0.1111889
11	0x3e99b68e	0.3002209
12	0x3d82a86f	0.063797824
13	0x3dd13e0d	0.10216913
14	0x3df69fe0	0.120422125
15	0x3d04525f	0.032305118

Conv2DType4_depthwise.conv.weight f4 [16, 16, 1, 15]
0	0x998e2b92	-1.4700054e-23
1	0x97fccdbb	-1.6337052e-24
2	0xb6a340fe	-4.8653446e-06
3	0x2a6174a3	2.0024481e-13
4	0xb85ff228	-5.339287e-05
5	0x3a757413	0.00093633047
6	0xb5db393b	-1.6333428e-06
7	0xbb46118a	-0.0030222856
8	0xbb193953	-0.0023380115
9	0x3a6e7415	0.0009096277
10	0x3a296a68	0.0006462694
11	0x3b2cdeeb	0.0026377987
12	0x34f387e0	4.536114e-07
13	0x3a175c75	0.000577397
14	0x3ad454f0	0.001619963
15	0xa8baa7fd	-2.0723002e-14
16	0xa63cffc3	-6.5572224e-16
17	0x367920e8	3.7123045e-06
18	0x2a7786f5	2.198483e-13
19	0x000558f8	4.91093e-40
20	0xb7abd82a	-2.0485448e-05
21	0x2b10ee5d	5.148987e-13
22	0xbc5f38b5	-0.01362436
23	0xaf537bff	-1.923439e-10
24	0xa396ccb4	-1.6349728e-17
25	0x2c5c8c2d	3.1341694e-12
26	0x3b0b44bb	0.0021250683
27	0x9e4e71ca	-1.092908e-20
28	0x3a80962d	0.0009810381
29	0xb94bbef0	-0.00019430718
30	0x8005668a	-4.95962e-40
31	0xb8a7309c	-7.972235e-05
32	0xba3978bc	-0.0007075181
33	0x39233fc0	0.0001556864
34	0xb2eac6bd	-2.7331561e-08
35	0x392448fd	0.00015667449
36	0x80056412	-4.95076e-40
37	0xbd329c15	-0.043605883
38	0xbac9ca93	-0.0015395455
39	0x00055dc4	4.92814e-40
40	0xbb2810f2	-0.0025644866
41	0xb894b9dc	-7.091809e-05
42	0x3883e838	6.289821e-05
43	0xbae2d0fd	-0.0017304715
44	0xb513b43a	-5.502403e-07
45	0xbafd602a	-0.0019331027
46	0x3a0f7c6f	0.0005473559
47	0x375904b5	1.2935304e-05
48	0xab7449e8	-8.678878e-13
49	0x3ac5eba8	0.0015100138
50	0x3aa2e9f3	0.0012429341
51	0xb9cec863	-0.00039440682
52	0x3c52467d	0.0128341885
53	0xb47c9fe3	-2.3527495e-07
54	0xba8dab3d	-0.0010808479
55	0x80060bef	-5.55294e-40
56	0x3a7c2b90	0.00096195284
57	0x3421989b	1.5049811e-07
58	0x3a9c5467	0.0011927009
59	0x3acc9c24	0.0015610498
60	0x397f2ab3	0.00024334602
61	0xbb034c66	-0.002003455
62	0xbb07c553	-0.002071698
63	0x30b6aff3	1.3292251e-09
64	0x3b145e8f	0.002263937
65	0x33045da4	3.081881e-08
66	0xb7b79ac7	-2.1887374e-05
67	0xbd241d05	-0.040066738
68	0x3131a558	2.5850877e-09
69	0x37ba3cd3	2.2201251e-05
70	0xbb019ca4	-0.0019777203
71	0x000414ed	3.74849e-40
72	0x0a861a93	1.2913727e-32
73	0xb65d071d	-3.2935707e-06
74	0xba38ff5d	-0.0007057095
75	0x362ba2d6	2.5575769e-06
76	0xba96ec1a	-0.0011514456
77	0x3ad97b20	0.001659248
78	0x39d79068	0.00041115587
79	0xade7bc17	-2.6345188e-11
80	0x00055d8d	4.92737e-40
81	0x2ff12f3b	4.3871204e-10
82	0x3d59cbb2	0.053172775
83	0x39bed688	0.00036399462
84	0x35c1ba02	1.4433756e-06
85	0xa9270e7b	-3.709401e-14
86	0xb409b653	-1.2825448e-07
87	0x345e6d4b	2.0715122e-07
88	0x2c6619d2	3.26993e-12
89	0x80055983	-4.91288e-40
90	0x310bfc89	2.0370712e-09
91	0xb7989bab	-1.81923e-05
92	0xb9267f8b	-0.00015878507
93	0x0005581d	4.90787e-40
94	0xb87ed9cb	-6.0761155e-05
95	0xb38528d3	-6.200721e-08
96	0xb58cefe6	-1.0500632e-06
97	0x3dd18928	0.102312386
98	0x84f4e9bb	-5.7578772e-36
99	0x90acfccb	-6.823153e-29
100	0xba98c4fc	-0.0011655386
101	0x00055f4d	4.93365e-40
102	0xb6ffcdab	-7.623535e-06
103	0x38baf277	8.914334e-05
104	0xba5055c5	-0.0007947351
105	0xb91cc143	-0.00014949315
106	0x36fcebc0	7.53763e-06
107	0x00056891	4.96689e-40
108	0x8e74e2c8	-3.0184513e-30
109	0x373e541b	1.1344465e-05
110	0xb9f5d1ed	-0.00046886448
111	0xbb3d5f89	-0.0028896055
112	0xbbf299d2	-0.0074035907
113	0x0dc50e83	1.2144556e-30
114	0x3a304c7f	0.0006725266
115	0x38e862fa	0.00011081058
116	0x36e45ca2	6.8057134e-06
117	0x38fd8a4d	0.000120897406
118	0x34325e74	1.6611904e-07
119	0x39d8c2b0	0.00041343784
120	0x3addb2c5	0.0016914239
121	0xba2fe28d	-0.0006709479
122	0xad33a0d0	-1.02106795e-11
123	0x323932f6	1.07800044e-08
124	0x83863166	-7.8871535e-37
125	0x80055c1c	-4.9222e-40
126	0x3647a33c	2.9748326e-06
127	0x3bc3575f	0.005961343
128	0xb219963f	-8.939934e-09
129	0xba16d331	-0.0005753516
130	0xb9eb4a33	-0.00044877976
131	0x3ab94264	0.0014134166
132	0xb6e2d6e8	-6.7603432e-06
133	0xb8412f02	-4.6058565e-05
134	0xb8d03217	-9.927543e-05
135	0xa01eafc1	-1.3441273e-19
136	0x39cc4888	0.00038963952
137	0x38b4d963	8.62356e-05
138	0xb8fcd568	-0.000120560464
139	0xb9068fcd	-0.00012832806
140	0xad0e01ef	-8.072195e-12
141	0xba785bf3	-0.0009474151
142	0xbb9a9704	-0.0047177095
143	0x2e8be205	6.361137e-11
144	0x39a39e85	0.0003120789
145	0x0f0612d3	6.6103355e-30
146	0x8005712e	-4.99779e-40
147	0xbb20946b	-0.0024502527
148	0x3a1756ce	0.0005773128
149	0x3691caf4	4.3449636e-06
150	0x3a87c330	0.0010357853
151	0x2e1ad913	3.5208347e-11
152	0x3aa7bea3	0.0012797903
153	0xac5f381d	-3.1721355e-12
154	0xba675c15	-0.0008825672
155	0x000564d0	4.95342e-40
156	0xb8c3227d	-9.3047485e-05
157	0x39336dc5	0.00017111663
158	0xba979b0b	-0.0011566592
159	0xb22fd5a7	-1.023492e-08
160	0xb2ff5afb	-2.972728e-08
161	0xbac94cd3	-0.0015357978
162	0x00055b88	4.92013e-40
163	0x89408e95	-2.3178201e-33
164	0x397fa560	0.00024380302
165	0xb6762f3a	-3.6684346e-06
166	0x38bbf289	8.9620306e-05
167	0x362248f0	2.4182336e-06
168	0xb50199b0	-4.827989e-07
169	0x36abf0b5	5.124219e-06
170	0x39c94743	0.00038390802
171	0x973cf96c	-6.106089e-25
172	0xbc9d5dc0	-0.019209743
173	0xafaafb0b	-3.1101197e-10
174	0x21e580f7	1.555178e-18
175	0xb33d4101	-4.4064112e-08
176	0x37d7b913	2.571618e-05
177	0xac4a24ba	-2.8726314e-12
178	0x3b096fa0	0.0020971075
179	0x3aa84d72	0.0012840463
180	0xb1f433a0	-7.1072037e-09
181	0xaf5dd0c8	-2.0174007e-10
182	0x0005731f	5.00475e-40
183	0x80055aa3	-4.91692e-40
184	0x3b22a41c	0.0024817055
185	0xb394c51e	-6.9276425e-08
186	0x3b134b2f	0.0022475233
187	0xbd1684f3	-0.036747884
188	0x36caf8ff	6.049056e-06
189	0xb9e4ac47	-0.00043615905
190	0x39a5f88d	0.00031656437
191	0xa787bd83	-3.7675496e-15
192	0x34469093	1.8492783e-07
193	0x3aafba10	0.0013406891
194	0x394cb7ae	0.00019523382
195	0xb4749a75	-2.2780462e-07
196	0x0005640a	4.95065e-40
197	0xaf64d2b0	-2.081133e-10
198	0xa78414a8	-3.6659755e-15
199	0x283fa173	1.0637639e-14
200	0x3872843a	5.782044e-05
201	0x3796ac94	1.7961756e-05
202	0xbca36eb8	-0.019950256
203	0xbac5ab6c	-0.0015080995
204	0xb9d967b3	-0.00041466727
205	0x80055a26	-4.91517e-40
206	0x0005642c	4.95112e-40
207	0x00056570	4.95566e-40
208	0x39b98502	0.00035385048
209	0xb7176077	-9.022761e-06
210	0x3601f29b	1.9363713e-06
211	0x37b25f77	2.1263708e-05
212	0xb1b65824	-5.3069176e-09
213	0xb7419117	-1.1537478e-05
214	0x8f2db778	-8.564893e-30
215	0x350af1b4	5.176073e-07
216	0xb556a0ef	-7.99554e-07
217	0xbce523a7	-0.027971102
218	0x0e44070b	2.4162256e-30
219	0x285917cf	1.20510825e-14
220	0xb72a4305	-1.0148394e-05
221	0x154dacc7	4.1535718e-26
222	0x3397c62b	7.067532e-08
223	0x3a0dd2ee	0.0005410154
224	0x3888ee43	6.529365e-05
225	0xb868ff00	-5.5550598e-05
226	0x33b37b69	8.357785e-08
227	0xb854a377	-5.0696977e-05
228	0x3aba51dd	0.0014215071
229	0x2b3181f5	6.3063384e-13
230	0xbb0c12ab	-0.0021373432
231	0xbaa7dd0d	-0.0012806967
232	0xbda67c97	-0.081292324
233	0xbb015c2d	-0.001973878
234	0x37344000	1.0743737e-05
235	0xba6c252a	-0.00090082234
236	0xb4c5e8bc	-3.6863446e-07
237	0x3b17a32e	0.0023138034
238	0x39496eb1	0.0001921009
239	0x2eb4bb69	8.218743e-11
240	0x391df473	0.00015063751
241	0xbb23efca	-0.0025014752
242	0xb8bab99b	-8.903743e-05
243	0x36cb4330	6.057693e-06
244	0x3aa698b5	0.0012710305
245	0x00055c59	4.92306e-40
246	0x2e5ef18d	5.0691496e-11
247	0xbd15920d	-0.036516238
248	0x37726438	1.4447658e-05
249	0xbaa900d3	-0.0012893922
250	0xb4348183	-1.6810922e-07
251	0x00059b6f	5.14937e-40
252	0xb4b35d40	-3.3409196e-07
253	0x97a2254d	-1.0478421e-24
254	0xa6ccac1c	-1.4201994e-15
255	0x2fba29a9	3.3862804e-10

Conv2DType4_pointwise.conv.weight f4 [16, 16, 1, 1]
0	0xbe50cf73	-0.20391636
1	0xbd365610	-0.04451567
2	0xbce4c0f5	-0.02792404
3	0xbda34c1b	-0.079735
4	0x3e1337cc	0.14376754
5	0xbe6d0a62	-0.23148492
6	0x3ca46597	0.020067973
7	0xbd71920b	-0.058977168
8	0x3e1bf69c	0.15230793
9	0xbe022774	-0.12710363
10	0x3d80eae2	0.062948
11	0x3e08709f	0.13324212
12	0xbd8265ff	-0.063671105
13	0xbdb5b01c	-0.08871481
14	0x3d7b2aa3	0.06131996
15	0xbd649ab7	-0.05581161
16	0x3dad5cb8	0.0846495
17	0x3beabb63	0.0071634515
18	0x3e86e4eb	0.26346526
19	0x3d74692a	0.059670605
20	0x3ca292b9	0.019845353
21	0x3aa6dba3	0.0012730252
22	0xbe184b0a	-0.14872375
23	0x3dccf1f8	0.100070894
24	0xbe4a403a	-0.19751063
25	0x3e434d7b	0.19072525
26	0xbe2e461a	-0.17018929
27	0x3d314799	0.04328117
28	0xbe4a360b	-0.19747178
29	0x3e3569de	0.17716166
30	0x3e07bad5	0.13254865
31	0x3e53a6f7	0.20669161
32	0x3d8e19f3	0.06938543
33	0x3e4c30b2	0.19940451
34	0xbe749e1d	-0.2388844
35	0xbe2d157f	-0.16902731
36	0x3dcab897	0.09898489
37	0x3c4c7df2	0.0124812
38	0x3e510d93	0.20415334
39	0xbd857254	-0.06515947
40	0xbdbb1d31	-0.09136427
41	0xbe819ccf	-0.25314948
42	0xbe0ffd46	-0.1406146
43	0x3db75e0b	0.08953484
44	0x3e4d738d	0.2006361
45	0x3e2870b8	0.16449249
46	0x3d02c125	0.03192248
47	0x3e894155	0.26807657
48	0x3ddb06b0	0.10694635
49	0xbdb0f343	-0.086401485
50	0xbc10678e	-0.008813752
51	0x3db6f309	0.08933074
52	0xbda01572	-0.0781659
53	0xbcc12a5b	-0.023579767
54	0xbdf2d80d	-0.11857615
55	0x3d91661a	0.070995525
56	0xbe42c22a	-0.1901938
57	0xbe602b2a	-0.21891466
58	0xbd48a253	-0.04898293
59	0xbdbc9b2b	-0.092092834
60	0xbe11c4f5	-0.1423529
61	0x3dacb6eb	0.08433326
62	0x3e15f132	0.1464279
63	0xbe3e8868	-0.18606722
64	0x3e3413a3	0.17585616
65	0x3db046cb	0.08607253
66	0x3d6f74a8	0.05846086
67	0x3cb8b260	0.022545993
68	0x3da11a75	0.078663744
69	0xbe6b85ad	-0.23000212
70	0xbe51ab57	-0.20475517
71	0xbd8b98d6	-0.068162605
72	0x3d4960f2	0.04916472
73	0xbde59613	-0.11210265
74	0x3e1c4b38	0.15263069
75	0x3daf030a	0.085455015
76	0xbe41d63b	-0.18929379
77	0x3e4a5805	0.1976014
78	0xbe2ea872	-0.17056444
79	0xbe0ca208	-0.13733685
80	0xbe80ac9d	-0.25131693
81	0xbd5a2392	-0.05325658
82	0xb9d7d1ca	-0.000411643
83	0xbd9b6f06	-0.075895354
84	0xbe2cecf2	-0.16887262
85	0xbe7e7ea0	-0.24852991
86	0x3da665ba	0.081248716
87	0xbcca244b	-0.024675509
88	0x3df5831f	0.119879
89	0xbd3a100d	-0.045425463
90	0xbe4e5123	-0.20148139
91	0x3e03a335	0.12855227
92	0xbdc9830f	-0.098394506
93	0xbd0880e8	-0.03332606
94	0xbdaf05f5	-0.08546058
95	0x3e1ed7a0	0.15511942
96	0x3e31a5bf	0.17348383
97	0xbdb07f13	-0.086179875
98	0x3d02ae5d	0.031904567
99	0x3da157d8	0.07878083
100	0x3e2e41f1	0.17017342
101	0x3e0d7ac3	0.13816361
102	0xbd677392	-0.0565067
103	0x3e5df45b	0.21675245
104	0x3e1a56dc	0.15072197
105	0x3dfefb0a	0.12450226
106	0xbd958d2e	-0.073023185
107	0x3db99e50	0.09063399
108	0x3d19573d	0.037436713
109	0xbe5699c0	-0.20957088
110	0x3e78a38f	0.24281143
111	0x3d6ffa57	0.058588352
112	0x3d214be3	0.03937901
113	0x3e4f2d92	0.20232227
114	0xba9b85d7	-0.0011865449
115	0x3db79d12	0.08965506
116	0x3df87f00	0.12133598
117	0x3dc2751a	0.094949916
118	0x3e703d2d	0.23460837
119	0x3e839769	0.25701454
120	0xbd88241f	-0.066475146
121	0xbd914793	-0.0709373
122	0xbe52bd0d	-0.2057993
123	0x3e5333a0	0.20625162
124	0x3df92388	0.1216498
125	0xbd68760a	-0.056753196
126	0xbe203939	-0.15646829
127	0xbdd9dc4d	-0.10637722
128	0x3c833e74	0.01602099
129	0xbe022900	-0.12710953
130	0x3e23524d	0.15949364
131	0x3e0ae740	0.13564777
132	0xbd7c97ed	-0.061668325
133	0xbe26a3af	-0.16273378
134	0xbde48b8a	-0.111594275
135	0x3d252fef	0.040328916
136	0x3e61202f	0.21984933
137	0x3ab7a8c8	0.0014012093
138	0x3e7c59ad	0.24643584
139	0xbdff6a2a	-0.12471421
140	0xbe469c2d	-0.19395514
141	0x3e3475eb	0.17623107
142	0xbda0dfd3	-0.07855191
143	0x3e385a03	0.18003087
144	0xbe443c0b	-0.1916353
145	0x3dd1c345	0.10242323
146	0x3cf96f87	0.030448688
147	0xbe5e1147	-0.21686278
148	0xbe0adc01	-0.13560487
149	0x3e12991b	0.14316218
150	0x3de099f5	0.10966865
151	0x3e1e559a	0.15462342
152	0x3e1ac487	0.15114032
153	0xbe13ac99	-0.1442131
154	0x3e357583	0.17720608
155	0xbde74a80	-0.112935066
156	0xbddba6e3	-0.107251905
157	0xbd3d6349	-0.046237264
158	0xbe6efd8d	-0.2333891
159	0xbe311063	-0.17291407
160	0x3d662d8f	0.05619579
161	0x3c92126b	0.017831048
162	0xbe54e073	-0.20788746
163	0xbe3632ab	-0.17792766
164	0xbce6cea3	-0.028174704
165	0xbe2824d7	-0.16420303
166	0xbe537d9f	-0.2065339
167	0xbe4fb2c7	-0.20283042
168	0x3dd991ef	0.10623538
169	0xbd9d0e9a	-0.07668801
170	0x3c6a0bb7	0.01428502
171	0xbd0441e1	-0.03228939
172	0xbde09595	-0.109660305
173	0xbc2356c5	-0.009969418
174	0x3d972cb8	0.07381576
175	0x3e4bd577	0.19905649
176	0x3d7a0455	0.061039288
177	0x3dc32fda	0.09530611
178	0x3e2e5d58	0.17027795
179	0x3e16dec3	0.14733414
180	0xbe071af2	-0.13193873
181	0x3e369510	0.178303
182	0x3cacc94c	0.02109208
183	0xbb1f8157	-0.0024338567
184	0x3e3a1552	0.18172196
185	0xbd4f55bb	-0.05061887
186	0xbe6fd37f	-0.23420523
187	0xbe805de4	-0.25071633
188	0xbe24946f	-0.16072248
189	0x3ca5994d	0.020214701
190	0xbe412f8b	-0.18865792
191	0x3d5729d0	0.05253011
192	0x3e688e6a	0.22710577
193	0x3e61d985	0.22055633
194	0xbda26881	-0.07930089
195	0xbe0f264c	-0.13979453
196	0x3e4420ee	0.19153187
197	0x3e35548f	0.17708038
198	0xbe222db5	-0.15837748
199	0xbd2e1407	-0.04249957
200	0x3e391977	0.1807612
201	0xbd0bf4b2	-0.034168907
202	0x3dce0b40	0.100607395
203	0xbe190943	-0.1494494
204	0x3c55ed15	0.013057013
205	0x3d5a8535	0.053349692
206	0xbe832d67	-0.25620577
207	0xbd2e24b0	-0.042515457
208	0x3db46ee7	0.088102154
209	0x3e4609dc	0.19339699
210	0xbbc06d56	-0.005872409
211	0xbd83c00b	-0.06433114
212	0x3cad7463	0.021173662
213	0x3e3a9ad5	0.18223126
214	0x3bd1fe7d	0.006408511
215	0xbe4c20bd	-0.19934364
216	0xbbcd9555	-0.0062739053
217	0xbd4c61bf	-0.049897905
218	0xbe8e945f	-0.27847573
219	0xbe732c35	-0.23747332
220	0xbe3dcce1	-0.18535186
221	0xbe03a873	-0.12857227
222	0xbd9327c7	-0.07185321
223	0x3c4a5013	0.012348193
224	0xbe64593a	-0.22299662
225	0x3da709af	0.08156144
226	0xbd725aba	-0.059168555
227	0xbe35c52f	-0.17751001
228	0xbe15f315	-0.1464351
229	0xbdfefdcf	-0.12450754
230	0x3e1a7692	0.15084293
231	0xbdd075d0	-0.10178721
232	0xbc8bb863	-0.017055696
233	0xbd2734df	-0.040821906
234	0xbe19922e	-0.1499717
235	0x3e887a8d	0.26656
236	0xbdcaa791	-0.09895242
237	0xbde779ca	-0.11302526
238	0xbe404810	-0.1877749
239	0x3cdb43ca	0.026765723
240	0xbe1e01f4	-0.15430433
241	0xbe5427b7	-0.20718275
242	0x3e7cd247	0.2468959
243	0xbd0ec038	-0.034851283
244	0x3ddf27af	0.10896241
245	0x3de9b925	0.11412267
246	0x3e086e4c	0.13323325
247	0xbe51ce5f	-0.2048888
248	0xbd3f7c78	-0.046749562
249	0xbe1a381c	-0.15060467
250	0xbe3025d0	-0.17201924
251	0x3e49143f	0.1963663
252	0xbe36aaa3	-0.1783853
253	0xbe1aed5a	-0.15129605
254	0x3e19619b	0.1497864
255	0xbd9e790b	-0.07737931

Conv2DType4_Batchnorm.norm.weight f4 [16]
0	0x3f94398c	1.1580062
1	0x3f944c99	1.1585876
2	0x3f939d24	1.153233
3	0x3f937128	1.1518908
4	0x3f93ab2f	1.1536616
5	0x3f93901e	1.1528356
6	0x3f93cbaf	1.1546534
7	0x3f9435e7	1.157895
8	0x3f93cb8e	1.1546495
9	0x3f9400f8	1.1562796
10	0x3f936422	1.1514933
11	0x3f93a8ba	1.1535866
12	0x3f942d0f	1.1576251
13	0x3f940217	1.1563138
14	0x3f93b6b3	1.154013
15	0x3f943b8f	1.1580676

Conv2DType4_Batchnorm.norm.bias f4 [16]
0	0x3e1411c0	0.14459896
1	0x3e092569	0.13393177
2	0x3e0fb95e	0.14035556
3	0x3e0a3798	0.1349777
4	0x3e0354b3	0.12825279
5	0x3e032fb2	0.12811163
6	0x3e0ab661	0.13546135
7	0x3dd5e635	0.10444299
8	0x3e0f55b8	0.13997543
9	0x3e0bc717	0.13650165
10	0x3e00cb12	0.12577465
11	0x3e096047	0.13415633
12	0x3e0c0d73	0.13677005
13	0x3e01225b	0.12610762
14	0x3e09b2da	0.13447133
15	0x3e0b3d99	0.13597716

Conv2DType4_Batchnorm.norm.running_mean f4 [16]
0	0xb5881911	-1.0140085e-06
1	0x35fc0a02	1.8778376e-06
2	0xb5fc5ca0	-1.880242e-06
3	0x35ac5d58	1.2842165e-06
4	0xb5abafdc	-1.2791675e-06
5	0xb5961b1b	-1.118376e-06
6	0x361ddadf	2.3522223e-06
7	0x34cdd9a3	3.8342577e-07
8	0xb536ace7	-6.805189e-07
9	0xb5f61a62	-1.8336107e-06
10	0xb5e62fa2	-1.7150198e-06
11	0x35aea65f	1.3012431e-06
12	0xb5d43e82	-1.5813423e-06
13	0x358b9a75	1.040126e-06
14	0xb5d010ed	-1.5502134e-06
15	0x363b15ce	2.7877863e-06

Conv2DType4_Batchnorm.norm.running_var f4 [16]
0	0x3c83f1bd	0.01610648
1	0x3c90a28d	0.017655635
2	0x3c3d5c88	0.011557706
3	0x3bd5058b	0.006500905
4	0x3cb72687	0.022357238
5	0x3c8e1259	0.017342733
6	0x3d017ef5	0.031615216
7	0x3ba6c64d	0.0050895573
8	0x3c77ac92	0.015116828
9	0x3ce749ba	0.028233398
10	0x3cd6cf03	0.026221758
11	0x3c155d5b	0.009116496
12	0x3c1a6e43	0.0094257025
13	0x3c40506f	0.011737927
14	0x3ca1fae7	0.01977296
15	0x3cc1f8e7	0.023678256
